wakewords/en/android.onnx (onnx, 19284 bytes, 1 tensors)

const_fold_opt__113 f4 [20, 1]
-0.19991401 -0.25887856 -0.32797357 0.3416492 -0.19940057 -0.015083979 0.15425609 0.0377827
-0.4053843 -0.932593 0.30384395 -0.11471227 -0.16269201 0.17070179 -0.16862763 0.12015949
0.16236608 0.10655552 0.16503392 0.25249183
00000000: 42b6 4cbe bb8b 84be 27ec a7be a5ec ae3e
00000010: aa2f 4cbe cb22 77bc 4ff5 1d3e 08c2 1a3d
00000020: 888e cfbe 6abe 6ebf 6f91 9b3e 44ee eabd
00000030: bc98 26be 73cc 2e3e b9ac 2cbe 2e16 f63d
00000040: 4b43 263e c839 da3d a7fe 283e 9c46 813e
