wakewords/en/athena-en-0.3.0-20190801-eltocino.onnx (onnx, 15572 bytes, 10 tensors)

dense_1/kernel/read:0 f4 [20, 1]
000000 79 fd 36 bf b1 d2 ed be 7e 7b 3b bf ff 30 31 3e
       -0.7148052 -0.46449807 -0.7323531 0.17303847
000010 f0 3d 7c bf d8 86 5b 3f 13 9e 1b bf 53 98 c6 3e
       -0.9853201 0.8575263 -0.6078808 0.3878809
000020 92 9a 2f 3f 4b da 39 be fb 9e e4 be e0 1a ed bd
       0.6859523 -0.18149678 -0.44652542 -0.115773916
000030 53 59 b2 3e 52 0e 9e 3e 41 99 e3 3e 82 70 29 3f
       0.34833774 0.308703 0.4445286 0.661873
000040 e0 d5 e5 be 0a 38 2b bf d8 09 16 3f 77 bc b1 3e
       -0.44889736 -0.66882384 0.5860877 0.347141

ConstantFolding/net/strided_slice_enter:0 f4 [13, 20]
000000 bc 46 38 be 19 1b 66 3c 64 31 04 be a7 41 b5 bd
       -0.17995733 0.0140445465 -0.12909466 -0.08850413
000010 57 ce b4 3c 5f 12 b0 be cf 12 57 bd f1 11 c7 bd
       0.022071047 -0.34389016 -0.05250817 -0.09720219
000020 3d 8e a0 bd 1f 4d 55 bd f3 8a 4f bd 81 34 f8 3d
       -0.0783963 -0.0520755 -0.05066962 0.12119389
000030 b6 c8 fa 3b 72 1d ff bd 2c de 8a be 52 dc be bc
       0.007653321 -0.12456788 -0.2712263 -0.023298416
000040 fa 36 0c bc b0 c3 62 3e 0e 74 31 bd 0b ff cb 3d
       -0.008558029 0.22144961 -0.04332357 0.09960755
000050 af c3 93 bd 0d f8 19 3d 4d 5c 0a be 9d 19 eb bb
       -0.07215058 0.037590075 -0.13511772 -0.007174684
000060 63 e9 e2 bb 6b 92 5b 3d d8 30 7d bb 31 dd 37 be
       -0.0069247945 0.053606432 -0.003863385 -0.17955472
000070 f0 fe f1 bc 13 29 5c 3c b8 ee 4a 3d 16 5e cf 3c
       -0.029540509 0.013437527 0.049544066 0.025313418
000080 3b de 42 3c d0 f1 86 bd 5c e5 44 bc f3 39 07 bc
       0.011893804 -0.06589091 -0.012017574 -0.008253562
000090 5d 59 30 3f a8 9f 34 3d d8 bb 41 3c d4 02 2b 3e
       0.6888636 0.044097573 0.011824571 0.16700298
0000a0 f5 a6 1b bd 0b 27 3b bb 41 b0 7b b8 12 38 85 3d
       -0.03800102 -0.0028557207 -6.0007213e-05 0.06504835
0000b0 85 f7 dd 3d bb 31 c5 bd 83 cc c9 3d fe 9d 02 3d
       0.10838226 -0.09628626 0.09853461 0.031888954
0000c0 bb 67 79 bd 43 97 36 bd 76 a9 a0 3c a9 af c6 3c
       -0.06088994 -0.04457785 0.019612055 0.024253683
0000d0 08 b1 2f be 44 b1 37 3d 90 1b c7 3d 89 f5 26 bb
       -0.17157376 0.044846788 0.09722054 -0.002547594
0000e0 c8 88 09 3e 1d bb 6d 3d 7b 10 6b be 8e 5c 14 be
       0.13431084 0.058039773 -0.22955506 -0.14488432
0000f0 0c f9 5a 3d e0 58 0f 3c c7 7d 4c be 42 67 56 bc
       0.053460166 0.008749217 -0.19969855 -0.013086142
000100 6c 80 1b 3c 14 78 02 bb db c9 00 be 9b 6c 68 3e
       0.009491067 -0.0019907998 -0.12577002 0.2269768
000110 20 00 36 3d 64 bd d7 bd ed 3a 99 bd 71 b8 6e 3e
       0.044433713 -0.1053417 -0.07481942 0.23312546
000120 4e 4c 32 be 45 9f 91 bb f8 5c 48 bd fb 8f df 3d
       -0.1741192 -0.0044440352 -0.048916787 0.10916134
000130 fb 82 95 bc a2 71 51 3e 22 87 a9 bc 2e 13 91 3c
       -0.018250933 0.20453504 -0.02069432 0.01770934
000140 46 ba a0 3e 12 e8 15 3e 8c 12 88 bd 97 82 b9 bd
       0.31392115 0.14639309 -0.066441625 -0.09058111
000150 d7 b3 36 bd e7 36 81 bd 88 15 86 3e 01 77 5f 3e
       -0.044605102 -0.063093 0.26188302 0.2182274
000160 c4 6c ee bd bb c3 69 bd 2f 6f 77 3d d1 21 6b be
       -0.11641839 -0.05707143 0.060408767 -0.22962119
000170 74 26 7f 3d 77 92 19 3f c7 1b 41 3e fb 5f c0 be
       0.06229253 0.5998911 0.18858252 -0.37573227
000180 2d b5 08 3f d9 4a 04 be 44 0a 02 3b f7 ed 3a 3e
       0.5340145 -0.12919177 0.0019842545 0.18254839
000190 cf 08 38 3e 2f 96 37 3d 2f 05 8a 3d d4 e7 d3 3d
       0.1797211 0.04482096 0.0673927 0.10346952
0001a0 19 3b 03 be 25 e3 1a be 90 73 05 3f 86 0a fa 3e
       -0.12815513 -0.15125711 0.5212946 0.48836154
0001b0 a9 6c 77 bd d6 42 54 3d ee 38 c5 3e 08 49 8e be
       -0.06040636 0.051821552 0.38519996 -0.27790093
0001c0 f0 e5 6f be f4 6c 95 3d 77 4f 57 3e 52 57 64 3e
       -0.23427558 0.07296172 0.21026407 0.22298935
0001d0 85 e7 3a be 2c 52 42 be 50 e5 ab bd 61 f4 82 3e
       -0.1825238 -0.18976659 -0.08393347 0.2557707
0001e0 eb 86 89 bd 9f c6 15 3d e0 f2 e6 3c 03 c9 e2 bd
       -0.06715187 0.036566373 0.028191984 -0.11073496
0001f0 9e 56 d9 3d d8 f6 6e 3c e1 18 82 be df 2c 16 be
       0.10612224 0.014585219 -0.25409606 -0.14665554
000200 c5 b5 41 3e 2e fe 04 be 68 5a 5d bb 6e 07 69 3e
       0.18916996 -0.12987587 -0.003377581 0.2275674
000210 ff d6 21 be 52 60 38 be a7 61 eb 3d a0 98 02 be
       -0.15804671 -0.18005493 0.11493235 -0.12753534
000220 6a ca 94 3e b5 4d 8d be 53 0c b1 be 65 8a 90 3d
       0.2906068 -0.27598348 -0.34579715 0.07057647
000230 43 26 e7 3c 52 5f b7 3e 4c a3 c7 3d 67 e6 fc 3d
       0.028216487 0.3581491 0.09747943 0.12348633
000240 58 85 92 be 4b fc 3a be 47 d3 16 bf 02 46 73 3e
       -0.28617358 -0.18260305 -0.58916134 0.23757175
000250 5d d6 eb ba 80 0b c8 be cf 54 ab 3c 2d 8d b2 be
       -0.0017992962 -0.39071274 0.020914463 -0.34873334
000260 bf 60 07 be fb 6b 93 3e 9a ea 73 3e a9 97 09 bf
       -0.132205 0.2879332 0.23819962 -0.5374704
000270 79 5b d5 bc ea e2 73 3e 8a 94 9b 3e 32 20 83 3c
       -0.026044594 0.2381703 0.30386764 0.016006563
000280 b6 b7 44 be a1 99 2b 3e 33 eb 61 be c4 09 0b be
       -0.19210705 0.16757824 -0.22062378 -0.13577944
000290 8f 00 a5 3d 4a f3 95 be cb d6 65 3e 50 4f d2 3e
       0.08056747 -0.29287177 0.22445218 0.41076136
0002a0 77 e6 19 3d 4a 0d 4d be fd b0 02 3e 30 b4 fe be
       0.037573304 -0.200246 0.12762828 -0.49746847
0002b0 cd 7e b1 bd 44 c5 f6 bc 1d ac 08 3f 1a 78 35 bf
       -0.086667635 -0.03012336 0.53387624 -0.70886385
0002c0 90 9e 9e 3e 7f ee 25 3e 76 0c 03 3e a3 4a 7b 3e
       0.3098035 0.1620426 0.12797722 0.2454019
0002d0 48 96 db 3e 5d ee 41 be 51 ea b1 3c 69 6b 41 3e
       0.42888093 -0.18938585 0.021718176 0.1888863
0002e0 19 d4 55 3e 5b 60 79 be 58 6c 8a 3e 88 46 a2 3e
       0.2088169 -0.24353163 0.27035785 0.31694436
0002f0 5e 3d 2b 3e 20 fc 6d 3e 61 bc 02 bf c9 92 36 3e
       0.16722628 0.2324071 -0.51068693 0.17829432
000300 53 a0 c4 3e 86 57 60 bd fe 99 93 be 6b 07 27 3e
       0.38403568 -0.05477097 -0.28828424 0.16311423
000310 e8 f0 48 be 42 4a 09 3e eb 12 05 bf c9 fb 9d be
       -0.19623148 0.13407233 -0.5198199 -0.3085616
000320 e5 44 7b bc 6f 27 92 be 3a 01 84 3e ea 86 f0 bd
       -0.01533625 -0.2854571 0.25782186 -0.11744483
000330 67 44 14 bd ea 21 80 3c 6e c0 b1 3e e0 12 ce 3e
       -0.036198046 0.015641171 0.34717125 0.40248775
000340 72 97 4a 3e 48 f1 05 bf d1 67 ef be e7 70 b2 3e
       0.19784334 -0.5232129 -0.46758893 0.34851763
000350 3e 33 09 bf 38 8f c1 3d d3 94 c3 3e 33 e4 58 be
       -0.53593814 0.09451145 0.3819948 -0.21180801
000360 7b 94 25 3e 2c 18 81 3e 9b ef 51 3e 51 65 bd be
       0.16169922 0.25213754 0.20501558 -0.3699136
000370 b0 cb 1e bf 4f 27 e5 3d 02 80 2d be e4 29 13 3e
       -0.6202955 0.11189138 -0.16943362 0.14371449
000380 ef 25 47 3c 87 23 b5 3d af e2 46 3f 83 e6 13 3d
       0.01215504 0.08844667 0.7768964 0.036108505
000390 de 2e 76 bc 77 5d 8a 3e fe ff aa 3d 10 0f e2 bd
       -0.015025822 0.27024433 0.08349608 -0.11038029
0003a0 4a 47 27 bf f0 09 24 3d 30 fa 83 3d 2b 77 05 bf
       -0.65343153 0.04004854 0.06444204 -0.5213496
0003b0 80 81 da bd 92 c6 41 be 52 e5 99 3e c5 2a f1 3e
       -0.106692314 -0.18923405 0.3005777 0.47102943
0003c0 60 a2 eb 3d d4 ed 5c 3e 6c 62 ab 3d ed e9 eb 3d
       0.1150558 0.21575099 0.08368382 0.11519227
0003d0 7d eb 6e be 09 ba cd be 31 5e 46 3f 96 d8 a6 be
       -0.23332019 -0.40180996 0.77487475 -0.32587117
0003e0 a3 a8 5e be e4 e3 c3 3d 0a 3f 0b 3f 9b 26 39 be
       -0.21744017 0.09564951 0.54393065 -0.18081133
0003f0 f7 76 6c be fa 3c e1 bc 2e 8e 14 3e 4a e2 f4 3d
       -0.23092256 -0.027494896 0.14507362 0.11957224

ConstantFolding/net/strided_slice_8_enter:0 f4 [20]
000000 6e dd 31 3e d5 a6 5d be f2 7b 20 3e 59 87 43 be
       0.17369625 -0.21645673 0.15672281 -0.190946
000010 7c 87 59 3e 59 d3 ac 3d b7 b9 22 3f df 69 97 bd
       0.2124309 0.08438749 0.6356463 -0.0739324
000020 3f 63 73 be 5a 20 80 3e e9 a9 48 3e 6e f2 b0 bd
       -0.23768328 0.25024682 0.19596066 -0.0863999
000030 fd 5b d0 3c 62 72 66 be b3 e8 04 3e aa 88 1e 3e
       0.025434488 -0.22504571 0.12979393 0.1548182
000040 d6 89 b7 3e c3 d5 b3 3e 3f 74 b2 be b1 48 8a 3e
       0.35847348 0.35124025 -0.34854314 0.27008584

ConstantFolding/net/strided_slice_7_enter:0 f4 [20]
000000 f3 18 c9 3d a0 dd 4d 3f 95 e8 9f 3e 65 72 cb 3e
       0.09819212 0.804163 0.31232134 0.39735714
000010 44 10 19 bc 38 d3 26 3e 0e 70 e3 bd 27 c1 57 3f
       -0.009342257 0.16291511 -0.11105357 0.842791
000020 9f 91 ff 3d d1 b2 5e 3e 5d aa 41 3e 28 d0 cb 3e
       0.12478947 0.217479 0.18912645 0.39807248
000030 42 37 98 3e 1a 93 a2 3e 58 1b 16 3f 67 0e c6 be
       0.29729658 0.31752855 0.58635473 -0.38682863
000040 6c ae f1 bd ab 58 a9 bd b4 88 58 3e 21 4b 8e 3d
       -0.118008465 -0.08268865 0.21145898 0.069479235

ConstantFolding/net/strided_slice_6_enter:0 f4 [20]
000000 23 97 38 3e 13 03 a9 3d 5a f9 b8 be 36 85 ac bb
       0.18026404 0.082525395 -0.3612774 -0.0052649034
000010 22 e8 d4 3d cf 8c 0b be 4a 82 89 be ce 64 06 3e
       0.10395838 -0.13627933 -0.26857215 0.13124391
000020 fd 2c a9 bc 4f e0 97 bd 63 f8 3f be 0f 33 33 be
       -0.020651335 -0.0741583 -0.18747096 -0.17499946
000030 13 7a 9c 3e 45 6c 05 be 95 0b c8 bd 5a 15 05 3d
       0.30561885 -0.13029583 -0.09767834 0.032491066
000040 d3 12 95 3e a4 44 64 bd 7d fb f7 bd dd 87 48 3e
       0.29115924 -0.055729523 -0.121085145 0.19583078

ConstantFolding/net/strided_slice_5_enter:0 f4 [20, 20]
000000 5b 80 2e 3e 85 39 ce 3e 86 f0 71 be d6 2b 21 3e
       0.17041151 0.4027826 -0.23626909 0.15739378
000010 27 57 9c 3e 0e f2 0d bf 68 2d 14 3f 35 b5 1d bd
       0.30535242 -0.5544747 0.57881784 -0.03850289
000020 40 a9 02 be 63 a5 b5 bd 80 04 a5 3e 89 55 b0 bd
       -0.12759876 -0.08869436 0.32229996 -0.086100645
000030 2c 59 a7 be a5 a5 1b be a0 7d 36 bb b9 8a 4b be
       -0.3268522 -0.15199907 -0.0027845874 -0.19877137
000040 1f df 40 3d 91 33 06 3e a2 87 e2 bd f3 b3 bc be
       0.047087785 0.13105609 -0.11061026 -0.3685604
000050 6d bd 20 bd e6 69 ce 3e 96 d5 dc bd 18 1c 7f be
       -0.03924315 0.4031517 -0.10782926 -0.2491306
000060 c7 23 34 be b1 56 7b be 06 9e d6 be 65 c6 b7 3e
       -0.17591773 -0.24544789 -0.41917437 0.3589355
000070 77 c8 d1 3e a6 34 dc bd e4 a9 98 3d c4 34 bc bd
       0.40973255 -0.107522294 0.07454279 -0.09189752
000080 0f 82 1e 3e a9 c6 f9 bd 25 1e 3d 3e f0 a8 82 3e
       0.15479301 -0.121960945 0.1846853 0.25519514
000090 f3 a0 87 be 7b 49 57 bd d6 90 a6 3e 4e 07 10 bc
       -0.26489982 -0.05256031 0.32532376 -0.008790804
0000a0 8f 2d 35 3e 16 67 55 be 3e 76 ca 3e bd 99 70 bc
       0.1769316 -0.20840105 0.39543337 -0.014685092
0000b0 8f ea dd 3b 45 4c 3b be 92 db e0 bd 4b 32 4e be
       0.0067723463 -0.18290813 -0.1097938 -0.20136373
0000c0 1b 55 97 3e e6 bf ce 3e aa 45 ae be 3b 96 5e 3d
       0.29557118 0.40380782 -0.34037524 0.05434249
0000d0 cb 33 39 3d 7f c5 e8 bc cd 81 84 3e 64 61 e1 bd
       0.04521541 -0.028414486 0.2588028 -0.11004904
0000e0 0f 2c 93 3d 99 ad 5b 3d 8b 21 ff 3d 0b 73 25 3d
       0.07186138 0.053632353 0.1245757 0.040392917
0000f0 eb 52 8e be 91 b0 8e bd 0b ab ff 3d be 37 b2 3e
       -0.27797636 -0.06967271 0.12483796 0.34808153
000100 3e 06 4c bd 39 80 89 3e 39 7f c2 be cf fa e0 bb
       -0.04981064 0.2685564 -0.37987688 -0.006865836
000110 3c 3c 82 be 80 35 21 3d d6 a8 67 3d f1 35 ab be
       -0.2543658 0.039357662 0.0565575 -0.33439592
000120 76 cd ff 3d c8 06 1a 3e 0f 5a b1 bd a3 bd 90 bd
       0.124903604 0.1504165 -0.086597554 -0.0706742
000130 2e 77 8e be 53 3e f9 bd f9 2e c6 3e 05 df ef 3d
       -0.27825302 -0.121700905 0.38707712 0.117124595
000140 fb fe 52 3e 73 4a 6f bd 6b d8 7d 3e 0b 45 9a be
       0.2060508 -0.05842061 0.24789588 -0.301308
000150 b8 6c 02 3d 39 ff be bd fd 5e 37 3e f7 1f ad be
       0.031841964 -0.093260236 0.17907329 -0.3381345
000160 b7 5a 0c be 29 7a b3 3e ce 1a 55 be 99 cd 38 be
       -0.1370648 0.35054138 -0.20811006 -0.1804718
000170 23 cf 39 be e8 1d 06 be ca d4 44 3e 06 73 3e 3e
       -0.18145423 -0.13097346 0.19221798 0.18598565
000180 92 dd f7 bd b8 f6 c8 3b d7 6b 89 be 7f 63 81 3d
       -0.12102808 0.006132927 -0.26840088 0.063178055
000190 c1 bb 5f bc 4a 52 91 3e 31 74 3a be d3 cd 2f 3e
       -0.013655604 0.28383094 -0.18208386 0.1716836
0001a0 5f 62 dc bd c7 5b b9 bd 50 33 35 3e 45 29 9f 3d
       -0.1076095 -0.09050708 0.17695355 0.077715434
0001b0 e3 23 5a 3e 97 f5 27 3e 0c 8e 0b be 16 0d 02 3f
       0.21302752 0.16402279 -0.13628405 0.5080122
0001c0 4d 58 07 bd cc 73 08 3d 14 84 3d 3e ad a2 03 bf
       -0.033043195 0.033313558 0.18507415 -0.514201
0001d0 c8 5d db be 7e 01 fd bd 23 0a 66 be 38 f6 1c 3e
       -0.42844987 -0.123538 -0.22464804 0.153283
0001e0 0f 62 4d ba 22 4b 32 3e cf fb d2 3c e9 d8 24 be
       -0.0007834741 0.17411473 0.025754837 -0.1609837
0001f0 17 1b ee 3e df 45 96 3e ba af 89 3e 49 21 b0 bd
       0.46505043 0.29350182 0.2689188 -0.08600099
000200 5e 3a 0c be da a1 2e 3c 2f 93 2a 3e 4f b3 b1 3c
       -0.1369414 0.010658706 0.16657709 0.021691946
000210 05 8e 20 3e 49 b4 9b be 35 33 6d be d5 ea 97 bd
       0.15679176 -0.30410984 -0.23164065 -0.074178375
000220 26 e0 58 3e 83 ba b2 3e 02 97 8c 3e 33 d0 bc 3e
       0.21179256 0.34907922 0.2745896 0.36877593
000230 04 53 ca be dc 9b 39 3e be f0 2d bd 9d 6c d8 bc
       -0.3951646 0.18125862 -0.042465918 -0.026418978
000240 19 d6 6e bd 3e 5d b4 be ed 28 5e 3d 83 d1 98 3d
       -0.05830965 -0.35227388 0.05423825 0.07461836
000250 9b af 63 3e 80 1f 07 3f c0 59 77 bd 12 b6 02 be
       0.22234957 0.5278244 -0.060388327 -0.12764767
000260 f5 3f 62 3c a9 5b 26 be 9f c1 1f 3d 9e b8 03 3e
       0.013809194 -0.16245903 0.03900301 0.12863395
000270 b9 84 a4 be 04 12 db 3e 4d 9f d4 3e f8 32 28 3e
       -0.3213251 0.42787182 0.41527787 0.16425693
000280 a3 27 70 3d ed 80 e4 be 6c 89 11 bf b6 25 3d be
       0.05863155 -0.44629613 -0.56850314 -0.18471417
000290 f7 8e 38 bd fc ba 7e be a2 84 02 be ce 61 58 be
       -0.045058217 -0.24876016 -0.12745908 -0.2113106
0002a0 53 02 dd 3e d0 80 a4 3e ee 4a 92 3e a1 59 20 3e
       0.43165836 0.32129526 0.28572792 0.1565919
0002b0 87 6c 4e bd df 4d 46 3e c6 5b d2 bd af ef 64 3d
       -0.05039647 0.19365643 -0.10271411 0.055892643
0002c0 4a 7f 71 3c 23 20 55 be 86 f4 22 be f8 ca e8 be
       0.014739821 -0.2081304 -0.15913591 -0.45467353
0002d0 b0 f2 4c be ad bc a7 be 1f 8c 8e be 35 1f 1c 3e
       -0.20014453 -0.32761136 -0.2784128 0.1524628
0002e0 e4 b1 68 be 89 8c af bd ca c7 92 3e 47 51 cb be
       -0.2272411 -0.08571727 0.28668052 -0.39710447
0002f0 a3 18 26 be 53 d9 a2 3e 0a b5 93 3e d3 2c 57 3e
       -0.16220336 0.3180643 0.2884906 0.21013193
000300 72 33 ab 3d 31 67 b2 3d ff ce d1 be 48 08 b2 3d
       0.08359422 0.087110884 -0.40978238 0.08692986
000310 e2 0a d1 3e 76 13 47 3e 40 6e c7 bd b4 d9 85 be
       0.40828615 0.19441018 -0.097378254 -0.26142657
000320 69 11 6e 3e 62 19 88 3e 3c ca 8d 3e 4c e9 a5 be
       0.23248829 0.26581866 0.27693355 -0.32404554
000330 d4 5f f4 3e 13 9c 26 be 19 b6 2f 3e b5 fa 0f 3c
       0.4772936 -0.16270475 0.17159308 0.008787801
000340 38 73 1b be 5f f9 83 3e 7e 11 c4 3e 97 49 e0 bd
       -0.15180671 0.25776193 0.38294595 -0.10951536
000350 b4 fb bb be f6 33 10 3c d3 38 1c 3e 4d 00 07 bc
       -0.36715472 0.008801451 0.15256052 -0.008239818
000360 df bd 12 3e fa e3 5a 3c fc 90 94 bd 6e 7d a5 3d
       0.14330243 0.013360018 -0.07254216 0.080805644
000370 00 ef 31 bd ec 88 0d 3e cf 0c bd 3d 90 a8 ac 3e
       -0.04344082 0.13821763 0.09230959 0.33722353
000380 cb ce d6 bc b8 a1 cb 3d 6d 9c 86 3c 3a dc 94 3e
       -0.026221653 0.09942955 0.016432012 0.2907427
000390 ab 73 9d be a7 97 b8 be 15 7e 45 3c 6e 7f 0f 3d
       -0.3075231 -0.36053202 0.012053986 0.035033636
0003a0 ea 1b dd 3e 2e a2 95 3e bf 19 48 3e b0 0f 90 bd
       0.4318536 0.29225296 0.19541071 -0.07034242
0003b0 d1 b8 af bd 41 55 7a 3e 68 1c 23 bd 24 99 5a 3e
       -0.08580173 0.24446584 -0.039822012 0.21347481
0003c0 c6 c5 96 be 21 c8 8c 3e 62 aa c2 be 9c a9 6d 3c
       -0.29447764 0.27496436 -0.38020617 0.01450577
0003d0 1d 06 71 be 4a a5 97 3e e0 89 16 be 5a 56 e0 3e
       -0.23537488 0.29618293 -0.14701033 0.4381588
0003e0 a6 40 f3 3d e4 a1 92 3e 6a bf 24 3c 0e 9b a5 3e
       0.11877565 0.28639138 0.010055402 0.3234486
0003f0 38 b1 d8 3c e3 e3 5f 3e a2 f1 b2 3d 57 23 95 3e
       0.026451692 0.21864276 0.08737494 0.29128525

ConstantFolding/net/strided_slice_4_enter:0 f4 [13, 20]
000000 3c b3 b1 be e8 a2 73 3e 80 d1 46 3e 04 41 bf bd
       -0.34707057 0.23792613 0.19415855 -0.093385726
000010 08 b0 bc 3e 44 3a 52 be 3e 1d b3 3e 56 a3 2e 3c
       0.3685305 -0.20530039 0.34983248 0.0106590595
000020 5d a4 a9 bd f9 e5 a6 bd 59 ca a7 bd 05 27 5e bd
       -0.08283303 -0.081493326 -0.08192892 -0.05423643
000030 ee c9 72 3e 06 ea 59 3d a4 18 de be 27 57 8d bd
       0.23709843 0.053201698 -0.43378174 -0.069013886
000040 dd e1 35 be 83 04 82 3d 16 59 6b 3d 6a 3b 92 3d
       -0.17761941 0.06348517 0.057458006 0.071402386
000050 9c 42 53 be f8 06 84 bc b8 bf 9e 3e 9a cf ac bd
       -0.20630878 -0.016116604 0.31005645 -0.08438034
000060 aa f5 df 3c 7f da 56 3e 36 24 3b 3d af 48 18 3b
       0.027338821 0.20981787 0.04568883 0.0023236682
000070 1a 18 01 bd 1f dd ea bd bb 16 34 3e 31 6e 5a be
       -0.031517126 -0.11467957 0.17586796 -0.21331097
000080 a6 02 1c 3e 9b 70 e6 bd cc 76 00 be 00 6b 36 3e
       0.15235385 -0.112519465 -0.12545317 0.17814255
000090 ef 3a 8e be 60 87 03 be bb bf a6 3d 6a 6b fb 3d
       -0.27779338 -0.1284461 0.081420384 0.12276347
0000a0 f6 b4 86 3e 3c d3 33 be 73 fb b6 be f3 23 a5 3e
       0.26309937 -0.17561048 -0.35738716 0.3225399
0000b0 0b 66 35 3d 9b bb 51 3c 17 0e 7b 3c 3c 29 ff bd
       0.04428677 0.012801076 0.0153231835 -0.12459037
0000c0 e8 e4 48 3e ee be 3b 3c b0 1d 13 3e 73 24 94 3e
       0.19618571 0.011459095 0.14366794 0.2893406
0000d0 21 cc 96 bd e9 ee 9f 3d 1b 98 92 3e 25 46 32 be
       -0.07363153 0.0780924 0.28631672 -0.1740957
0000e0 92 ae 09 3e ce 2f 1c 3e 4d 37 46 bb dc 6b 1c bd
       0.134455 0.15252611 -0.0030245364 -0.0381888
0000f0 88 c0 8a 3e a4 21 32 be 85 4c d8 3d 00 0c c7 3c
       0.27100015 -0.17395645 0.1056147 0.024297714
000100 ae 26 7f be bd e9 10 3e d8 7c 31 3e e1 f1 81 3d
       -0.24917099 0.14151664 0.1733278 0.06344963
000110 bf a4 24 3e ac fa b3 3d 9f c2 b6 bd 06 7b ba 3b
       0.1607847 0.08788046 -0.0892384 0.005690935
000120 fa ff 51 be 49 70 60 3c b5 17 94 3e 94 4f fb 3e
       -0.20507804 0.013698646 0.28924337 0.4908415
000130 b1 96 3f 3e 9c 2f f3 bb 26 7b 93 bc 31 d2 d2 3d
       0.18709828 -0.007421447 -0.018003058 0.10293997
000140 cd 60 0d bd 1a 7d 8c be be 03 d3 bd a7 e3 fa bc
       -0.034516145 -0.27439195 -0.10303448 -0.030626131
000150 ee 2e 77 3d fc a7 3f be 39 93 ce be 27 54 b3 be
       0.06034749 -0.18716425 -0.40346697 -0.3502514
000160 40 e3 9b bd d5 0d d9 3d 1c af 2f be 3e 1e 25 bd
       -0.07611704 0.105983414 -0.17156643 -0.040312044
000170 4f 33 06 3b 29 eb 3d bd cb 6d 89 3e bf af 8f 3d
       0.002047736 -0.046366844 0.26841578 0.07015943
000180 46 47 27 be 65 f3 1a bc 4b ba 67 be 84 4a 64 be
       -0.16335782 -0.009457444 -0.22629659 -0.2229405
000190 8e e6 ee 3d d0 23 90 be cc 84 ba be ef 86 a2 3e
       0.116650686 -0.28152323 -0.3642944 0.3174357
0001a0 b3 be 6d 3e 2a 11 1f be b7 81 81 be 56 c6 93 3d
       0.23217277 -0.15533891 -0.25294277 0.07215564
0001b0 69 59 3a 3d 69 49 e9 3e 9b 83 2f be a4 61 02 3e
       0.045495424 0.4556382 -0.17140047 0.1273256
0001c0 4b 53 33 3d 3d 33 d3 3d 55 f9 f3 3e e5 08 e4 3b
       0.043780606 0.10312507 0.47651163 0.006959068
0001d0 7f f9 b9 3e 03 8f 78 3e 9b 21 d6 bc 11 0d df be
       0.36323163 0.24273305 -0.026139071 -0.43564656
0001e0 8e a6 3e 3d 85 c4 ca be fd 17 73 bd 66 29 72 3e
       0.046545558 -0.39603058 -0.05934905 0.23648605
0001f0 25 d3 d9 bd 44 4a 6d 3e 12 dd 9d 3e c8 b7 25 3d
       -0.10635976 0.23172861 0.30832726 0.04045847
000200 75 12 3c bb 70 a1 8c 3d b2 9b d7 ba 71 5e 36 bd
       -0.0028697525 0.06866729 -0.0016449599 -0.04452366
000210 f2 98 fd bd 5e 19 c5 bb 30 bb 59 3e e2 57 b6 bd
       -0.12382688 -0.006014987 0.21262813 -0.08903481
000220 77 7c ed bd c7 57 e1 3b 5a 36 64 bd f1 9d 75 3d
       -0.115960054 0.006876919 -0.055715896 0.059965078
000230 a4 a5 bb 3c db 76 ca bd 22 f9 58 be 0e b7 c9 3e
       0.022906132 -0.09885951 -0.21188787 0.39397472
000240 25 1d ff bc 1e 2f 40 bd 8e 79 42 3e 9b 94 9e be
       -0.031141827 -0.046919934 0.18991682 -0.30972752
000250 be 83 13 3e b7 e4 67 3d 90 8c 6a 3e a9 c4 03 3e
       0.14405724 0.056614604 0.22905183 0.12867989
000260 a4 c4 6c 3e a2 70 0d 3e 5f 61 24 3e f7 35 02 3e
       0.23121887 0.13812497 0.16052769 0.12715898
000270 50 30 ca bc 4e 83 3d be 0b ca 94 be ed c9 3b be
       -0.02468124 -0.1850712 -0.29060397 -0.18338747
000280 cb d5 2e be f2 f8 be ba 74 1e 96 3d 5e 04 23 3d
       -0.17073743 -0.0014570041 0.07330027 0.039799087
000290 27 28 bf 3d 72 0e 71 3e b7 12 97 be 3e 0f 0d 3f
       0.0933383 0.23540667 -0.29506466 0.5510138
0002a0 3d ba f2 bd 19 14 e5 3d f4 5b 7e 3c db a2 a0 be
       -0.118519284 0.11185474 0.015524853 -0.3137425
0002b0 b5 a8 78 3e 83 04 cc be 2d 6b 60 be d5 1b 05 bf
       0.24283107 -0.39847192 -0.21915884 -0.51995593
0002c0 2f e1 ec bd 5e 2e d5 3d 64 18 cc be 18 01 01 3e
       -0.11566388 0.104092345 -0.3986236 0.12598073
0002d0 23 87 b2 3d 18 35 ba 3d 7a 3c cd bd 8b 71 7d 3e
       0.087171815 0.09092158 -0.100213006 0.24750344
0002e0 ab 3b a7 bd 24 1b 8e bd 81 6e bd 3e 0c ee 7b bb
       -0.08165678 -0.069387704 0.3699837 -0.0038441448
0002f0 33 38 08 3c d7 47 43 be e2 c7 5f 3e 7b 2c 14 3e
       0.00831418 -0.19070373 0.21853593 0.14470093
000300 42 b0 1f 3e f5 fe aa 3d 1a b9 1b bd 01 f8 ec be
       0.15594581 0.083494104 -0.038018323 -0.46282962
000310 e4 3a bb 3e 63 14 2e 3e ea 24 0e 3f 08 4e 30 3e
       0.36568367 0.16999964 0.55525076 0.17217267
000320 4f 53 8a 3e 54 6c 9b 3d c1 cf f1 3d 05 e1 de 3d
       0.27016684 0.07589021 0.11807204 0.10882763
000330 b4 42 e3 3d bc 89 63 3d eb 12 70 be 6e ce 0a be
       0.11096707 0.055551276 -0.23444717 -0.13555309
000340 29 1d 6a be 5b 06 d6 be d1 a1 89 bd d8 13 8a 3e
       -0.22862686 -0.41801724 -0.06720317 0.26968265
000350 24 81 0f bf e5 32 0d 3f 3b 1a 90 3e 15 b7 e6 bd
       -0.5605643 0.55155784 0.28145012 -0.11265389
000360 7c 12 ba 3e 8a 97 f8 3e 5c ab 13 3e f7 9e a8 be
       0.36342227 0.48553115 0.14420837 -0.3293378
000370 a9 e6 a2 3e 6d e4 13 be 86 aa e6 bd fa 9b af be
       0.31816605 -0.14442606 -0.112629935 -0.34298688
000380 f3 e0 7a be 31 66 4a 3f eb 0c 21 bf d5 b6 4f 3f
       -0.24499874 0.7906218 -0.62910336 0.81138355
000390 86 46 4d 3e d6 ed eb 3c 90 d7 c0 bd 04 ce a3 bd
       0.20046434 0.028799932 -0.09416115 -0.07998279
0003a0 9e 4b a5 3d 71 c8 25 be 14 a5 c0 bd 2a c0 41 3d
       0.080710635 -0.16189744 -0.09406486 0.047302403
0003b0 a1 fa de 3d 97 90 03 bf 55 ee ac be 73 1b 50 3e
       0.108876474 -0.513925 -0.33775583 0.20322971
0003c0 e6 ff 97 bd b4 be 79 be 51 84 bc be 22 97 50 3e
       -0.07421856 -0.24389154 -0.368197 0.20370153
0003d0 fb 17 30 3f d2 c1 93 3e 13 28 31 bd 06 c5 b8 3e
       0.6878659 0.2885881 -0.04325111 0.36087817
0003e0 a8 a8 0f 3c cd c4 e1 3e 9f f6 ef bd d0 d8 29 3d
       0.008768238 0.4409546 -0.11716961 0.041466534
0003f0 0c 2f b0 3e bb 4f 0b 3f ca 9f 9d be 8c f7 9b be
       0.34410894 0.54418534 -0.30785972 -0.304623

ConstantFolding/net/strided_slice_3_enter:0 f4 [20, 20]
000000 c2 56 da 3e 35 ab c7 3e ae 84 09 be 0f 16 4d 3e
       0.42644316 0.38997808 -0.1342952 0.20027946
000010 d2 89 10 3c 23 c4 30 3d 99 dd 91 be cd 0c 86 3d
       0.008821921 0.0431558 -0.28489378 0.0654541
000020 60 59 2c 3e a7 d8 16 3e d0 e9 1f be ec ab ef 3d
       0.16830969 0.14731084 -0.15616536 0.11702713
000030 df 45 64 be 18 46 59 be 07 40 f4 3d ce a4 40 be
       -0.22292279 -0.21218145 0.11926275 -0.18812868
000040 aa 7b 00 bd 6a 40 38 be 1b 94 09 be 03 5e 54 3d
       -0.031367935 -0.17993322 -0.13435404 0.05184747
000050 67 5a 47 be 26 04 92 bc d8 ca 94 be 92 10 ed 3d
       -0.1946808 -0.017824244 -0.29061007 0.11575426
000060 c6 30 85 3d 4d c3 71 3e b0 70 46 be 9e 0c a2 3e
       0.065034434 0.23609658 -0.19378924 0.3165025
000070 e2 90 9b 3c 23 29 14 3e e6 77 0b bd 9a 08 03 3f
       0.018989984 0.14468817 -0.03404989 0.51185
000080 c8 4b ec 3d 73 92 82 bc 8f c6 c3 be d4 e6 01 bd
       0.115378916 -0.015938973 -0.38237426 -0.031714275
000090 a6 27 a8 bd 90 1c 21 3e ea c3 9c bd 69 50 e2 bc
       -0.08210687 0.15733552 -0.07654555 -0.027626233
0000a0 a8 7b a3 bd ea d3 c7 3b 66 5e 2c 3d 2a 9e a7 3c
       -0.0798257 0.00609826 0.042082213 0.02046116
0000b0 3d 7b 18 be 9f 87 2c 3e d7 28 af bd df 74 82 3e
       -0.14890762 0.1684861 -0.085527115 0.2547979
0000c0 20 71 ae bd 2f 0f fd 3c a6 c3 a7 bb 4f c3 53 3d
       -0.08517671 0.03089103 -0.0051197587 0.051699933
0000d0 a6 56 77 3e 2a 79 de bb b0 20 47 3d e2 37 96 bd
       0.24154148 -0.006789346 0.048615158 -0.073348776
0000e0 96 1d 8b be ff 75 60 3e a6 58 30 bd a8 78 6d be
       -0.2717101 0.21920012 -0.04305329 -0.23190558
0000f0 e8 6b cd 3d da f0 69 3e c6 1b e1 bd b1 10 b6 be
       0.10030347 0.22845784 -0.109916255 -0.3555961
000100 37 cf d7 bd da 78 32 3b 28 69 d3 3d 7d 45 c1 3b
       -0.1053757 0.0027232678 0.10322791 0.005898176
000110 0e 5b bc be 60 95 05 be 47 21 d4 bc 63 cc 17 3e
       -0.3678822 -0.13045263 -0.025894774 0.14824061
000120 cd 7e 3d 3e d0 52 05 be 50 12 93 3d fc 64 9b 3d
       0.18505402 -0.13019872 0.07181227 0.075876206
000130 e0 b3 82 bd 09 08 7c be b9 22 81 3e a1 e5 22 3e
       -0.06381965 -0.2461244 0.25221804 0.15907909
000140 0c e1 7e 3d 75 cd 1e 3e a2 89 a7 3e 40 ed 0a bd
       0.06222634 0.15508063 0.32722193 -0.033917665
000150 b2 e7 d7 3d 8d f9 59 3e 03 5e c0 be 51 09 9f 3e
       0.10542239 0.21286602 -0.37571725 0.31061795
000160 89 75 8b 3d 7d af 6c 3e a8 84 dd 3e f4 3d df bd
       0.068095274 0.23113818 0.4326527 -0.109004885
000170 49 27 e8 bd 53 f4 17 3e 90 26 8d 3c f6 d6 a7 3c
       -0.11335618 0.14839296 0.017230302 0.020488244
000180 44 11 00 be 02 23 81 be c0 66 ea bd 8c 64 f4 3d
       -0.12506586 -0.2522202 -0.11445379 0.1193324
000190 37 a8 0a be 2c 33 1d 3e a5 0c 28 3d 62 c3 58 bd
       -0.13540731 0.15351552 0.041027684 -0.052920707
0001a0 29 bb 20 3e c5 ef 39 be 71 28 ae 3d 85 e4 09 3f
       0.15696396 -0.18157871 0.08503807 0.5386432
0001b0 99 79 58 bd c6 ed 94 3d 5a 21 a8 3e 7e b0 3b 3d
       -0.05285034 0.07271914 0.32837945 0.045822613
0001c0 8c 6a 12 be 10 1f 33 be ec 9b 01 3f a8 b1 45 3e
       -0.14298457 -0.17492318 0.5062854 0.19306052
0001d0 b7 76 25 be 06 70 20 3d ad 21 c7 bd 62 55 44 3e
       -0.16158567 0.039169334 -0.0972322 0.19173196
0001e0 42 a0 5a bd 09 54 8e 3e ac e2 0c 3f f9 b1 4a 3e
       -0.05337549 0.2779849 0.55033374 0.19794454
0001f0 bf ae c6 3d c3 7f 5c bd 46 f5 73 3e 2f 75 05 be
       0.09701299 -0.05383278 0.23824033 -0.13032983
000200 6d 30 f0 bd 29 cd 8d 3d f0 10 18 3e a1 b2 9e bc
       -0.117279865 0.06923897 0.14850211 -0.019372286
000210 6b a1 db 3c ce 9a e0 3b ab 0c 90 3d 43 fa d9 bd
       0.026810369 0.0068543917 0.07033666 -0.10643437
000220 70 76 e8 3d 55 ab 4f be c3 60 14 be c0 b5 bf bd
       0.11350715 -0.20280202 -0.14490037 -0.09360838
000230 46 e0 e4 bd cd 17 1b be 88 c2 17 3b 86 31 4a bc
       -0.11175589 -0.15145798 0.002315672 -0.012340909
000240 25 04 68 bd 37 d4 c6 3d d2 74 1c be a0 3e b7 bd
       -0.056644578 0.097084455 -0.15278938 -0.08947492
000250 f1 49 c3 bd d6 bd 75 3e 03 d0 53 3e a9 ee 24 be
       -0.095355876 0.23998198 0.20684819 -0.16106667
000260 1c e1 6e 3e 12 e2 1b 3e cd 5c 59 3d 47 cd ca bc
       0.2332806 0.15222958 0.053067017 -0.024756087
000270 9c 9d b5 bd b7 1b 7c 3c d4 71 c4 bd f4 2c 80 bd
       -0.08867952 0.015387467 -0.095920235 -0.06258574
000280 7c ea 0e 3e 82 75 29 be dd 91 b0 3c 5e cd 21 be
       0.13956636 -0.16548732 0.021553928 -0.15800998
000290 bf 96 3a be 56 8e c6 3e 22 c3 25 3e 51 75 0e 3e
       -0.18221568 0.3878047 0.16187719 0.1391194
0002a0 42 87 b9 3e 24 aa 55 3e 87 9b 0f bd 9f 7e bb 3d
       0.36236006 0.20865685 -0.03506043 0.091550104
0002b0 a5 fa 1e 3e c6 87 0c 3d 18 6d 03 be 84 a8 cc be
       0.15525301 0.03430917 -0.12834585 -0.39972317
0002c0 07 86 e2 bd 8f 52 01 be 13 87 e9 3c 41 6d 77 bd
       -0.1106072 -0.1262915 0.028506791 -0.060406927
0002d0 68 90 82 3e 24 13 0f 3e d0 3b aa 3c ee bb ea bc
       0.25500798 0.13972145 0.020780474 -0.028654065
0002e0 31 60 92 bd a4 49 00 be 30 a3 29 3e 6b bb 83 3d
       -0.07147253 -0.12528092 0.16566157 0.064322315
0002f0 ae cc db 3d 3e 79 33 3e 77 2e 92 bd df 3c 69 bd
       0.10732399 0.17526719 -0.07137769 -0.056942817
000300 09 03 99 3e b4 45 44 3e 4e 60 93 3e 6c ea 05 be
       0.29885128 0.19167215 0.28784412 -0.13077706
000310 19 25 41 bd 52 0a 27 3d 85 55 25 be fa 39 06 3e
       -0.04715452 0.040781327 -0.16145904 0.13108054
000320 9e 9a b0 bd a8 76 f6 3d 62 99 71 3e 70 34 31 3e
       -0.08623241 0.12034351 0.23593667 0.1730516
000330 5a 0f c1 3d a0 2b 0b 3e 91 e2 d5 bb f2 2e d8 3e
       0.09426756 0.1359086 -0.006527253 0.42223316
000340 36 47 6e bd a0 3a 27 be b8 5a b0 3e 29 45 ca bd
       -0.05817338 -0.16330957 0.34444213 -0.098764725
000350 50 81 99 bc fb 81 7e bd d7 b2 21 3e 42 79 11 3e
       -0.018738419 -0.062135678 0.15790878 0.14206412
000360 d2 36 42 bd d0 b1 ec 3d 6b 06 18 be 38 73 31 3c
       -0.047415562 0.115573525 -0.14846198 0.010830693
000370 0c 7e 9c 3d b4 de 34 be 88 01 73 3e 7a 88 80 be
       0.07641229 -0.1766308 0.23731053 -0.25104123
000380 d1 50 4e 3e 0b 4a ab bc b7 35 af bd 16 31 8e 3e
       0.20148017 -0.02090933 -0.08555167 0.27771825
000390 36 19 a7 3e a6 55 2c be a9 3e 58 3e fc db 69 be
       0.32636422 -0.16829547 0.21117653 -0.22837824
0003a0 bb bc b3 be a1 7d 36 be 39 40 62 be 87 47 52 3e
       -0.35104927 -0.17821361 -0.22094811 0.20535098
0003b0 71 cb 1b bd e5 00 5f be ff 9d 10 3e 9f c0 72 3e
       -0.038035814 -0.21777685 0.1412277 0.23706292
0003c0 61 e5 fa 3d 42 69 33 3d c7 7d e1 bd 2a 07 8a be
       0.12250782 0.043801554 -0.11010318 -0.2695859
0003d0 c8 61 80 bd 3e bf b8 3d 2d 3e 7c be 9a b1 ea be
       -0.0626865 0.090208516 -0.24633093 -0.45838624
0003e0 03 34 c7 be 67 6d 68 be 28 bb 9d bc 03 b5 1b bd
       -0.3890687 -0.22697984 -0.019254282 -0.038014423
0003f0 a1 2e e8 bd 6c b4 13 3d 9f 8f a6 be f1 e3 1c bb
       -0.11337019 0.036060736 -0.3253145 -0.0023939575

ConstantFolding/net/strided_slice_2_enter:0 f4 [13, 20]
000000 7a bf f6 bc 69 d2 bc be ca 27 f5 bd c9 ea 33 bd
       -0.0301206 -0.3687928 -0.1197048 -0.04392508
000010 52 a8 8f bd 61 2a 3c 3c 8f bc 34 3e 38 8a 21 be
       -0.070145264 0.011484713 0.17650054 -0.15775383
000020 8f fc 0f 3c cd 20 e9 3d 14 56 12 3b c6 fd d2 bd
       0.008788242 0.113832094 0.0022329139 -0.1030231
000030 8f fa b3 bd 11 dc 1c 3e b9 d6 93 be 18 7c 02 3e
       -0.08788025 0.15318324 -0.28874758 0.1274265
000040 1a 38 04 3e a3 62 27 be 18 62 b2 bd 6b 2c 40 3e
       0.12912026 -0.1634622 -0.08710116 0.18766944
000050 76 74 80 bd 85 5b 45 3d fe 92 b4 3c 88 13 0c 3d
       -0.06272213 0.048182983 0.022042748 0.034198314
000060 23 18 c7 3d 3f 62 e8 bd 89 4e 89 3d 4c f3 46 3f
       0.097214006 -0.11346864 0.067044325 0.7771499
000070 62 ee 28 bd e4 2f 14 be c7 9d 26 3d b2 f3 d0 3d
       -0.041242965 -0.14471394 0.040677812 0.10202731
000080 0e 08 c9 3c ba da 9b bd 82 f4 5b 3d 72 8b 16 3d
       0.024539974 -0.07610078 0.053699978 0.03675408
000090 16 44 d5 3c 95 06 23 3d b5 34 b9 bc 18 87 0f 3d
       0.026033442 0.0398012 -0.02260814 0.035040945
0000a0 ba 95 54 3e b2 b7 16 3e c5 a4 e9 3d 37 a7 de bd
       0.20760241 0.14718512 0.114083804 -0.108717375
0000b0 c1 38 0a be af e3 4d 3e ec 19 67 3d c7 03 83 3d
       -0.13498212 0.20106386 0.056421205 0.06397205
0000c0 41 fc a1 3d 69 ee 46 3e 69 8f 33 3d 58 dd a9 bd
       0.07909442 0.19426884 0.04383794 -0.08294171
0000d0 24 39 32 be 8e a3 92 3e b2 81 c2 3d bb 23 40 be
       -0.1740461 0.28640407 0.09497394 -0.1876363
0000e0 fd 44 e9 be 1d 50 56 be 41 56 a1 bd b0 82 2c be
       -0.45560446 -0.20928998 -0.0787778 -0.16846728
0000f0 31 5b 9f 3c bb 15 a0 bd ef c9 0e 3d 11 21 e3 bd
       0.019452663 -0.07816645 0.034860548 -0.11090291
000100 f8 18 9e 3e 63 76 79 be d4 e7 0b bd 5d cf 91 bd
       0.30878425 -0.24361567 -0.034156635 -0.071196295
000110 e4 42 e2 3e c1 f7 75 be d7 f5 1d bd 7b 88 3f 3e
       0.44191658 -0.24020292 -0.03856453 0.18704407
000120 85 45 31 be 9e e7 05 3e 6a 86 3d bc bf 6a 35 be
       -0.17311676 0.13076636 -0.011567691 -0.17716502
000130 21 a7 e7 3d 2c 0f 68 bd f9 a8 6c 3d 44 a2 a3 3e
       0.11311174 -0.056655094 0.057778332 0.31959736
000140 9d ea 38 be d1 85 86 3c 58 57 88 3e 81 cc 86 be
       -0.18058248 0.01642123 0.26629138 -0.263279
000150 d2 2e bb 3e 3f 7b d9 be 0b 20 d2 be e4 1a 08 3e
       0.3655916 -0.42476842 -0.41040072 0.13291508
000160 07 89 32 be 9e 1c cc be 82 f6 ca be 17 30 6f 3d
       -0.17435084 -0.39865583 -0.39641196 0.05839547
000170 a7 a2 af bd 7a 97 02 3f 72 e1 3d be 4f 22 31 be
       -0.08575945 0.51012385 -0.18543032 -0.17298244
000180 25 7e c7 bd 61 d0 cb bd 09 92 14 3e 4d 79 ac be
       -0.09740857 -0.099518545 0.14508833 -0.33686295
000190 67 8e 1f be 09 ad 5c 3e 68 bc fa 3e 3c ca 37 bd
       -0.15581666 0.21550383 0.48971868 -0.0448706
0001a0 2b 1a 7a 3e 9d 25 0a 3e e3 19 07 bf 3c 37 b1 bd
       0.24424045 0.13490911 -0.52773875 -0.08653113
0001b0 aa 56 8c be 95 a9 fd 3d 0a 7a fe bd 9f ea 04 bf
       -0.2740987 0.12385861 -0.12425621 -0.51920503
0001c0 82 a6 a7 3e be 5b 31 3e 7a c5 53 3c fe 99 02 3e
       0.32744223 0.17320153 0.0129255 0.12754056
0001d0 80 99 3d bc 9e 9c 17 be 9b 6b 4a 3e 3d 62 b9 3e
       -0.011572242 -0.14805838 0.1976761 0.36207762
0001e0 da b6 b0 be 9e e6 24 be 44 ae d5 be bb c4 50 be
       -0.34514505 -0.16103598 -0.41734517 -0.20387547
0001f0 5f 4b ff bd 28 1c 82 be 4b 4a fb 3e 88 de 08 3e
       -0.12465548 -0.25412107 0.4908012 0.13366139
000200 b5 21 9b 3e 99 3f 33 3d 78 a8 bb be 83 c7 a5 ba
       0.30299154 0.043761823 -0.3665197 -0.001264796
000210 e2 05 ad 3e 1f 5c 49 3e 38 37 42 be 36 ef 60 bf
       0.3379355 0.19664048 -0.18966377 -0.87865007
000220 ca a3 2f be c4 92 33 3b c0 54 e1 3d a2 9d e7 be
       -0.17152324 0.0027400712 0.11002493 -0.45237452
000230 77 22 f4 3b ca 0b 91 3e f3 58 04 be 2c 2f 11 bd
       0.0074503976 0.28329307 -0.12924556 -0.035445377
000240 f0 0d 97 be 1e 27 a4 3e 06 e1 5d be 49 77 98 3c
       -0.2950282 0.32061094 -0.21667871 0.018611567
000250 9f bb c0 be e9 f0 59 3e 36 0a 6b 3e e3 33 20 be
       -0.37643144 0.21283306 0.22953114 -0.15644793
000260 81 0b 69 3e 49 9b ef 3c ec aa bf 3d 34 c0 26 3e
       0.22758295 0.02924885 0.09358773 0.16284257
000270 d0 5f 6d 3e c7 0b 21 be cb 91 a2 3d 6d c6 6a bd
       0.23181081 -0.15727149 0.07937964 -0.05731814
000280 21 d1 dd be 2a 26 63 be 74 b3 92 3d e4 4f 84 be
       -0.43323615 -0.22182527 0.07163134 -0.25842202
000290 00 e3 bd bd 45 3d ad 3e b2 4a 5e 3e ac db e9 3d
       -0.092718124 0.33835807 0.21708182 0.11418852
0002a0 3f c9 95 bd a3 b9 b9 be 83 84 40 be bb 0e 9a be
       -0.07313775 -0.36274442 -0.18800549 -0.30089363
0002b0 18 61 c5 bd f7 36 65 3e b2 5d 0d bc 94 b9 4b 3f
       -0.0963766 0.22384249 -0.008628296 0.79580045
0002c0 d4 ae 5a bd c7 67 6b 3f 68 5d ef 3e 18 43 04 ba
       -0.053389385 0.91955227 0.4675095 -0.0005045398
0002d0 c5 5b 5f 3e 18 4c be 3d 6e 09 27 3e 92 12 75 3e
       0.21812351 0.092918575 0.16312191 0.23932865
0002e0 5e 81 6b be bb 6a cc 3e 38 43 c7 3e c0 9a 14 3e
       -0.22998568 0.3992518 0.3891847 0.14512157
0002f0 a9 4f 98 3e ef de 0a 3e 58 fd ea bc 95 1d 52 be
       0.29748276 0.13561605 -0.028685257 -0.20519097
000300 db 70 f0 be ae e3 fe 3e f4 e3 06 bf 66 24 8d bf
       -0.46961102 0.4978308 -0.5269158 -1.1026733
000310 f8 05 41 be 9c 9c a6 be f8 f7 96 be 60 7e 11 bd
       -0.18849933 -0.32541358 -0.2948606 -0.03552091
000320 01 63 41 3e 67 59 cd be 59 d1 13 3d bb 2f 2c be
       0.18885423 -0.4010727 0.03608832 -0.16815083
000330 9a 81 a3 be 65 5f b5 bc b2 48 fc be 66 19 0a 3e
       -0.31934816 -0.022140214 -0.49274212 0.13486251
000340 1f a3 38 3e 2c fa 11 bf fa 8f 15 bf e2 36 8b be
       0.18030976 -0.57022357 -0.58422816 -0.2719031
000350 89 6a b8 be 25 bb 70 bd dc d6 f6 be d8 38 0b 3f
       -0.3601878 -0.058772225 -0.482108 0.5438361
000360 04 93 2f bf 85 9e ba 3d d3 04 fb be 42 73 1f 3f
       -0.68583703 0.091122665 -0.49027118 0.62285244
000370 7c 6f 37 be 7c 24 6c 3f 4b 6c 4b 3f f5 dd 28 3e
       -0.17913622 0.9224317 0.79462117 0.1649092
000380 58 36 12 bf cb 1b 7a 3d a0 f8 0b bc f2 54 d4 bd
       -0.5711417 0.06106166 -0.008543164 -0.103677645
000390 35 f5 ca bd 0a 00 0c bf 22 6a b1 3e 95 7f 04 be
       -0.09910051 -0.5468756 0.34651285 -0.12939294
0003a0 bd c1 6b 3e 60 24 d0 be 85 01 10 3f c2 c2 7f 3e
       0.23023124 -0.40652752 0.5625232 0.24976638
0003b0 a8 ca 95 bd 8a 8e 24 be 6a 3c d1 3c 29 70 12 3f
       -0.07314044 -0.1607 0.025541503 0.5720239
0003c0 96 2d 72 3b 30 aa 4b bd 7d 7d 04 3e 73 1a ab 3e
       0.003695344 -0.04972285 0.12938495 0.33418617
0003d0 2f 2f 8b be f2 62 08 bf 39 e7 21 bd b9 19 08 3e
       -0.27184436 -0.5327598 -0.03952715 0.13291062
0003e0 b2 82 ea be 94 aa 25 3f 36 4e c8 3e b8 27 5d 3d
       -0.45802838 0.64713407 0.3912217 0.053992957
0003f0 86 ce 4a 3f 67 61 4c be 71 5c 1f ba 58 46 6a 3e
       0.7922138 -0.19959031 -0.00060791435 0.22878397

ConstantFolding/net/strided_slice_1_enter:0 f4 [20, 20]
000000 bd a4 8a bd 9e ce 29 3e 7a c4 c5 3e 5b 83 87 3e
       -0.067697026 0.16582724 0.38626462 0.26467404
000010 f7 24 5e 3e 17 41 3a be 3f 50 42 be 72 f2 5d 3d
       0.21693788 -0.18188892 -0.18975924 0.054186292
000020 86 6a a6 3e 79 a8 0e 3e e9 f2 66 be c1 64 dc 3e
       0.32503146 0.13931455 -0.225536 0.4304562
000030 65 ad 8f 3a 6c f3 12 be 74 59 8d be c4 63 3d 3c
       0.001096171 -0.1435067 -0.2760731 0.0115594305
000040 64 07 e7 3d f2 12 98 3d 2b 81 16 3d 48 9d 2b be
       0.112807065 0.074254885 0.036744278 -0.16759217
000050 09 92 39 3d 62 af 5e 3e a7 98 18 3d 29 35 79 bd
       0.045305286 0.2174659 0.037254956 -0.060841713
000060 21 5c 19 be 43 96 30 3e 70 ea de 3d 11 ac 7f 3d
       -0.1497655 0.1724482 0.10884559 0.062419955
000070 d9 ae 1b be 4f 42 2f 3e b5 83 c3 bd b2 43 86 3d
       -0.15203418 0.17115138 -0.095466055 0.065558806
000080 01 98 64 3d 83 73 17 be 27 a6 10 be 86 73 17 3d
       0.055809025 -0.14790158 -0.14125882 0.036975406
000090 2b c2 b4 bd 64 99 a6 3e d5 59 39 3e 58 0b 61 3e
       -0.08826097 0.32538903 0.18100674 0.21976984
0000a0 9f 06 03 3e 4a 06 29 bc 3a 64 13 be ec 02 1d 3e
       0.12795494 -0.010316441 -0.14393702 0.15333146
0000b0 10 eb 30 be 5f ad c5 bd ad 52 fb bd e4 31 8d bd
       -0.17277169 -0.096522085 -0.122716285 -0.068942815
0000c0 51 65 82 bd 7e 10 9d bb 04 60 bc 3d e2 cb 97 3e
       -0.06366981 -0.004793226 0.09198001 0.29647738
0000d0 d5 2a f8 bc c6 14 93 be 86 d7 ae 3d 6a e1 9e bd
       -0.030293861 -0.28726786 0.085372016 -0.07757838
0000e0 cb 00 8b be 2d 67 eb bd b7 1d c8 3d 21 58 54 3c
       -0.27149042 -0.114942886 0.09771293 0.012960465
0000f0 dc 43 8b 3e 8d 66 b9 bd bd f1 4c 3d c8 89 1b be
       0.2720021 -0.09052763 0.050035227 -0.15189278
000100 c2 ff 57 bd 5c 4b c4 bd 24 ed ab bd 86 7b 76 bc
       -0.052734144 -0.09584686 -0.0839484 -0.015044099
000110 d1 58 9b bd 34 bf 8e b9 a1 da d4 bd 35 36 24 3d
       -0.075853 -0.00027226808 -0.10393263 0.04009076
000120 a0 8b 47 be 1b 95 5b be bb d9 93 3e eb 60 8b bd
       -0.19486856 -0.21443598 0.28877053 -0.06805595
000130 77 15 6c 3d e5 a1 3e 3e e3 ac aa bd e2 99 c5 bc
       0.057637658 0.18616445 -0.08333757 -0.024121229
000140 54 4c 7e 3e 11 27 9e 3d 7a 62 a0 3d a2 c0 27 3e
       0.24833804 0.07722295 0.07831283 0.16382077
000150 f6 10 be 3e c6 d0 5b bd 98 3f 82 be 34 e0 a0 bc
       0.37122315 -0.0536659 -0.25439143 -0.019638158
000160 fc a4 c6 3c 91 cd 67 be df 59 9c 3d 7a 10 bc 3d
       0.024248593 -0.22637011 0.07634329 0.0918283
000170 08 9c 36 bd a4 55 b0 3d 63 03 73 3e fe 16 83 bd
       -0.044582397 0.08610085 0.2373176 -0.0640087
000180 66 8c 14 3d d4 2c 92 3c 46 34 a9 bd 03 95 53 3d
       0.036266707 0.017843641 -0.082619235 0.05165578
000190 d3 6a a5 bd cd 67 4f be 00 c2 34 bd 3c fd 0a bd
       -0.08077016 -0.2025444 -0.044130325 -0.03393291
0001a0 82 5c 2c bd eb ee 89 be a8 04 e7 bd f5 ff ca be
       -0.04208041 -0.26940092 -0.11280185 -0.39648405
0001b0 d9 96 b8 bd 59 c5 e8 3c 02 6c 08 3c e1 d0 23 3d
       -0.09013147 0.028414415 0.008326532 0.039994124
0001c0 9b fa c5 bd e1 4c bb be 37 d0 e5 3d 6c f2 57 ba
       -0.0966694 -0.3658209 0.112213545 -0.0008237723
0001d0 b1 08 9e 3e fc c2 9b 3e 1f 90 a2 bc a5 c3 70 bd
       0.30866006 0.304222 -0.019844113 -0.05878033
0001e0 cc 67 da bd 3b 3d e1 bd bd 38 46 be d1 a9 39 3c
       -0.10664329 -0.10998007 -0.19357581 0.011331991
0001f0 55 5a 61 bd bb 70 2f 3d 60 71 46 bb f7 83 7f be
       -0.055017788 0.042832118 -0.003027998 -0.24952684
000200 ce f6 09 3e d2 53 2b 3e 18 0b 79 be 43 fc 41 be
       0.13473055 0.16731194 -0.24320638 -0.18943886
000210 0c 22 de ba 0c e3 72 be e9 5a 1d bd a2 81 1b be
       -0.0016947403 -0.23719424 -0.038416777 -0.1518617
000220 77 86 c8 bc 51 9c 99 3e d2 4f 33 3d 62 11 93 be
       -0.02447818 0.30002072 0.043777294 -0.287242
000230 2b a3 b4 bc 29 dc 00 bd ff f6 86 3d 05 d7 80 3e
       -0.02205046 -0.03145996 0.065900795 0.25164047
000240 59 3b c4 3c e3 99 6e bd 22 ec 93 bd a6 e2 1b bf
       0.02395408 -0.058252227 -0.07222773 -0.60892713
000250 ad f5 30 3e bd 7a d7 bd ef d0 e9 3d 6d 5b 8b 3e
       0.17281218 -0.10521457 0.11416804 0.2721819
000260 2f 85 71 be 1f 9a 97 3d dd a6 f2 bc 25 6b 92 3b
       -0.23585962 0.07402443 -0.029620582 0.004468339
000270 3a ce b5 3c 73 32 56 3d e5 65 ae bd 4e 05 01 be
       0.022193063 0.052294206 -0.085155286 -0.1259968
000280 03 ca 36 be 25 8d 6e 3d b5 8a 63 3c 06 05 de bd
       -0.17850499 0.058240075 0.013888051 -0.10840802
000290 50 ca 14 3e 4d ff 34 be d7 35 25 3c 94 1d 9c bd
       0.14530301 -0.17675515 0.010083637 -0.07622829
0002a0 02 a9 2d 3e bf e1 90 3c 01 ba 4c 3e 24 74 9d be
       0.16959003 0.01768577 0.1999283 -0.3075267
0002b0 dd 49 46 be b4 61 29 3e 3a 90 8a 3d 98 c2 0f bd
       -0.19364114 0.16541177 0.0676579 -0.03509769
0002c0 91 2a 99 be d5 2d 96 bd 17 05 22 3e ec 57 cd 3b
       -0.29915288 -0.073329605 0.15822254 0.0062665846
0002d0 20 f3 33 3e fc 84 70 3e 7f cd 9b 3d fe 43 0b ba
       0.17573214 0.2348823 0.07607555 -0.0005312561
0002e0 d6 a4 b4 3e 3c 10 1e be 7c 2e 1d bd 74 e0 c5 3d
       0.3528201 -0.1543588 -0.03837441 0.09661952
0002f0 6b 64 3a be 80 31 dc 3c f3 6c 28 3c 36 4e 91 3d
       -0.18202369 0.026879072 0.010279882 0.07094996
000300 2b af 4a 3e f9 ec d8 3e a7 b1 56 3d 93 66 d4 bd
       0.19793384 0.42368296 0.052415516 -0.10371127
000310 57 f8 f1 bd 7f 87 3b be 45 28 b1 bc 29 68 3b 3e
       -0.11814945 -0.18313406 -0.021625647 0.18301453
000320 18 e3 a0 bb e7 04 e6 bc 65 e6 b3 3c 98 07 9c 3c
       -0.004909884 -0.02807851 0.021960447 0.01904659
000330 45 26 1b be e8 5d 0d 3e 48 a4 2f 3d 64 63 2b 3d
       -0.15151317 0.13805354 0.04288128 0.041842833
000340 61 f6 35 bd fe c0 7c bc c9 74 3b 3e 14 58 d1 bd
       -0.04442442 -0.015426872 0.18306269 -0.10221878
000350 ce d6 48 3e da 50 57 3e ce d2 8c 3c cb b0 40 3e
       0.19613191 0.21026936 0.017190363 0.18817441
000360 55 1b 72 3c c7 59 a7 3d 77 b4 05 be df 66 f5 3d
       0.014777024 0.081714205 -0.13057123 0.11982512
000370 e3 7a c6 be b1 1e 80 3e cf aa 09 3f af bc 2f 3e
       -0.3876563 0.25023416 0.5377626 0.17161821
000380 8c ba 47 3d f5 e5 1d 3e 7c 7c 91 3b ad 21 28 be
       0.04876189 0.15419753 0.0044398885 -0.16419096
000390 cc 13 78 be 9a c2 83 be 3d 41 d9 bc 68 66 74 bc
       -0.24226302 -0.25734407 -0.026520366 -0.014916994
0003a0 c8 a3 bc be 26 83 85 bd 4f 96 bd 3e 88 ed 85 3d
       -0.36843705 -0.06519155 0.3702874 0.06539446
0003b0 a5 05 9e bd 7f 55 1e be 74 de 7a bd 36 fc fc bd
       -0.0771592 -0.15462302 -0.061247304 -0.12352793
0003c0 ac 9d 03 3e 29 08 52 3e 4e b6 87 bc 28 8a 15 3e
       0.12853116 0.20510925 -0.016566422 0.14603484
0003d0 4f a7 fc bc 00 32 4a 3e 98 38 9c 3d 9b 07 45 bd
       -0.030841498 0.19745636 0.07627982 -0.048102956
0003e0 a9 a5 83 be 5c 3d 49 bd d3 63 aa bd 2e 4b 35 3d
       -0.25712326 -0.049130782 -0.08319821 0.04426115
0003f0 20 a2 b0 be 65 0c 9f be fd a4 ad be 50 a2 dd bd
       -0.34498692 -0.31064144 -0.3391494 -0.10821974
