wakewords/en/christopher.onnx (onnx, 15218 bytes, 10 tensors)

dense_1/kernel/read:0 f4 [20, 1]
000000 b8 40 4a be 2f 4d 7d 3d 17 62 09 be 8a d7 3a 3e
       -0.1975125 0.061841186 -0.13416325 0.18246284
000010 b0 89 90 be e7 72 8f 3e 1c f3 c5 3e c8 17 9d 3e
       -0.28230047 0.2801735 0.3866204 0.30682206
000020 5b 17 00 3f 2c 96 59 be 65 c5 ab 3e 75 36 45 be
       0.5003564 -0.21248692 0.33549038 -0.19259055
000030 a7 81 88 3c 26 dc 1d be 9d f2 a6 3d a9 19 0e be
       0.016663386 -0.15416011 0.081517436 -0.13876976
000040 30 ee 51 be 8e 16 68 3e 63 7e 81 bd 09 11 18 3d
       -0.20501018 0.22664854 -0.063229345 0.03712562

ConstantFolding/net/strided_slice_enter:0 f4 [13, 20]
000000 70 cc c9 bc 47 15 f6 bd 25 11 86 bd da 6b 89 be
       -0.024633616 -0.12015777 -0.06546239 -0.26840097
000010 49 c6 95 bd 3d 4c 63 3c c2 c3 43 3e 73 bc 6f bd
       -0.073132105 0.013873157 0.19117644 -0.05852933
000020 fb 5b 9b 3d ed 9e 7e bd 4f f0 f0 3c 9c f7 91 3c
       0.07585903 -0.062163282 0.029411463 0.017818265
000030 62 a0 16 3e a5 29 75 3c 97 09 98 3d a7 b8 e2 bd
       0.14709619 0.014963542 0.07423704 -0.11070376
000040 12 35 bf bc e1 f9 65 3e 3a 9f 9c bc 51 40 4b 3e
       -0.023340736 0.22458602 -0.019118894 0.19848754
000050 8d e0 c1 3a 3b 7b 4e 3d a8 af 03 be 63 82 fd bd
       0.0014791653 0.05041049 -0.12859976 -0.12378385
000060 67 9a 09 be b9 b2 09 bc f6 04 9d 3a 9e db b1 bd
       -0.13437806 -0.008404427 0.0011979628 -0.08684467
000070 c6 f6 1d 3d 21 e0 fb 3c 3e 33 18 3d 57 f1 a4 bc
       0.03856542 0.030746521 0.037158243 -0.020134611
000080 80 f4 8f 3d f2 bb b7 3e 2e c5 80 3e ad d4 04 be
       0.070290565 0.35885578 0.25150436 -0.12971754
000090 c4 e4 dc 3c b3 1a 44 3c e7 ef c1 bd 33 ad bb 3d
       0.026964553 0.011969256 -0.09469586 0.091638945
0000a0 19 a7 29 3c 4a 18 a6 be 45 a2 81 3e 23 1c 03 3e
       0.010354781 -0.32440406 0.25319114 0.12803702
0000b0 ad 99 49 3e eb 5a ca bd 52 1b b7 bc b8 f0 fe 3b
       0.19687529 -0.098806225 -0.022351895 0.0077801608
0000c0 0a 91 a1 3c 7a d2 2e be 5a 1a 8e 3e fb 7d d1 bc
       0.01972248 -0.17072478 0.2775448 -0.025572767
0000d0 6c 39 c3 bd 8c e8 53 3b 3a 7a 8d bd aa a1 c9 3d
       -0.09532437 0.0032334654 -0.069080785 0.09845288
0000e0 47 a2 d7 bd 68 ab 43 3e cc dc 18 be a0 a0 fa be
       -0.10528999 0.19108355 -0.14927977 -0.48950672
0000f0 9a b5 a6 3d fc 41 18 bc 49 aa 47 bf 95 15 c9 3d
       0.081401065 -0.009293076 -0.7799421 0.098185696
000100 f3 47 0f 3e a0 2b c7 be 4b c4 33 3c 8d 7a 91 3d
       0.1399229 -0.3890047 0.010972093 0.07103453
000110 9c 6c 9b 3c 67 ab f6 3b 5a a9 9e bc 0d 2d 41 3c
       0.018972687 0.007527757 -0.019367862 0.011790526
000120 f9 db 23 bd 9b 3b 25 be 66 1d 40 3e fb d5 e0 bd
       -0.040004704 -0.16136019 0.18761215 -0.109783135
000130 fe 7a 3b be 08 c5 38 be 3b e3 5b 3d 84 c7 a0 3c
       -0.18308637 -0.18043911 0.0536835 0.019626386
000140 6a 55 ab bd bf 62 ba be f5 07 d0 3d 6f 7e 0c 3f
       -0.08365901 -0.36403462 0.10157768 0.5488042
000150 aa d1 0f be 3b 9c b1 3e 3c 35 dc bd b6 bd 7b bd
       -0.14044824 0.34689507 -0.10752341 -0.06146022
000160 11 65 04 be ad f6 cc 3d e8 2e c2 bd 28 d6 01 be
       -0.12929179 0.10007987 -0.09481603 -0.1267935
000170 fb 25 9f 3c 1a 1d 5c be d4 32 49 be 6a 06 bc be
       0.01942729 -0.21495476 -0.19648296 -0.36723644
000180 65 8e 6b 3d 47 71 dd be 64 a4 c4 bd ed d6 d8 3d
       0.057508845 -0.43250486 -0.096016675 0.10587869
000190 8d 61 c8 3e 00 68 c0 bc ff 5f f2 bd 1f 92 9b 3e
       0.39136925 -0.023487091 -0.11834716 0.3038492
0001a0 91 d3 08 be 64 77 82 3e b5 6b 87 3e 6d 7c 47 be
       -0.13361956 0.25481713 0.2644936 -0.19481058
0001b0 d8 42 0a be 4d b4 be bc 88 34 ae bc 35 0a 87 bd
       -0.13502061 -0.023279333 -0.021265283 -0.06593744
0001c0 e3 19 ae 3d 38 b2 4a 3e 3d 34 08 be 58 48 ee bd
       0.08501031 0.19794548 -0.13301177 -0.11634892
0001d0 8e 56 ec 3e 0b c1 92 be 9c 90 f7 bc f6 c6 05 be
       0.46159786 -0.28662905 -0.030220322 -0.13064179
0001e0 6a c2 49 bd 2f ed c6 be e2 a7 87 3e 4c 1c e1 3d
       -0.049257673 -0.38852832 0.26495272 0.10991725
0001f0 4c b5 b2 3e e2 af bb ba 20 a8 ca bd 2b 49 b0 3e
       0.34903944 -0.0014319385 -0.098953485 0.34430823
000200 c4 52 19 3d 96 dc ea be d3 a8 87 be 50 5a b6 be
       0.037432447 -0.4587142 -0.2649599 -0.35615778
000210 e9 5f 9c be 50 38 08 3e cb c5 82 be 5d 7b e0 be
       -0.30541924 0.13302732 -0.2554153 -0.4384412
000220 35 52 c0 3e 58 3c c4 be 48 98 78 be 18 f5 be be
       0.3756272 -0.3832729 -0.2427684 -0.37296367
000230 3c cf 5c be 32 57 a3 3e 27 8f 0d 3d dc b3 c3 3c
       -0.21563429 0.31902462 0.03456035 0.023889475
000240 30 a8 e1 3d 6c ad c3 3b 7f e2 1a bd fc d7 ec 3d
       0.11018407 0.0059716012 -0.03781366 0.11564633
000250 bd 8d 34 3e 82 b7 11 be 50 22 81 be 41 12 7a 3e
       0.17632194 -0.14230159 -0.2522149 0.24421026
000260 6d eb ba 3e ab b1 8c 3d cd d4 e0 3d fc 78 21 3e
       0.3650774 0.06869825 0.109780885 0.15768808
000270 93 fb 3d be a2 57 ad 3d 06 f7 90 3d 6c 7b c7 3e
       -0.18552999 0.0846398 0.07078366 0.3896135
000280 ad 29 3b 3e 63 33 ea 3d 6e ce ab 3d 0f 59 98 be
       0.18277617 0.114355825 0.08388983 -0.29755446
000290 cb 9f f6 3c ac bb 82 3e 76 76 86 3d 9c 9f 3b bc
       0.030105492 0.25533807 0.065655634 -0.011451628
0002a0 84 e1 0d 3d f0 69 ed 3d 19 ad 39 3e 7c 4e 98 3e
       0.034638897 0.115924716 0.18132438 0.2974738
0002b0 00 04 e3 3b 6e 81 0a be 7f 3d 0d bd e6 10 06 3f
       0.006927967 -0.13525936 -0.034482475 0.52369535
0002c0 86 e1 8a 3d d4 04 4f bd 8e ae cd 3d 47 a0 3a be
       0.067812964 -0.050541714 0.10043059 -0.18225203
0002d0 03 93 c2 3d b8 3f 6e 3e 8a 94 0a be c4 e3 21 3e
       0.095006965 0.23266494 -0.13533226 0.15809542
0002e0 95 4d 3f bd ef 89 6a be 52 af 5c be b1 d2 25 be
       -0.046704847 -0.2290418 -0.21551254 -0.16193654
0002f0 d2 47 de bd 1b e9 b5 3e 32 ec d7 3d a1 c1 4a be
       -0.108535424 0.35529408 0.105430976 -0.19800426
000300 c4 42 ec 3d 5c 46 27 bd c9 d5 1b 3d ae b4 84 be
       0.11536172 -0.040838584 0.03804568 -0.25919098
000310 0d 35 57 3e f5 e2 db bd 6e b3 67 be a5 38 4f be
       0.21016331 -0.10736648 -0.2262704 -0.20236452
000320 19 c8 8e bd 45 85 92 be d1 8e a0 3e 29 bf 9d be
       -0.06971759 -0.28617302 0.3135896 -0.30809906
000330 cf 81 52 be ef 67 b2 be 9e fc 2c 3d 53 dd c3 3d
       -0.2055733 -0.3484492 0.042233102 0.095636986
000340 d2 ea 0f 3e 8a 92 f3 bd 4f 7f f7 bc 20 68 86 3d
       0.1405442 -0.118931845 -0.030212073 0.06562829
000350 c6 b9 82 bb 98 73 8b be 6b 85 81 bd 18 82 b0 3e
       -0.003989431 -0.2723663 -0.063242756 0.34474254
000360 ac a4 1b 3e db b7 17 bd 9a 9f 1a bd eb c4 dd bd
       0.15199536 -0.037040573 -0.037749864 -0.10828575
000370 43 97 e6 3c 09 96 6a 3e 6f d2 a3 be 09 01 4e bd
       0.0281483 0.22908796 -0.31996486 -0.050293956
000380 8c bd 23 be 96 0c f9 bd 45 5a 1c bd 93 74 f5 bd
       -0.15990275 -0.12160604 -0.038172025 -0.119851254
000390 43 fa 03 3d 8f 89 86 be 41 6a 79 3c 88 8a 8f be
       0.03222109 -0.26276824 0.015223087 -0.28035378
0003a0 ef f8 4a 3d af f3 8d 3e ab 8c ea bd 19 e4 09 bf
       0.049553808 0.27724978 -0.114526115 -0.53863674
0003b0 39 bf af bd 32 be 25 bd 37 b4 b6 3d 7a b3 49 be
       -0.08581395 -0.040464588 0.08921092 -0.19697371
0003c0 99 5f 15 3d 0c 1f a0 3e 60 05 88 3e c7 50 85 3d
       0.036468122 0.31273687 0.265666 0.06509548
0003d0 f7 da 72 bd ab 29 18 3e 98 cf a4 3d b8 16 11 be
       -0.059290852 0.14859645 0.08047408 -0.14168823
0003e0 df b3 5e 3e 78 56 a9 3d 5e 2e d7 3d d0 86 10 3e
       0.21748303 0.08268446 0.10506891 0.14113927
0003f0 5c dd 82 bc 75 af 7b be 10 55 09 3d 87 8c 28 be
       -0.015974693 -0.2457865 0.033528388 -0.16459857

ConstantFolding/net/strided_slice_8_enter:0 f4 [20]
000000 b6 29 3f 3e 8f a6 0c be d4 f0 6e bd 3d 92 79 be
       0.18668255 -0.13735412 -0.05833514 -0.24372192
000010 09 71 af 3e 99 b4 42 be 50 98 f1 be ca fb 9b be
       0.34265926 -0.19014205 -0.47186518 -0.30465537
000020 09 5c 1d bf 7e d3 01 3f ba 0b 94 be 00 1b 7a 3e
       -0.6146856 0.50713336 -0.28915197 0.24424362
000030 08 ef 85 3e 7f 96 cc 3e 0f 2a 06 3d 7e 6c cc 3e
       0.2615893 0.3995857 0.032754954 0.39926523
000040 38 08 7b 3e e1 39 b8 be 8c 93 c0 3e 9f d6 b1 be
       0.24514854 -0.35981658 0.3761257 -0.34734055

ConstantFolding/net/strided_slice_7_enter:0 f4 [20]
000000 7e aa 65 3e 8e cd 1a 3e 01 e3 24 3f 43 69 96 3e
       0.22428319 0.15117475 0.6440888 0.29377183
000010 19 40 50 bd e2 a6 57 3e 05 8b c2 3c 9a 93 8c bd
       -0.05084238 0.21059754 0.02374793 -0.0686409
000020 57 f7 a4 3d 31 10 a1 bd 20 c7 95 bc ee 01 91 3d
       0.08054989 -0.078644164 -0.018283427 0.07080446
000030 aa 7f 41 3e d0 19 12 be b8 76 bb 3e 88 55 52 b9
       0.18896356 -0.14267659 0.36614013 -0.00020059024
000040 13 85 e5 3c 8c a5 a1 bd 67 c3 f4 bd fd df 0d bc
       0.028017556 -0.07892904 -0.119513325 -0.00865936

ConstantFolding/net/strided_slice_6_enter:0 f4 [20]
000000 71 a9 b9 3c 76 65 90 be 79 98 0e 3e b8 dc ff 3e
       0.022663804 -0.2820241 0.13925351 0.49973083
000010 90 ff 52 3e 7d 68 99 3e 53 89 8f 3e b1 b4 4b 3e
       0.20605302 0.2996253 0.28034458 0.19893147
000020 c1 01 1f 3f c4 f7 b1 3e 89 0c bf 3e 7e 91 8d bd
       0.6211205 0.34759343 0.3731425 -0.06912516
000030 39 26 e4 bd 12 2b 6e bd f1 52 82 be e1 71 e7 be
       -0.11140103 -0.058146544 -0.25453904 -0.4520407
000040 60 7b a9 3d 4a f4 65 3e 2b 01 61 3e 65 06 aa 3e
       0.08275485 0.2245647 0.21973102 0.33208004

ConstantFolding/net/strided_slice_5_enter:0 f4 [20, 20]
000000 1e c6 91 3e 8a 0f 50 3d 1d e0 d0 be e3 fc 9f 3d
       0.28471464 0.05079607 -0.40795985 0.07811906
000010 56 4f a4 3e d9 94 71 bd 1f bc bc 3d 13 d4 d5 bd
       0.3209178 -0.058979843 0.09215569 -0.104408406
000020 54 4f b4 3e 27 ab 6c be 35 86 19 bf 65 04 6d 3e
       0.35216773 -0.23112164 -0.5997041 0.23146208
000030 dc 0f 80 3e b3 8d 66 bd 19 94 a5 bd d0 19 1f 3e
       0.250121 -0.05628748 -0.08084888 0.1553719
000040 13 bd 07 bd d2 2e de be 03 7e 01 3c 39 d6 52 3a
       -0.0331393 -0.43395096 0.007903579 0.0008042786
000050 f9 54 22 be 25 c4 6b 3e ee 77 22 3e e4 03 b1 3e
       -0.15852727 0.23024042 0.15866062 0.3457328
000060 54 21 4d bc 6c d0 22 3d 03 ef cb 3d 64 79 ef 3d
       -0.012520153 0.039749548 0.09957697 0.11693075
000070 09 84 ba be 39 74 f8 bd 01 2c 7f bd 31 90 8e be
       -0.3642886 -0.12131543 -0.062297825 -0.27844384
000080 82 82 e4 bc 8f 21 58 be 7c 9b 0d 3d 69 2c 36 be
       -0.027894262 -0.21106552 0.03457211 -0.17790379
000090 8a b3 9c be 8a 0d 0a 3f 1b 6c 75 3d ac f4 e7 bd
       -0.30605727 0.5392691 0.05991755 -0.11325964
0000a0 15 96 0b bc e2 37 7f 3e 0e da d0 3c 7a 09 3f 3d
       -0.008519669 0.24923661 0.025494602 0.046639897
0000b0 0e e3 be 3d 7f f4 eb bc 88 f1 c0 3d 44 5d 02 be
       0.09320651 -0.028803108 0.094210684 -0.1273089
0000c0 2d 6b aa 3e 12 cb a4 bd 41 cd 0b 3e 50 35 92 bb
       0.33284894 -0.08046545 0.13652517 -0.0044619218
0000d0 0c 19 a6 bb 0d 89 9d bd 6a 57 85 3e 00 f8 46 3e
       -0.005068904 -0.07692156 0.26043254 0.19430542
0000e0 d7 15 ca 3b a6 89 93 be c4 ce aa be 36 49 90 3e
       0.0061671543 -0.28815955 -0.33360875 0.28180856
0000f0 74 0e 74 be 2b 32 33 3e 41 04 2e 3e e7 da cb 3d
       -0.23833638 0.17499606 0.1699381 0.09953862
000100 af 2a c8 bd 66 37 bb 3d fd b8 d1 3d d9 ae 05 bd
       -0.09773766 0.09141426 0.10240362 -0.03263745
000110 86 7b 1f 3f 64 80 12 be 91 2b cc 3e c2 a2 40 be
       0.62297857 -0.1430679 0.3987699 -0.18812087
000120 5b b3 b0 bd ab f1 c0 3d 73 fd 46 3e 68 93 98 be
       -0.08627959 0.094210945 0.1943262 -0.29799962
000130 7c 80 0f 3d a6 18 9d be 74 fb 6f be 38 a6 8c 3e
       0.03503464 -0.30682868 -0.23435766 0.27470565
000140 70 02 75 bd 4e 30 a2 3c 88 12 b1 3d f6 98 86 3e
       -0.059816778 0.019798424 0.08646113 0.26288575
000150 dc cf 30 3d dc 54 e2 3e e4 20 8d 3e 60 3c 32 3e
       0.04316698 0.44205368 0.27564156 0.17405844
000160 ad 2f a8 3a 40 f1 45 3e 8a d9 5f 3e af 01 07 be
       0.0012831591 0.19330311 0.21860328 -0.13184236
000170 04 f4 3d be 2a bb 38 3e 77 c3 28 3e d9 83 9b bd
       -0.18550116 0.18040147 0.16480814 -0.07593507
000180 ed 7a c1 bd 07 9a ab be 2a f9 cd 3b f8 5e 86 be
       -0.09447274 -0.3351595 0.006285806 -0.2624433
000190 23 0a 76 be e9 ce 8f 3d 15 80 2d be fa e1 eb bd
       -0.24027304 0.07021887 -0.1694339 -0.11517711
0001a0 a5 55 90 bd 91 c2 d6 3d f9 77 cb ba bd 9b aa 3d
       -0.070475854 0.10486329 -0.0015523426 0.08330486
0001b0 b3 0d 4f be 3c 94 db 3c b1 11 02 be 8e 74 35 3e
       -0.2022007 0.026804082 -0.12702061 0.17720243
0001c0 36 73 45 be fa 2c 1a be 60 b0 b0 3e 34 93 90 3b
       -0.1928223 -0.1505622 0.34509563 0.004412079
0001d0 d9 54 7b be 72 69 41 3e 26 cb 66 bd b7 ae 83 3e
       -0.24544086 0.1888788 -0.05634608 0.25719234
0001e0 57 6f 38 3e df ff 8d 3e 4a 91 e0 bd 61 9c 0d bd
       0.18011223 0.27734277 -0.10965212 -0.034572963
0001f0 d4 7f f2 bd c7 2e a3 be 46 5b 07 3e 70 d7 06 be
       -0.118407875 -0.31871626 0.13218412 -0.1316812
000200 7e 09 af bd 4b e7 48 bd 72 ff 08 3f 05 6d b9 be
       -0.08546732 -0.049048703 0.5351478 -0.36215988
000210 b4 a9 fd 3d 86 62 7f be 8d ef bc 3c 29 fc c3 3d
       0.12385884 -0.24939927 0.023063445 0.0956958
000220 4e 38 bd 3e d9 93 d2 bc dc ac 2b be 0c 53 00 be
       0.3695702 -0.025705265 -0.1676516 -0.1253168
000230 db 90 24 3e c2 83 06 3e ab 89 7c bd 7f 74 c7 3d
       0.16070883 0.13136199 -0.061654728 0.09739017
000240 5e 83 2e 3e 97 17 63 3e b0 28 90 bd a2 80 3f be
       0.170423 0.22176968 -0.070390105 -0.18701413
000250 e3 7c ae bd 4c cf 9e be b2 6f c2 3e 43 39 2a be
       -0.08519914 -0.3101753 0.37975842 -0.16623406
000260 d6 fb 94 3e 6b c2 0b 3e 22 00 41 3e 6f b1 11 be
       0.29098386 0.13648383 0.18847707 -0.14227842
000270 b9 a3 0e bd 88 34 8e 3b 9a 94 94 be 43 29 fb bd
       -0.034824107 0.0043397583 -0.29019624 -0.122637294
000280 c3 b2 fe bd 7f d2 85 be ed b2 97 bd 5b 97 0b 3e
       -0.1243644 -0.26137158 -0.07407174 0.13631956
000290 9f 48 df bb aa e1 b5 bc 85 4f 39 3e e4 0a e7 bc
       -0.006814077 -0.022202332 0.1809674 -0.028203435
0002a0 0a f5 98 3e 65 26 2b 3e 31 4a f4 3e fb 35 55 be
       0.2987445 0.16713865 0.47712854 -0.20821373
0002b0 29 d3 d9 be 0b 58 de 3e 2b 09 d7 3d 97 e6 c8 3d
       -0.42543915 0.43426546 0.104997955 0.098096065
0002c0 bb 96 e8 bd e9 9e 5d be 1f 2f 8e 3d 16 71 bf be
       -0.113568746 -0.2164265 0.069425814 -0.37390965
0002d0 d7 25 3f bd 39 f0 c7 3c 6a 08 77 be 1c 27 2b bd
       -0.046666946 0.02440654 -0.24124303 -0.041785344
0002e0 29 13 f9 3d 78 6b 03 bd 4b 4f 93 be 8f 33 91 bd
       0.12161858 -0.032084912 -0.28771433 -0.07089912
0002f0 bf fa 86 3e 9d 45 9b 3e 52 b4 9e 3e be ec 11 3c
       0.2636318 0.30326548 0.30996948 0.008906541
000300 81 e4 0f 3d 93 68 d2 3c 0a 89 41 3e ae 2b ae 3e
       0.035130028 0.02568463 0.18899933 0.340177
000310 8e 66 a0 be 65 01 fe bc 8b 10 2f 3e 38 3f 02 bd
       -0.31328243 -0.031006524 0.17096154 -0.03179857
000320 ee cb 82 bc 3a 69 6d 3d fe df 32 be 63 97 cd be
       -0.015966382 0.05796168 -0.17468259 -0.4015456
000330 60 5e e4 bd b9 10 22 bd 65 05 ac 3e 9b 22 71 be
       -0.11150813 -0.03956673 0.33597866 -0.23548357
000340 81 98 c4 3e b2 cb 15 3e d3 24 87 3e 0d a0 08 bc
       0.383976 0.14628485 0.26395282 -0.00833894
000350 82 e2 37 be e3 5d 9b 3d 7c a4 22 3e c6 26 8c 3e
       -0.179575 0.07586267 0.15883058 0.27373332
000360 b9 e7 32 3e 25 13 a4 3d 42 f3 c2 3e 6c 55 38 3e
       0.17471208 0.08011464 0.38076216 0.18001336
000370 7f 48 b9 3e d9 ff bb 3e 34 32 0a be 9f 31 84 be
       0.36188123 0.36718634 -0.13495713 -0.25819108
000380 ce 31 b2 3e af 2b 4c be 49 a0 01 bd 4c 16 56 be
       0.34803623 -0.19938539 -0.031647 -0.20906943
000390 cd 5c 15 be 93 3b d4 3e ba 2f 88 bd 4b 24 2b be
       -0.14586182 0.41451702 -0.06649728 -0.16713063
0003a0 19 89 a3 3d df ea 43 be 99 3c d0 3e d0 9f e5 be
       0.07985134 -0.19132565 0.40671232 -0.4484849
0003b0 c3 23 f6 bd 24 89 30 bd a9 c7 5a 3e 66 41 10 bb
       -0.1201854 -0.043099537 0.21365227 -0.0022011637
0003c0 b0 d1 34 3d 51 10 8f 3e 94 26 3a bf 64 c8 f7 bd
       0.044145286 0.27942136 -0.72715116 -0.12098768
0003d0 5a af c5 bb d2 a5 15 3e 4c 47 0e bc c9 67 8e 3e
       -0.0060328664 0.14614037 -0.008683991 0.27813557
0003e0 b4 32 1c be 7c 62 b3 be 13 cd 14 bf f7 89 f7 3d
       -0.15253717 -0.35036075 -0.5812542 0.120868616
0003f0 ce 0f 83 3d 15 20 84 bd bd 3a 2d 3f 46 2c f0 bd
       0.06399499 -0.06451432 0.6766775 -0.117271945

ConstantFolding/net/strided_slice_4_enter:0 f4 [13, 20]
000000 ea 09 96 3e bb fe 60 be e0 90 95 3e e4 16 9e 3d
       0.2930444 -0.21972172 0.29212093 0.0771921
000010 7f f5 24 3e cc a4 15 3e 64 1a ab 3e 8a 95 b5 3d
       0.16109274 0.14613646 0.33418572 0.08866413
000020 12 11 ec 3c 53 65 e5 3d 19 cb 33 be e1 26 39 3e
       0.028816734 0.11200967 -0.17557944 0.18081237
000030 92 c4 c1 bd 0f 0b 5c bd 92 af af be 74 3f 47 be
       -0.09461321 -0.053721484 -0.34313637 -0.19457799
000040 a6 6d 0e 3e 81 b2 72 3e 0d 4f 09 be 50 fb c9 bd
       0.13909015 0.23700906 -0.13409062 -0.09862387
000050 98 7f 0d 3a 07 93 c4 bd e8 cd c8 3d ab 18 86 3d
       0.0005397736 -0.09598356 0.098048985 0.06547674
000060 44 3d 17 3e 7e 02 5b 3e f9 af 4c be 68 3b 4b be
       0.14769465 0.2138767 -0.19989003 -0.1984688
000070 75 fc d7 bd a9 f8 d0 3d 77 0c 6c 3e 00 32 d3 be
       -0.10546199 0.10203678 0.2305163 -0.41249084
000080 1c 73 a8 3e 72 9e c0 bd b3 1a 0f be 9e cd 68 be
       0.3290032 -0.09405221 -0.13975029 -0.22734687
000090 6c 60 d3 3d ac cf 15 be ae 85 8b bd 0a 3f d6 be
       0.103211254 -0.14630002 -0.06812607 -0.4184497
0000a0 5e fd 02 3c 94 00 db 3d 7d 1e bb bb 12 0e 71 bd
       0.007994978 0.1069347 -0.0057104216 -0.05885131
0000b0 50 cb 96 be 42 77 b9 3e 46 e8 34 3e cf 7d 9a bd
       -0.2945199 0.362238 0.1766673 -0.07543527
0000c0 ca 56 19 3e 42 4d 4b 3e e3 fe 5f bd a5 03 2d 3e
       0.14974514 0.1985369 -0.05468644 0.16895922
0000d0 e2 b3 f7 3e d6 ae 9d 3d ff c8 e8 3c 65 a5 66 3e
       0.48379427 0.07699363 0.028416155 0.2252403
0000e0 2e f7 07 3f 83 ef e1 bd b2 50 21 be 24 75 1f 3d
       0.5311154 -0.11032011 -0.15753439 0.038930073
0000f0 38 11 8e 3e c0 65 c0 bc 20 fd 06 3f 71 80 dc 3d
       0.27747512 -0.023486018 0.5272999 0.10766686
000100 09 7a 98 3d e9 86 63 bd 43 05 a8 3d 10 18 1f 3e
       0.07445151 -0.055548582 0.082041286 0.15536523
000110 b1 06 9a 3c fb 33 a6 3b 5e d7 2c be f4 e4 0a bf
       0.018802019 0.0050721145 -0.16879031 -0.54255605
000120 8a 0d a6 3d fd 51 08 3e 87 13 2c be 51 eb 9f be
       0.08108051 0.13312526 -0.16804324 -0.3123422
000130 fd b9 23 3e 3c 4b 48 bb e6 b6 1b 3f a9 e9 90 3b
       0.15988918 -0.0030562421 0.60825956 0.0044223857
000140 19 31 65 3e d6 31 25 3e 48 db ce be 28 13 64 bd
       0.2238201 0.16132292 -0.40401673 -0.05568233
000150 97 6e ec 3d bb 46 15 3e 58 11 be be 37 b2 2c be
       0.11544531 0.14577763 -0.37122607 -0.16864859
000160 a5 55 93 3d b0 ad 5e be 85 ae cf bd 6c 09 88 be
       0.0719407 -0.21745944 -0.10140709 -0.26569688
000170 e1 55 4a be b8 a2 b8 3d d4 a1 6f 3e 3f b4 17 3d
       -0.19759323 0.09015411 0.23401576 0.03703713
000180 42 b8 23 3e 6a 07 33 3e 94 cd 88 be 13 00 55 3e
       0.15988258 0.17483297 -0.26719344 0.2080081
000190 1b 1b 54 bd 96 9c ae 3e 4a 57 8e be b6 b5 82 be
       -0.051783662 0.3410384 -0.2780097 -0.2552926
0001a0 ec c3 87 bc 28 40 86 38 ec 07 7b 3e d8 02 da be
       -0.016572915 6.401568e-05 0.2451474 -0.42580295
0001b0 db ab 33 3d 3b 5d 90 be 86 7a cd 3d 2b 59 a7 bc
       0.043865066 -0.2819613 0.10033135 -0.02042826
0001c0 6e 52 2f bd 88 c0 67 3d b9 a8 9c 3e 70 21 f5 bd
       -0.04280322 0.056580096 0.30597475 -0.11969268
0001d0 5d 93 50 bd aa fc df bd cd 28 0f 3e 1b ab 35 be
       -0.050921787 -0.10936864 0.13980408 -0.17741053
0001e0 e2 d6 87 3e 23 dd 76 3e 0c 1a d7 bd 5a 13 18 be
       0.2653113 0.24107794 -0.10503015 -0.14851132
0001f0 00 0b 33 3e e2 91 e6 bd 96 15 2c be 7e 59 f1 3e
       0.17484665 -0.11258294 -0.1680511 0.4713859
000200 80 bd 60 3e 3c 25 02 3f 5f 62 aa 3e 15 f3 da 3e
       0.21947289 0.50838065 0.33278176 0.42763582
000210 72 c2 31 3e 64 a7 ee 3e 11 7c 1e 3e 72 f0 69 be
       0.17359331 0.46612084 0.15477015 -0.22845629
000220 44 83 34 3e 04 4d d1 be d7 8e 93 be e0 ae a5 bd
       0.17628199 -0.4087907 -0.28819916 -0.080899954
000230 70 4b 0f bf bb 6d cb 3e 0c 93 e6 bd 44 40 91 3e
       -0.55974483 0.39732155 -0.11258516 0.28369343
000240 d0 31 db 3e 33 52 15 be 96 02 95 3b 27 49 d9 3d
       0.4281144 -0.14582138 0.0045474274 0.10609656
000250 72 6e 3b be 5f 2e 0e bb 66 21 c3 bc b5 f8 cf 3b
       -0.1830385 -0.002169512 -0.023819637 0.006346787
000260 f0 d2 1f be 3a ea 48 be 33 7b 94 be f4 eb bc bd
       -0.1560781 -0.196206 -0.29000244 -0.09224692
000270 2f 85 ff 3e 45 aa 91 3e e9 39 03 3e 7b df 80 bd
       0.499063 0.28450218 0.1281506 -0.062926255
000280 6a 95 bd 3d ea b3 6b be 06 2a b5 be 59 c8 88 3d
       0.09257014 -0.2301785 -0.35383624 0.06678838
000290 42 92 ae 3e e6 89 c4 3d 52 a8 69 3d ab bf c7 bd
       0.3409596 0.095966145 0.05704529 -0.09753355
0002a0 02 e0 20 3e 06 45 65 3e e2 a6 f4 be 24 4b 3b 3e
       0.15710452 0.22389612 -0.4778357 0.18290383
0002b0 73 2e 9d bd 51 3f 96 be 05 26 ba 3d ba 1f c4 bd
       -0.07674875 -0.29345182 0.09089283 -0.09576364
0002c0 4e 81 86 be fa df e3 3d e1 f4 92 3e fa 2f 6b 3c
       -0.26270527 0.111267045 0.28702453 0.0143547
0002d0 48 ab 5e be 22 ff a0 be 85 83 9c 3e b0 64 0f 3e
       -0.21745026 -0.3144465 0.3056909 0.14003253
0002e0 15 39 34 be 77 8f 2f 3e 2b c0 34 3e 5b da 6b be
       -0.175999 0.17144571 0.17651431 -0.23032515
0002f0 ba 11 cc be 09 87 05 bf 0d 79 a6 bd 7a 05 c6 3d
       -0.39857274 -0.5215917 -0.08128557 0.09669013
000300 79 bd 31 be 24 83 7c 3e 42 60 73 3d ae 34 51 be
       -0.17357434 0.24659401 0.05941797 -0.20430252
000310 9e e2 8a bd 45 aa ec 3d 2f aa 5f bc bc 54 94 3e
       -0.06781505 0.11555914 -0.013651415 0.28970897
000320 2e 1a b6 3e b3 f4 ad bd a6 1d 10 3e 4c 59 df bc
       0.3556685 -0.08493938 0.1407381 -0.02726426
000330 20 6f f6 be f3 78 e6 bd a6 fa 8e 3d fe 66 05 3d
       -0.48131657 -0.11253538 0.06981401 0.032568924
000340 74 39 3f 3d a0 f7 21 3d ba ed 05 be b0 47 ed 3d
       0.04668565 0.039542794 -0.13078967 0.11585939
000350 5c 8d f5 3c 8e 42 3d 3e ce fd a6 3e 99 b3 03 be
       0.029974632 0.1848242 0.32615513 -0.1286148
000360 1e 80 12 3e 30 2c 14 bf bd 73 20 be ad 05 e9 bc
       0.14306685 -0.57879925 -0.1566915 -0.02844509
000370 4c d5 44 bd 4d ff 1f 3d 1d 65 2a bc 62 91 7a be
       -0.04805498 0.039061833 -0.010400084 -0.24469522
000380 75 ba 94 bd d5 e8 9a bd 54 ec a7 3e 64 45 7b 3b
       -0.07262126 -0.075639404 0.32797492 0.003834092
000390 62 57 cc be d4 42 5b 3e 5d f0 2b 3d 26 b1 a0 be
       -0.39910418 0.21412212 0.041977275 -0.31385154
0003a0 e8 6f ba 3d 9a 2b ab 3d 38 49 c4 3d 4b 4d 2e ba
       0.09103376 0.08357926 0.09584278 -0.0006649091
0003b0 8e 3c c9 3a 8a 86 29 be c1 38 52 be 2c b8 9f bd
       0.001535313 -0.16555229 -0.20529462 -0.077988
0003c0 81 6e 93 bd 6c 1e 1d 3e c4 1d 10 be c5 a5 7c 3e
       -0.07198811 0.15343636 -0.14073855 0.24672611
0003d0 b9 fc af bd e3 7f 70 bd d5 c5 82 be bd 84 0d 3d
       -0.08593125 -0.058715712 -0.2554156 0.034550417
0003e0 58 d4 f8 b9 93 e7 e0 bd 54 27 09 3d 05 75 92 bd
       -0.00047460455 -0.10981669 0.03348477 -0.07151226
0003f0 93 b0 9b 3e a0 1c 2f be 0d 2a fa 3c 97 d9 eb 3e
       0.30408153 -0.17100763 0.03053763 0.46064445

ConstantFolding/net/strided_slice_3_enter:0 f4 [20, 20]
000000 d6 46 0a 3f 7d 2e 3c 3e ad 2e a8 bd 3b 39 4a bd
       0.5401434 0.18377109 -0.08212028 -0.049370985
000010 a4 0c c3 3e 17 9b b1 be 17 d7 27 be 9f 7d be be
       0.38095582 -0.34688637 -0.16390644 -0.37205216
000020 a6 0a 8e 3d ae 64 70 bd 14 8f 19 3d 2e f4 72 bd
       0.06935625 -0.058689766 0.037489966 -0.0593149
000030 4b 74 b5 3d 02 a2 96 be cc 33 16 bf 38 38 6f 3c
       0.08860072 -0.29420477 -0.58672786 0.014600806
000040 4a e3 f6 bd 98 27 d3 be c8 0b f9 3d 0c 56 9b 3a
       -0.12055071 -0.41241145 0.1216045 0.0011851205
000050 8d 07 90 bd 7c 4e fe be 89 fc 12 3e 6b d9 a0 3e
       -0.0703269 -0.49669254 0.14354147 0.31415877
000060 c5 90 04 be fb 7b 74 3c b6 9b 79 3e c6 f6 a8 be
       -0.1294585 0.014922137 0.24375805 -0.33000773
000070 38 23 0a be 4e b5 d5 3e 5b 14 8f 3e 90 54 c1 bd
       -0.13489997 0.41739887 0.27945217 -0.09439957
000080 ae 46 e6 3d 68 55 0a be 55 b0 fc 3e 3b 39 90 3e
       0.1124395 -0.13509142 0.4935328 0.28168663
000090 9a b4 af 3e a8 a9 d2 3d d7 b8 57 3d 2c 1f a6 bd
       0.34317476 0.102862656 0.05266651 -0.08111414
0000a0 3f fc 3a 3e ff 82 6b 3c b1 a8 c5 3d 81 5e 16 3d
       0.18260287 0.014374494 0.09651316 0.03671122
0000b0 9b 41 d4 be da 58 d1 3e d9 fe e9 3d 51 5c 65 bd
       -0.41456303 0.408881 0.114255615 -0.055996243
0000c0 53 92 c5 3d ba a8 4b 3d e8 be 96 3e a0 cf 83 be
       0.0964705 0.049721457 0.29442525 -0.25744343
0000d0 88 55 8e bd 99 32 4b 3e e3 95 5e 3d cb e7 88 be
       -0.069499075 0.1984352 0.054342162 -0.26739344
0000e0 15 82 da bd e1 71 29 3e 78 3c 8d bc 3d 2f 45 3e
       -0.106693424 0.16547348 -0.017240748 0.19256301
0000f0 e2 a0 4b 3e c4 b6 c7 3e a3 f4 ca 3e 40 7a fb 3c
       0.1988559 0.39006627 0.39639768 0.030697942
000100 e4 4f 00 3e b0 c8 7d 3e c2 9a e2 be 8d 91 5a be
       0.12530476 0.24783587 -0.44258696 -0.21344586
000110 2c 6f 17 be 8e 4c ce bc 6a f2 03 3d 4a fa 03 be
       -0.14788502 -0.025182988 0.032213606 -0.12888446
000120 62 e8 d8 3d a3 32 87 3e a4 7c 05 be 9d 25 cf 3d
       0.105911985 0.2640582 -0.13035828 0.10114596
000130 c5 c3 59 3e b7 0d a2 3d 35 7c a8 3e 3a c5 00 3d
       0.21266086 0.07912772 0.32907262 0.03143809
000140 a6 76 2f be 89 2f 15 be 9e fe 6e 3e 4a 13 74 bd
       -0.17135105 -0.14568914 0.23339316 -0.059588708
000150 5d 92 a6 be 08 22 d5 bc 4b f8 36 3d 91 eb 9e bc
       -0.3253354 -0.026017204 0.044670384 -0.019399436
000160 a5 ef 00 bf e3 e5 4f bd 9f 10 e6 3e bf d6 d1 3c
       -0.5036567 -0.050756346 0.44934556 0.025615094
000170 48 d4 04 bd b1 ae 16 be eb 1e 90 3b 5f ec f4 3e
       -0.03242901 -0.14715077 0.004398217 0.47836587
000180 2f e3 80 3e 3a 6c de bd 48 c9 01 bb 1c 23 61 3e
       0.25173327 -0.10860486 -0.001980381 0.2198605
000190 93 90 50 3e 97 52 2c be 80 db 2b 3e 36 74 87 3e
       0.2036765 -0.1682838 0.16782951 0.2645585
0001a0 3a 58 05 be 16 dd 40 be e1 93 ba 3d 64 43 f3 3d
       -0.13021937 -0.18834338 0.09110237 0.11878088
0001b0 a6 92 5c 3c 94 8e 86 bd 9a 30 2b 3e ce 5a 27 3e
       0.013462698 -0.06570163 0.16717759 0.16343233
0001c0 66 11 b3 bd 4f a0 cf 3e 29 22 97 3e c2 f1 e3 3d
       -0.08743553 0.40551993 0.2951825 0.11130096
0001d0 12 d2 a5 bd 54 32 bd 3e 6a 1f bd 3e 3a cd 22 3a
       -0.08096708 0.3695246 0.3693803 0.0006210391
0001e0 b0 53 47 3e 4d 4d 14 bd 47 a8 11 3e 1c 02 8f 3e
       0.19465518 -0.036206532 0.14224349 0.27931297
0001f0 d3 a5 8c 3e a7 c2 a6 be d5 d8 c8 3d 9c c9 10 3e
       0.27470264 -0.32570383 0.098069824 0.14139408
000200 67 f7 28 3e 01 cb 99 be 7b b1 fa 3c 97 20 2d be
       0.16500627 -0.30037692 0.030602207 -0.16906963
000210 09 40 92 bd 3a 5a 72 3d 96 3e 53 3e f9 82 52 3e
       -0.0714112 0.059168078 0.20629343 0.20557775
000220 1a 65 97 be 93 54 2f be cd c8 9c 3e 33 df 12 bd
       -0.29569322 -0.17122106 0.3062195 -0.03585739
000230 fd 7a 70 bd ff 39 82 3e a5 39 4a be 8d 5c 63 bd
       -0.05871104 0.25434873 -0.19748552 -0.055508185
000240 6a f6 ad be 96 b9 ed bd 10 f1 1b 3e db b6 84 be
       -0.33977062 -0.11607663 0.15228677 -0.25920758
000250 15 bb 8b 3d 30 46 92 be 65 23 88 3d 33 32 61 3e
       0.068227924 -0.28569174 0.06647376 0.21991806
000260 54 e0 6d 3e ba 4b 75 be 3c 02 22 3d b5 7c 84 be
       0.23230106 -0.23954669 0.039552912 -0.25876394
000270 a3 ce 16 be 97 f6 ac be d2 1b 74 3d 50 ee 1e 3e
       -0.14727263 -0.33781883 0.059596844 0.15520597
000280 a0 cf e8 bc 92 f2 a2 be 6d 2e 85 be 83 e4 85 3d
       -0.028419316 -0.3182569 -0.26011983 0.06537726
000290 39 43 da 3d c0 8c 59 be 5b b8 3d 3e 13 0b 10 3e
       0.10657353 -0.21245098 0.18527357 0.14066724
0002a0 ef d3 2e 3d fb 13 2b bd f2 97 a4 3d c8 0f 06 3e
       0.042682584 -0.0417671 0.08036794 0.13091958
0002b0 cc d7 68 be c6 35 e4 3d f0 2a 8e be 12 7a 98 3e
       -0.2273857 0.11143069 -0.27767134 0.29780632
0002c0 54 1a 91 3e 7d 49 9e bc 15 ab ba bd 3f eb b2 bd
       0.283404 -0.019322151 -0.091146626 -0.08736276
0002d0 79 34 99 bc 0c 84 bb be 51 d0 d8 3d df da c2 3c
       -0.018701779 -0.3662418 0.10586608 0.023786006
0002e0 56 4e 9c bc 4f b0 6e 3d 65 e0 10 bd 44 ba df bc
       -0.019080322 0.05827361 -0.03537025 -0.027310498
0002f0 4b 93 21 be 80 21 be 3d 88 7b 2b be 77 39 b9 3e
       -0.15778844 0.09283733 -0.16746342 0.36176655
000300 02 00 ae 3d a7 c7 56 be 7f 20 97 3e 54 10 9c 3e
       0.08496095 -0.20974599 0.2951698 0.30481207
000310 34 d0 00 bd ac 86 53 bc 16 c4 4f bc 2f fe 40 3e
       -0.031448558 -0.012910526 -0.012681028 0.18846963
000320 f3 3c c7 be dc 52 8d 3d 1b 59 3d be 9d d9 0d 3e
       -0.38913688 0.0690057 -0.18491022 0.13852544
000330 95 49 a9 be f4 94 9a 3d 48 6f ed be 9f 28 bb be
       -0.3306395 0.07547942 -0.46373963 -0.3655443
000340 e9 16 0b bc 36 3d 25 be 8b 0d 83 3e 1f 41 88 be
       -0.008489349 -0.16136631 0.2559627 -0.26612183
000350 8e be 45 3d b7 52 e1 be e1 7d 88 be a4 17 5d be
       0.04827743 -0.4400842 -0.26658538 -0.2159105
000360 5e 1f 6d bc a9 d7 55 bd 21 f9 83 3d 6f b1 82 3d
       -0.014472811 -0.052207623 0.06444002 0.06381499
000370 dd 52 de bd 31 04 1e be 91 38 20 3d eb 2b 9b be
       -0.10855649 -0.15431286 0.039116446 -0.30306944
000380 42 ed 4d be 3d 8c 25 bf 76 be d3 bd 8f 9e bb 3e
       -0.20110038 -0.6466711 -0.10339062 0.36644408
000390 a8 d9 1d 3e e8 7c 70 3d 05 59 2c 3e f0 cb 39 3e
       0.1541506 0.05871287 0.16830833 0.18144202
0003a0 b4 46 59 3c 89 6c c6 bd 9d 90 cc 3d 91 d7 62 bc
       0.013261486 -0.0968867 0.0998852 -0.01384534
0003b0 70 c8 52 be 88 91 ae 3e c4 15 01 3e 49 6e aa 3d
       -0.20584273 0.34095407 0.12605959 0.083218165
0003c0 25 a4 f7 bd 5e 92 b7 be d3 f4 9a 3e f1 26 84 3e
       -0.12091855 -0.35853857 0.3026491 0.2581096
0003d0 26 b7 04 3e 21 79 b1 bc e5 60 bb 3c 95 b4 c6 bc
       0.1296049 -0.021664204 0.022873351 -0.02425603
0003e0 32 44 1d 3e 0c 98 82 3e 3f 32 a7 bd a1 50 99 3e
       0.15358046 0.25506628 -0.081638806 0.29944327
0003f0 d0 f8 f9 be 83 52 04 be 00 1f 06 3f 4a 38 68 3b
       -0.4882264 -0.129221 0.5239105 0.0035433942

ConstantFolding/net/strided_slice_2_enter:0 f4 [13, 20]
000000 e3 8e b6 3d b0 b7 7e 3d 9d e0 87 be 5e b1 66 be
       0.08913972 0.062186897 -0.26538554 -0.22528598
000010 23 10 9b 3d 3f 3e a8 be fb 9e ab bc 0f b6 92 3c
       0.07571437 -0.3285999 -0.020949831 0.017909078
000020 90 7f 96 bd ba 53 5e be 8b 5a 21 3e 75 c9 04 be
       -0.07348549 -0.21711627 0.15757196 -0.12967475
000030 bd 08 08 bd e2 65 2b 3e 60 21 b8 be 39 4c d6 39
       -0.03321146 0.16738084 -0.35962963 0.0004087405
000040 f4 08 14 be ee a6 1f be 94 cf 08 be a5 09 2d bd
       -0.1445654 -0.15591022 -0.13360435 -0.042245526
000050 0b 11 8d bb b3 44 21 3e e9 48 cf 3d 1a 95 a4 3e
       -0.00430501 0.15748863 0.101213284 0.32145005
000060 30 31 3b bc 3a 0e 1d 3e f7 df 21 be 77 4c 2b bd
       -0.011425301 0.15337458 -0.15808092 -0.04182097
000070 8a e0 13 3d 43 dc 22 bd 12 ac c9 3b c6 de b4 bd
       0.03610281 -0.03976084 0.0061545456 -0.08831553
000080 2d 79 8f bd 3d c1 9c 3d 83 08 66 bc c9 39 06 bd
       -0.07005534 0.07654045 -0.014040115 -0.032769952
000090 1a 34 9d 3b cf 77 cb be ce 7f 05 3c 78 13 49 ba
       0.0047974708 -0.39739844 0.008148147 -0.00076704426
0000a0 bd 16 20 3c bc d9 ea be 3c ca 3a be 66 2c 86 be
       0.009771046 -0.45869243 -0.18241209 -0.26205748
0000b0 cf f1 2b be 44 36 05 be e7 2c 71 be 49 45 bd 3e
       -0.16791461 -0.13008982 -0.23552285 0.36966923
0000c0 e7 13 6b 3f d5 a8 4b be 23 d9 d6 bd 0e 82 e3 3e
       0.91827244 -0.19888623 -0.10490634 0.4443516
0000d0 db 15 ae bd e3 23 23 bc 06 5e bb 3e da 09 98 3c
       -0.08500262 -0.0099572865 0.36595172 0.018559385
0000e0 6b 06 ef bd 1f ee 5e 3e f1 6b c8 bd bd 64 bf 3d
       -0.11671146 0.21770523 -0.09786213 0.09345386
0000f0 bb 02 01 be 18 05 12 3e f4 45 68 bf dd 20 f6 3e
       -0.12598698 0.14259756 -0.9073174 0.48071948
000100 c3 62 a4 bd df 23 01 bf 1e ba d2 3d e3 7d eb 3c
       -0.0802665 -0.5044536 0.10289405 0.02874655
000110 74 ab a5 bd ab 59 07 bd b3 e9 41 3d 47 f1 05 3f
       -0.08089343 -0.0330445 0.047342014 0.52321285
000120 03 af 9e bd 12 17 12 3e de 76 d3 3e c4 63 d4 3d
       -0.077482246 0.14266613 0.41301626 0.10370591
000130 1f 49 81 3e 25 db ae be 4f d5 ed bc f8 06 7e bd
       0.252511 -0.3415157 -0.029032378 -0.062018365
000140 64 20 fe bd ee 70 b5 3c 46 cf ea 3c e2 89 d6 be
       -0.12408522 0.022148576 0.028663289 -0.4190207
000150 11 36 81 3e 96 6a 97 bd 88 88 57 be 66 9e f8 bd
       0.25236562 -0.073933765 -0.21048176 -0.12139587
000160 5c fd 93 3c 43 9f aa bd f2 25 47 be 75 7c 59 bd
       0.018065147 -0.08331158 -0.19448069 -0.053097207
000170 12 43 ba 3e 3d 4f a5 3e 91 ec 6d be ad c0 c0 bd
       0.36379296 0.32287017 -0.23234774 -0.0941175
000180 e3 29 bb 3d d8 42 b9 bd 7f 4b 3e be 82 a0 07 3f
       0.09138849 -0.090459526 -0.18583487 0.5297929
000190 5c bd 03 bf 8b 5d 0e bd e0 da 0d be 66 45 3f 3d
       -0.51460814 -0.03475718 -0.13853025 0.046697043
0001a0 2a 73 bd 3e b0 7f 21 be 60 e3 28 bf 6d 06 1b bc
       0.37001926 -0.15771365 -0.65971947 -0.009461981
0001b0 f5 b7 d1 be 03 33 57 3e 40 14 2d 3d ac 0d 81 bf
       -0.4096066 0.21015553 0.04225564 -1.0082297
0001c0 bd 29 5c 3e 1b 4e ca bd 4d ac eb bd 05 e4 08 be
       0.21500297 -0.09878179 -0.11507473 -0.13368233
0001d0 4d e6 91 3e cb 4c 69 3d d2 c3 0e 3e 09 da 0d 3e
       0.28496018 0.056958 0.13941887 0.13852705
0001e0 07 75 9c be dd 8e d6 be 71 44 78 be 2b 5e 35 be
       -0.30558035 -0.4190587 -0.24244858 -0.17711703
0001f0 74 27 b6 3d d0 19 a1 be 20 80 02 3e 35 22 c1 3d
       0.08894244 -0.31465006 0.12744188 0.094303526
000200 e3 04 9d be d7 ae c6 3e 56 e2 d8 3e 95 93 63 be
       -0.3066779 0.38805267 0.4236018 -0.22224267
000210 33 46 b9 be 58 fe a3 3d 7a 4f 1d 3d 7a ac 38 3e
       -0.3618637 0.080074966 0.038405873 0.18034545
000220 d3 ca a4 3e aa ab 03 be 7b fb c1 be bf 55 0b 3f
       0.32185993 -0.12858453 -0.37887177 0.54427713
000230 f9 22 ac 3c ec bb cd bd 45 e8 07 3f ae ee 2e 3e
       0.02101277 -0.10045609 0.5308879 0.17083237
000240 be 2e 22 be fd 0c f2 3e eb 83 b3 be 53 ce 85 3e
       -0.15838143 0.47275534 -0.35061583 0.26133975
000250 f0 45 d6 3d 42 66 c8 be 6a 52 6c 3e 36 a3 d1 3b
       0.10462558 -0.39140517 0.23078313 0.00639763
000260 5a 2c 2e 3e 31 b1 58 3e 34 88 64 3f 17 d3 6f be
       0.17009106 0.21161343 0.8927033 -0.23420368
000270 05 56 9b 3e bb e6 62 3e 03 d3 c7 3e bd 92 82 bd
       0.30339065 0.22158329 0.39028177 -0.06375644
000280 b3 50 f4 be 22 d0 55 be a1 a4 2d bc 0e fd fa 3d
       -0.4771782 -0.20880178 -0.010598333 0.122552976
000290 f2 27 95 bd 35 c0 86 3e 91 2e 8a 3e 71 68 0d 3f
       -0.072830096 0.26318517 0.26988652 0.5523749
0002a0 e4 d0 42 bf 87 ad 19 bf cf f8 1d 3c 0e 44 d7 3e
       -0.7609999 -0.60030407 0.00964184 0.4204411
0002b0 16 1b 36 3e ab 48 27 be 10 88 6c 3e e5 e7 84 3d
       0.1778377 -0.16336314 0.23098779 0.06489543
0002c0 95 46 8d 3c 53 32 91 bd 34 c4 a9 be 7d cc bb be
       0.01724557 -0.07089677 -0.33157504 -0.3667945
0002d0 f8 a3 11 3f 92 66 18 3f d9 30 f6 3e f4 13 8f 3d
       0.5689082 0.5953151 0.48084143 0.06986228
0002e0 9e 19 97 3e d0 50 97 be 92 f8 21 3f 50 d5 5c bc
       0.29511732 -0.29553843 0.63269913 -0.013478592
0002f0 61 f4 05 3f a7 f0 d0 be 23 04 e1 3d 24 49 0b 3d
       0.5232602 -0.40808603 0.10987117 0.0340053
000300 e2 9a 68 3e 4c 70 88 3d bb 01 0e be f6 3d 36 bf
       0.22715333 0.06662044 -0.13867848 -0.71188295
000310 e2 89 20 be 77 29 18 be a6 fe 41 3e ed c5 7c bd
       -0.15677598 -0.14859568 0.18944797 -0.061712194
000320 a0 b8 92 bc e7 82 28 3e 8c 86 fa be 5b b5 c9 3d
       -0.017910302 0.16456185 -0.48930776 0.09849044
000330 f2 ab 31 3e aa 71 c1 bd d4 40 f6 bd 5a 36 ee be
       0.17350748 -0.09445508 -0.12024084 -0.46525842
000340 d8 eb 32 be 44 5a 4d 3b 66 d4 a7 be 44 3e 62 bf
       -0.1747278 0.003133432 -0.32779235 -0.8837626
000350 11 97 9a be 2b b1 f8 3d 2f 71 e7 3d be 70 5c 3d
       -0.3019338 0.12143167 0.11300885 0.053818457
000360 a0 dd a7 3d 91 3a e4 3d 2a 57 86 be c0 5a 29 be
       0.081965685 0.11143983 -0.26238376 -0.16538525
000370 0a 85 3d 3e 2f d8 08 3e c5 e5 99 3e 48 4b 21 3f
       0.18507782 0.13363717 0.30058113 0.63005495
000380 77 a2 bc 3e c3 5e 1e 3f ba 1b 71 ba f0 7d df 3d
       0.368427 0.61863345 -0.0009197552 0.109126925
000390 dd 6a 44 3e 9a 19 b0 bd 03 e5 78 3c 07 0f dd bd
       0.1918139 -0.08598633 0.015191319 -0.10793882
0003a0 2c f9 21 3e 35 66 b1 be f9 cb 91 3e da 06 06 3e
       0.15817708 -0.3464829 0.2847593 0.13088551
0003b0 18 f0 88 be 1e 26 dd be 3c 37 2b bd e0 a5 13 3e
       -0.26745677 -0.43193144 -0.041800722 0.14418745
0003c0 19 96 bd 3e d3 1f ec be d8 3e 26 bd ae 62 81 be
       0.37028578 -0.4611803 -0.040587276 -0.252706
0003d0 6f 23 be 3e 9e 55 0c 3f ef b0 27 bf 89 25 ec be
       0.3713641 0.5481814 -0.65504354 -0.46122387
0003e0 14 7f f5 bc f2 2e 2a 3f 97 ff b6 be 17 b1 d1 bd
       -0.029967822 0.6647788 -0.35741875 -0.10238855
0003f0 a1 a9 1e be 2c 58 31 3f 2c 5e 60 be b9 c5 e1 bd
       -0.15494396 0.69275165 -0.21910924 -0.11024041

ConstantFolding/net/strided_slice_1_enter:0 f4 [20, 20]
000000 3c d5 86 bb ad 5e d4 bc f0 0b 4f 3e 72 cd 93 be
       -0.004114775 -0.025924051 0.20219398 -0.2886768
000010 4f aa 1a 3e d0 7b dc bd f0 e2 1e 3d 5d dd e1 3c
       0.1510403 -0.10765803 0.038790643 0.027571375
000020 ec c7 d7 bd 36 ad ae bb 6d 19 8e b9 c9 9e 67 3d
       -0.10536179 -0.005330707 -0.00027103294 0.056547914
000030 fe e7 84 bd a5 77 ba 3d c2 c0 a1 bd ca 61 37 be
       -0.064895615 0.09104852 -0.07898094 -0.17908397
000040 60 47 65 be c4 65 d0 bd c4 20 13 3e d3 33 24 be
       -0.22390509 -0.1017566 0.14367968 -0.16035394
000050 f6 08 a5 3b 52 ac 68 3e 1e 55 51 be b3 91 7d be
       0.0050364686 0.22721985 -0.20442626 -0.24762611
000060 b6 e1 0e 3e eb 78 31 be dd d1 a5 bd 44 b8 03 be
       0.1395329 -0.17331283 -0.08096669 -0.1286326
000070 2c e8 d9 3d 1d e9 69 3e 00 12 bc bb 09 78 51 3d
       0.106399864 0.22842832 -0.0057394505 0.051139865
000080 da 39 a8 3e fc 6c 01 3e 8f 73 97 bd 58 6e f6 be
       0.32856637 0.1263923 -0.07395088 -0.4813106
000090 77 d6 7c bd 7f f6 af 3d 42 bb ae 3d 50 b9 41 3f
       -0.061727967 0.08591937 0.0853181 0.7567339
0000a0 9e 7d 48 be 37 1c 1f be 52 89 d5 3e bc 59 a6 3d
       -0.19579169 -0.15538107 0.4170633 0.08122584
0000b0 8c 02 44 3e 61 72 9c 3d 9a ad 39 3d ba b9 0a bd
       0.19141597 0.076390035 0.045331575 -0.03386853
0000c0 5b cd d0 3c b4 fe 92 3b 51 de 6b 3d 9a 6f 6c bd
       0.025488546 0.0044859294 0.057585064 -0.05772362
0000d0 34 c8 90 be cd 8b 02 3d 98 43 af 3d 06 60 51 be
       -0.28277743 0.031871606 0.08557814 -0.20446786
0000e0 dd 9d 0d 3e 64 be 1c 3e cc cc 3c be 0d 77 65 be
       0.13829751 0.15307003 -0.18437499 -0.22408696
0000f0 0f ce 23 be 93 d4 1b bf a5 67 b1 3e 98 6d c3 3c
       -0.15996574 -0.6087124 0.34649387 0.02385597
000100 8c 54 cb bd 24 aa db bd c6 3b 6d 3d 1b 2d 6a 3d
       -0.099282354 -0.10725811 0.057918333 0.057171922
000110 07 9a 49 3d 83 ed 6a bd 47 ad fb bd ab 65 88 be
       0.049219158 -0.057355415 -0.122889094 -0.26640067
000120 bc 9e 49 3e 05 6c 71 ba 41 a1 51 be 63 a4 b3 ba
       0.19689459 -0.00092095166 -0.2047167 -0.0013705607
000130 46 74 66 3e b0 40 8e 3b 57 51 7f 3e cf b5 8a be
       0.22505292 0.0043412074 0.24933372 -0.27091834
000140 e3 9c 44 be 71 42 04 bd ed 8c 1a 3e 13 10 d5 3d
       -0.19200473 -0.032289926 0.15092821 0.104034565
000150 da ad 9d 3e 25 e9 cb 3d 2d 28 0a 3d fb 3a 88 bc
       0.307967 0.09956578 0.03372972 -0.016629687
000160 78 5d 12 3d a2 a2 0a 3e 40 9b 40 3e 08 31 a7 bd
       0.03573367 0.13538602 0.18809223 -0.08163649
000170 e3 9f 33 3e d8 35 3c be 73 59 ab bd 3e 1c 7a be
       0.1754146 -0.18379915 -0.083666705 -0.24424836
000180 49 c5 2f 3e 07 92 e4 3c 7f 6a 1c be cb 9c ad 3c
       0.17165102 0.027901663 -0.15275 0.021192929
000190 92 60 80 3d 05 8b f4 be f1 47 08 3e 6c a3 18 bd
       0.06268419 -0.47762313 0.13308693 -0.037265226
0001a0 a5 64 b8 bd a4 e8 7d 3e 97 cc 66 be 41 3e c9 3d
       -0.090035714 0.24795777 -0.22538982 0.09826327
0001b0 21 7b 16 3c 8e 4c b5 3d ff 1f e7 3d 00 58 b3 bc
       0.00918463 0.08852492 0.112854 -0.021892548
0001c0 b6 45 a7 be ae cb c1 3c 0f 74 98 bc 67 e2 81 3d
       -0.32670373 0.023656692 -0.018610029 0.06342011
0001d0 40 c9 e5 3c ad 27 2f 3c 2b a9 04 bc 7b a1 0b 3f
       0.028050065 0.010690612 -0.008096973 0.54543275
0001e0 ca a0 d3 3d a0 24 03 3e 33 ca e4 3c a3 c9 e9 3e
       0.103334025 0.1280694 0.027928447 0.4566165
0001f0 04 db 68 bd 81 dc 3b be 74 16 2d bf 5e 22 bb 3d
       -0.056849495 -0.18345834 -0.67612386 0.091374144
000200 80 1f 33 b8 c6 93 c4 bd 81 66 d4 bc 65 77 2b be
       -4.2706262e-05 -0.09598498 -0.025927784 -0.16744764
000210 17 f3 4b 3e 79 87 80 bc 43 73 47 bd 5a ce 61 3e
       0.1991695 -0.015689598 -0.048693907 0.22051373
000220 ff d7 92 bd a5 eb 66 be 4a d0 36 bc 1e d0 1d 3e
       -0.07170104 -0.22550829 -0.011158058 0.15411422
000230 2d d9 0d be dd bc 95 3c 8f 74 f2 bc 86 b0 46 3e
       -0.13852377 0.018278534 -0.029596595 0.19403276
000240 26 52 a5 be 99 26 c6 bd 02 40 0e be eb 6d c8 be
       -0.32289237 -0.09675331 -0.13891605 -0.3914636
000250 c6 9c 8d be bc c7 00 3e 20 b7 37 3c 6b e1 4e 3d
       -0.2765867 0.12576193 0.011213094 0.050507944
000260 84 86 10 be 21 6c 0d bd 73 85 db 3e 6d ff 31 3e
       -0.14113814 -0.034526948 0.4287525 0.17382593
000270 89 0f 11 3e 71 28 0f 3d c2 80 7d 3d 4a b8 68 bd
       0.14166082 0.034950677 0.06189037 -0.056816377
000280 fc 7c 0d bd fd 22 a3 3d b3 df d1 3c 38 14 61 bd
       -0.034543023 0.07965658 0.025619363 -0.054950923
000290 12 35 4c bc 42 2e bc 3d 2b 23 64 bd a5 1b a1 bd
       -0.012463825 0.091885105 -0.0556976 -0.07866601
0002a0 d9 15 ad be 46 3c 2d bd ad 28 49 be 09 82 6a 3e
       -0.3380573 -0.04229381 -0.19644423 0.22901167
0002b0 88 ba eb bd 29 62 4c bd e8 74 05 3c eb 15 dc 3e
       -0.115101874 -0.0498983 0.008145548 0.42985472
0002c0 d0 87 02 be ba 80 7c bd 44 07 67 3e 62 65 3d 3e
       -0.12747121 -0.0616462 0.22561365 0.18495706
0002d0 f3 f8 6c 3d ec 0c e0 be d4 de 7f be 03 85 f7 3d
       0.057854604 -0.4375986 -0.24987346 0.12085917
0002e0 93 d5 64 3e f9 ac de bd 9f cb 34 bd e0 06 3a be
       0.22347097 -0.10872836 -0.0441395 -0.18166685
0002f0 78 ac 69 3d 83 ec 1a 3f 52 dc 36 3e 14 ba de 3d
       0.057049245 0.6051714 0.17857483 0.10875335
000300 ef d7 1c bf 1a ac 14 bc 7c a5 c6 bd 9a 74 e3 bd
       -0.6126699 -0.009074235 -0.096995324 -0.11106224
000310 a1 3e 2d 3e 7e 93 85 bd 7b 00 87 3d f6 f0 ab bd
       0.16918422 -0.065222725 0.065918885 -0.08395569
000320 88 bb a0 3d c7 c6 f8 bd 7a 59 9c bc 05 1c d7 3e
       0.07848269 -0.12147289 -0.019085634 0.42013565
000330 13 0a 0a be 1d 08 44 3e 24 40 a9 3d 4b 2e 2d 3e
       -0.13480406 0.1914372 0.08264187 0.1691219
000340 fd 2f ba 3b 5e 92 72 be a5 7b e9 3d 61 68 e8 3d
       0.00568199 -0.23688647 0.114005364 0.11348034
000350 e6 fb f7 3d b7 ed 29 3e eb 6a 13 bd 19 4d 9e be
       0.12108593 0.16594587 -0.035990637 -0.30918196
000360 dd fa a0 3c b4 df 7b bd 7b 00 81 be 22 b7 fc bc
       0.019650871 -0.061492637 -0.2519568 -0.030849043
000370 d1 e7 02 be 56 60 94 be 1d fe 80 3e 75 4b 3a be
       -0.12783743 -0.28979748 0.25193873 -0.18192847
000380 2f 83 00 3d a7 1b 67 bd 78 20 1a 3d 31 a0 18 3d
       0.031375106 -0.056422856 0.03762862 0.037262145
000390 59 91 4e 3e 0a 03 37 be 55 11 bd bd 68 0a a6 3e
       0.20172633 -0.17872253 -0.092318214 0.32429814
0003a0 df 9f d2 bd 8a 4c 3f 3e 0d f4 23 be a1 8e 28 bd
       -0.10284399 0.18681541 -0.16011067 -0.041151647
0003b0 f3 4e b5 bc f2 a5 40 3c a5 ea 9a be 11 e0 00 3d
       -0.022132372 0.011758314 -0.30257145 0.031463686
0003c0 e1 a0 08 bd f1 3b 2f be 27 7c 00 3f 9a ee 10 3e
       -0.03335655 -0.1711271 0.5018944 0.1415352
0003d0 c7 07 f8 bc 71 86 90 3e 72 9c 00 be 16 e2 5f 3e
       -0.030277146 0.2822757 -0.12559679 0.21863589
0003e0 7f 6b 3f be 81 9b 92 3e bd 4f 79 be 21 ec d9 bd
       -0.1869335 0.28634265 -0.24346824 -0.10640741
0003f0 af 02 e2 be bc 24 b6 bd 74 f0 c9 bd 75 8f 0f 3e
       -0.44142672 -0.08893725 -0.09860316 0.14019568
