wakewords/en/computer.onnx (onnx, 19285 bytes, 1 tensors)

const_fold_opt__113 f4 [20, 1]
0	0xbf160d70	-0.58614254
1	0x3e880cbb	0.26572213
2	0xbefe310a	-0.4964679
3	0x3e829ca4	0.25510132
4	0xbdb0a742	-0.08625652
5	0xbf0e7f9d	-0.5566347
6	0xbe474760	-0.19460821
7	0xbec08231	-0.37599328
8	0xbe48949a	-0.19587937
9	0xbdd26e3d	-0.102749325
10	0x3e9b67fe	0.30352777
11	0x3e51099d	0.20413823
12	0xbc163de1	-0.0091700265
13	0xbec5b576	-0.38615006
14	0xbec79ae0	-0.38985348
15	0xbe18c3a9	-0.14918388
16	0xbe968242	-0.29396254
17	0xbe749e58	-0.23888528
18	0x3eec064d	0.46098557
19	0xbdba2ce4	-0.090905935
