wakewords/en/cough_cv.onnx (onnx, 15209 bytes, 10 tensors)

dense_1/kernel/read:0 f4 [20, 1]
0.18731914 -0.333286 0.455889 0.35063243 -0.404642 0.62500864 0.26812935 0.33216324
0.0716149 -0.6074604 -0.041090477 0.34882748 -0.3675265 -0.10345623 -0.4726263 -0.7771313
-0.33469483 0.041344576 0.5484694 -0.14501418
00000000: 97d0 3f3e 76a4 aabe 486a e93e 1886 b33e
00000010: 3c2d cfbe 9100 203f 4048 893e 4d11 aa3e
00000020: d5aa 923d 8682 1bbf 7d4e 28bd 8499 b23e
00000030: 6f2c bcbe dce0 d3bd 13fc f1be 14f2 46bf
00000040: 1f5d abbe ee58 293d 7e68 0c3f 997e 14be

ConstantFolding/net/strided_slice_enter:0 f4 [13, 20]
0.03318488 0.0054934514 -0.046825506 -0.26285762 -0.2365202 0.2458547 -0.03763097 -0.10960709
-0.11820354 -0.2864909 0.02327437 -0.026179634 -0.0762261 0.08679089 -0.07210779 -0.0040990827
-0.041491732 -0.03902311 0.017526794 -0.14054166 -0.14210637 -0.04748921 0.2205747 -0.052348036
0.05556722 0.26366046 0.03331862 -0.1606457 -0.04189684 -0.27250373 -0.03786046 -0.029888168
0.28125483 0.20186259 -0.21024942 -0.11578667 -0.45601204 0.27567253 -0.059465963 0.07701258
-0.22572193 0.10788715 0.2013139 0.019293336 0.31498438 -0.18201113 0.032577317 0.016884
0.2552892 0.13431662 0.31347746 0.018143313 -0.0029246013 -0.018801402 -0.13168772 -0.0293684
-0.22062849 0.08549788 -0.17049624 0.20365767 -0.38626453 0.08434011 -0.0928052 -0.33630985
0.039906334 -0.11183123 -0.16220458 0.08239916 0.33512685 -0.07737929 0.06393823 -0.14258704
0.39728764 0.30544725 0.13235569 -0.3194751 -0.06776974 -0.09823489 0.111839265 0.05372479
0.080320545 -0.14253268 0.08373487 0.01686682 -0.25452748 -0.41664746 -0.06618732 -0.036008067
-0.14196642 0.17283823 0.25655627 0.14560893 0.46395 0.24769309 -0.4368995 0.42329606
0.24861658 0.08760123 -0.11794195 0.062021088 -0.08829134 -0.13061629 0.12568249 0.057688363
0.10390534 0.37368947 -0.08774313 -0.20065303 -0.013258726 -0.20569251 0.041113168 -0.4734952
-0.1481079 0.005823099 -0.41102815 -0.1587118 0.09126129 0.22637992 0.03966952 0.2913106
0.051204097 0.037170622 0.14325872 0.5202662 0.6952281 0.17706558 0.25951558 -0.5653984
0.21961112 0.08878319 0.035398245 0.0510494 0.08908051 0.30742067 0.43375778 -0.28237805
0.016739132 -0.30133346 0.38869536 -0.17643826 -0.19202618 -0.10160361 0.63713026 -0.054043755
-0.20091496 0.28311837 0.17980643 0.042758655 0.049908526 0.33749735 0.1794771 0.2733208
0.0037780914 -0.035427388 -0.09394308 -0.2866952 0.07912276 -0.2516487 0.31372207 -0.30709827
-0.5118402 -0.32412845 0.44587335 0.41740862 -0.26261586 -0.45437217 -0.1912332 0.4321898
0.12000338 -0.3532084 -0.32013726 0.16551518 0.01460188 -0.34094933 -0.4940025 0.3954673
0.10482047 0.2860071 -0.24734205 0.5116333 -0.16175376 -0.17832531 -0.27435285 0.2836431
0.11306267 0.5235209 0.09450711 0.22425869 -0.7323749 0.00764655 0.057630632 0.1563335
-0.04245888 -0.03246417 0.41947344 -0.022159522 -0.038788814 0.12923796 0.09021493 -0.14620529
0.52428454 -0.5540177 0.24942586 -0.23785995 -0.13746092 0.18133594 -0.10832976 -0.49072388
0.43847978 0.0714818 -0.105779946 0.0027635994 0.23333357 0.2636768 0.08750949 0.34352103
0.23422578 -0.34330082 -0.09192567 0.29482436 -0.30564794 -0.24079886 -0.119257875 -0.37829867
-0.07644223 -0.16147847 0.0069499505 0.22632408 -0.058650773 -0.3194428 0.36132059 -0.21550155
-0.0051558916 0.115515135 0.12115055 0.5626047 -0.11109464 0.01783435 0.12777151 -0.17354757
-0.15469489 -0.20981829 0.08248752 -0.15847276 -0.29217866 0.17898227 0.23234907 -0.34542215
0.2542625 0.11823685 -0.12432148 -0.06700495 -0.44810385 0.13919947 -0.25601664 -0.5298878
00000000: deec 073d 6902 b43b 1acc 3fbd 4695 86be
00000010: 5a32 72be 56c1 7b3e ef22 1abd af79 e0bd
00000020: b314 f2bd efae 92be e4a9 be3c ac76 d6bc
00000030: 6e1c 9cbd 6cbf b13d 40ad 93bd 9951 86bb
00000040: 3cf3 29bd b2d6 1fbd 5a94 8f3c 27ea 0fbe
00000050: 5584 11be 0c84 42bd 56de 613e e56a 56bd
00000060: 749a 633d 81fe 863e 1b79 083d 4e80 24be
00000070: 059c 2bbd 9c85 8bbe 9213 1bbd 08d8 f4bc
00000080: a200 903e 11b5 4e3e a04b 57be 9021 edbd
00000090: 697a e9be f324 8d3e 9592 73bd c6b8 9d3d
000000a0: a623 67be f0f3 dc3d 3b25 4e3e 0f0d 9e3c
000000b0: a245 a13e 2061 3abe cb6f 053d 5050 8a3c
000000c0: 44b5 823e 4c8a 093e 1e80 a03e 49a1 943c
000000d0: abaa 3fbb 6605 9abc 25d9 06be 0096 f0bc
000000e0: 6fec 61be 8319 af3d 9196 2ebe a38b 503e
000000f0: 77c4 c5be 82ba ac3d a710 bebd ce30 acbe
00000100: d374 233d c607 e5bd f518 26be e4c0 a83d
00000110: bf95 ab3e 0879 9ebd 0cf2 823d 5602 12be
00000120: 4969 cb3e 9563 9c3e 4088 073e 3e92 a3be
00000130: ddca 8abd 602f c9bd fc0b e53d 870e 5c3d
00000140: 197f a43d 16f4 11be 307d ab3d 492c 8a3c
00000150: 6d51 82be d152 d5be 388d 87bd 327d 13bd
00000160: a55f 11be 81fc 303e 585b 833e 821a 153e
00000170: db8a ed3e 42a3 7d3e 4bb1 dfbe 43ba d83e
00000180: 5895 7e3e 4668 b33d 8d8b f1bd d309 7e3d
00000190: 17d2 b4bd 47c0 05be e9b2 003e a24a 6c3d
000001a0: 53cc d43d 3a54 bf3e acb2 b3bd fd77 4dbe
000001b0: 213b 59bc 0fa1 52be 4866 283d f66d f2be
000001c0: 99a9 17be b2cf be3b 4872 d2be 5985 22be
000001d0: 33e7 ba3d 23d0 673e 827c 223d aa26 953e
000001e0: 63bb 513d 3940 183d 6ab2 123e 2a30 053f
000001f0: 78fa 313f ae50 353e 3adf 843e f3bd 10bf
00000200: bde1 603e f6d3 b53d c0fd 103d 2d19 513d
00000210: d86f b63d 3e66 9d3e 8015 de3e db93 90be
00000220: 8120 893c 6148 9abe 1403 c73e 3bac 34be
00000230: 83a2 44be 8e15 d0bd f81a 233f fc5c 5dbd
00000240: a7bc 4dbe e4f4 903e 2d1f 383e b323 2f3d
00000250: e26c 4c3d 74cc ac3e d8c8 373e b4f0 8b3e
00000260: db99 773b 4f1c 11bd 3b65 c0bd b7c9 92be
00000270: 1d0b a23d 19d8 80be 2ea0 a03e fc3b 9dbe
00000280: f607 03bf 2af4 a5be 8349 e43e 95b6 d53e
00000290: 9675 86be 78a3 e8be a3d2 43be fb47 dd3e
000002a0: 55c4 f53d bbd7 b4be 08e9 a3be d07c 293e
000002b0: b93c 6f3c e990 aebe e5ed fcbe b17a ca3e
000002c0: 1dac d63d 866f 923e 3c47 7dbe 66fa 023f
000002d0: c7a2 25be e99a 36be fa77 8cbe ab39 913e
000002e0: 678d e73d 7705 063f f28c c13d 12a4 653e
000002f0: ec7c 3bbf e98f fa3b 190e 6c3d e415 203e
00000300: 5de9 2dbd 26f9 04bd 39c5 d63e e387 b5bc
00000310: 05e1 1ebd f556 043e 9bc2 b83d d7b6 15be
00000320: 8337 063f 1bd4 0dbf 7e69 7f3e 8f91 73be
00000330: 8ec2 0cbe 21b0 393e fedb ddbd 2940 fbbe
00000340: 6c80 e03e 0d65 923d 28a3 d8bd 811d 353b
00000350: ffee 6e3e a500 873e 2d38 b33d fde1 af3e
00000360: e2d8 6f3e 20c5 afbe 8743 bcbd 38f3 963e
00000370: e37d 9cbe fa93 76be 793d f4bd 5db0 c1be
00000380: be8d 9cbd 9d5a 25be 69bc e33b 80c1 673e
00000390: cb3b 70bd 028e a3be 03ff b83e 70ac 5cbe
000003a0: c1f2 a8bb 3393 ec3d c81d f83d dd06 103f
000003b0: 9685 e3bd 5819 923c 89d6 023e 74b6 31be
000003c0: 5668 1ebe 9bda 56be 38ef a83d af46 22be
000003d0: 7198 95be 2147 373e eaec 6d3e 2cdb b0be
000003e0: b22e 823e 2926 f23d 439c febd e439 89bd
000003f0: de6d e5be 4e8a 0e3e 9d14 83be baa6 07bf

ConstantFolding/net/strided_slice_8_enter:0 f4 [20]
-0.20328999 0.09070835 -0.103096366 0.064220615 -0.023371328 -0.27116048 0.16341583 -0.010164844
-0.044616207 0.18670982 0.32779887 -0.42500472 -0.036011767 0.026479425 0.91950387 0.4437963
0.10248449 0.15207005 -0.4925179 0.08509892
00000000: 402b 50be 4dc5 b93d 3024 d3bd 1986 833d
00000010: 3a75 bfbc 8cd5 8abe 7b56 273e 728a 26bc
00000020: 7cbf 36bd dc30 3f3e 41d5 a73e 389a d9be
00000030: 1381 13bd 61eb d83c 9b64 6b3f 4539 e33e
00000040: 63e3 d13d 40b8 1b3e 4e2b fcbe 5848 ae3d

ConstantFolding/net/strided_slice_7_enter:0 f4 [20]
-0.07050267 -0.15202565 -0.08556972 -0.14592768 0.13970801 -0.08448781 0.32877696 0.0255705
0.07472089 0.05963202 -0.09552436 -0.14889437 0.20516333 0.16454121 0.1763638 0.13795629
-0.14526144 0.0643946 -0.08655661 0.103508
00000000: b463 90bd 9dac 1bbe 2d3f afbd 116e 15be
00000010: 9e0f 0f3e f207 adbd 7455 a83e 3a79 d13c
00000020: 4407 993d b440 743d 47a2 c3bd c477 18be
00000030: 5616 523e 7e7d 283e b698 343e 6a44 0d3e
00000040: 6abf 14be 51e1 833d 9844 b1bd 01fc d33d

ConstantFolding/net/strided_slice_6_enter:0 f4 [20]
0.4580956 0.42573035 0.23271097 -0.11393093 0.5145869 -0.076061696 0.17581137 -0.106394246
-0.22284095 0.032697845 0.10011345 0.15834372 0.010559301 -0.08850443 0.10422772 -0.3092453
-0.008256628 -0.17246988 0.10488585 -0.038164444
00000000: 828b ea3e 54f9 d93e c94b 6e3e 9f54 e9bd
00000010: f8bb 033f 3cc6 9bbd e507 343e 3ae5 d9bd
00000020: 6b30 64be 2dee 053d 4808 cd3d db24 223e
00000030: eb00 2d3c d041 b5bd 5875 d53d 6655 9ebe
00000040: cf46 07bc f29b 30be 64ce d63d 5252 1cbd

ConstantFolding/net/strided_slice_5_enter:0 f4 [20, 20]
0.100809075 0.12287749 0.019186068 -0.2154752 -0.17463313 -0.07705728 0.3374169 0.36592636
-0.32618126 0.0262242 -0.34167248 0.38118052 0.002931328 -0.06071128 -0.10171669 -0.01939138
0.100472726 0.0803043 -0.15347569 0.3796032 -0.120631896 0.019988382 0.043206982 0.0898845
0.28804156 -0.08240116 -0.5997764 -0.049166065 -0.077605955 -0.04177674 0.03779126 -0.20421545
-0.17693028 0.17883344 -0.09292157 -0.061200257 0.050844643 -0.28711787 0.033029016 -0.05744167
0.253645 -0.24235249 0.31845194 0.09322651 -0.14103094 -0.1474359 -0.12316248 0.17757735
0.19850832 0.4092868 -0.32317477 0.25869697 -0.09111761 -0.09930892 -0.2123236 0.19072993
-0.35953695 -0.22216047 0.2187959 0.110883005 0.12192776 0.342732 0.13991821 0.35636595
0.027518256 0.11500203 0.1125051 -0.26937646 0.04091075 0.4870288 -0.11931613 -0.0040866956
-0.24764317 -0.008062142 -0.024151113 0.08520973 -0.019821411 -0.30555862 0.08988772 0.0030516894
-0.18426101 0.3489089 -0.3118331 -0.1209306 0.4347441 -0.1894496 -0.41320536 -0.11122317
0.06827002 -0.043266695 0.15125933 -0.009287687 0.26345387 -0.2581202 0.46797267 0.08965831
0.07091325 -0.02832797 0.11535445 0.13248448 0.3215129 0.02480329 -0.18853827 0.1386095
-0.02867683 0.3705537 0.07406292 -0.06839269 -0.088148676 -0.26106212 -0.2593392 0.029051755
-0.24852261 -0.030250577 -0.16331603 -0.48364314 -0.4585129 -0.112600155 0.2437359 -0.14424244
0.12570742 -0.22833823 0.3786066 0.10711702 -0.3620922 0.09702332 0.42948893 -0.10083326
-0.10941912 0.19328725 -0.45939758 0.2138455 -0.40342963 0.19511777 0.17188908 0.10874232
-0.17134151 0.07800228 -0.015017448 -0.056220587 -0.16327913 -0.14853375 0.09882727 0.2911149
-0.33056632 0.33099413 -0.034192685 0.11704763 0.057745315 0.26001933 -0.15819511 0.09566966
-0.43025437 0.30203143 -0.27285802 -0.28285125 -0.1612671 -0.033350926 0.22061124 -0.4645179
0.2006711 0.20907825 -0.016637444 -0.32993492 0.18772145 0.17066513 0.27700302 0.3396054
0.085529126 0.17286584 -0.1397068 -0.06006385 0.40933496 -0.090632915 -0.3823569 0.19264951
-0.20632792 0.058475163 -0.058627803 0.29590848 -0.027551847 0.12231071 0.45491153 0.02929924
0.00030345115 -0.1802349 0.10185642 0.17781746 0.3382424 0.05926591 0.21700114 -0.06564122
-0.040792808 0.3709328 0.074968904 -0.2510341 -0.0017473452 -0.04243218 0.09952073 -0.49026948
-0.2256347 0.11353596 -0.028923135 0.14853592 0.033158403 -0.542866 -0.16052225 -0.15376304
-0.2236309 0.10069119 0.40093186 -0.4653413 0.37396264 0.18438797 0.36917716 0.17452002
-0.062134437 0.088710375 -0.41005525 -0.037892923 -0.006339703 -0.123463206 0.18631262 -0.0064838193
-0.076708004 -0.19002904 -0.16871354 0.34233394 -0.18505879 -0.007971551 -0.23331212 0.24970911
-0.22169189 0.020993665 -0.33408138 0.19076782 -0.020869238 -0.16192159 0.3980784 -0.08629379
0.07649169 0.19377355 -0.18915169 -0.029578414 0.10407876 0.025845595 0.05336754 -0.061733406
-0.26711994 -0.18305568 0.26888284 0.04609056 0.078546636 -0.21247728 0.23839578 0.6035132
00000000: fd74 ce3d 32a7 fb3d 1a2c 9d3c 88a5 5cbe
00000010: 07d3 32be 35d0 9dbd e8c1 ac3e b35a bb3e
00000020: 3b01 a7be 22d4 d63c b2ef aebe 182a c33e
00000030: 861b 403b 64ac 78bd d750 d0bd acda 9ebc
00000040: a5c4 cd3d 9576 a43d bb28 1dbe 5a5b c23e
00000050: db0d f7bd adbe a33c cef9 303d 5d15 b83d
00000060: 2f7a 933e f0c1 a8bd f28a 19bf 5b62 49bd
00000070: dfef 9ebd 161e 2bbd 02cb 1a3d db1d 51be
00000080: 362d 35be 1d20 373e aa4d bebd 1fad 7abd
00000090: 7942 503d 1d01 93be 6f49 073d f547 6bbd
000000a0: c2dd 813e 402b 78be 220c a33e 8aed be3d
000000b0: 6a6a 10be 70f9 16be 9c3c fcbd d6d6 353e
000000c0: c445 4b3e 0a8e d13e 2a77 a5be ee73 843e
000000d0: df9b babd 7a62 cbbd 5c6b 59be b54e 433e
000000e0: 3a15 b8be 097e 63be 080c 603e a116 e33d
000000f0: 43b5 f93d 927a af3e b846 0f3e 9975 b63e
00000100: f76d e13c 2f86 eb3d 1369 e63d b6eb 89be
00000110: 0892 273d d75b f93e 045c f4bd b0e9 85bb
00000120: 2c96 7dbe 1317 04bc 8ed8 c5bc 7082 ae3d
00000130: 8360 a2bc 2e72 9cbe 0e17 b83d dafe 473b
00000140: ebae 3cbe 30a4 b23e 97a8 9fbe 76aa f7bd
00000150: c796 de3e 13ff 41be a78f d3be f9c8 e3bd
00000160: 27d1 8b3d 6b38 31bd bae3 1a3e 622b 18bc
00000170: 6de3 863e 5528 84be 1d9a ef3e c79e b73d
00000180: f73a 913d 0f10 e8bc f43e ec3d 03aa 073e
00000190: 579d a43e 4530 cb3c 2d10 41be a6ef 0d3e
000001a0: aceb eabc 37b9 bd3e 4dae 973d 7711 8cbd
000001b0: 4b87 b4bd efa9 85be 1cc8 84be f2fd ed3c
000001c0: b67c 7ebe 0fd0 f7bc 513c 27be 13a0 f7be
000001d0: 34c2 eabe e99a e6bd e795 793e 4ab4 13be
000001e0: 72b9 003e 7fd1 69be b9d8 c13e 2b60 db3d
000001f0: 2664 b9be 2ab4 c63d f9e5 db3e ab81 cebd
00000200: 2217 e0bd 18ed 453e 2936 ebbe 51fa 5a3e
00000210: 548e cebe f4cc 473e b103 303e 4bb4 de3d
00000220: 2674 2fbe a9bf 9f3d be0b 76bc 8f47 66bd
00000230: a532 27be 3b19 18be f465 ca3d 030d 953e
00000240: fd3f a9be 1078 a93e a10d 0cbd abb6 ef3d
00000250: 5a86 6c3d 4121 853e e6fd 21be 74ee c33d
00000260: 4d4a dcbe dda3 9a3e 0cb4 8bbe e1d1 90be
00000270: 3423 25be fb9a 08bd eae7 613e 4ad5 edbe
00000280: ba7c 4d3e 9c18 563e 404b 88bc 3bed a8be
00000290: 0d3a 403e d7c2 2e3e 57d3 8d3e c2e0 ad3e
000002a0: e529 af3d be03 313e 4d0f 0fbe 8305 76bd
000002b0: 5a94 d13e c09d b9bd 49c4 c3be ea45 453e
000002c0: a047 53be a783 6f3d b523 70bd 5181 973e
000002d0: 69b4 e1bc 0a7e fa3d 2aea e83e f604 f03c
000002e0: 8618 9f39 7f8f 38be 199a d03d c815 363e
000002f0: 1c2e ad3e d0c0 723d 8c35 5e3e e76e 86bd
00000300: 5c16 27bd e7ea bd3e 4c89 993d 8b87 80be
00000310: 2d07 e5ba 5ecd 2dbd 86d1 cb3d 9a04 fbbe
00000320: c80c 67be 8b85 e83d 36f0 ecbc cd19 183e
00000330: 1bd1 073d 44f9 0abf f25f 24be 0f74 1dbe
00000340: 80ff 64be 2f37 ce3d f146 cd3e 3741 eebe
00000350: 0878 bf3e 33d0 3c3e ca04 bd3e 60b5 323e
00000360: ae80 7ebd c9ad b53d c3f2 d1be 9c35 1bbd
00000370: 49bd cfbb 47da fcbd bcc8 3e3e 3876 d4bb
00000380: 1619 9dbd f996 42be 3ec3 2cbe 6546 af3e
00000390: 0d80 3dbe 1c9b 02bc 5fe9 6ebe bfb3 7f3e
000003a0: 3303 63be e8fa ab3c b70c abbe a458 433e
000003b0: f7f5 aabc c6ce 25be efd0 cb3e ccba b0bd
000003c0: ada7 9c3d 936c 463e fbb0 41be 6e4e f2bc
000003d0: 3f27 d53d 24ba d33c ec97 5a3d 2bdc 7cbd
000003e0: f2c3 88be f372 3bbe 03ab 893e 74c9 3c3d
000003f0: 0fdd a03d a593 59be 061e 743e d77f 1a3f

ConstantFolding/net/strided_slice_4_enter:0 f4 [13, 20]
-0.31480852 0.36751068 0.32608068 0.15169439 0.2611394 0.19281112 0.12529872 0.38044327
-0.28609377 0.125352 0.39623743 -0.04231827 0.07876042 0.1538954 0.051349252 -0.008563134
-0.12787047 0.0695194 -0.15457028 0.31728294 -0.02811958 0.06254706 0.14664438 0.1685579
0.15152824 0.2816956 0.08489864 -0.04138946 -0.15249255 -0.104403794 0.18104199 -0.326833
0.23394439 0.37903747 0.07194378 -0.49389598 0.03568029 0.3612127 -0.009580667 -0.100175835
-0.114238694 -0.3642447 0.18700491 0.38820952 -0.16872407 0.3322905 -0.1024475 0.09204098
0.5577621 0.35822716 0.018350331 -0.19379736 0.25416318 -0.3643403 0.15798755 -0.28126836
-0.36945653 -0.045549527 -0.115025036 -0.35994542 0.0077467808 -0.23074633 -0.52388304 -0.04075877
-0.046368487 0.23048978 -0.19682997 0.36705327 0.4475112 -0.15929456 -0.17062658 -0.2133906
0.06288004 0.26840973 0.18719816 0.14201629 0.019370634 -0.11404125 -0.10863155 -0.25775003
0.44646525 -0.10848949 -0.26581246 0.07977662 0.19177018 0.13539813 0.078122996 -0.6077298
0.04839805 0.028021172 -0.33605352 0.0675028 -0.12197268 0.43776226 0.1924064 0.026587822
0.034016196 -0.12758994 -0.041343674 -0.22195518 -0.102811076 0.13057603 0.16527647 -0.49149922
0.091237426 -0.06713478 0.36683884 -0.014502542 -0.5274275 -0.4633597 -0.26015317 -0.23996332
0.15785551 -0.05190194 0.22024412 -0.06918822 -0.3512452 -0.03603159 0.1326925 -0.14219998
-0.004744111 -0.04308527 -0.12889148 -0.19704255 0.04829047 -0.09919529 0.47381377 -0.042999443
-0.0020479208 -0.2036033 0.053763583 -0.117580295 0.5217135 -0.06468432 -0.15547761 0.38485503
-0.37766194 -0.27429473 0.54100096 0.048814025 -0.14468396 -0.23254809 0.18752244 0.25762632
0.248577 0.6314299 -0.21106997 -0.029006012 0.3225817 -0.34639385 -0.47714725 0.1389753
-0.097029306 0.2510474 0.1288221 0.32436532 -0.3805731 0.21422258 -0.086753316 0.21850358
0.098052785 -0.18172716 -0.04071179 -0.28422844 0.36291552 0.4861372 -0.24667116 -0.113634266
-0.18800023 0.013112806 0.17171927 0.1295883 -0.32964885 -0.21905752 0.13555656 -0.078002185
-0.26494566 0.05446512 0.08766326 -0.5632294 -0.1993301 -0.11516125 -0.07470414 -0.11018442
-0.021405436 0.3649295 0.15827684 -0.46042114 -0.5495561 0.107800655 0.31659803 0.011821482
-0.35709107 -0.100293465 -0.1685952 -0.03139432 0.18493702 -0.33746383 0.405033 0.25470555
0.19581856 0.46051055 0.26488152 -0.024410376 -0.06378522 -0.16691467 0.05917106 0.117090106
0.47575426 -0.10130034 0.00722176 0.1074075 0.24983142 0.39560375 0.08556476 -0.4896108
0.105732724 -0.015115031 -0.42407554 -0.030006848 -0.4476122 -0.35097277 0.38601255 0.037216973
0.16452073 -0.35556358 -0.03780661 -0.5919369 0.12554494 0.30652755 0.11338857 -0.28640556
-0.5899432 -0.19817397 0.3781417 -0.54847586 0.007854741 0.5217724 0.15255438 -0.3459019
0.02204818 0.49904472 0.14475651 -0.056231838 -0.077193476 -0.18103345 0.3251244 -0.34871072
-0.048242137 -0.04328254 -0.32194993 -0.063191265 0.25354812 -0.21196344 0.06371829 0.02684155
00000000: 952e a1be 5c2a bc3e 0cf4 a63e c655 1b3e
00000010: 10b4 853e 4770 453e 4f4e 003e 76c9 c23e
00000020: e27a 92be 465c 003e a2df ca3e ec55 2dbd
00000030: 254d a13d c196 1d3e 9853 523d 634c 0cbc
00000040: 7af0 02be 3060 8e3d ac47 1ebe e972 a23e
00000050: 095b e6bc ac18 803d f229 163e 719a 2c3e
00000060: 382a 1b3e 683a 903e 57df ad3d ff87 29bd
00000070: 0227 1cbe a8d1 d5bd 1263 393e a856 a7be
00000080: 1e8f 6f3e 3311 c23e 4357 933d efdf fcbe
00000090: 7f25 123d dff0 b83e 3bf8 1cbc fd28 cdbd
000000a0: faf5 e9bd 487e babe 377e 3f3e 66c3 c63e
000000b0: 01c6 2cbe fb21 aa3e ffcf d1bd fb7f bc3d
000000c0: 7fc9 0e3f 8d69 b73e 6f53 963c d172 46be
000000d0: ad21 823e d08a babe 7dc7 213e 6802 90be
000000e0: 6829 bdbe 2492 3abd 3f92 ebbd c44a b8be
000000f0: b5d8 fd3b c448 6cbe 331d 06bf abf2 26bd
00000100: e2ec 3dbd 8305 6c3e cc8d 49be 68ee bb3e
00000110: 3020 e53e 1d1e 23be bcb8 2ebe 1183 5abe
00000120: 40c7 803d 006d 893e e0b0 3f3e b86c 113e
00000130: 2aaf 9e3c 758e e9bd 387a debd d0f7 83be
00000140: 1897 e43e bd2f debd 9218 88be ed61 a33d
00000150: 675f 443e cfa5 0a3e f3fe 9f3d 2e94 1bbf
00000160: 093d 463d a88c e53c 350f acbe e83e 8a3d
00000170: d0cc f9bd 6022 e03e 2f06 453e b4ce d93c
00000180: 9154 0b3d f0a6 02be fc57 29bd 3848 63be
00000190: 9d8e d2bd b9b5 053e 3c3e 293e c9a5 fbbe
000001a0: b0da ba3d f67d 89bd 4dd2 bb3e 129c 6dbc
000001b0: 7d05 07bf 7c3d edbe cc32 85be f2b8 75be
000001c0: e0a4 213e 2197 54bd ad87 613e 8eb2 8dbd
000001d0: 69d6 b3be dc95 13bd 8be0 073e df9c 11be
000001e0: 7d74 9bbb 2e7a 30bd 21fc 03be 86c5 49be
000001f0: 3acc 453d e626 cbbd b897 f23e 2f20 30bd
00000200: 6936 06bb 627d 50be 3437 5c3d f0cd f0bd
00000210: 048f 053f 3679 84bd 8635 1fbe b80b c53e
00000220: e85c c1be 5c70 8cbe 0a7f 0a3f 37f1 473d
00000230: 0828 14be 1621 6ebe e205 403e 99e7 833e
00000240: f88a 7e3e 64a5 213f ba22 58be 049e edbc
00000250: 6e29 a53e 895a b1be a54c f4be 8b4f 0e3e
00000260: 4db7 c6bd 4989 803e f1e9 033e 3613 a63e
00000270: 7ada c2be 2a5d 5b3e b9ab b1bd 67bf 5f3e
00000280: e6cf c83d af16 3abe 68c1 26bd 6486 91be
00000290: 10d0 b93e fae6 f83e 5d97 7cbe 15b9 e8bd
000002a0: 2283 40be 18d7 563c 2dd7 2f3e ccb2 043e
000002b0: bcc7 a8be 9d50 60be 57cf 0a3e 9cbf 9fbd
000002c0: f5a6 87be d116 5f3d cc88 b33d cd2f 10bf
000002d0: 311d 4cbe a9d9 ebbd 7cfe 98bd 5fa8 e1bd
000002e0: 745a afbc 0ad8 ba3e 5313 223e 52bc ebbe
000002f0: b5af 0cbf 97c6 dc3d 2319 a23e e4ae 413c
00000300: a4d4 b6be a966 cdbd 38a4 2cbe 5597 00bd
00000310: 2160 3d3e 0fc8 acbe 7c60 cf3e c468 823e
00000320: a984 483e 0ac8 eb3e 8d9e 873e 45f8 c7bc
00000330: d3a1 82bd aeeb 2abe 5a5d 723d f0cc ef3d
00000340: 1096 f33e 8d76 cfbd 84a4 ec3b 77f8 db3d
00000350: cfd3 7f3e 938c ca3e 943c af3d 44ae fabe
00000360: 668a d83d 09a5 77bc 6e20 d9be ecd0 f5bc
00000370: 6d2d e5be b4b2 b3be 70a3 c53e d370 183d
00000380: 1f78 283e 6e0c b6be 1bdb 1abd 2d89 17bf
00000390: da8e 003e 2ef1 9c3e 4438 e83d c0a3 92be
000003a0: 8406 17bf 1eee 4abe ca9b c13e ea68 0cbf
000003b0: 2cb1 003c e092 053f 3737 1c3e 0e1a b1be
000003c0: 639e b43c ca82 ff3e 0d3b 143e 5b53 66bd
000003d0: 9d17 9ebd d560 39be b576 a63e 368a b2be
000003e0: 8c99 45bd 0849 31bd 9fd6 a4be 6c6a 81bd
000003f0: 0fd1 813e f20c 59be bc7e 823d cfe2 db3c

ConstantFolding/net/strided_slice_3_enter:0 f4 [20, 20]
-0.31884983 -0.24696119 -0.3643773 0.42678714 -0.039958287 0.12657873 -0.19322513 -0.24491097
-0.2075616 -0.12440522 -0.15776798 -0.14327787 -0.17595086 -0.13000968 0.12704697 -0.033612896
0.0023821762 -0.18875301 -0.24080084 0.13494116 0.15768933 -0.14045906 -0.091197506 -0.17780414
0.1365331 -0.08190954 -0.20519502 -0.17021969 0.020254428 -0.03346177 0.24916285 0.052943222
0.14551134 -0.10636434 -0.07573136 -0.16533022 0.03582425 0.015030272 -0.0929701 -0.24145257
-0.28842428 0.16727552 -0.24661568 -0.15396428 -0.06286046 -0.34344104 -0.19570787 -0.23934771
-0.21572928 -0.03035315 0.040096387 0.19367993 -0.02750483 -0.059186026 -0.23784615 -0.03969046
-0.032495923 0.069724865 0.08416692 -0.033529527 0.07097297 -0.19739786 -0.19102162 -0.1760383
0.17591654 0.43417037 -0.1347845 -0.24665216 -0.19847645 -0.16888373 -0.13909596 -0.22052631
-0.057378914 0.19858117 0.0062917573 -0.20238782 0.03244566 0.36695918 -0.05734672 -0.08473432
0.005828173 -0.4356036 0.371121 0.09555596 0.3291032 -0.05399083 0.07494867 -0.04410672
-0.13822152 -0.055253882 -0.14909214 0.024506915 -0.55198383 -0.2369741 -0.15911382 -0.06665655
-0.053799797 0.03065555 0.37145466 -0.20759144 -0.0556186 -0.045342933 0.10375282 -0.11764279
-0.050651155 -0.36797547 0.11277688 0.18707888 -0.24137232 0.18072052 0.05530292 0.101168476
-0.034675978 -0.087377355 0.03519489 0.08584859 0.05024504 -0.23347996 0.08608661 -0.22852331
0.16312037 0.27916926 0.1755215 -0.18742539 -0.14769839 -0.10518186 -0.12821317 -0.020203926
-0.26115468 0.47772494 0.075837955 -0.023898102 -0.2683996 -0.04937486 0.0047732815 0.026555052
0.013063123 0.25754333 0.12637585 -0.16990414 -0.4176435 -0.18373586 0.02942222 0.033468943
-0.27698073 -0.10843309 0.2361987 -0.74733853 -0.15491699 -0.06778087 0.3616068 0.2605568
-0.14893045 -0.25775254 -0.18140432 0.19884992 0.12916206 0.18001054 0.021998731 0.2881409
0.115501165 -0.041820094 0.005969096 0.23293193 0.18903579 0.07857463 -0.05687598 -0.13694927
-0.32487231 -0.1579146 -0.39121738 0.13858238 -0.20131922 0.08202448 -0.11882632 -0.36572334
-0.080855645 0.07582027 0.2024436 0.37869322 -0.23408443 -0.32775834 -0.09080924 -0.2395083
0.088882826 -0.18823247 0.31581947 0.0049134176 -0.15755515 -0.24121566 -0.032354515 -0.04860687
-0.058413815 0.21417472 0.01931844 0.17642622 -0.0606221 -0.010799322 0.24377622 -0.048841015
-0.33384204 -0.12219784 -0.19059126 -0.004753775 -0.17611691 0.111348644 -0.03742133 0.23631896
0.108701006 0.27042377 0.48754984 -0.31063226 -0.1631929 -0.11180999 0.28142688 0.14561374
-0.11250886 0.18445364 0.07523105 0.20748699 -0.15799272 0.28416863 -0.09599001 0.0231049
-0.00021942433 0.33201492 -0.13574721 -0.09119903 0.06769344 0.15969616 0.25180125 -0.10558924
-0.21446133 0.22189592 0.16634044 -0.3000724 -0.08958474 -0.005152353 -0.28186402 0.15462004
0.36250356 0.29666585 0.06443582 0.13992655 -0.3095625 -0.061156254 0.1209629 0.032057576
-0.31812197 -0.0846126 -0.25352502 0.0143003855 -0.12984155 -0.36539343 0.14048716 0.0024111692
00000000: 4940 a3be 65e3 7cbe a98f babe d883 da3e
00000010: 4dab 23bd db9d 013e cfdc 45be f1c9 7abe
00000020: 078b 54be 2ac8 febd ee8d 21be 6fb7 12be
00000030: 762c 34be 4221 05be 9a18 023e adad 09bd
00000040: 491e 1c3b 7848 41be 7f94 76be 042e 0a3e
00000050: 5079 213e 80d4 0fbe c2c5 babd 4a12 36be
00000060: 55cf 0b3e 30c0 a7bd a51e 52be 124e 2ebe
00000070: 9dec a53c 350f 09bd 8c24 7f3e feda 583d
00000080: ed00 153e 8cd5 d9bd 0b19 9bbd 534c 29be
00000090: 73bc 123d 8841 763c 1c67 bebd 583f 77be
000000a0: 59ac 93be 464a 2b3e d288 7cbe d0a8 1dbe
000000b0: fcbc 80bd 81d7 afbe a567 48be 9117 75be
000000c0: 23e8 5cbe 2ba7 f8bc 1c3c 243d 0854 463e
000000d0: cf51 e1bc 0c6d 72bd f18d 73be 7792 22bd
000000e0: 721a 05bd e9cb 8e3d b55f ac3d 4256 09bd
000000f0: 475a 913d aa22 4abe 2c9b 43be 6243 34be
00000100: 7723 343e 944b de3e f304 0abe 6292 7cbe
00000110: 693d 4bbe dbef 2cbe 2c6f 0ebe a6d1 61be
00000120: 2706 6bbd dd58 4b3e 162b ce3b c13e 4fbe
00000130: bee5 043d 13e2 bb3e 65e4 6abd 3089 adbd
00000140: 42fa be3b 6f07 dfbe 9203 be3e d8b2 c33d
00000150: 3780 a83e 7d25 5dbd b07e 993d 3fa9 34bd
00000160: f189 0dbe e551 62bd 9cab 18be bac2 c83c
00000170: d04e 0dbf 57a9 72be bcee 22be 3b83 88bd
00000180: 2d5d 5cbd 5921 fb3c 4e2f be3e da92 54be
00000190: 54d0 63bd 83b9 39bd 5c7c d43d b4ee f0bd
000001a0: 9677 4fbd 4867 bcbe 91f7 e63d 9b91 3f3e
000001b0: 4e2a 77be cd0e 393e 5185 623d 6b31 cf3d
000001c0: 6608 0ebd e6f2 b2bd 8428 103d 63d1 af3d
000001d0: becd 4d3d 5f15 6fbe 2d4e b03d 0402 6abe
000001e0: 0709 273e 46ef 8e3e e8bb 333e 71ec 3fbe
000001f0: 3f3e 17be 9669 d7bd 504a 03be b482 a5bc
00000200: 11b6 85be 5d98 f43e ee50 9b3d f4c5 c3bc
00000210: ac6b 89be 4b3d 4abd 3069 9c3b fb89 d93c
00000220: b606 563c b8dc 833e ac68 013e 5afb 2dbe
00000230: 5ed5 d5be 4125 3cbe de06 f13c bb16 093d
00000240: 6bd0 8dbe 2b12 debd 12de 713e 9451 3fbf
00000250: 8fa2 1ebe b2d0 8abd 8724 b93e b367 853e
00000260: 3981 18be 24f8 83be 0ec2 39be 509f 4b3e
00000270: 0f43 043e af54 383e af36 b43c 3487 933e
00000280: e08b ec3d 8c4b 2bbd 6898 c33b b585 6e3e
00000290: 9992 413e bceb a03d caf6 68bd 6e3c 0cbe
000002a0: aa55 a6be 5db4 21be a54d c8be 8ae8 0d3e
000002b0: a026 4ebe 73fc a73d 375b f3bd 1740 bbbe
000002c0: a597 a5bd a847 9b3d 604d 4f3e 14e4 c13e
000002d0: d4b3 6fbe f1cf a7be 32fa b9bd aa41 75be
000002e0: 3308 b63d 03c0 40be 17b3 a13e bc00 a13b
000002f0: 2356 21be 3d01 77be 2b86 04bd ff17 47bd
00000300: 5343 6fbd 9e50 5b3e b541 9e3c 13a9 343e
00000310: e14e 78bd a4ef 30bc 79a0 793e 840d 48bd
00000320: 58ed aabe dc42 fabd 5b2a 43be 8ec5 9bbb
00000330: fe57 34be c20a e43d 1c47 19bd 99fd 713e
00000340: a29e de3d fc74 8a3e 22a0 f93e 310b 9fbe
00000350: 0a1c 27be a3fc e4bd 2f17 903e c51b 153e
00000360: 0c6b e6bd 6ae1 3c3e bd12 9a3d 7877 543e
00000370: d8c8 21be 8d7e 913e 6996 c4bd 7d46 bd3c
00000380: 4515 66b9 dcfd a93e 5101 0bbe 8fc6 babd
00000390: dca2 8a3d 6487 233e 18ec 803e 2c3f d8bd
000003a0: c09b 5bbe af38 633e 2655 2a3e 17a3 99be
000003b0: 3478 b7bd 12d5 a8bb 7b50 90be b754 1e3e
000003c0: 119a b93e 96e4 973e edf6 833d e848 0f3e
000003d0: fa7e 9ebe fb7e 7abd 66bb f73d ce4e 033d
000003e0: e2e0 a2be 5f49 adbd 08ce 81be 2a4c 6a3c
000003f0: 2ff5 04be d914 bbbe dedb 0f3e b504 1e3b

ConstantFolding/net/strided_slice_2_enter:0 f4 [13, 20]
0.0073545435 0.21184404 -0.06474951 0.13352117 -0.19305386 -0.21834287 0.069973215 -0.05320906
0.009023268 -0.19266166 -0.014153396 -0.09550259 -0.5000322 -0.19006768 0.36336598 0.024292061
-0.023389354 -0.27033725 -0.12424639 -0.16288643 -0.07174301 0.40067247 0.5637783 -0.054767497
0.1067507 -0.073864534 -0.09979236 -0.12616353 0.06623765 0.08842338 -0.007827608 0.18862589
0.43939918 0.16956839 -0.3598315 0.083830826 0.07833437 -0.10101493 -0.2500444 0.19361621
0.28295556 0.1390574 0.19248821 0.103034414 -0.11266482 -0.020227075 0.007541665 -0.017960878
-0.38407412 0.079078116 -0.12686533 -0.014192859 -0.19697122 0.016774619 0.2560656 -0.098838605
-0.039439198 0.7819437 0.37083396 -0.16859972 0.058433913 -0.17281218 0.15373236 -0.2354002
0.0799848 0.08227613 -0.021030748 0.31100062 0.16096286 -0.20944636 0.08442648 0.017050106
0.076490544 0.010249525 0.02897832 0.09440645 0.0018084589 -0.05819452 0.1262706 -0.12884957
0.16904125 -0.5177384 0.5012848 0.16810162 0.3852739 -0.07377939 -0.0241181 -0.112192765
0.06396898 0.002972358 0.020614568 0.10706676 0.35790783 0.08378232 -0.11675778 -0.0001068174
-0.23288415 0.068491265 -0.15946117 -0.25461012 -0.007427338 -0.10307139 0.24947245 -0.32398394
-0.35687047 0.15559798 0.059529714 0.302975 -0.26026514 -0.1244913 0.28017145 0.24829093
0.3189508 -0.35128242 -0.122781195 0.1771336 0.3025469 -0.5448364 0.28849787 -0.008051917
-0.039345723 0.32600033 0.30212936 0.025804954 -0.2692945 0.5913708 0.17475033 0.1012147
-0.061426215 0.1769257 -0.15992515 -0.36641124 0.5350252 -0.3087857 -0.297884 -0.32890698
0.23738141 0.01818414 0.6641135 0.3615467 0.0926912 0.1765415 -0.59082335 -0.24265003
0.9901402 -0.23416996 0.221128 0.17795922 -0.33428493 -0.21510172 -0.013976922 -0.31629145
-0.20197998 0.2126583 0.33137694 -0.16186611 -0.3067943 -0.09394544 -0.31226134 -0.21803524
0.2646254 -0.29481977 -0.38393408 -0.3090412 -0.005731036 0.5067594 0.55359083 0.5044354
0.09976235 -0.16924721 -0.12301366 -0.18282586 -0.16172235 -0.32834268 -0.5278365 0.5672032
0.16193062 -0.47599497 0.1995841 0.23657782 -0.63677675 -0.36347297 -0.44344854 0.075075105
0.05390476 0.037391677 0.015198549 0.5173185 -0.15403135 -0.12616259 0.01121656 0.053616215
0.6254448 0.33113152 0.07178637 0.29411197 0.26586086 -0.8623276 0.54366815 -0.1045174
0.2534391 0.6517171 -0.37068883 -0.15695272 -0.20625608 0.3907685 -0.40705702 -0.25295648
0.12607001 -0.34670725 0.49989974 0.39572102 0.13783099 0.35401702 -0.07092935 0.10693013
-0.23135616 0.283413 -0.23308931 -0.19527318 -0.3359048 -0.3753339 0.39763495 0.54718834
0.2855161 -0.080849476 0.2966486 0.23263992 -0.07033163 0.59306663 -0.205096 0.060136445
-0.523558 -0.3228494 -0.13306645 -0.20133021 -0.0774989 -0.08662728 -0.044035625 0.42452058
-0.043378424 0.21392353 -0.630147 -0.08542269 -0.10464481 -0.27836862 -0.5659087 0.14052743
-0.1529251 -0.9150329 0.78101707 0.7496958 0.20282893 0.34895664 0.044962324 0.25145012
00000000: 62fe f03b a5ed 583e 649b 84bd c6b9 083e
00000010: e9af 45be 4695 5fbe 1e4e 8f3d bef1 59bd
00000020: 54d6 133c 1949 45be a5e3 67bc dd96 c3bd
00000030: 1c02 00bf 1aa1 42be 1b0b ba3e 2500 c73c
00000040: 089b bfbc a569 8abe e474 febd b3cb 26be
00000050: 00ee 92bd f124 cd3e c653 103f e253 60bd
00000060: 1ca0 da3d 4a46 97bd f05f ccbd 0331 01be
00000070: 9ba7 873d 5117 b53d 5e3f 00bc 2527 413e
00000080: eef8 e03e 56a3 2d3e d63b b8be 7faf ab3d
00000090: c56d a03d eae0 cebd d205 80be 5443 463e
000000a0: 8ddf 903e 1065 0e3e a11b 453e b503 d33d
000000b0: d0bc e6bd 40b3 a5bc 1220 f73b b122 93bc
000000c0: 5da5 c4be b5f3 a13d fce8 01be 2a89 68bc
000000d0: d3b2 49be ed6a 893c 081b 833e e56b cabd
000000e0: ff8a 21bd 762d 483f f3dd bd3e 68a5 2cbe
000000f0: 6658 6f3d adf5 30be 046c 1d3e c00c 71be
00000100: 12cf a33d 6380 a83d ad48 acbc 793b 9f3e
00000110: 73d3 243e 1b79 56be cae7 ac3d aaac 8b3c
00000120: 13a7 9c3d a0ed 273c f163 ed3c 2b58 c13d
00000130: d009 ed3a 615d 6ebd 154d 013e 24f1 03be
00000140: 2619 2d3e 818a 04bf 3354 003f d522 2c3e
00000150: 9f42 c53e a619 97bd 5293 c5bc 52c5 e5bd
00000160: 2b02 833d e4cb 423b e2df a83c d145 db3d
00000170: b23f b73e 1196 ab3d b41e efbd 2803 e0b8
00000180: 2f79 6ebe 2645 8c3d ca49 23be 425c 82be
00000190: 0761 f3bb 1817 d3bd b575 7f3e 39e1 a5be
000001a0: bab7 b6be 1455 1f3e 6ed5 733d 8a1f 9b3e
000001b0: 7941 85be 4bf5 febd a272 8f3e fa3f 7e3e
000001c0: 854d a33e 4adb b3be b574 fbbd 8362 353e
000001d0: 6de7 9a3e 667a 0bbf feb5 933e 30ec 03bc
000001e0: fb28 21bd 84e9 a63e b3b0 9a3e e964 d33c
000001f0: f8e0 89be 1464 173f c0f1 323e a749 cf3d
00000200: 0e9a 7bbd 032c 353e 6bc3 23be 419a bbbe
00000210: 69f7 083f 2919 9ebe 4084 98be 7f66 a8be
00000220: 1d14 733e e8f6 943c 5803 2a3f a61c b93e
00000230: e2d4 bd3d 4cc7 343e 3340 17bf 4079 78be
00000240: d479 7d3f 40ca 6fbe 616f 623e f13a 363e
00000250: 6527 abbe a043 5cbe 76ff 64bc f4f0 a1be
00000260: d7d3 4ebe 19c3 593e 3daa a93e 3bc0 25be
00000270: 2414 9dbe 7866 c0bd b8e0 9fbe a144 5fbe
00000280: fb7c 873e 9ef2 96be 0293 c4be a63a 9ebe
00000290: 6acb bbbb fcba 013f 21b8 0d3f ae22 013f
000002a0: 3450 cc3d 244f 2dbe 96ee fbbd b436 3bbe
000002b0: 8b9a 25be 881c a8be 4b20 07bf 3b34 113f
000002c0: 24d1 253e 9db5 f3be c65f 4c3e 7541 723e
000002d0: cd03 23bf 2119 babe b00b e3be fac0 993d
000002e0: 3dcb 5c3d 0428 193d 5603 793c fc6e 043f
000002f0: 65ba 1dbe c430 01be aac5 373c ad9c 5b3d
00000300: 271d 203f 128a a93e bb04 933d d895 963e
00000310: ea1e 883e 80c1 5cbf d62d 0b3f 380d d6bd
00000320: c5c2 813e efd6 263f edca bdbe 37b8 20be
00000330: cb34 53be cf12 c83e c769 d0be 8383 81be
00000340: 7f18 013e 9d83 b1be dcf2 ff3e f29b ca3e
00000350: 9123 0d3e b841 b53e 6843 91bd 2ffe da3d
00000360: a1e8 6cbe 821b 913e f7ae 6ebe b1f5 47be
00000370: b7fb abbe c42b c0be cf96 cb3e 8914 0c3f
00000380: 2b2f 923e 6994 a5bd 53e2 973e 2939 6e3e
00000390: 080a 90bd 37d3 173f b004 52be a251 763d
000003a0: e607 06bf 844c a5be 9242 08be 8229 4ebe
000003b0: beb7 9ebd a569 b1bd b35e 34bd c35a d93e
000003c0: 93ad 31bd c50e 5b3e 5051 21bf 17f2 aebd
000003d0: 0550 d6bd 5586 8ebe 64df 10bf 6ce6 0f3e
000003e0: 6698 1cbe 993f 6abf bcf0 473f 10ec 3f3f
000003f0: 63b2 4f3e 72aa b23e 6a2a 383d 12be 803e

ConstantFolding/net/strided_slice_1_enter:0 f4 [20, 20]
-0.35228446 0.19066943 -0.11988879 0.0058944835 0.09028932 -0.026573423 -0.13751353 -0.12935503
0.23640566 -0.009624969 0.0011808564 -0.22187698 -0.039736588 -0.124172896 0.010374132 0.036326513
-0.05040926 -0.014372015 -0.04035568 0.29818487 -0.026465463 0.25995824 -0.18133633 0.12175652
-0.03978164 -0.06335696 -0.17897573 0.16161534 -0.019176641 0.053813394 -0.1195555 -0.31407246
0.14187376 -0.12323865 -0.078759514 -0.098447986 0.2228246 0.07158236 0.4594617 -0.20580006
0.014437443 0.008389339 -0.1482231 -0.07815567 -0.0038457112 -0.22371829 -0.1515449 -0.0036340286
0.07551179 0.1184043 0.11526805 0.1595801 -0.08671903 -0.031207236 -0.032507967 -0.29504523
0.15545365 -0.19520463 -0.12894168 -0.078397796 -0.24803859 -0.16228151 0.1355172 0.06350211
-0.12747693 -0.07467423 0.07669511 -0.061183993 -0.08486592 0.06507582 -0.15949865 -0.06593382
0.107477 -0.038325273 -0.015220465 -0.32812232 -0.012703734 0.2681595 0.10867916 0.13515933
-0.06724191 0.03201876 -0.25074315 -0.0025574102 0.14554764 0.053939287 -0.11400628 0.077208854
0.0382197 0.28234357 0.09035806 -0.3419203 -0.05533428 0.03261506 -0.21449423 -0.0625273
0.061090127 -0.19257902 0.16592178 0.127052 0.021583112 0.1237721 -0.13749503 0.16478601
0.08449194 0.010719832 0.1839953 0.08033811 0.11325969 -0.18566988 -0.042958897 0.029340137
0.26468927 -0.08837797 -0.123600155 0.10706402 0.104422614 -0.3238886 -0.0820443 0.14542882
0.14450574 -0.15982562 -0.11947432 -0.035911243 -0.14078265 0.20205449 -0.57695657 0.40940514
0.03258112 -0.102953404 0.25758857 0.061636083 -0.25634363 0.07637715 -0.18169986 -0.18016931
0.11899114 0.00024236586 -0.26325032 -0.1780523 -0.36537218 -0.12255659 -0.2640354 -0.16830406
-0.12164402 -0.032865103 0.14559418 -0.1432355 -0.10961355 -0.3578771 -0.30018717 -0.1423782
-0.18808769 -0.04957937 0.059169207 0.06677401 0.09440538 0.5729164 0.25645167 0.0015709986
0.24171308 0.008235313 0.14174889 0.056001153 -0.07754879 0.0005203232 0.37909812 -0.14268157
-0.20102772 0.025661726 -0.16699326 -0.08804523 0.004597567 0.052078653 0.3384122 -0.2887211
-0.05736456 0.0014188173 -0.016481139 0.17563416 -0.32416385 -0.34368187 0.012497902 -0.020305168
0.016913643 0.13594665 0.33248594 0.32076037 -0.0928433 -0.047126032 0.33874917 0.1604994
0.22542769 -0.2343454 0.03930396 -0.089352585 0.118187845 0.08460627 -0.09516669 -0.060036376
0.11003863 -0.14569938 0.21947102 0.0265375 0.3030407 -0.1008208 0.068243384 0.034327175
-0.21119308 -0.13130647 0.2804846 -0.0041533983 0.039070867 0.022202697 0.10950326 0.19603464
0.16054298 -0.18488093 -0.16531391 0.05936905 -0.25239992 0.012259813 -0.007057905 -0.10225016
-0.1593269 -0.068532 0.03161941 0.2729289 0.14072236 0.107089974 0.00045974436 -0.4969262
0.35441142 0.0020970842 -0.268561 -0.15012473 0.15890442 0.12498229 0.123222195 -0.13538244
0.15687302 0.11438402 0.13498095 0.37253392 -0.046350833 0.11963667 0.016164174 -0.38276303
0.309427 -0.22800127 -0.06811536 -0.066652805 0.11485132 -0.08263732 -0.124513984 0.056889746
00000000: a15e b4be d93e 433e 4188 f5bd 8326 c13b
00000010: 9be9 b83d 82b0 d9bc 59d0 0cbe a575 04be
00000020: 5314 723e 0cb2 1dbc f7c6 9a3a b833 63be
00000030: d5c2 22bd 5c4e febd 43f8 293c 1ccb 143d
00000040: f179 4ebd 9a78 6bbc ff4b 25bd b0ab 983e
00000050: 19ce d8bc 3f19 853e 3bb0 39be 7b5b f93d
00000060: 13f2 22bd 4bc1 81bd 6a45 37be 7e7e 253e
00000070: 5518 9dbc 6f6b 5c3d 84d9 f4bd 1bce a0be
00000080: 5b47 113e 8c64 fcbd ab4c a1bd 199f c9bd
00000090: 222c 643e c699 923d 903e eb3e 40bd 52be
000000a0: 068b 6c3c 7073 093c ccc7 17be 1410 a0bd
000000b0: 5408 7cbb 6816 65be 962e 1bbe e228 6ebb
000000c0: eda5 9a3d f47d f23d a811 ec3d f768 233e
000000d0: bf99 b1bd 51a6 ffbc 1327 05bd 2b10 97be
000000e0: 3e2f 1f3e b9e3 47be 4a09 04be 068f a0bd
000000f0: d4fd 7dbe 202d 26be 05c5 0a3e 650d 823d
00000100: 5089 02be cdee 98bd 5312 9d3d 119c 7abd
00000110: 2fce adbd 7946 853d 9d53 23be 5008 87bd
00000120: e71c dc3d f6fa 1cbd 425f 79bc a6ff a7be
00000130: 5323 50bc 344c 893e 2e93 de3d 3567 0a3e
00000140: 20b6 89bd 1a26 033d 6861 80be 399a 27bb
00000150: 710a 153e 71ef 5c3d 207c e9bd ad1f 9e3d
00000160: 438c 1c3d 568f 903e a60d b93d 2d10 afbe
00000170: 33a6 62bd 5f97 053d 60a4 5bbe 500e 80bd
00000180: a439 7a3d 6f33 45be 66e7 293e eb19 023e
00000190: 11cf b03c 3a7c fd3d 7fcb 0cbe aabd 283e
000001a0: 1c0a ad3d 3ca2 2f3c 4469 3c3e 4f88 a43d
000001b0: b2f4 e73d 3f20 3ebe abf5 2fbd ba5a f03c
000001c0: 5a85 873e 82ff b4bd 1422 fdbd 6244 db3d
000001d0: 86db d53d bad4 a5be d806 a8bd 4beb 143e
000001e0: 50f9 133e 54a9 23be f4ae f4bd ab17 13bd
000001f0: 5429 10be 5fe7 4e3e 6db3 13bf 8d9d d13e
00000200: c873 053d 3cd9 d2bd a6e2 833e 1e76 7c3d
00000210: 793f 83be a06b 9c3d 870f 3abe 4e7e 38be
00000220: a0b1 f33d 9723 7e39 bfc8 86be 5853 36be
00000230: 1012 bbbe f3fe fabd a62f 87be e657 2cbe
00000240: 8020 f9bd 8f9d 06bd a416 153e 54ac 12be
00000250: 127d e0bd ab3b b7be 22b2 99be 97cb 11be
00000260: 0f9a 40be bd13 4bbd 695b 723d d0c0 883d
00000270: 9c57 c13d a6aa 123f a24d 833e f7e9 cd3a
00000280: a283 773e 68ed 063c 9f26 113e 7761 653d
00000290: e6d1 9ebd 4d66 083a 2619 c23e 1e1b 12be
000002a0: 36da 4dbe 8a38 d23c 4800 2bbe 0f51 b4bd
000002b0: 30a7 963b 6d50 553d 5d44 ad3e 41d3 93be
000002c0: 1af7 6abd 9cf7 b93a 7403 87bc 71d9 333e
000002d0: cef8 a5be 12f7 afbe 00c4 4c3c 0657 a6bc
000002e0: 7b8e 8a3c 9935 0b3e 993b aa3e b43a a43e
000002f0: a124 bebd 3a07 41bd 8870 ad3e f459 243e
00000300: 84d6 663e 3ef8 6fbe 30fd 203d 7dfe b6bd
00000310: 780c f23d 0d46 ad3d c1e6 c2bd b4e8 75bd
00000320: ef5b e13d 3832 15be 03bd 603e 2c65 d93c
00000330: 2728 9b3e 237b cebd 30c3 8b3d a79a 0c3d
00000340: 0043 58be 3475 06be ad9b 8f3e 3b19 88bb
00000350: c608 203d 6ee2 b53c 3f43 e03d 4ebd 483e
00000360: 6165 243e 6d51 3dbe 0d48 29be f62c 733d
00000370: 903a 81be 62dd 483c 0046 e7bb 8868 d1bd
00000380: 9726 23be 815a 8cbd 5b83 013d 56bd 8b3e
00000390: 8619 103e fd51 db3d d809 f139 1c6d febe
000003a0: 6a75 b53e 3c6f 093b d480 89be 4cba 19be
000003b0: d7b7 223e b7f6 ff3d eb5b fc3d b2a1 0abe
000003c0: 52a3 203e 2b42 ea3d 7238 0a3e c4bc be3e
000003d0: 5fda 3dbd 1204 f53d bb6a 843c 84f9 c3be
000003e0: 376d 9e3e 2a79 69be 1180 8bbd 4481 88bd
000003f0: 2b37 eb3d c13d a9bd 3001 ffbd 3905 693d
