wakewords/en/hey_scout.tflite (tflite, 21888 bytes, 10 tensors)

sequential/dense_1/MatMul f4 [1, 20]
00000000: ad97 f4be 8e04 c9bc 4b04 1a3f 0e01 213e
00000010: 50a5 22be a68e f1be 6030 99bd 084f aabe
00000020: 56da f83e ebc0 cebe 6789 0ebd 91a0 82be
00000030: 8603 bfbd 570e 38bb b567 203f 8fff 29be
00000040: 0b56 e7bd 3e83 ae3e d6e3 4ebd 1769 73bd
-0.4777197 -0.024538305 0.601628 0.15723059 -0.15883374 -0.47179145 -0.0747993 -0.3326342
0.48604077 -0.4038156 -0.034799006 -0.25513127 -0.09326844 -0.002808472 0.62658244 -0.16601394
-0.11295708 0.34084505 -0.05051025 -0.059426393

sequential/net/while/gru_cell/strided_slice_3 f4 [20]
00000000: f610 a93d 4e36 cb3d 7a83 17be 2f1a 073c
00000010: 708d a7bd 9419 c63c b4e6 8b3c 9047 003e
00000020: 203a a8be 6e86 063c 09b9 cdbe b31e 343e
00000030: 97d2 febd d7bf 6ebe 9ab4 263e 11ba 01bf
00000040: df50 be3c 85e1 dabe 3f02 96bd 870b 60be
0.08255188 0.09922467 -0.14796248 0.008245989 -0.08181274 0.024182118 0.017077781 0.12527299
-0.32856846 0.0082107615 -0.40180233 0.17589836 -0.124425106 -0.23315369 0.16279832 -0.5067454
0.023231922 -0.42750183 -0.07324647 -0.21879397

sequential/net/while/gru_cell/strided_slice_4 f4 [20]
00000000: ca69 2cbc 2be9 4f3f 96f5 473e 69ea 893e
00000010: 674e 49be fe4d 94be 086d 033e 7c23 c13e
00000020: 29ac 623e 70ea b83e 9268 753d d5be 223e
00000030: 149b 453e 246f a13d 34d7 e13d 8b63 b9bd
00000040: c5ee 09bc 6796 a8bd 3a3e 753d 41e7 443e
-0.010523269 0.8121516 0.19527277 0.26936653 -0.19658814 -0.28965753 0.12834561 0.37722385
0.22135986 0.36116362 0.05991418 0.15893109 0.19297439 0.078825265 0.11027375 -0.090521894
-0.0084187435 -0.08231812 0.059873797 0.19228841

sequential/net/while/gru_cell/strided_slice_5 f4 [20]
00000000: 778b 82bd 0d84 02bc c902 7fbf 514a 953e
00000010: 8790 c73e 4618 463e 515d a2be ace5 843e
00000020: a483 58be 6375 ba3e a93a 873e 094a 903e
00000030: f640 303e 5426 39be 4404 9abd be07 50bd
00000040: fa85 c6be a577 b9be 925b f8be 87a6 ab3d
-0.06374257 -0.007966054 -0.99613625 0.2915826 0.38977453 0.19345197 -0.3171182 0.25956476
-0.21143967 0.36417684 0.26411942 0.28181484 0.1721228 -0.18081027 -0.07520345 -0.050788634
-0.3877409 -0.36224094 -0.48507363 0.08381372

sequential/net/while/gru_cell/MatMul_3 f4 [20, 20]
00000000: 0e05 0cbe 8631 4e3e e0a0 77bd 7dda 88be
00000010: ef5c 143d ec8e 163e 4cf6 3cbd bd6b 953d
00000020: 28a6 07bd 3caa 8fbe 3e52 923e 85c9 433d
00000030: 7789 6e3d 2ea5 77bd 56b3 563d 177d 1cbd
00000040: ef5e 1c3b a27c b0bd f976 fdbd 7004 933e
00000050: e2ef 523e 1633 c63d 2e62 a73c 43c1 0a3e
00000060: 091b 8a3d 23ef 973e 79a5 06bd 63e1 80be
00000070: 3402 1dbd 09c1 153e 6fe8 21be 68f7 4a3d
00000080: 69fb e13d 54e8 003e c950 bebe 5458 4fbe
00000090: cb5d 7ebe ba98 533d 755c bf3d 6315 dfbd
000000a0: 88b1 20be 40fb 8c3d 7406 093d 6aca c6bd
000000b0: 8f10 5bbe efeb 0cbe cbff 0fbe bfe8 03bd
000000c0: ba55 1fbe dd72 8bbd 2049 8f3e 0f46 bf3d
000000d0: 42bc 993d 1b21 f83d 83a3 103f 9335 9b3e
000000e0: 6682 acbd 684f 9dbe f9bf 2dbc cfea 03bd
000000f0: 45f4 ab3c 4c3a 68bd 4435 68bd b6b8 cb3e
00000100: 885a d6bc 01bd e23d 8851 f13b 779e f23d
00000110: b0b7 07be 27d3 3b3e 7545 243e 9ea6 02be
00000120: f391 73bd 84c0 363d 7aab a9bd da78 0bbe
00000130: 6c3c 72be d126 3abe 1c23 0c3e 9ab1 053d
00000140: d173 e7bc 6e87 a8bc 2f0d 1bbb cf72 9a3e
00000150: 8035 f9bd 63bb 7d3d 3a53 a0be 27ce 333d
00000160: 0060 a2bd 1d1d b1bc eb78 203e 269d bb3d
00000170: 639c cd3d f868 40bd 6957 153e f320 4ebe
00000180: 9f74 bebd b45d 01be d371 adbe 47a7 5d3e
00000190: 6f5f f83d 3633 93be 05ee a93d 8943 4f3d
000001a0: 89f3 e3bc 8266 733c 9cf6 353b 9309 89bd
000001b0: d486 1bbe d5fd fdbd 7102 d23d 30e9 e13d
000001c0: 30da 96bd 7de0 30be e042 19be 7f13 723e
000001d0: 7ab4 1f3e 6c76 6a3e 2c21 3ebc 3a3d a33d
000001e0: b3c6 4b3d 620e 6a3b 6944 9f3e a39c 78bc
000001f0: 7770 10be bf28 a5bd a085 0e3e 4c64 cbbe
00000200: f2d6 1e3d 6af2 aa3d 87c8 003e 6140 aabd
00000210: 21ad 8d3e 3614 1abe 1b10 5ebd 240d 683e
00000220: 29df 1bbe e182 53be de80 da3d 8407 c13d
00000230: eec3 d03d 1f29 8dbd 99b6 0a3d bd53 46be
00000240: 1675 4c3b 5d04 c83d 89b6 40bc 79c1 98be
00000250: c709 debd 7957 ea3d d333 283e cc05 8f3e
00000260: d545 373e 6d4c a5bd 0daa 30bd 5c57 443e
00000270: c2f5 8b3d 7517 083e eb9b d0bd 382f 9a3d
00000280: e8a1 9abe 0abb 1d3b bc43 843d 6d9f 12be
00000290: b446 e4bd ddef 7f3d 8517 a4bc 3d96 933e
000002a0: 3521 0bbe a4f4 4bbe 7019 d7bb a9e7 86bc
000002b0: 2f91 92be 68f8 603e f5ee 473d 4843 d5bd
000002c0: 9e7c 423e d261 32bd 595c 9cbd 589e d33a
000002d0: aa07 943d da6f 3dbe 53c6 f8bd d4a8 dd3d
000002e0: 5995 69be ef47 0bbe 844e 2bbe 6a3e fb3d
000002f0: 471b a43d 09ed 9cbc 4780 3b3e d830 91bd
00000300: fe2f e73d 2fc8 223d b3c4 e5bc d92d 813e
00000310: 9fb9 6f3b 390b fc3d 6dc0 3abd 208e 3ebc
00000320: be41 f13c eeca 773d 8978 52bd 8265 a43d
00000330: ec57 383d e8e9 c3be 25fa 11bd 7f31 f2bd
00000340: 7174 23be bb55 123e 0a17 3abd a2b5 233e
00000350: 6127 c83d 1cd4 203e 9aa9 9bbd 297a 4abd
00000360: 625d 303e 0d77 b43e 841d 2f3d ff16 b03e
00000370: 4ba0 86bd 0a5a c13e cf07 873e 99fb 98bd
00000380: 6148 36be 2b6d 98bc 4d0d 4c3e ec73 3f3e
00000390: 325f f83c 7270 72be 7134 0c3e 2025 cebd
000003a0: 658a e43d 99b3 5bbe be9a 6f3e aee9 3b3e
000003b0: f91a f7bd 8f24 ba3b 22b1 3cbd e089 5e3e
000003c0: 9b7a aabe 10c8 9ebe c619 8c3b b6b7 bbbc
000003d0: 7dbc cc3d 51b1 e3bb e8ec 9c3d b4cf 423e
000003e0: eee4 8abb 5615 203e 3293 8e3d daec 60be
000003f0: 621f abbc 4f10 963e a651 88bc 174e 60be
-0.13673803 0.20136079 -0.060456157 -0.26729193 0.03622144 0.14702958 -0.046133325 0.0729594
-0.033117443 -0.28059566 0.2857837 0.047799606 0.058236565 -0.060460262 0.05241712 -0.038205232
0.0023860296 -0.08617522 -0.12376208 0.28714323 0.2059932 0.096777126 0.020432558 0.13550286
0.06743438 0.29674634 -0.03287265 -0.25171956 -0.03833218 0.14624418 -0.15811323 0.04955235
0.11034281 0.12588626 -0.3717101 -0.20248538 -0.24840467 0.051659323 0.09343807 -0.10892751
-0.15692723 0.0688386 0.03345342 -0.09706576 -0.21393035 -0.13761877 -0.14062421 -0.032204386
-0.15560046 -0.06809018 0.27985477 0.093395345 0.075066105 0.12115689 0.564995 0.3031431
-0.08423309 -0.30724645 -0.010604852 -0.032206353 0.0209905 -0.05669622 -0.056691423 0.3978936
-0.026166216 0.11071206 0.0073644556 0.11846631 -0.13253665 0.18342267 0.16042121 -0.12758872
-0.05946536 0.04461719 -0.0828466 -0.1362032 -0.23655862 -0.1817887 0.13685268 0.032640077
-0.028253468 -0.02057239 -0.002365898 0.30165717 -0.121684074 0.061946284 -0.31313497 0.043897774
-0.07928467 -0.021620328 0.15671127 0.09160833 0.10039594 -0.046975106 0.14584126 -0.20129757
-0.092995875 -0.12633401 -0.33875903 0.21645842 0.121275775 -0.28750008 0.08297352 0.050601516
-0.027826088 0.014855983 0.00277654 -0.06691279 -0.15188152 -0.1240193 0.10254372 0.11030805
-0.07365835 -0.17273135 -0.14966917 0.2364025 0.1559619 0.22896737 -0.0116045885 0.079706624
0.04975004 0.003571414 0.3110688 -0.015174064 -0.14105402 -0.08064412 0.13918161 -0.39724958
0.038779207 0.08347018 0.12576495 -0.083130606 0.2767115 -0.15046772 -0.054214578 0.22661263
-0.15221848 -0.20655395 0.10669111 0.094252616 0.101936206 -0.06892609 0.033865545 -0.19367881
0.0031197718 0.09766457 -0.01176227 -0.29835108 -0.10841709 0.11442465 0.1642602 0.2793411
0.17897733 -0.08071218 -0.043130923 0.1917395 0.06833984 0.13290198 -0.10185989 0.075285375
-0.3020165 0.0024067783 0.06458232 -0.14318629 -0.11146298 0.06248461 -0.020030746 0.2882556
-0.13586886 -0.19917542 -0.0065643117 -0.016467886 -0.2862639 0.2196976 0.04881187 -0.104132235
0.1899285 -0.04355032 -0.076348014 0.0016145213 0.07228024 -0.18499699 -0.12147202 0.10823217
-0.22810878 -0.13601659 -0.1672917 0.12267764 0.08013015 -0.019155996 0.18310653 -0.07089394
0.11288451 0.03974169 -0.028047895 0.2523029 0.0036579145 0.12306828 -0.045593668 -0.011630565
0.029450294 0.060496263 -0.051384483 0.080271736 0.045005724 -0.38264394 -0.035638947 -0.11825847
-0.15962388 0.14290516 -0.045432128 0.15987256 0.09773136 0.15705913 -0.07600708 -0.049432907
0.17223123 0.3524708 0.042752758 0.34392545 -0.06573542 0.37764007 0.26373145 -0.074698634
-0.17801048 -0.018606743 0.19926949 0.18696564 0.03031883 -0.23675707 0.1369188 -0.10065675
0.11159209 -0.2145523 0.23398873 0.1835086 -0.120656915 0.0056806277 -0.046067365 0.21732283
-0.33296666 -0.3101201 0.0042755334 -0.022914749 0.09996889 -0.006948628 0.07662374 0.19024545
-0.0042387163 0.15633139 0.06961669 -0.21965352 -0.020888988 0.29309317 -0.016640496 -0.21904789

sequential/net/while/gru_cell/MatMul_4 f4 [20, 20]
00000000: 5247 77bb b5ab 293e 05a8 683e 9e6f 7d3e
00000010: 72ea 16be eaf1 043e 56de 3f3c ebc2 be3e
00000020: f86f 13be 91d4 0c3d 24b5 493e 5ded 4c3d
00000030: f5d8 41be e3d3 f1be 77f9 273e 2cb6 963e
00000040: ebab d3bc 722a 813d ea61 02bb 52ec 4dbe
00000050: 3366 40bc 45a1 38bd 6afa 92bd 0b56 573c
00000060: 85b1 5d3e 1c0b aabe 21e2 cc3d 3fe0 f9be
00000070: f8d4 903d 699b ac3e d81a 383e 8a1d c13e
00000080: 3d37 9b3e 727e 303d 738c 46bc 8072 a93d
00000090: 61b5 47bd a4ef 88be ce1d d9bd 7d0e 873b
000000a0: 251e 663d e07d 05be 5c3a a3be e225 13be
000000b0: ae24 463e 40ca b9bd 4427 083d 41b9 dbbc
000000c0: 4300 083e c310 953e 46b3 24bd 690a 13be
000000d0: b4cc 95bc 7615 edbd 6916 813d 67fc 63be
000000e0: 15d8 c83d 6a78 b8bc f056 babd d688 1cbe
000000f0: dd96 2c3e b033 453e 80a2 163e 5e01 e4bc
00000100: 39f7 1c3e 2c15 023e bb00 6dbe d5fb 32bd
00000110: 1de8 f63d a48b ab3e 0dae 163e 1b52 7cbd
00000120: 4827 793e 3904 05be 8e64 19bd 5e10 9dbc
00000130: 1c4c 4abe ee20 383e 7ce8 b5be 334d 6dbd
00000140: c0d5 65bd 7def 203e 86ef 113e 7dce 713d
00000150: 5f85 6fbd 7946 5fbe 8523 fbbc 57bd b5bc
00000160: 0524 c6bc 1538 09bb cf3a 283d 7465 03bc
00000170: 90b9 d7bd b58f 943e df60 84bc 67fc 4fbd
00000180: 3303 813d 4807 76be e874 9e3c 7e76 c33d
00000190: ebda 963e 5806 b4bd dce5 27be 49e1 8c3e
000001a0: 9ddd 21be df31 823e 63b0 333d f1bb e1bd
000001b0: e277 da3e bfd8 143e 1803 893d 04c4 06bd
000001c0: cc80 d4bd 454b 18bd ab12 12bd b848 9ebd
000001d0: f7c0 1f3e dc2f 853e 9fd3 513e fece afbe
000001e0: f946 013e be46 ae3d 6e36 063e c988 0e3e
000001f0: df18 a63d 803d b4be a9b4 9d3e f464 2fbe
00000200: 809a 4cbe 4950 db3d 9e9f a43e f43c e2be
00000210: f46a 103e d86c 70bc 630b 7fbe 9b27 3b3e
00000220: 978f 8e3d 0927 9bbe 59a3 cabe e3d7 92be
00000230: b4b7 41be c3a7 07be 4a1f b3bc fb0a 37be
00000240: 802d a13e fc6e f5bd 4125 873d d26c 1abc
00000250: 683d 1bbe a9ba 073e b3e6 5e3e c96e cc3d
00000260: fdb3 a2bd ee3c f2bb 9992 61bd 704e f53e
00000270: 06e6 85be 0138 3b3c 9cfb bfbd 5e56 debd
00000280: a745 0b3e 3110 153e d355 cd3d df0b 9a3e
00000290: 7f6d 01bf 539a b43d a5a7 813d 0cfc 84bd
000002a0: 8ddf b73d 2e17 973c 0ea8 ca3b af69 aabd
000002b0: ed2e f73d d2c3 b73e d12f 94be ef80 b9bd
000002c0: 7182 63bd 28a3 cb3d 3242 663d 82f3 b23d
000002d0: 08f4 42be e781 2a3e 8157 633e 784b 4f3e
000002e0: 2fc0 263e 4b6e 943c 6d50 ce3d 246b ef3d
000002f0: 50c2 6bbe c38b d73e b720 07be 235c 39be
00000300: 786f 9c3d 6529 8cbd 2d89 8f3d 30dc 1fbe
00000310: 7b4a fdbd e5ca 803e a87b bebd d115 c43e
00000320: 15aa f13d ee96 263d 4ee5 fc3d 404f 7c3e
00000330: 3f88 b6be 9536 cdbe a97d 263e 440c 1a3e
00000340: ab9f 9ebe dacc c93e 8aba c9bc f9bf 53be
00000350: 385a 1abe bdcf 35be 981d 913a a83c d9be
00000360: a522 abbe b4b3 193d 6c2d ef3d 5b24 893c
00000370: f927 743e cd6e 103c f4b2 bfbc 8bc2 95bc
00000380: e184 9cbd 8e90 0abb 1a24 7a3e fb95 8dbe
00000390: ca04 0ebe 3d09 edbc 5202 40be 63df f23d
000003a0: a8e9 b63c 2599 68bd 0d83 47bc 5562 0c3e
000003b0: 49c4 06bd c646 acbe a146 af3e 6d01 15be
000003c0: fe9d c6bc 70c3 aebe 272b 57bd 72cb 053d
000003d0: aec1 1c3e 8763 5dbe 60cf 7cbe bd76 92be
000003e0: 79e9 66be 90be 3a3e 95ba e13d 2438 19be
000003f0: 8d6b 29be 0fd2 70be e3af a3be 9676 cb3c
-0.003773172 0.16569407 0.22720344 0.2474961 -0.14737871 0.12982908 0.011710724 0.37258086
-0.14398181 0.034382407 0.19698006 0.050031055 -0.18930419 -0.4723197 0.16403757 0.2943586
-0.025838813 0.06306924 -0.0019894787 -0.2010968 -0.011743116 -0.045075674 -0.07176669 0.013143073
0.2164975 -0.332116 0.10004068 -0.488039 0.070718706 0.3371232 0.1797899 0.3771785
0.3031558 0.043089338 -0.012118447 0.08273792 -0.04875696 -0.2674533 -0.10601388 0.0041216
0.05618109 -0.13036299 -0.31880462 -0.1436992 0.1934993 -0.09071779 0.03324057 -0.026821734
0.1328135 0.2911435 -0.04021003 -0.1435944 -0.018286087 -0.11576359 0.063031025 -0.22264253
0.098068394 -0.022518355 -0.09098613 -0.15286574 0.16854425 0.19257998 0.14710426 -0.027832683
0.15328683 0.12703389 -0.2314481 -0.043697197 0.12055991 0.33504975 0.14714833 -0.06160174
0.24331391 -0.12989892 -0.037449412 -0.019172844 -0.19755596 0.17981312 -0.35528934 -0.05793495
-0.05611205 0.15716358 0.14251527 0.059034813 -0.058476802 -0.21804227 -0.030656585 -0.02218501
-0.024187097 -0.0020937969 0.04107171 -0.008019794 -0.1053344 0.2901589 -0.016159473 -0.05077782
0.06299438 -0.24026215 0.019342855 0.09544085 0.29463896 -0.087902725 -0.16396278 0.2751563
-0.15807195 0.25428674 0.043869387 -0.11022175 0.42669588 0.14535807 0.06690043 -0.03290178
-0.103761286 -0.037181158 -0.035662334 -0.07728714 0.15600954 0.26013076 0.20490883 -0.3433761
0.1262473 0.08509587 0.13106701 0.13919367 0.081102125 -0.3520317 0.30801895 -0.17128354
-0.19980812 0.107086726 0.32153028 -0.4418713 0.141033 -0.014674388 -0.24906687 0.18276827
0.06960981 -0.3030322 -0.3957775 -0.28680333 -0.18917733 -0.1324759 -0.021865506 -0.17875282
0.31480026 -0.11984059 0.065989025 -0.009425359 -0.15160143 0.13254799 0.21767692 0.09982068
-0.07944486 -0.0073925173 -0.055071447 0.47911406 -0.26152056 0.011426927 -0.093741626 -0.10856317
0.13600789 0.14556958 0.10026135 0.30087182 -0.505577 0.088184975 0.06330804 -0.064933866
0.08978186 0.01844367 0.0061845845 -0.08320939 0.12069497 0.35891587 -0.2894273 -0.09057795
-0.05554432 0.09943229 0.056215473 0.08737852 -0.19038403 0.16651116 0.22201349 0.20243633
0.1628425 0.018118998 0.10073934 0.11690357 -0.23023343 0.42098817 -0.13196073 -0.18101554
0.076384485 -0.06843833 0.07008586 -0.15611339 -0.12367722 0.25154796 -0.09300929 0.38297895
0.11800019 0.04067128 0.12348424 0.24639606 -0.35650823 -0.40080705 0.16258873 0.15043741
-0.30981192 0.39414102 -0.024625082 -0.206787 -0.15073478 -0.17755027 0.0011071442 -0.4242909
-0.3342487 0.037524894 0.116785854 0.016740968 0.23843373 0.008815479 -0.023400761 -0.018281242
-0.07642532 -0.002114329 0.24427834 -0.2765349 -0.13869014 -0.02893507 -0.18750885 0.11859014
0.022328213 -0.056786675 -0.012177241 0.13709386 -0.032902036 -0.33647746 0.34233573 -0.14551325
-0.024245258 -0.34133482 -0.052531388 0.032664724 0.15308258 -0.21619998 -0.24688482 -0.28606215
-0.2255 0.18236756 0.11021916 -0.14962822 -0.16544934 -0.23517631 -0.31970128 0.02483682

sequential/net/while/gru_cell/MatMul_5 f4 [20, 20]
00000000: 79e1 533e 2269 9a3d 8d4b e23d 2540 b73d
00000010: 25c4 403e f871 713e 1c10 ef39 6747 803c
00000020: e02a 643e 3aeb 00bd de87 263e 315b fe3d
00000030: 0ca3 2abe e30c c43d 7283 5abe 7d97 883d
00000040: f416 c2bc f4b1 043e 1dfe 113d 89cc d53d
00000050: 1ac7 043e 8ed5 4e3d a919 d33e 8f2b f6be
00000060: 0a3b 7c3e cbf0 463d 19b4 be3e d8b7 e3bd
00000070: 4d87 74be ca05 453d 1c01 963d 4fd8 4b3e
00000080: 9469 f63d 0808 533e 4121 9a3e d11c 913e
00000090: 07db 2c3e d51a 47bc a1e3 753d 54fb 753d
000000a0: 3446 d83e 30fd a23e 110e 4d3e dd04 bd3d
000000b0: 1088 e33d ae97 97be 10f2 bc3e 57f1 ddbd
000000c0: fd7d 3fbc 42eb 6c3b 2fdb b8be 4679 90be
000000d0: 2131 dbbe 0c2e 24bd dc96 b8bd c16d 1abd
000000e0: e050 693e 6863 f1bd ce98 4a3e 010b 23be
000000f0: cfef 3ebd e78c 413e 7c1d 10bf f942 fd3c
00000100: 3a23 60be 5847 903e 057c ac3e b346 a2be
00000110: 8316 9ebe a4f8 143e a436 52bd aae3 173e
00000120: 4ace 8c3e 9c67 80be 066e 10be 8cea bf3d
00000130: 4712 19bd 9705 803e 46b8 ab3e 75a2 0dbe
00000140: 8d2e a33d eab7 c43e 8339 39bd bee7 533d
00000150: 95ff bf3e 7459 193e a019 f83c 84e2 143e
00000160: a456 703d c67a 56bd 73a7 9e3d afa2 a6bc
00000170: fef3 5ebe afa0 6f3e 6276 0dbe 3800 54be
00000180: 3579 063e c2a7 0cbd a207 873e 2e66 5ebe
00000190: 46e1 89be 219a d5bc e8c1 76be 5bd2 5e3e
000001a0: 58c8 323e 9958 073e aebc dcbd 6f6b 9cbd
000001b0: 19a7 d93d 6fc2 d73d c622 93be 4648 37bd
000001c0: 8400 0c3d 316e 723d b3c9 bc3b 627f 2f3e
000001d0: 3624 80be 4211 98bd 4240 10be d258 863e
000001e0: 0a28 443e 8e4e 4cbe 6949 8e3d e373 793e
000001f0: 170f cebd d26f e53d 8dea c23e 6453 1abe
00000200: 0487 59be 9486 05be 652f 093e 25c0 7fbc
00000210: 2298 28be 7e32 223e 041b 21be 147c 15be
00000220: f473 21be a3b2 813d 0272 833c 8cd4 bdbe
00000230: 769b 563e 21e3 c43e ecc6 a0be d5e7 853e
00000240: 6a8d c73e ca8c 203e 6110 83be 59ef cc3e
00000250: 6a2d 353d b6d7 ad3d 237f 203e 4263 c03e
00000260: a4e5 e9bd 9cf5 493e 2f72 853d 8b0d 173e
00000270: 7902 993d edf6 a5bd ffbc 97be 2d60 0f3d
00000280: c9fb 3b3e 1b96 8fbe 76ca 923d 7aac 053e
00000290: 0e9e 26bd d6ad d3be fe66 2ebe 6cb7 9bbd
000002a0: 6b92 d43d 9179 51be da35 81be dcc8 80be
000002b0: 422b 673d 2de7 833e e009 5abe e0aa 3fbe
000002c0: 0ffd 1dbe 1d8d e23d 6449 11bd 12fb 03be
000002d0: 7fec 7c3e 62d6 aa3d 72ed be3d 8276 333e
000002e0: e05a 4a3e d67d 11be b2af 243e d1a9 383e
000002f0: 0c84 0fbe e02b 8d3e 9262 333d 6e28 cd3d
00000300: 1fa4 85bd f8ff 073f e63e 57bd 5c20 d9be
00000310: a79d daba 9bdf bebd 4233 dfbe 37be be3d
00000320: 7888 563e 2af8 553e 1db7 3ebe 9f49 9c3d
00000330: 34f2 233e 85c4 cbbd 8b79 f73d f899 21be
00000340: fc88 92bd 2298 613e c5ac 18be fdb1 243e
00000350: 23f5 c2be 408e 503e 8cf7 3b3e 4ad7 c6bd
00000360: 672a bc3e 4432 913e 1df5 323e a41c b3ba
00000370: 2134 883e 208e fd3c f773 96be 4afa 4fbe
00000380: 994c 6c3e bec8 063f 08ba 653d b74a 83be
00000390: e675 5d3c 2b9e 613d 29ac 6dbe f8cf 513e
000003a0: 78bc 51be 4983 6c3d 3295 9f3d 6a5d c13d
000003b0: a204 aebe f982 b0bd c810 69be 38cf 023f
000003c0: be7b 61be b265 dabe 821a 2c3e 71b5 903d
000003d0: 72ec a53d 2889 72be 641d 823b 67c6 2d3c
000003e0: 0dd8 683e 04c2 173e 098e 55bd d04f 37be
000003f0: 8f84 c93e 3e8c 42be 5ce3 40be ee6a 503d
0.2069148 0.07539584 0.110495664 0.089477815 0.18824823 0.23578632 0.00045597635 0.015659047
0.2228198 -0.03147433 0.16262767 0.12419737 -0.1666376 0.095727704 -0.21339205 0.06669519
-0.023692586 0.12958509 0.035642732 0.104394026 0.12966576 0.05049663 0.41230515 -0.48080108
0.24631897 0.04856948 0.3724678 -0.1111905 -0.23879738 0.048101224 0.0732443 0.19906734
0.12031856 0.20608532 0.30103496 0.28342298 0.16880427 -0.012152393 0.060031537 0.06005414
0.4224106 0.31833792 0.20024897 0.09229443 0.11109936 -0.2960791 0.3690343 -0.108370475
-0.011687753 0.0036150967 -0.36104724 -0.28217524 -0.4281092 -0.040082976 -0.09013149 -0.037702326
0.22784758 -0.11786538 0.19784853 -0.15922166 -0.046615418 0.18901406 -0.5629499 0.030915724
-0.21888438 0.2817943 0.3368837 -0.31694564 -0.3087655 0.14547974 -0.05132164 0.1483294
0.27501136 -0.25079048 -0.1410447 0.09370908 -0.037370946 0.25004265 0.33539027 -0.13831504
0.07967863 0.38421565 -0.045220863 0.05173468 0.3749968 0.1497553 0.030285656 0.14539534
0.058676377 -0.05236318 0.07746782 -0.020341245 -0.21772763 0.2340114 -0.1381469 -0.20703208
0.13132174 -0.034339674 0.2637301 -0.21718666 -0.26929682 -0.026074471 -0.24097407 0.21759932
0.17459238 0.13217391 -0.10778175 -0.07637679 0.106275745 0.10535132 -0.28737468 -0.04474666
0.03418018 0.059187118 0.005761349 0.17138436 -0.25027627 -0.07425167 -0.14087012 0.2623964
0.19155899 -0.19951841 0.069475956 0.24360614 -0.10061472 0.11202969 0.38069573 -0.15070873
-0.2124291 -0.13039619 0.13396986 -0.015609776 -0.16464284 0.15839574 -0.15732962 -0.14598113
-0.15766889 0.063329004 0.016045574 -0.37076223 0.20957741 0.38454536 -0.31401765 0.26153436
0.38975078 0.15678707 -0.25598434 0.40026358 0.044232763 0.08488409 0.15673499 0.37575728
-0.114207536 0.19722599 0.065159194 0.1475126 0.07471175 -0.08103738 -0.2963638 0.03500383
0.18357767 -0.2804421 0.071675226 0.13054076 -0.040678076 -0.41343564 -0.17031476 -0.07603344
0.103794895 -0.2045653 -0.25236398 -0.25153244 0.05643774 0.2576231 -0.2129283 -0.18717527
-0.15428565 0.110620715 -0.03547038 -0.12888744 0.24699591 0.083416715 0.09322633 0.17525676
0.19761229 -0.14208159 0.16082647 0.1803353 -0.14015216 0.27572536 0.043795176 0.10017477
-0.06525444 0.5312495 -0.05255022 -0.424075 -0.0016679064 -0.09319993 -0.43593794 0.09313624
0.20950496 0.20895448 -0.1862454 0.076312296 0.16010362 -0.099495925 0.12083729 -0.1578139
-0.07155034 0.2203069 -0.14909656 0.16083522 -0.3807765 0.20366764 0.1835615 -0.09709032
0.367511 0.28358662 0.17476316 -0.0013665152 0.2660227 0.03095156 -0.2938535 -0.20310321
0.23076095 0.5265006 0.056085616 -0.2564294 0.013516879 0.05508248 -0.23210205 0.2048949
-0.20482051 0.05774239 0.077921286 0.094416454 -0.3398791 -0.08618731 -0.22760308 0.5109744
-0.2201986 -0.42655712 0.16806987 0.07065857 0.08101739 -0.23685133 0.003970789 0.010606385
0.22738667 0.14820105 -0.05213741 -0.1790154 0.39358947 -0.1899881 -0.1883673 0.050883226

sequential/net/while/gru_cell/MatMul f4 [20, 13]
00000000: ffd9 abbd 45dc 4c3c d01d 303c 2e8b 093e
00000010: 1a8e 9abd 342f 01bd 2073 193e d02c d23e
00000020: 734e b13e 6be5 013e 837a 1e3e 7cb9 ea3e
00000030: df7e 843e 579a 0e3e 6184 a23c 1477 763c
00000040: 5f48 cabd 97e5 63bd 8696 d8bd 463a 6abe
00000050: 43e5 253d 8edf e73d 73d4 85bb 5c6f 06bd
00000060: 0176 dabe a451 c4be a8da 33be 3cf9 c53d
00000070: 60ba 4abe ca88 c63d df91 67be ef70 043e
00000080: 6a0b 5cbd dac3 6cbc 9ee1 31bd ed4b ae3c
00000090: d142 283e bd25 7bbe de78 d4bd 3e24 bf3d
000000a0: 6553 dd3d 092d 9cbd 6ef8 62be 1d70 4e3d
000000b0: 10f1 b33d f411 943d 2d7d 7fbe 1be5 47be
000000c0: 4d3e 6fbe ab24 97be 0deb afbd 8bd4 ca3e
000000d0: 1f33 05be f35b bcba b1bd e53d b549 29be
000000e0: 6a89 9abd ea32 ae3d a90a 5fbe 9e9d b1be
000000f0: 3fa3 7fbe 2356 b93c d009 a53e 2611 a6be
00000100: 206b 213e aaea 81be 2949 a3bd 2196 153e
00000110: aff9 e1bd f7af 1d3e e4d6 263e 6eef 28be
00000120: 996e 3c3d ca44 8b3d 6653 493e 3ced 4ebe
00000130: 7966 8fbe 0c71 e7bd b9fc afbd 9c26 e7bb
00000140: 2f08 123c c8a5 523d 60f7 2b3d e9dd 7bbd
00000150: 760a 10be 9aee 2dbe b7dc 9dbd 2bc2 a7bd
00000160: 6474 3f3e d1a7 863d 2bfa 4abe cb23 efbd
00000170: 1913 6dbd f17a de3d 9f7e 743d 8596 af3c
00000180: 0f7d 60be fbc1 123e a90b 17be 06fc b9be
00000190: f7c8 6b3c efb9 6c3e 6264 0d3e de80 3f3e
000001a0: c1d6 2d3e 2908 e33b 845e 753e 83b1 833e
000001b0: 66a0 743c c65a 2ebd f5fb 67be 3102 f5bd
000001c0: 38fd 673e 1cbe 96be a363 0c3d 99ce 32bd
000001d0: 217e 53be f269 dd3c 1464 89bd f406 413e
000001e0: 5df1 7bbd 2e21 a2bd 98dc 86bd af03 923c
000001f0: 8028 9a3e bce0 b4bd ff8d 313d a47f 84be
00000200: b472 17bd 8021 71be b138 0f3e 13bb 50bd
00000210: f671 af3c a906 1ebc 7c7d 903e 417f 08bd
00000220: 5fa6 e9bd ee9d afbd 9238 abbe 9b23 133e
00000230: bb97 8b3e 34af fb3e 022c 7dbb a8ff cdbe
00000240: a49b acbc 0423 75bd c669 083e 9fa7 d2bc
00000250: 2b82 1fbe ee2d aa3d fbb8 6dbd b9bb 4cbe
00000260: a328 74be 644f 1cbd 141f 4f3c 153f 19be
00000270: b578 2ebd f353 cdbc fdab 2bbd e92e 443e
00000280: f195 473b ea98 353d 11dd 363e 598a a63e
00000290: d532 813d f9df 49be ca8b 71be 334e 69be
000002a0: c003 dfbb aa83 44bd abac 2cbe 5efe 143e
000002b0: 1791 75bd 008a 93bd ee69 9ebe b9f6 43bd
000002c0: 1e85 3c3e c51b 813e 68e8 9c3c 0d0e 1cbe
000002d0: fbd0 e13c 71ec 3c3e 82fb b1bd 5fa1 53bd
000002e0: 0931 f23d 4c8b 023c 36a8 923d 74d4 003e
000002f0: 05d4 383e a635 1fbe ddcd afbe 53b1 db3d
00000300: 9827 4fbe 665a 7e3e d984 0cbd 1f8c af3e
00000310: 5148 0bbc dacc 1abc a499 cbbc b7b0 ec3d
00000320: e83e 98bd f78b 3f3e 7263 713e 40a9 113e
00000330: c66a 623e c9d4 573d 9190 ea3e 0657 86bd
00000340: 54b3 6e3d ef24 54be 76b5 13be d11a 313e
00000350: c72b 113c 96cd 4b3c 0fb4 6a3e 3a7a d43d
00000360: 15c9 9ebc 689a 7a3d 5dc7 783e 7315 bdbe
00000370: ee7d e43e d6b0 b53d 46c5 213e 8a13 61bc
00000380: bac7 68be 6e80 a73d c83b 1b3e c179 153e
00000390: e680 9abc 9847 c0bc 7d8f 153e 99cc b3be
000003a0: 23c3 2e3d acb5 8e3d 271e 463b 1c5c 1e3c
000003b0: 1254 96bc f2fb ab3c baaa 9fbd 3dd2 603e
000003c0: 4b0c 7e3d 2646 cc3a e1b5 c8be 61e5 2e3d
000003d0: 6e2a 19be 5e9e 103e d897 2ebe a12e 1f3e
000003e0: 070b 9c3d 14a7 43bb 7efd 0bbe 3c10 cabc
000003f0: dfea b83d f3e3 04bd 20e4 6fbe cbe9 453e
-0.08391189 0.012503688 0.010749295 0.13431999 -0.07546635 -0.031539157 0.14985323 0.41049814
0.34630165 0.12685172 0.15476422 0.45844638 0.25878045 0.13926063 0.019838514 0.015043039
-0.09877085 -0.055638876 -0.10575585 -0.22873792 0.040501844 0.113219365 -0.004084164 -0.032821044
-0.42668155 -0.38343537 -0.1756388 0.09666678 -0.19797659 0.09694059 -0.22614239 0.12933706
-0.053721823 -0.0144509915 -0.043428056 0.021276439 0.16431738 -0.24526115 -0.10374616 0.093330845
0.10806922 -0.07625777 -0.22165081 0.05039989 0.087862134 0.07229987 -0.24950095 -0.1952099
-0.2336361 -0.29520163 -0.08589754 0.39615282 -0.13007782 -0.0014370665 0.112178214 -0.16532023
-0.07545741 0.08505805 -0.2178141 -0.34690565 -0.24964617 0.022624081 0.3223405 -0.32434958
0.15763521 -0.25374347 -0.079729386 0.14608051 -0.110339515 0.15399157 0.16292912 -0.16497585
0.04600391 0.0680023 0.1966072 -0.20207685 -0.28007868 -0.11300859 -0.08593125 -0.007054163
0.008913084 0.051427633 0.041983962 -0.061490927 -0.1406649 -0.1698555 -0.07708114 -0.081913315
0.18696743 0.06574977 -0.19821994 -0.11676749 -0.05787954 0.10863293 0.059691068 0.021434078
-0.21922706 0.1433181 -0.14750542 -0.3632509 0.0143911755 0.23117803 0.13807824 0.18701503
0.16976453 0.006928463 0.23961836 0.25721368 0.01493082 -0.042567037 -0.22654708 -0.119633086
0.22655189 -0.29441917 0.03427471 -0.043654058 -0.20653583 0.027028058 -0.067085415 0.18850309
-0.06150948 -0.07916485 -0.06585044 0.017824022 0.30109024 -0.08831927 0.04334831 -0.25878632
-0.036974624 -0.23547935 0.1398647 -0.050959658 0.021416645 -0.009645143 0.28220737 -0.033324484
-0.11408686 -0.085750446 -0.33441597 0.14369051 0.272642 0.49157107 -0.0038630967 -0.40234113
-0.021070309 -0.059847847 0.133216 -0.025714694 -0.15576999 0.08309542 -0.05803774 -0.19993486
-0.23843627 -0.03816165 0.012641687 -0.1496547 -0.042595584 -0.025064444 -0.041912068 0.1915852
0.0030454362 0.044335283 0.17857768 0.32527426 0.063085236 -0.19714345 -0.23588482 -0.22783737
-0.006805867 -0.047977127 -0.16862743 0.14550158 -0.05995282 -0.07204056 -0.30940193 -0.047842715
0.18410155 0.252165 0.019153789 -0.15239735 0.02756547 0.1844957 -0.086905494 -0.051667567
0.11825759 0.007967781 0.0716099 0.12581044 0.18049629 -0.15547809 -0.3433675 0.10727181
-0.20229948 0.24839172 -0.03430638 0.3428659 -0.008501128 -0.0094482545 -0.024853535 0.11557143
-0.074338734 0.18705736 0.23573092 0.1422472 0.22111043 0.052693162 0.4581342 -0.06559567
0.05827649 -0.20717214 -0.1442469 0.17295386 0.008860535 0.012439152 0.2292025 0.10374875
-0.019382993 0.06118241 0.24294801 -0.36930427 0.44627327 0.088716194 0.1579791 -0.013737569
-0.2273244 0.08178793 0.15159523 0.14597227 -0.018860292 -0.023471639 0.14605518 -0.35117033
0.042666566 0.06968245 0.0030230375 0.009665515 -0.018350635 0.02099416 -0.077962354 0.219552
0.062023442 0.0015584871 -0.39201263 0.04269922 -0.14957592 0.14122912 -0.17050111 0.15545131
0.07619291 -0.0029854225 -0.13670918 -0.024665944 0.09029173 -0.03244395 -0.23426867 0.19327466

sequential/net/while/gru_cell/MatMul_1 f4 [20, 13]
00000000: 6bba 5dbc 0a82 0f3e 82f7 6cbd ed62 54be
00000010: d095 c53c 5cb5 263e 8483 79be 8ff4 9cbd
00000020: ae11 7e3d 3754 09bf e0d9 5ebe 7d66 c7bd
00000030: ccc6 b7be f505 1fbd 0618 473e 94b3 b03d
00000040: bd41 233d f6f7 a0bd 6802 5c3e ad8f aa3e
00000050: dc88 973e 57ac 0a3e c12f f9bd aab1 40be
00000060: 35ef fe3e 56b8 07bd 968b a23d 3b3c 80bc
00000070: 22ad 48be 6666 73bd e014 f7bd 4340 08be
00000080: 1dfc 503e d790 29be 6679 cfbd 70a0 17be
00000090: c006 e33d 0291 35be e657 ffbd 918f c83d
000000a0: cb56 173d 14ab efbd 9441 83bc 5790 e2be
000000b0: 8aaa 843c 74dd 593c 8a01 6bbc be19 36be
000000c0: 2fb0 7fbe 864c 3e3d d8a8 95be be1c 8a3d
000000d0: 4577 073d 9168 74bd f533 dbbb 00ff c03e
000000e0: 86ee ca3c a048 693d b8de 54bd a7a6 0abd
000000f0: bb5a 133f 94a9 e4be cd8d c1bc db24 103f
00000100: 2f46 90bd d8e2 f43c 2966 69bd 7ffa 293e
00000110: a540 033e 9407 b2bd 8a2a 5dbe 7b78 833d
00000120: 711e 5c3e 2698 6d3e 909f 293e b6bc 9f3e
00000130: 89d1 a7bd 512a 2b3d 7b20 953b 7633 423d
00000140: 3bc2 f3bd 6e2b 003e 9d18 843d 825a 853e
00000150: ea30 74be 1233 b73e 2d63 5ebd b14d a9bc
00000160: a378 a03e b67f 58bc 1689 43be f848 e4be
00000170: 8085 f33d 54d1 2b3e 6b6c 283e c4f0 903d
00000180: 1685 783e e2f9 193e 7f56 67be 4264 3dbe
00000190: 9e4e 6cbe 8ed1 ddbb b48b a5bd 5d9e 87be
000001a0: c62f 85bc b00f b63d 4b3f 713d aa5b c73e
000001b0: 669d 0dbe 4bb5 c83d 2a4b 593e 9171 063f
000001c0: e882 46bc a349 a93d 4a50 833e 4fa5 febc
000001d0: a8d6 b03e 569a 1abe 12d7 cabd 12fc 47be
000001e0: e4fc 883c 0cc7 e4bc 933d 393e c7a2 883e
000001f0: 0d65 423f c7c9 123c d494 8b3e f259 0a3f
00000200: cbcd b3bc 565f ed3d 5ea6 9d3c 5a50 be3c
00000210: de44 bfbe 3a20 82be e031 6abe 4be5 fb3d
00000220: f04b 8f3e a8a4 183f 7932 4d3e a474 95bd
00000230: bd1a c13e 9260 593d 4d25 0e3e e363 0f3e
00000240: e610 c93c 1a0b 6cbe 1fb1 9ebd 9bf7 0bbe
00000250: bf31 a5bc 44c1 fbbd 80ae 313f 644d 1a3e
00000260: f926 833b 1275 60be 088b 413e 33e1 9b3e
00000270: 77a8 fbbc 5317 89bd 30e7 b63c a3fc 84be
00000280: a8ba 943e c1dc bcbd 8d18 86be d26a 883e
00000290: 6678 60be da39 9f3e 80ed a9bd 7c3e 67be
000002a0: b387 4fbe 5650 10bf b739 b1bd ec40 af3c
000002b0: 83d6 043e bab9 f3bd dd31 ebbd 7c14 7bbe
000002c0: 64c1 c7bd 5f84 f23d 57b8 153e 1290 28be
000002d0: 4d12 90be 0b5a 9a3e d5dc fe3b 43ee 423d
000002e0: 88f5 c23d 128b 88bd 1339 5ebe 88fd 2dbe
000002f0: 4417 d53d e2db e3be 006d 963e 1f0b 3cbd
00000300: 907d f93c e302 51be cb32 c43e 3df2 203e
00000310: 64d3 09be db6c 8cbe cd75 5abe e3d8 a4bc
00000320: 1f2a 0bbc 6b85 fcbe 70a7 9fbd 8675 f4be
00000330: 0310 0abe ee7c 333e e4b4 233f 0dab 0abe
00000340: e017 223e 692b 90bd 28d4 c53d 78dc 263c
00000350: a4cd 03be 8f41 f9be 1629 0bbe 6eae 2d3d
00000360: 33b9 103e 00c2 76be 9539 7abd 8558 5c3e
00000370: e54e 2ebe 7bb0 40be b4bf 2cbd f6ec dabd
00000380: 0457 8e3e f6b5 253e b044 92be 5beb 32bd
00000390: 0f8a bf3d b225 8c3d 9031 1fbe 7247 2a3e
000003a0: 2397 003e 2090 193e 4a19 273d facc b33d
000003b0: 7472 023e c01d 193e 9add 30be f3b0 083f
000003c0: ce74 c13e 85de f139 0c67 823f fe02 a33e
000003d0: 2fb6 5a3e 334d acbd a816 263e cae4 92bc
000003e0: 1814 f83d dcc3 53be b623 9ebb 7ba2 b63d
000003f0: e79d 4fbe 434e 6fbe 6c27 91bd ad99 38be
-0.013533215 0.1401445 -0.05785323 -0.20740862 0.024119288 0.1628012 -0.24366575 -0.07663833
0.06202858 -0.53644127 -0.217628 -0.09736345 -0.35893857 -0.03882404 0.19442758 0.08628002
0.039857615 -0.07859795 0.21485293 0.3331274 0.29596603 0.13542305 -0.121673115 -0.18817773
0.49791875 -0.03313478 0.0793678 -0.01565372 -0.19597295 -0.059423827 -0.120645285 -0.13305764
0.20408674 -0.16559158 -0.10130577 -0.14807296 0.11085272 -0.17731097 -0.12467937 0.09793008
0.036948007 -0.117025524 -0.016022481 -0.44250748 0.0161946 0.013297427 -0.014343629 -0.17783257
-0.24969552 0.046459697 -0.2923038 0.067437634 0.03307273 -0.059670035 -0.0066895434 0.3769455
0.02477194 0.056954026 -0.051970214 -0.03385034 0.5756032 -0.44660628 -0.023627186 0.56306237
-0.070446365 0.029893324 -0.056982193 0.16599463 0.12817629 -0.08692852 -0.21598259 0.06419464
0.21495987 0.23202571 0.16564775 0.31198663 -0.081942625 0.041788403 0.004550991 0.04741236
-0.11902281 0.12516567 0.06450007 0.26045614 -0.23846784 0.3578115 -0.0542938 -0.020666929
0.3134204 -0.013214042 -0.19095263 -0.4458692 0.118906975 0.16779071 0.16447608 0.070771724
0.24269518 0.15036729 -0.2259159 -0.18495277 -0.23076865 -0.0067693656 -0.08083287 -0.2648801
-0.016258132 0.08889711 0.05889825 0.38937122 -0.13829574 0.09800204 0.21220079 0.5251704
-0.012116171 0.08265998 0.25647193 -0.031084685 0.3453877 -0.15097937 -0.09904303 -0.19529751
0.01672215 -0.027926944 0.18089895 0.2668669 0.7593544 0.00895924 0.27261984 0.54043496
-0.021948716 0.115904495 0.01924437 0.023231674 -0.3735723 -0.25415212 -0.22870588 0.122995935
0.27987623 0.59626245 0.20038785 -0.07297638 0.37715712 0.053070612 0.13881417 0.14002948
0.02454419 -0.2305111 -0.07748627 -0.13668673 -0.020165322 -0.12292722 0.6940689 0.15068585
0.0040024486 -0.21919659 0.18900692 0.3044525 -0.030719979 -0.06693902 0.022327036 -0.25973997
0.29048657 -0.09221793 -0.26190606 0.26643997 -0.21920928 0.31098825 -0.08297253 -0.2258243
-0.20266609 -0.5637258 -0.08653586 0.021393262 0.12972455 -0.11900659 -0.1148412 -0.24519533
-0.09753683 0.11841654 0.14621101 -0.16461208 -0.28138962 0.30146822 0.00777779 0.047590505
0.095194876 -0.066671506 -0.2170146 -0.16991246 0.10404828 -0.44503695 0.29380035 -0.045909043
0.03045538 -0.20411257 0.38320002 0.15717407 -0.13459545 -0.274268 -0.21334 -0.02012295
-0.008493929 -0.4932054 -0.07795608 -0.47745913 -0.1348267 0.17528126 0.6394789 -0.13541813
0.1582942 -0.0703953 0.09659606 0.0101844 -0.12871414 -0.4868283 -0.13589892 0.042402677
0.14133148 -0.24097443 -0.06109007 0.21518143 -0.17022283 -0.18817322 -0.04217501 -0.10689728
0.27800763 0.16182694 -0.2856803 -0.043681484 0.093525045 0.06843127 -0.1554625 0.16628817
0.12557654 0.14996386 0.040795602 0.087793306 0.12738973 0.14952755 -0.17272034 0.53395003
0.37784427 0.00046132892 1.0187697 0.3183822 0.2135856 -0.08413162 0.1621958 -0.01793136
0.121132076 -0.20680183 -0.0048260344 0.089177094 -0.20275079 -0.23369698 -0.07087597 -0.18027373

sequential/net/while/gru_cell/MatMul_2 f4 [20, 13]
00000000: 5ac3 a03e f0f6 b0bc 0b5a 1ebd eae5 96be
00000010: 707f 62be 1259 49bc 982d bdbd 6e95 1abe
00000020: cff1 b2be c550 a93d f78d 79be 8b58 2a3d
00000030: 2b5b 21be ecb6 3dbc d3ce 33bc 2bf6 e23c
00000040: 457f 96bd 48b3 0a3e 4ff5 92bd dde1 2cbe
00000050: 352e c23e 2f49 8e3e 12c9 403e 64f8 693e
00000060: 5ad9 433e a005 e6bd 10c4 9c3d e49b 243e
00000070: b66f 9fbd 4d7a 903e 3ff6 27be 92c9 6f3e
00000080: ca92 b13c 0478 913e 38b1 31bd 519e a1be
00000090: 9209 a83e 0358 ccbd b49a f13d aaca 9dbe
000000a0: ef45 febd b28f f73d 01da 463e 684f ab3d
000000b0: cf7c b2be 8717 acba 4ecf e13d 6626 cfbe
000000c0: fdaa c3bd ef7d 98be a830 973e 9834 e4bd
000000d0: a734 303e 6088 1d3d fe4a 253e 1199 77be
000000e0: d075 3c3d 4a0d 413e 9d3f 223e bbed be3e
000000f0: c2cc f3be ace7 7fbc fd55 4c3e acc7 3bbe
00000100: 6387 e23e de63 0dbd d6c3 c23d 9978 3e3c
00000110: ee1d 333e 04f1 06be c9be 99be c995 eb3d
00000120: 4e4f 213e f677 333d 38c2 a03b 48c9 4e3e
00000130: 26f0 c8be aff2 003d 5195 d03e 0efe b0bb
00000140: aadd 15be de86 ebbd 0389 cfbe 70d7 623e
00000150: 2ad1 873e f6b7 5dbc 8c2e 0bbd b340 5fbe
00000160: 436a d83c 30e2 36be 2471 413e d871 98bd
00000170: 448d f1bd 88ec 5abe cebf 9f3d 809c 173e
00000180: 411c 953d 75fc 78be 10df 81bd c393 6abe
00000190: 8803 a4bd 4d4f 543d c024 bf3d 44c5 763c
000001a0: a147 b93e e00a 783e cb6d 8cbd 4be9 19be
000001b0: 70b3 30be 22ec 03bd b934 913d 1af9 dfbe
000001c0: ac37 43be 584a 24be 8294 ae3d d771 51bc
000001d0: cf52 5b3e b5de eabc 79e7 6abc a6a5 50be
000001e0: 7fee c0bd f7ff 863d 905b 9d3e c125 b83d
000001f0: 16ea 1b3e 1e58 5b3e b963 c0bd 94c8 993e
00000200: 0e14 6abe b5fa 59be 8880 45be 25d6 973e
00000210: 8e50 1b3e e031 e63e 0e3e 85bd 4196 a13d
00000220: d6a5 1c3e 03df 41be 9eda 20be 09d0 91bd
00000230: ee63 8c3e 7790 86bd 80b7 11bd c892 76be
00000240: eae6 d1bd 68bd d03d df7a 4f3e 8b70 6bbd
00000250: ecb2 173e 1a61 7cbd ff39 b83e 2843 88be
00000260: 71a6 02be 3219 b53d 1df3 f53e 62ae cb3d
00000270: 0bba 3ebe 72f9 4bbe 0302 193e 4935 48bc
00000280: 8cf5 80be 3143 cdbe 0879 e4bd 553c 2fbc
00000290: ce85 39be dcc9 1d3e 61c8 2c3e 27be 02be
000002a0: 743f 81bd dcc0 91bb 515b 28be e2fd 733e
000002b0: ce0b 5c3e e203 173d 65d9 b9be 56b9 9c3e
000002c0: eb9b 9e3e a9af b23e 8c23 b5bd 2837 a63c
000002d0: 768b cd3d 38cc 793e 484c 8cbe 24ba 86be
000002e0: 5b59 1e3d 81d0 c5bd e3a8 eb3d c7d7 81bd
000002f0: ae9f 61bd 36ef 7a3e 86ff 89be 5f00 4b3e
00000300: 001e bd3e 7f71 cb3d 8765 4abe 82d0 9ebe
00000310: d4ca d43d 0064 3f3e 375c e5bb 2801 513e
00000320: baf6 17be 8d78 c0bb ab8d 37be 5031 06be
00000330: d708 75be dc54 fcbc eb48 41be 93f3 2abf
00000340: 9892 983d f378 2bbe 15b6 5b3e d2f4 573e
00000350: eb5b 463e f7d6 1b3e fb55 ad3e 9175 643e
00000360: bd12 803e 5bbe b13e d021 8c3c 122c d2bd
00000370: dc91 1dbd b05b e0bd 4971 b9be 777b a33e
00000380: 37e2 aebe 37e9 ed3d de2c 4c3e 5e92 e93d
00000390: f8c1 0cbe a3c7 263e e61b 153e 9e3d a63e
000003a0: 6f92 e9bd 2b70 bfbd 554f 853e c464 1fbe
000003b0: b2f5 eb3d cbf9 30bb 5ec4 eb3d dd42 623e
000003c0: 6228 f13d 1a52 003f 0e8f f7be 41b1 83be
000003d0: 97fe dcbd a7f4 ae3e a6d6 01be 6489 2dbe
000003e0: 1834 fcbd d5a3 243e be41 87bd 1319 6dbe
000003f0: aa0a 1d3e cd56 663e 84d5 5bbe 51f2 863d
0.3139904 -0.021602124 -0.03866009 -0.29472286 -0.22118926 -0.012289302 -0.09237212 -0.15096065
-0.3495011 0.08267359 -0.24370562 0.041588347 -0.15757434 -0.0115792565 -0.010974604 0.027705273
-0.073484935 0.13544953 -0.07175695 -0.16883035 0.37925878 0.2779021 0.18826702 0.2284866
0.19125882 -0.11231542 0.076545835 0.16075093 -0.07784979 0.28218308 -0.16402529 0.23416737
0.02167644 0.28411877 -0.0433819 -0.31566098 0.32819802 -0.099777244 0.117970854 -0.30818683
-0.124156825 0.120879546 0.194191 0.08364755 -0.34860846 -0.001312957 0.11025868 -0.40458983
-0.09554098 -0.2978358 0.2952931 -0.11142844 0.17207585 0.038460135 0.16141888 -0.24179484
0.046010792 0.18852726 0.15844579 0.3729075 -0.47617155 -0.0156192 0.19954677 -0.18337888
0.44243917 -0.03451907 0.09510009 0.011625432 0.17491886 -0.13177878 -0.3002837 0.115031786
0.15752909 0.043815576 0.004905965 0.2019397 -0.3924572 0.03148144 0.4073892 -0.0054013794
-0.1463534 -0.11500333 -0.4053422 0.22152495 0.26526767 -0.013532629 -0.033979937 -0.21802025
0.026417857 -0.17859721 0.18890816 -0.07443589 -0.117945224 -0.21379292 0.07800256 0.14805794
0.0728078 -0.24315055 -0.06341374 -0.22907929 -0.08008486 0.05183344 0.093331814 0.01506168
0.3618746 0.24222898 -0.06856879 -0.150304 -0.1725595 -0.032207616 0.07090134 -0.43744737
-0.19064206 -0.16043985 0.08524419 -0.012783489 0.21418308 -0.028670648 -0.014337414 -0.2037569
-0.094204895 0.0659179 0.3073392 0.08991576 0.15226015 0.21420333 -0.093940206 0.3003584
-0.22859213 -0.21287043 -0.19287312 0.29655567 0.15167448 0.44959927 -0.065059766 0.07889987
0.15297636 -0.18932728 -0.15708396 -0.07119758 0.2741999 -0.06570523 -0.03557539 -0.2407943
-0.102491215 0.101923764 0.20261715 -0.057480376 0.14814347 -0.06161604 0.35981748 -0.26613736
-0.12758805 0.08842696 0.48037043 0.0994537 -0.18625657 -0.19919375 0.14942174 -0.012219735
-0.25187337 -0.40090325 -0.111558974 -0.010695537 -0.18117449 0.15409034 0.16873313 -0.1276785
-0.06310931 -0.0044480395 -0.16441084 0.23827317 0.21488878 0.036868937 -0.3629867 0.3061015
0.3097833 0.34899643 -0.08844671 0.020289972 0.10036366 0.2439431 -0.27401948 -0.2631389
0.038659435 -0.096589096 0.11506822 -0.063399844 -0.055083923 0.24505314 -0.2695276 0.1982436
0.3693695 0.09933757 -0.19765292 -0.31018454 0.10390249 0.1869049 -0.0069995183 0.20410597
-0.14840212 -0.005873746 -0.17925136 -0.13104749 -0.23929153 -0.030802183 -0.18875472 -0.66777915
0.074498355 -0.16745357 0.21456178 0.21089485 0.19371001 0.15218721 0.3385466 0.22310473
0.25014296 0.34715542 0.017105967 -0.10262312 -0.03846918 -0.10954988 -0.36219242 0.31930134
-0.34156963 0.11616748 0.1993899 0.114048705 -0.13745868 0.16287093 0.14561424 0.32468885
-0.11404883 -0.09347566 0.26037088 -0.15565783 0.11521472 -0.0027004357 0.115120634 0.22095819
0.117752805 0.5012528 -0.4835133 -0.25721171 -0.10790747 0.3417103 -0.12679538 -0.16946942
-0.123146236 0.16078122 -0.06604336 -0.23154096 0.153361 0.2249405 -0.21468168 0.06589187
