wakewords/en/hey_moxie.tflite (tflite, 21888 bytes, 10 tensors)

sequential/dense_1/MatMul f4 [1, 20]
000000 aa 10 d0 3e 52 17 f0 3e 5e 09 33 be ca f5 24 3d
       0.40637714 0.46892792 -0.17484042 0.040273465
000010 24 31 25 be 96 2d 39 3e 7b 0f ca 3e af 53 58 3e
       -0.16132027 0.18083796 0.39464936 0.21125673
000020 ef e5 fc 3e 2c 2f 1f 3f 27 b6 8d 3d e3 dc 40 3d
       0.49394175 0.62181354 0.069195084 0.047085654
000030 92 d0 e6 3e 3d 3e 1c 3e 50 14 ed be 61 f1 89 be
       0.45081002 0.15258117 -0.4630456 -0.2694197
000040 5b 14 9e 3e 87 f3 14 bd 6a a6 3b 3e cc 1e d6 3e
       0.30874905 -0.03636506 0.183252 0.4182037

sequential/net/while/gru_cell/strided_slice_3 f4 [20]
000000 36 92 4f 3d bd cb 70 3d dd ab a7 be 54 b9 8e bd
       0.050676547 0.05878805 -0.3274831 -0.06968942
000010 0f 0f 69 be 85 db 92 3e c8 b7 8d 3e a0 2f 4b 3d
       -0.2275965 0.28683105 0.27679276 0.049605966
000020 d1 1d 39 bd 31 b0 d6 3e ff db b9 3c 60 52 2a 3d
       -0.04519445 0.41931298 0.02268791 0.041582465
000030 c2 98 b1 bd 75 3f 61 be 8a e8 e6 bd 69 6e ad be
       -0.08671714 -0.21996863 -0.11274822 -0.338733
000040 56 d3 a3 be b6 2c 48 bd 4d 7c f7 bc a0 44 c9 3d
       -0.31997174 -0.048870765 -0.030210638 0.09827542

sequential/net/while/gru_cell/strided_slice_4 f4 [20]
000000 8d 51 c4 3d b0 34 00 3e 42 e1 f8 3e 4c 3e a2 bc
       0.09585867 0.12520099 0.48609358 -0.019805096
000010 7b 5b cd 3d 9f e2 55 3e 90 8f af 3e d9 ff b2 bd
       0.10027214 0.2088723 0.34289217 -0.08740205
000020 e6 37 b3 3e 01 37 97 3d 23 3e e6 3e cf eb 06 3d
       0.35003585 0.07383538 0.44969282 0.03293973
000030 02 b2 8c bc 0c 79 0d 3f a0 a8 5e 3d dc 28 01 3e
       -0.017174724 0.5526283 0.054360032 0.12613243
000040 f8 11 96 3d e0 ac c0 3e 77 f0 80 3d 61 69 37 3c
       0.07327646 0.37631893 0.06295865 0.011194558

sequential/net/while/gru_cell/strided_slice_5 f4 [20]
000000 46 d8 03 bf 6f 63 2c be 9a ea f1 bb 50 d3 88 be
       -0.5150188 -0.16834806 -0.007382703 -0.2672372
000010 2b bd c4 be ec c5 56 3e 91 ea 3d be e6 a4 55 bd
       -0.38425574 0.20973939 -0.18546511 -0.052159213
000020 94 b2 db be de b4 7a bd 1b 8d 1d 3e 25 01 24 bf
       -0.42909682 -0.061207645 0.15385859 -0.64064246
000030 0b 2d 0d bf c0 7f 4d 3d 1c 95 24 be aa 2e 61 3e
       -0.55146855 0.05017066 -0.16072506 0.21990457
000040 cb fe 3a 3e 15 26 31 be 66 ea d5 be 37 1d 18 be
       0.18261258 -0.17299683 -0.41780394 -0.14854895

sequential/net/while/gru_cell/MatMul_3 f4 [20, 20]
000000 de 19 b6 be be a3 16 ba b1 ad a9 3d 66 5d 42 3d
       -0.3556661 -0.00057464454 0.08285082 0.047452353
000010 ed 92 2c 3d d6 ec ad 3d 00 6a 79 bc ce 8a b2 bd
       0.042132307 0.084924385 -0.015223026 -0.08717881
000020 cd 31 4e bc 06 bb 23 3d c8 6a 1b be 7b c1 8a bd
       -0.012585116 0.03997328 -0.15177453 -0.06775185
000030 96 dc c2 3d dc 0e b0 3d 6f 64 65 be 75 e6 3e 3c
       0.0951473 0.08596584 -0.22401594 0.011651625
000040 03 4e b4 3e 83 64 04 3e 12 6b e2 3e c5 81 91 3e
       0.35215768 0.12928967 0.44222313 0.2841932
000050 51 15 26 3e 88 87 85 3d 35 9b a0 3c ce 7b 99 3e
       0.16219069 0.06519991 0.019605258 0.29977268
000060 0b 9a 9b be bc e6 81 be 9f f1 34 be 61 7d ff 3d
       -0.30390963 -0.2537135 -0.17670296 0.12475086
000070 b0 37 56 bd d2 46 d2 bd 78 68 e9 3d 4b d6 d2 bd
       -0.0522992 -0.10267414 0.11396879 -0.102947794
000080 a6 df be bc f7 20 24 be 7b 67 50 3d 2b 31 de 3d
       -0.023300003 -0.160282 0.050879937 0.10849222
000090 ea bd 05 be 3e ce 35 3d 5d fa ed bc 58 42 27 bc
       -0.13060728 0.04438614 -0.029050047 -0.010208689
0000a0 24 3f aa bd 85 d1 37 be 52 02 5b be be dc 34 be
       -0.08312824 -0.17951019 -0.21387604 -0.17662331
0000b0 c9 60 21 3d 00 fe 46 bd 6e 2d be 3d b7 5f bc 3d
       0.039398942 -0.048582077 0.09286009 0.09197944
0000c0 8f ba 1d 3e 56 5c c0 3d ad bc fe bd d7 50 b5 3c
       0.15403198 0.09392612 -0.12438331 0.022133274
0000d0 c4 54 46 bd 6a 81 ff 3d 6f f1 33 bd 9d fc 2b 3e
       -0.048420683 0.12475856 -0.04393142 0.16795583
0000e0 cd 5d 73 bd 8b 52 1d be a3 ff 51 3e f0 06 b5 bd
       -0.059415627 -0.15363519 0.20507674 -0.08839214
0000f0 a0 a4 2e 3e 0c 46 a6 3e b6 8f c2 bc e3 f8 d1 3e
       0.17054987 0.32475317 -0.023750167 0.41010198
000100 5e 20 9b 3e a6 89 12 3e 43 9d 01 be ca 25 e4 3d
       0.30298132 0.14310321 -0.12657647 0.1114002
000110 07 ac 66 3e 56 56 64 bd 9d 90 d2 3e b2 fb 3c 3e
       0.2252656 -0.0557464 0.41125956 0.18455389
000120 6d 44 94 3e 61 0e d6 bc 63 46 2f 3e 74 4b 94 bd
       0.28958455 -0.026129903 0.17116694 -0.07240954
000130 a0 f4 0a 3d 13 75 a4 3d b7 58 b9 bc d7 c0 00 3d
       0.0339247 0.08030143 -0.02262531 0.031433906
000140 53 a6 d2 3d dc 2b 24 be 41 4a a3 3d 82 f2 36 3d
       0.1028563 -0.16032356 0.07973147 0.044664867
000150 2e a2 e8 3d 01 70 ba bd 73 7a 4e bd 61 56 5c 3d
       0.11359058 -0.09103394 -0.050409745 0.053793315
000160 5c af 91 3e d2 23 19 3d 81 73 6f bd 4c a6 87 3d
       0.284541 0.037387677 -0.058459762 0.066235155
000170 8b c9 67 3e de 96 89 3d 5c 02 54 bc c3 ad 4b be
       0.22635476 0.06718229 -0.012940016 -0.19890504
000180 d3 bd f2 bd 12 3a 01 be 35 b1 e6 bc 9a 8d 41 bd
       -0.11852612 -0.12619808 -0.02816067 -0.047254182
000190 7c c9 ac bd e2 08 b5 3d 9e 98 80 be 9c 9a 96 bd
       -0.084368676 0.08839585 -0.25116438 -0.07353708
0001a0 61 99 e6 bd 2e c3 32 be ba 29 12 3e b8 6b 99 bd
       -0.112597235 -0.17457268 0.1427373 -0.07491249
0001b0 32 29 97 3c fc 96 b3 bd ba 9c 77 3a a5 cd fc 3d
       0.01845226 -0.08769032 0.00094456563 0.12343911
0001c0 2b 47 0b be b5 d7 c6 bd 33 b1 af 3d 63 07 83 3e
       -0.13601367 -0.097091116 0.0857872 0.25591573
0001d0 76 27 5b be 5f 66 0b 3c 6b 9c ae bc 12 c4 8d bd
       -0.21401772 0.008508294 -0.02131482 -0.06922163
0001e0 c4 f4 f9 3a 49 53 b2 bc 07 f7 9c 3e f7 9d 0b bd
       0.0019070138 -0.02176823 0.30657217 -0.034086194
0001f0 62 f1 a2 3d e8 ab ac 3e b4 7e 9b 3c c2 78 5a bd
       0.07956196 0.33724904 0.018981315 -0.05333782
000200 c0 57 29 bd 2a 56 5a be 8e 3d 32 3e 53 ff 42 bd
       -0.04134345 -0.21321931 0.17406294 -0.047606777
000210 ca c4 8f be 99 dc 72 bd 0d 44 a6 3c 3c d2 ff bd
       -0.28079826 -0.05929241 0.020296121 -0.12491271
000220 c7 34 6b 3e b2 61 07 3e 56 f2 3e 3e d5 be 2a 3e
       0.22969352 0.13220862 0.18647131 0.16674359
000230 e9 b0 2f 3e ab 6e 5f bd 39 72 27 3d 76 51 39 3d
       0.1715733 -0.0545489 0.040880416 0.045243703
000240 34 d8 96 be 3a a1 0c be e3 ee c8 bd 41 b7 b9 be
       -0.29461825 -0.13733378 -0.09811189 -0.36272624
000250 19 71 0b be ca ba fc 3d 4d 29 0e 3e e2 21 38 be
       -0.13617362 0.12340315 0.13882942 -0.17981675
000260 18 35 c4 bb 31 6a 38 be 7e 30 fe bd b1 ce 98 3e
       -0.0059877746 -0.18009259 -0.12411593 0.29845193
000270 6b 8e 41 3e 64 41 92 3e 19 e0 44 bd ae 4f 22 bd
       0.18901984 0.28565514 -0.04806528 -0.03962677
000280 29 3b 80 3d 5a 9e da bd b1 30 b3 3c 8a 05 e8 bd
       0.06261284 -0.106747344 0.021873804 -0.113291815
000290 dc fe 85 3e 04 eb 7d bc 56 1b 39 3d a4 2c 11 3d
       0.26171005 -0.015497927 0.045192085 0.035442963
0002a0 d9 3c 6e 3e 02 07 18 3e e0 26 d5 bd 05 94 ae 3d
       0.23265399 0.14846423 -0.104078054 0.08524326
0002b0 6d c6 c9 bd 73 58 c6 3d b7 b0 9b 3e 9d b5 8b 3d
       -0.098523 0.09684839 0.3040826 0.06821749
0002c0 48 51 ce 3d e9 62 47 bd 6d 4f e7 bd cf d6 6c 3e
       0.10074097 -0.048678312 -0.11294446 0.23128818
0002d0 7a 7e ff bd 30 12 85 bb 44 b6 0b be 38 af 83 bd
       -0.12475295 -0.004061006 -0.13643748 -0.06429905
0002e0 2a f7 4c 3e 60 dd 80 be 10 b5 e6 bb aa 48 43 be
       0.2001616 -0.25168896 -0.0070406273 -0.19070688
0002f0 48 46 e7 3d a7 a0 0f bf fe ed b1 3e ef 6e 06 bd
       0.11292702 -0.5610451 0.34751886 -0.03282064
000300 b3 af 20 3e 0a b7 80 bd 99 be 21 3e 13 c0 fd bd
       0.15692024 -0.06284912 0.15795363 -0.12390151
000310 ae 0b 35 bd af 08 25 be df 82 35 bc f5 52 41 be
       -0.04420059 -0.16116594 -0.011078565 -0.18879302
000320 91 84 7f bc 72 26 39 bd bf 1c 95 3c 76 bc 5c 3e
       -0.015595571 -0.04520268 0.018202184 0.21556267
000330 e4 f2 73 bd b9 71 70 3d 4c f6 dd 3d d1 11 c4 3c
       -0.05955781 0.058702204 0.10837993 0.023934277
000340 b7 69 3a bd c3 b6 3a be 35 df 1c 3e 44 7c 54 3e
       -0.045510974 -0.1823378 0.15319522 0.20750529
000350 d6 17 9e bd 4c 39 3c 3e a1 23 67 3e 1a f2 4e be
       -0.0771939 0.18381232 0.22572185 -0.20209542
000360 d5 7c 06 3e 28 9f 27 bc 6e 63 0f be a1 bc 6b 3e
       0.13133557 -0.010230817 -0.14002773 0.23021175
000370 b9 8c 2b be 8b c5 e4 bd eb 43 7b bd cd c3 71 3e
       -0.167529 -0.11170491 -0.06134407 0.23609848
000380 d4 e7 88 be 19 77 13 be 51 68 30 be 8a cc 8f 3e
       -0.2673937 -0.14400901 -0.17227294 0.28085738
000390 58 f0 a7 be 6d dc 64 be 33 4b 9d bd 15 b3 3c 3e
       -0.32800555 -0.22349711 -0.07680359 0.1842769
0003a0 54 38 17 3d 15 48 23 3d 12 e7 14 3e 9b c0 0f bf
       0.036918953 0.039863665 0.14541271 -0.5615327
0003b0 6c 49 b6 bc f3 8d c4 bc 6f 1d 49 bd 05 05 55 3e
       -0.022251807 -0.023993468 -0.049100336 0.20802696
0003c0 ed 2e 32 3e b1 bc 80 be fd f8 4f be 9e 48 10 be
       0.17400713 -0.2514396 -0.20309825 -0.14090201
0003d0 0a 3e 99 bb d9 a3 e8 bd 71 92 0e be 69 29 72 bd
       -0.004676585 -0.113593765 -0.1392305 -0.059121523
0003e0 a0 68 00 3d ae af 37 be e4 86 31 be d0 6e ef 3d
       0.03134978 -0.1793811 -0.17336613 0.11691058
0003f0 8b d9 5f be 59 fe 6e be f7 04 a9 3d 4b 64 93 bd
       -0.2186033 -0.23339213 0.082529 -0.07196864

sequential/net/while/gru_cell/MatMul_4 f4 [20, 20]
000000 f6 f2 9b 3d e8 3f 00 3e 20 1f a0 3d d2 44 ad be
       0.076147005 0.12524378 0.078184366 -0.33841568
000010 f7 94 cb 3d 57 43 7b bc b9 9e 6d bd 69 a8 83 be
       0.09940522 -0.015335879 -0.058012698 -0.25714424
000020 51 38 24 3e 44 aa e4 3c 06 ea 07 3f c4 15 8b be
       0.16037108 0.02791322 0.53091466 -0.27165043
000030 8e c5 26 be 33 0e 20 3e a6 f0 b4 3d a2 93 03 bd
       -0.16286299 0.15630417 0.088349625 -0.032123215
000040 d6 2b 85 bd e6 8f 83 bd 5b fb b8 bc 68 06 bc 3d
       -0.06502502 -0.06423931 -0.022580793 0.091809094
000050 3b a6 49 bd 33 48 ad 3d 6a ef 2a 3e 89 ee 8c be
       -0.049230795 0.084610365 0.16692892 -0.27525738
000060 34 c3 72 3a 8c a5 b0 3d a5 d6 c4 bd 65 84 a3 bd
       0.0009260655 0.086253256 -0.09611253 -0.07984237
000070 d7 69 8a be 40 96 df be fe cd d5 3b 92 3a f0 bd
       -0.27033874 -0.4366932 0.0065248003 -0.117299214
000080 02 4f 86 bb ac 07 73 be ce bb 96 be af b4 b2 3d
       -0.004098774 -0.23733395 -0.2944016 0.08725869
000090 2f 85 ad 3e 53 98 fb 3d 83 45 38 3e d4 99 2b bc
       0.33890674 0.12284913 0.17995267 -0.010473687
0000a0 9d f3 49 be b2 94 00 3d 00 73 92 be 70 be 43 bd
       -0.19721837 0.031391807 -0.28603363 -0.047789037
0000b0 d8 47 2e be 1a cf ec bc a9 28 75 3d 69 a7 59 bd
       -0.17019594 -0.028907347 0.05985323 -0.05313817
0000c0 3a a1 6d 3e 64 05 13 3e 99 46 83 3d 6b 91 c5 bd
       0.23206034 0.14357525 0.0640995 -0.09646877
0000d0 cc 03 51 be 26 b4 15 bf b8 03 96 3d 4e cb 44 3e
       -0.20411605 -0.5847801 0.07324928 0.1921818
0000e0 31 ec 66 3e 44 5f a7 3e ce 83 e7 3c 2f 2f 35 3d
       0.22551037 0.3268987 0.028261092 0.04423445
0000f0 e7 c3 ca 3c ee 80 24 3e 5f 36 18 be 77 53 be be
       0.024751617 0.16064808 -0.14864491 -0.37173054
000100 9d 6e 6e be e4 a5 47 3e b5 ab 4a 3e 1b f2 e2 3e
       -0.23284383 0.19496876 0.19792064 0.44325337
000110 68 29 62 3e 86 ae 53 3d 11 a7 4d be 9f 41 f8 bb
       0.22086108 0.05168011 -0.20083262 -0.007576182
000120 49 fa e7 3d 26 50 c3 3d 97 d4 bd 3d 6d 97 ad 3d
       0.11327035 0.095367715 0.09269064 0.08476148
000130 ae 51 c0 be c1 e1 01 be 57 dd 35 3e 42 bc e6 3c
       -0.37562317 -0.12683775 0.17760216 0.02816594
000140 d7 24 86 be a1 bb 87 bd 9f e7 fc bd b8 3c 1b be
       -0.26199982 -0.06627584 -0.12348866 -0.15159881
000150 b2 98 65 be 96 e9 b0 3d e8 03 52 3d cf 16 5d 3e
       -0.2242153 0.08638303 0.051273257 0.21590732
000160 83 19 aa bd f0 7f 3d be d1 b5 8d 3d bd b8 9b 3d
       -0.08305647 -0.18505836 0.06919444 0.076035954
000170 00 29 aa bc 9f 6a 7e 3d 45 60 8c be 40 68 d5 bd
       -0.020771503 0.0621134 -0.27417198 -0.10420275
000180 bd 6e 4d 3c bb 0b cc bd 99 84 ab bd 4a ff f7 bd
       0.012538609 -0.09963175 -0.083749 -0.121092394
000190 d8 cd 06 3e 8f 80 3a bd d2 f8 95 be a1 7e 08 3e
       0.1316446 -0.04553276 -0.29291397 0.13329555
0001a0 78 72 2f 3e 18 f7 5b bc 6c b7 09 3e 61 7a a2 be
       0.1713351 -0.013425611 0.13448876 -0.31733993
0001b0 8a 75 f9 3d d0 a3 cb bd cb 9b 23 3e 9c 18 4c be
       0.12180622 -0.09943354 0.15977399 -0.19931263
0001c0 39 b9 24 3e 22 50 0b bf 1c 5f 3d 3e 1e 5b 62 3d
       0.16086282 -0.5441915 0.18493313 0.055262677
0001d0 3a f5 58 bd 43 3f df bd cb 93 d4 3d 71 90 56 be
       -0.05296824 -0.10900738 0.10379752 -0.20953538
0001e0 21 98 49 be 45 80 5d be 65 7d 4b 3e e2 e0 f3 3c
       -0.19686939 -0.21630962 0.19872053 0.029770318
0001f0 85 c3 d8 bd ae 70 a6 bd 13 81 3e 3e e2 37 03 3d
       -0.105841674 -0.08126961 0.18603925 0.032035716
000200 b0 bd 1d 3e 03 29 0c be 47 a4 15 3d 34 a0 8f be
       0.15404391 -0.1368752 0.03653362 -0.28051913
000210 b2 46 e4 3d b0 bd f6 3d b6 bc 4b be 7b 0e 8f 3d
       0.111462966 0.12047899 -0.19896206 0.06985184
000220 80 7a a7 be 32 66 b1 3d 6d 38 24 bd 4e 26 18 3e
       -0.32710648 0.0866207 -0.040092874 0.14858362
000230 2b 6c ae be 0c 96 f0 be 98 c5 99 3d 88 94 4a 3e
       -0.340669 -0.46989477 0.07508391 0.19783223
000240 ae 2f 8e 3e 4c 68 c1 3d 30 67 56 3d 35 d0 9e be
       0.27770752 0.09443721 0.0523445 -0.31018224
000250 87 ea a0 bd 19 d3 ae be 25 4e 2f 3e 7c dc 81 3e
       -0.078572325 -0.3414543 0.17119654 0.2536353
000260 29 19 d4 3d 73 4f f0 bc 4c f3 a2 be 4b 6f 68 bd
       0.103563614 -0.02933476 -0.31826246 -0.056746762
000270 2f 88 0e be 67 25 07 3c b8 4f 9f be 3d d3 f0 bd
       -0.13919137 0.0082486635 -0.31115508 -0.117590405
000280 33 f2 4c 3e 5c 0e 31 3e d8 f5 fa 3d 57 92 2c be
       0.20014267 0.17290634 0.12253922 -0.16852699
000290 08 47 3c be 9f c4 07 be 58 06 90 bd 54 57 d2 3c
       -0.18386471 -0.13258599 -0.0703246 0.025676407
0002a0 e6 f6 2d bd ba 7a 35 be 8c 4a e4 3e 23 80 c3 bd
       -0.04247179 -0.17722598 0.44588125 -0.095459245
0002b0 2c b9 f5 bd 42 fc 48 3c 44 18 9f 3e 9e ed ca 3c
       -0.11998209 0.012267174 0.310732 0.024771508
0002c0 29 e3 f7 3d 19 ea 95 3d f1 78 e4 3d b4 b7 ab bd
       0.12103874 0.07320041 0.1115588 -0.08384648
0002d0 0d 1b 7c bc be 35 d4 3d a9 27 00 3e 46 96 ee 3d
       -0.015387309 0.10361813 0.12515129 0.11649756
0002e0 4c 2e 91 be 27 0f 60 be 41 1d 0f 3f f8 2f 17 be
       -0.28355634 -0.2188078 0.5590401 -0.14764392
0002f0 03 88 4c be 95 d0 0b 3e 1a ea 97 be f9 60 a3 bd
       -0.1997376 0.13653786 -0.29670793 -0.079774804
000300 ce 3e e8 bd 3d 99 7a be 03 63 3b be 27 9e 84 be
       -0.11340104 -0.24472518 -0.18299489 -0.2590191
000310 2a 7e 24 3e 79 e1 1f 3e 9c 79 9d ba c5 98 aa 3e
       0.16063753 0.15613355 -0.0012014392 0.3331968
000320 ec 64 bc bd 33 53 33 bd 5f e5 ad 3d 09 98 aa be
       -0.09198937 -0.043780517 0.08491015 -0.3331912
000330 20 47 bd 3d c5 94 4b 3e b4 3d d3 3c 8e bc 9d be
       0.09242082 0.1988097 0.025786258 -0.30807918
000340 d6 20 92 be 07 88 43 be 5c dd c5 bd dd 6c 72 3e
       -0.28540677 -0.19094859 -0.096613616 0.2367434
000350 6b 97 ef be 50 57 cf bd a1 28 18 3d 82 7a 29 3e
       -0.4679521 -0.101240754 0.03714812 0.1655064
000360 f9 18 f4 3d a3 3b ca bd 62 3f 6a be 15 49 8a 3e
       0.11918826 -0.09874656 -0.22875741 0.27008882
000370 cc 04 a4 3c 57 f5 d9 bd af 59 13 3e 9d 44 3c be
       0.020021819 -0.10642498 0.1438968 -0.18385549
000380 81 bd 06 be a8 b1 93 3d 3f ad 84 be 96 3a 34 3d
       -0.13158228 0.072116196 -0.25913426 0.044001184
000390 6e bc cb bc 86 97 51 3e 63 75 73 3d 7e 3b 06 3f
       -0.024870124 0.20467958 0.05943812 0.5243453
0003a0 da 64 64 3d d6 eb 79 3e bf 66 16 bc 3d 94 a5 be
       0.055760242 0.2440637 -0.00917977 -0.3233966
0003b0 67 a4 4e 3e 79 a4 e1 bd 73 89 ce 3d 55 34 b2 3d
       0.20179902 -0.11017699 0.1008481 0.08701388
0003c0 62 27 14 be b3 c0 6b bd 82 0e f0 3d 95 d2 55 be
       -0.14468148 -0.05755682 0.11721517 -0.20881112
0003d0 ba 79 2a 3e 4c cc 48 be a6 eb 8e bd 02 bc c4 be
       0.16647997 -0.19609183 -0.0697854 -0.3842469
0003e0 2c 87 a2 bd 91 a3 96 3e 8d 57 12 be 04 10 08 3e
       -0.07935938 0.29421666 -0.1429121 0.1328736
0003f0 52 ac d3 be 4c 5f 1f 3d 59 48 2e 3d 5a b1 96 3d
       -0.41342407 0.03890924 0.042549465 0.07358046

sequential/net/while/gru_cell/MatMul_5 f4 [20, 20]
000000 a5 39 21 3e 1c 16 de 3c b3 7c 98 3e d3 0b 83 3e
       0.15744646 0.027110152 0.29782638 0.2559496
000010 43 3f 59 3e e7 4f 35 bd 63 a9 af 3e b2 57 af 3d
       0.21215539 -0.044265654 0.3430892 0.085616484
000020 da 83 cc 3e 72 15 52 be 79 ff 69 3c 28 2e 57 3d
       0.39944345 -0.20515993 0.014282101 0.052534252
000030 48 6c 47 3e 42 50 5f be 21 80 5f bc ce 9f 9f bd
       0.194749 -0.2180796 -0.013641388 -0.07794152
000040 e2 a3 b9 be 64 75 68 be d5 6d 0f 3f 06 a2 c3 bd
       -0.36257845 -0.22701031 0.56026965 -0.09552388
000050 22 cc d8 3e 30 39 b2 3e 3a a0 ea 3e 9d aa 68 3e
       0.4234324 0.34809256 0.45825368 0.22721334
000060 25 7f 2c 3d 2b 9a 9a bd 0e f3 93 bd 34 9e 8c 3e
       0.042113442 -0.075489365 -0.072240934 0.2746445
000070 ef fb 2a bd a2 ba a6 be 3a bb 8d ba 64 01 6a 3e
       -0.04174417 -0.32564265 -0.0010813244 0.22852093
000080 c7 12 d6 3e b0 01 88 3c 02 2e 1a bd d1 31 54 3d
       0.418112 0.016602367 -0.037641533 0.05180532
000090 59 b6 81 bd b6 72 05 3d 1b 71 d6 bd ad 3a 74 be
       -0.06333608 0.0325801 -0.10470792 -0.23850508
0000a0 12 c3 f0 3e 3e 9b ec bc 2b 01 a1 3e 28 d5 2b 3c
       0.47023827 -0.028882619 0.31446204 0.010487832
0000b0 62 75 60 bd ed 21 a5 3d 2e 8c f4 3c fb c4 5d bc
       -0.054799445 0.080631115 0.029852 -0.013535733
0000c0 de 72 c9 3d 1c 99 d8 3c 44 a6 5a bd 7d 50 41 bd
       0.09836362 0.026440196 -0.05338122 -0.0471959
0000d0 5c 49 7c 3d 85 a4 b8 3d 76 46 98 3e cb 02 ad be
       0.0615934 0.090157546 0.29741257 -0.33791193
0000e0 fd 66 c5 be 16 23 88 bd f6 93 b5 bc b4 da dc bd
       -0.38555136 -0.06647317 -0.02216528 -0.10783902
0000f0 5e 4a b0 be c6 60 9f be 87 71 08 3e 3a 2f 0e 3f
       -0.34431738 -0.3112852 0.13324557 0.5554081
000100 c6 a3 58 3e 46 84 ed 3c 9f 7b 41 3e be 79 bc be
       0.21156225 0.028993737 0.18894814 -0.36811632
000110 3b 09 1b 3e 8c 21 32 be e3 80 65 3e 8b 41 9e 3e
       0.1514024 -0.1739561 0.22412448 0.3090938
000120 bb 14 c7 3d 93 d2 25 bc b7 61 37 3e de 09 06 be
       0.09720751 -0.010121006 0.17908369 -0.13089702
000130 54 32 54 3e 65 ac c2 3d e5 b2 97 3d b1 18 45 bd
       0.20722324 0.09505538 0.07407168 -0.04811925
000140 1b 12 1c 3e 7c 6b 2c 3e b0 e3 1f 3e cd 98 c6 3d
       0.15241282 0.16837877 0.156142 0.09697113
000150 58 30 ba 3d 2c cf 44 bd 4b 24 69 3e 49 f9 5c bc
       0.09091252 -0.048049137 0.22767751 -0.013487169
000160 15 f1 47 3e f6 ed 88 be 20 f5 13 3e 10 1a 96 be
       0.19525559 -0.2674405 0.14448977 -0.2931676
000170 6d 02 b5 3e eb a7 b7 be 58 c4 b3 be 97 aa e4 3e
       0.35353413 -0.358703 -0.35110736 0.446614
000180 b6 72 87 be e1 5e 5c 3a 2f e7 86 bd 47 c0 6d 3e
       -0.26454705 0.0008406472 -0.065870635 0.23217879
000190 ed 83 c0 3e e6 c6 a3 3e ed eb 73 be 65 ea 11 3e
       0.3760065 0.31987685 -0.23820467 0.1424957
0001a0 75 68 d2 3d 27 ed 11 be 68 09 8b 3e f2 45 14 be
       0.1027383 -0.14250623 0.27155614 -0.14479807
0001b0 f8 ff ad bd 09 7b 2a 3e 5c 01 da bb 07 7f 63 be
       -0.08496088 0.16648497 -0.006652994 -0.22216426
0001c0 e2 14 6e be 3b dd 4e be d8 6f ea bd a7 35 83 bd
       -0.23250154 -0.2020158 -0.11447114 -0.06406718
0001d0 3b 11 9e 3e e3 af 50 be 62 e1 5f 3e ca 73 a4 bd
       0.3087252 -0.20379595 0.2186332 -0.080298975
0001e0 fb a9 dd 3c 15 e5 91 3d 7e 0c 8b be 70 d4 38 3e
       0.027058592 0.07123772 -0.27157968 0.18049788
0001f0 f8 dd 84 be 97 cf f5 be e3 11 bc 3e b4 75 41 3e
       -0.259506 -0.4800994 0.36732396 0.18892556
000200 04 72 69 3e 9a 69 4b be 35 46 03 be c1 b4 03 3f
       0.227974 -0.19864503 -0.1281975 0.51447684
000210 f2 82 69 3e 12 07 8a be c8 7f 7c 3d 76 f9 97 3c
       0.22803858 -0.2695852 0.0616453 0.01855157
000220 11 53 e1 bb 84 0e 7f 3e 46 79 9d bd 2d 43 dc bd
       -0.0068763574 0.24907881 -0.07689147 -0.10755
000230 66 09 9b 3d a5 ba d4 bd cf 5b 92 3e ce c0 6b 3d
       0.07570152 -0.10387162 0.2858567 0.05755692
000240 10 e6 c6 3e 18 11 0a 3e 6a 4d 6d be c6 a8 e1 3e
       0.388474 0.13483083 -0.23174062 0.44074076
000250 b5 0d 84 3e 5b 31 38 3e e0 23 11 3e 0f c8 a6 bd
       0.25791708 0.17987578 0.14173841 -0.08143627
000260 ea 9b 38 3c 3a e4 77 3e 35 89 ef be 86 ec 3e 3e
       0.011267642 0.24208155 -0.46784368 0.18644914
000270 82 9c 6a be 66 49 cd 3d ee 28 e4 bd 5f 49 67 3d
       -0.22911265 0.10023765 -0.11140619 0.056466457
000280 02 10 29 be 2a 8f 98 3c 00 df 89 bd 2c 48 e8 3d
       -0.16510013 0.018622953 -0.06731987 0.11341891
000290 92 7a ec 3c d8 6f 7c 3c f5 e3 40 bd 26 84 d1 3d
       0.02886704 0.015407525 -0.047092397 0.102302834
0002a0 75 85 c0 bd 57 e6 09 be a9 af 5b bd dc 6d d9 bd
       -0.09400455 -0.13466774 -0.05363432 -0.10616657
0002b0 c6 b6 8b 3d 03 90 39 3d 3e 8e d5 3e b2 1e 50 3e
       0.06821971 0.045303356 0.41710085 0.2032421
0002c0 95 8b 41 be 0a 0b e0 bc 2c 3b 26 be 9c b3 36 be
       -0.18900903 -0.027349014 -0.1623351 -0.17841953
0002d0 02 93 7b be 1f 3d 5a bc c2 2f 72 3d b9 23 79 3e
       -0.24567798 -0.0133202365 0.059127577 0.24330033
0002e0 31 94 c3 3d 38 df 49 bd 29 41 0c bf e4 cd ce bd
       0.0954975 -0.049285144 -0.54786927 -0.10097864
0002f0 14 03 61 3e ef 6d b2 3d 96 72 28 3e 1c 6f 62 3d
       0.2197383 0.087123744 0.16449961 0.055281743
000300 57 f0 81 3e de 3e 92 be 0d 8b b2 3d 04 c4 d1 3d
       0.25378677 -0.2856359 0.08717928 0.10242465
000310 d8 50 1a 3f 48 20 dd be e0 52 0b 3f db d0 5c be
       0.6027961 -0.4318869 0.5442333 -0.21564047
000320 47 01 03 3e d5 48 18 be 4e 59 c3 be 3c d8 46 3d
       0.12793456 -0.14871533 -0.38154072 0.04854606
000330 a8 07 57 3e 9b 28 3f be 6c 51 b2 3e 4d 6e 1c bd
       0.20999014 -0.18667834 0.34827745 -0.03819113
000340 6b ff 47 be 1a 3d 0b be 27 d2 80 bd a7 8f 15 3e
       -0.19531028 -0.13597527 -0.062900834 0.1460558
000350 20 d2 32 3e cf 43 60 be f6 d9 b7 3c 68 3f b4 3d
       0.17462969 -0.21900867 0.022442799 0.08801156
000360 3d 63 43 be 0d ab 65 3d 7e 91 a6 3e 15 a6 05 3e
       -0.19080825 0.05607133 0.32532877 0.13051637
000370 e7 1a 1a 3e b8 f9 8a 3b 8a f7 a0 bc f9 d0 b0 bb
       0.15049325 0.0042411946 -0.019649286 -0.005396005
000380 f9 c2 ad 3e 5f 29 29 3c bc 8e ed 3e 19 0b 38 be
       0.33937815 0.010324805 0.4639796 -0.17972983
000390 02 dd 94 3e f6 47 59 bd 9b 6b fa 3d 41 b6 c9 3e
       0.29074866 -0.053047143 0.12227555 0.3939686
0003a0 42 d6 f6 ba 75 7e a5 be e7 62 3a 3e 2a a3 34 be
       -0.0018832164 -0.32323042 0.18201791 -0.17640367
0003b0 7a b9 8a 3e 9b 1c 90 bd 15 4e 95 3e 92 17 89 3e
       0.27094632 -0.07036706 0.29161134 0.26775795
0003c0 78 34 00 bf 2d 29 03 be aa fd 16 be 9e 0c 85 bd
       -0.5008006 -0.12808676 -0.14745203 -0.06496547
0003d0 df 88 a4 bd ff e8 e7 3d cc e1 97 be 2d 24 a2 3e
       -0.080339186 0.11323737 -0.29664457 0.31668225
0003e0 16 1e d2 bd 95 4d 12 bc 30 a1 26 3e 9d f4 01 be
       -0.10259645 -0.00892963 0.16272426 -0.12690969
0003f0 a6 e9 f5 3e 81 06 bb bd 9c 3a b0 bd 07 ed 8b 3e
       0.48029822 -0.091321 -0.08604929 0.27329275

sequential/net/while/gru_cell/MatMul f4 [20, 13]
000000 aa 63 e8 bd 00 e2 3d 3c 25 3d af 3e a9 65 be 3e
       -0.113471344 0.011589527 0.34226337 0.37186936
000010 36 ab 51 3d da 56 ea 3d 72 35 cd 3c c5 22 8a be
       0.05118867 0.11442347 0.025049899 -0.26979652
000020 f6 73 8c be d4 79 23 3e fb c2 6b be ca cd da 3e
       -0.2743222 0.15964442 -0.23023598 0.4273513
000030 10 7c fe 3e db d6 00 bb 23 26 ac 3c 4b 55 d3 bc
       0.49704027 -0.0019659314 0.021014279 -0.025797507
000040 96 13 fc bd 87 f6 22 3d 35 13 a8 3d 36 1b 01 be
       -0.12308423 0.039785888 0.082067885 -0.12608036
000050 f5 2c 38 be a1 f4 cd bd 51 15 4f bd cb 81 8b be
       -0.179859 -0.10056425 -0.05055744 -0.27247462
000060 19 ae c0 bd 1f 85 82 3e e2 c2 4d be 3a f0 2d bd
       -0.094082065 0.25492188 -0.20093873 -0.042465426
000070 d1 22 5e 3e b1 c0 2b bc 98 91 f4 3e 6c ac 64 3e
       0.21692969 -0.010482953 0.4776733 0.22331399
000080 dd 90 90 3c fa 40 88 3e f1 b9 7a 3d 30 6e 55 3c
       0.017647201 0.26612073 0.061212484 0.013026759
000090 99 a2 f8 bc 12 10 0b 3e 4c 8e f7 bd 5d ce 58 3b
       -0.03035097 0.13580349 -0.12087688 0.0033081986
0000a0 22 3f 65 bc 1e e9 46 bc 23 56 04 bf 72 1c 78 3d
       -0.013992103 -0.01214054 -0.51693934 0.060574003
0000b0 bb 0d c5 bd d0 89 29 be 32 67 24 bc 7f e9 a8 bd
       -0.096217595 -0.16556478 -0.010034369 -0.08247661
0000c0 cf ef 22 bd a7 30 9b 3d 0a 50 4e 3d e9 69 bf 3a
       -0.03977948 0.07577639 0.0503693 0.0014603707
0000d0 b7 16 0e 3e b8 2e 43 3d 30 e3 37 39 a2 36 8c 3d
       0.13875853 0.047651976 0.00017536874 0.06846358
0000e0 b4 3e 24 be 6b 79 38 3b 3c 76 9b 3d b5 07 22 be
       -0.16039544 0.0028148543 0.07590911 -0.15823252
0000f0 7f 64 3c 3e 2d 69 84 3e a2 ed f9 bd 46 b2 0b be
       0.18397711 0.25861493 -0.12203528 -0.13642225
000100 41 fa a2 bd 9b 66 9e bd 89 81 30 bd 22 6e 45 be
       -0.079578884 -0.07734414 -0.043092284 -0.19280294
000110 2f 46 95 be 0e 1e 81 3d a5 d6 02 3f b1 34 17 3e
       -0.29155108 0.063045606 0.5110877 0.14766194
000120 d3 af 97 3d 4c e5 8f be 15 fb 54 be 6c b3 2f 3e
       0.07406583 -0.28104627 -0.20798905 0.17158288
000130 e3 70 18 bd 0a d9 00 bf 71 60 f7 bc 35 82 b9 bd
       -0.037217032 -0.50331175 -0.030197354 -0.09058038
000140 6c 43 88 3e 24 98 88 3e 05 e0 b2 bd 52 43 ca be
       0.2661394 0.26678574 -0.087341346 -0.39504486
000150 e2 35 b1 3e c2 d9 99 bc db af db be f7 34 19 3e
       0.34611422 -0.018780593 -0.42907605 0.1496161
000160 e8 0f 43 be ac 6c 89 be 87 5b 00 bf 97 70 25 be
       -0.19049037 -0.26840723 -0.5013966 -0.16156231
000170 c7 a1 a8 3d 4e 7d f7 bd 81 47 02 3c f0 2e 75 bd
       0.082339816 -0.12084447 0.007951618 -0.059859216
000180 e7 f7 c3 3d e1 06 6b 3d 6c 62 13 be 39 97 23 3e
       0.09568768 0.057379607 -0.14393014 0.15975656
000190 43 78 25 bc 96 6b af bd 2c 8c 25 be e9 fe cf 3d
       -0.010099473 -0.08565442 -0.16166753 0.10156042
0001a0 51 bc ae 3e 7d 21 9c 3c 75 18 b1 3d 85 a4 11 be
       0.3412805 0.019058937 0.08647243 -0.14222915
0001b0 3e 3b 47 bd c5 b3 ea bd cb 1d b1 3a a8 d5 82 3e
       -0.048640482 -0.114600696 0.0013512907 0.25553632
0001c0 3f ca 2e 3e 4a 6b aa 3e f2 31 90 3b 56 f2 4d be
       0.17069338 0.3328498 0.004400485 -0.20111975
0001d0 51 df d0 bc 50 8f ed 3d 61 d0 5e 3c 26 fe c0 bd
       -0.02549711 0.115996 0.013599486 -0.09423475
0001e0 b1 a3 1b bd ad 92 a2 be e2 2a 56 3e 97 2e 5c be
       -0.037997905 -0.3175253 0.20914796 -0.21502148
0001f0 1d 51 8b bd cf 3c 3d bd 0f 23 1c be 87 eb 60 be
       -0.068025805 -0.04620057 -0.15247749 -0.21964847
000200 cc cd 32 bf fe ac 2f bf f4 19 e4 3d da 7a 3e 3e
       -0.6984527 -0.6862334 0.11137763 0.18601552
000210 ec b2 75 3d 61 c2 be 3d 62 8f 67 be a4 6d 7a 3b
       0.059985086 0.093144186 -0.2261329 0.0038212324
000220 89 03 eb 3d 05 b0 c3 be e7 ea c4 3d 71 15 0a 3e
       0.11475284 -0.3822023 0.096151166 0.13484742
000230 62 50 13 3e 6c db 36 bd df 9f d7 bd 5b 4f 99 be
       0.14386132 -0.04464285 -0.1052854 -0.29943356
000240 eb 59 0b 3d ef dd 53 be 37 0a 57 bb d1 f3 26 3d
       0.0340213 -0.2069013 -0.0032812485 0.040759865
000250 1d c7 01 3e de 40 05 3e 5f 12 40 3e b1 a4 de bd
       0.12673612 0.13013026 0.18757008 -0.10871256
000260 05 b3 f5 bd 79 db a3 be 98 8b 0f be cd 51 19 be
       -0.11997036 -0.32003382 -0.14018095 -0.14972611
000270 7c 3c 05 3e 4f 73 d5 3d ec 87 5c bd 7c 15 3e bc
       0.13011354 0.10422384 -0.053840563 -0.011601802
000280 ce 00 fb bd 4c 77 95 be 29 b2 55 be cf ac b4 bb
       -0.12256013 -0.2919258 -0.20868744 -0.0055137645
000290 51 8d fe bd 8a d0 87 bd 95 2c 0f be 68 42 ad 3c
       -0.12429298 -0.066315725 -0.1398185 0.021149829
0002a0 c2 ff a8 be 89 9b 4a be 3b df 38 be b4 32 34 bc
       -0.33007628 -0.19785894 -0.18053906 -0.010998417
0002b0 9f 4e 36 bd 14 75 41 3e 5a d2 8a be 97 7c 26 3f
       -0.044508573 0.18892318 -0.2711361 0.6503386
0002c0 fd 47 f4 3e 8c 50 2f b9 98 5e 23 3e 05 ff 32 3e
       0.47711173 -0.00016719307 0.15954053 0.17480095
0002d0 e8 fb 8f 3e 24 52 2f be 7c 4a d6 3c 7f a4 80 bd
       0.28121877 -0.17121178 0.026158564 -0.06281375
0002e0 50 37 26 bd da a9 02 3e 4b 2f d0 bd 32 f9 3d 3b
       -0.040580094 0.12760106 -0.101652704 0.0028987643
0002f0 6d d2 53 3e d8 f7 af 3e e3 60 90 be 15 ad 96 be
       0.2068574 0.34368777 -0.2819892 -0.29428926
000300 a4 ef 44 3e 53 7a 04 be 4f ae b9 3e 9e 96 6a be
       0.1923204 -0.12937288 0.362658 -0.22909018
000310 04 d6 d2 bc c8 90 62 bd 56 31 99 3d c8 48 c9 3d
       -0.025736816 -0.055313855 0.07480113 0.09828335
000320 7f a3 68 3e 3a 08 ec bd 48 89 cf 3d da 43 a4 3d
       0.22718619 -0.115250066 0.10133606 0.08020754
000330 2c 5d f7 bc c1 a2 e4 3d d0 ee bf bd bc d3 64 be
       -0.030195795 0.11163855 -0.09371722 -0.22346395
000340 07 8d 12 bd a4 bc 1e bd 6c d7 43 3e 2f a1 2f 3d
       -0.035779025 -0.03875412 0.19125146 0.042878326
000350 3e 15 df 3d 42 67 48 be 99 69 d9 bd 4d c4 29 be
       0.108927235 -0.1957064 -0.10615844 -0.16578789
000360 59 96 6d 3e 55 c1 c1 3d 56 bf a3 3e 28 ca 53 3d
       0.23201884 0.09460703 0.31981915 0.051706463
000370 0c a3 4f be 43 6a 01 be b5 e7 3e bc 67 81 98 3d
       -0.20277041 -0.12638192 -0.011651923 0.074465565
000380 c9 5e c0 3d 00 4b 1b 3e 37 40 11 3e 39 40 bb bd
       0.09393079 0.15165329 0.14184652 -0.09143109
000390 c0 0b cb be 1f b7 2a bf 31 f8 d1 be 8d 95 03 bd
       -0.39657402 -0.6668567 -0.41009668 -0.032125045
0003a0 fc 1e da 3d 76 89 9d bd eb b3 2a be b4 4e 0d be
       0.10650441 -0.07692234 -0.16670196 -0.13799554
0003b0 0a 94 c1 3c 5b f4 81 be f1 4e f9 3d 1a 77 a7 bc
       0.02363016 -0.2538174 0.1217326 -0.020442534
0003c0 ba d7 a3 be 2f c1 4b be ab 77 3f bd e3 36 42 3e
       -0.32000524 -0.19897912 -0.046744984 0.1896625
0003d0 40 1b ae bd 5f 99 01 be 22 e4 80 be 45 f9 cf bb
       -0.08501291 -0.12656163 -0.25174052 -0.006346854
0003e0 77 7a 26 bd 3e e2 b7 bd a9 81 02 3e 4b 36 8b bd
       -0.040644135 -0.08978699 0.12744774 -0.06797465
0003f0 09 3c af bd 8b db 9d 3d db 40 cd 3d 2f f6 7f 3d
       -0.08556373 0.0770789 0.10022136 0.06249064

sequential/net/while/gru_cell/MatMul_1 f4 [20, 13]
000000 7c 08 03 3f 37 f1 bb 3c d0 7b 8b bd 23 f8 1f be
       0.5118482 0.022942169 -0.06810725 -0.15622
000010 b6 8b 35 be 21 ca 79 3e 38 b5 88 be 78 97 86 be
       -0.17729077 0.24393512 -0.2670076 -0.26287436
000020 09 a6 ff be 1f 43 b3 be 72 9a 3c 3e b8 d7 28 be
       -0.49931362 -0.35012147 0.18418291 -0.1648854
000030 42 23 4d 3e 35 ea b0 3d c5 12 89 3d 7d fd 17 3d
       0.20032981 0.086384214 0.06693033 0.03710698
000040 1c 94 6c 3e 6a 62 15 be a2 04 f9 bc e0 d3 d5 bd
       0.23103374 -0.14588323 -0.030397717 -0.104408026
000050 c6 fd 2b bf c0 68 7a 3d 99 bf 4a 3c ed 63 78 3e
       -0.671841 0.061135054 0.012374782 0.24256869
000060 d8 4e 9e 3e 7d 32 49 be fa 84 91 be ab 8a 8a 3c
       0.30919528 -0.19648166 -0.28421766 0.016911825
000070 90 20 ee bd 60 02 56 bd 06 f2 6f 3e 95 71 ac 3e
       -0.116273046 -0.05224836 0.23432168 0.33680406
000080 e5 79 72 be 93 63 6d be cf 90 b1 be 14 8d c9 bb
       -0.23679312 -0.23182516 -0.34680793 -0.006150851
000090 e9 b9 87 3e 57 25 64 bd 37 11 90 be 5b 77 ea bc
       0.26509026 -0.055699673 -0.28138134 -0.028621366
0000a0 8d 29 8f bc e8 e1 c2 bd e1 09 c1 3d 2a cc 8d 3e
       -0.017475868 -0.095157444 0.094257124 0.27694827
0000b0 8d d9 21 3f ef d6 e0 bc 89 74 41 be 2f 3f b6 3e
       0.6322258 -0.027446238 -0.18892111 0.3559508
0000c0 68 22 20 bd d8 09 7d 3e 93 c9 b6 3e 4d 88 ed 3d
       -0.039095312 0.24710786 0.35700664 0.11598263
0000d0 88 eb 09 3e 8b 31 b8 3d d3 08 42 3e 7e 7b 43 3e
       0.13468754 0.089938246 0.18948679 0.19090077
0000e0 34 95 11 be fa 5e 1c be 1c 91 cf 3e 2a 3d 47 3d
       -0.14217073 -0.15270606 0.40540397 0.048642315
0000f0 e7 f8 ec 3e 80 81 b2 3e 40 33 1b be 21 ff 7c 3e
       0.46283647 0.34864426 -0.15156269 0.24706699
000100 ad 03 2e 3e 03 ee e3 bd 1e 1f 74 bc 3d 00 98 3d
       0.1699359 -0.111293815 -0.014899997 0.074219204
000110 1f ae b1 3c 53 54 42 be 95 f9 25 3e b4 f1 02 3d
       0.021689473 -0.1897748 0.16208489 0.031968787
000120 9d fe b0 be e8 bb cc be 26 94 c7 be b6 6b f2 be
       -0.34569255 -0.3998711 -0.38980216 -0.47347802
000130 c8 e0 1d 3f b1 9d 60 3e 70 16 9a bd 0d 76 aa bd
       0.61671114 0.21935154 -0.07523811 -0.08323298
000140 10 c1 5d bd b9 3f cb 3d 0e e0 17 bd 83 e1 c4 be
       -0.054139197 0.099242635 -0.03707891 -0.38453302
000150 55 10 6f bd da 05 6e be c4 2f 33 3c 13 2c 49 3e
       -0.058365185 -0.2324442 0.010936681 0.19645719
000160 d4 46 05 bf e8 14 11 bd 13 39 90 3d bc 36 f5 3c
       -0.520612 -0.03542033 0.07042136 0.029933326
000170 0d d8 ec bd 2c 75 11 be 8e f3 c6 bd 07 c0 4a 3d
       -0.11564646 -0.14204854 -0.09714423 0.049499538
000180 da 3c aa be 40 40 db bd 13 e6 24 be c5 de 44 3e
       -0.3324955 -0.10705614 -0.16103391 0.19225605
000190 cc 82 05 3e 2e ec 6b 3d 57 8c c8 3d 38 63 bb be
       0.13038176 0.057598285 0.09792393 -0.36599135
0001a0 a8 c8 2a 3c b1 b2 e1 3d 02 32 08 bd de 3c 92 3d
       0.010423817 0.11020411 -0.033250816 0.07140516
0001b0 9d 78 1c be e1 bc c4 bd 8e 73 ad be 6c 6f 05 be
       -0.15280385 -0.09606338 -0.33877224 -0.13030785
0001c0 20 ba 89 be 31 fc e2 3e f3 0c 01 3e e5 20 9b be
       -0.26899815 0.44333032 0.12602596 -0.30298534
0001d0 99 8a 8f bf 51 7b 22 bd 59 01 00 bd 91 43 3e 3e
       -1.1214172 -0.039668385 -0.031251285 0.18580462
0001e0 af 64 f1 3d b6 7e db 3d 37 5f ab bd 48 af 74 be
       0.11786782 0.107175276 -0.0836777 -0.2389499
0001f0 35 14 d4 be 14 8c a6 bd ad fd 51 3e 92 f1 10 3e
       -0.41421667 -0.081321865 0.20506926 0.14154652
000200 25 90 b3 bd f8 78 f4 be 88 4c 1b be 86 f5 2c 3e
       -0.08767728 -0.47748542 -0.15165913 0.16890535
000210 03 b7 19 3e 9d ee cc 3e cd e6 b6 be 25 40 6b be
       0.1501122 0.40025797 -0.35722962 -0.22973688
000220 a4 75 9b 3d aa dc 20 bd e4 8e 99 3d c6 39 88 3e
       0.075907975 -0.03927294 0.07497957 0.26606578
000230 da 79 2b 3e 42 63 ff bd 4e d4 ab bd fd a6 25 3e
       0.16745701 -0.12470104 -0.08390103 0.16176982
000240 e4 bd f8 3d 52 b6 91 bd 90 6d 6c 3e 47 0a b4 be
       0.12145594 -0.07114853 0.2308867 -0.3516409
000250 b6 9a 0f be 4e fe 01 bd 3b 9c dc bd 1b c7 15 3e
       -0.14023861 -0.031736664 -0.10771986 0.14626734
000260 a8 06 ba 3d aa 45 36 3e 68 fc ad be d4 31 26 3e
       0.09083301 0.17800012 -0.33981633 0.16229945
000270 dc 95 20 bd 22 82 4b 3c 4e a7 df bd 9f 72 5d 3e
       -0.039205417 0.012421163 -0.10920583 0.21625756
000280 3f 2b 95 3e cd 44 f2 bd 77 97 a3 3a 06 b8 03 3d
       0.29134557 -0.11829529 0.0012481053 0.03215792
000290 05 20 d8 3c be b4 4a 3e bd e4 40 3d 64 47 ff bb
       0.026382456 0.1979551 0.04709314 -0.007790493
0002a0 04 57 60 bf dd 97 a0 3d f4 6a f5 bc 24 fb a3 3d
       -0.87632775 0.078414656 -0.029958226 0.08006886
0002b0 c0 9f ad bd 98 2e 5e 3b 9f 01 2a be 4e 11 dd bd
       -0.084777355 0.0033902284 -0.16602181 -0.10794316
0002c0 7f 5e 25 be bb f9 d7 be 8e 07 70 bb fa 8b 11 3e
       -0.16149329 -0.42182717 -0.0036625597 0.14213553
0002d0 55 7d 9b be d3 51 05 bf 2d 24 1f be 88 be 0b bd
       -0.30369058 -0.5207798 -0.15541144 -0.03411725
0002e0 00 0f dd 3d 5f d4 9e 3b 0f ed 8a 3e e7 d4 e1 be
       0.10793877 0.004847094 0.27133986 -0.44107744
0002f0 9c 35 86 bc 23 29 35 3d 02 cb b7 be 6b bf dd be
       -0.016382985 0.044228684 -0.3589707 -0.43310103
000300 f4 df 85 be 3c 74 ca 3e e8 83 8e 3d f2 04 c3 be
       -0.26147425 0.39541805 0.06958753 -0.3808971
000310 3e 62 c3 3b 06 f1 90 3d 0c fa 4d 3e 70 d7 e4 be
       0.005962639 0.070772216 0.20114917 -0.44695616
000320 8d 5c c6 be 18 e3 e4 3d 5a db bf 3e db aa 16 3f
       -0.38742486 0.11176127 0.3747204 0.58854455
000330 85 f6 37 be b1 59 09 3e 10 4c 16 3d 41 84 d7 bd
       -0.17965133 0.13413121 0.036693633 -0.10523272
000340 09 0c ff 3e 3f 69 9d 3d 53 d7 09 3d 52 79 1b 3e
       0.4981387 0.0768609 0.033652615 0.15182999
000350 4a 78 2b 3d 96 b9 68 3e fa de d6 3c f4 aa 29 3e
       0.041862763 0.22727045 0.02622937 0.1656912
000360 54 b1 16 bd 00 ee 7c bd 03 a1 1e bd bc 4b a2 be
       -0.036790207 -0.061750412 -0.03872777 -0.31698406
000370 fc c6 a9 bd 2f f7 e9 bc 2b e3 de 3d 1c 3f f4 bd
       -0.082899064 -0.02856025 0.108831726 -0.119261
000380 81 98 b4 3b c4 93 ad be b0 81 f3 3d e4 bb 4d 3e
       0.005511344 -0.339018 0.1188997 0.20091206
000390 c4 7e 1d bd a8 7d 89 3e 7e cf 73 3e 12 2d 51 3c
       -0.03845097 0.2685368 0.2380962 0.012767093
0003a0 e8 b7 40 3d 0e 24 c4 3d 5e 9c 31 3e b6 d4 5c 3c
       0.047050387 0.095771894 0.17344806 0.013478449
0003b0 b2 e5 45 39 10 87 1d 3e 2a 7a 4d 3d a9 ab e9 bd
       0.00018872952 0.15383554 0.050165333 -0.11409695
0003c0 5a 62 b4 3e 45 31 c9 bd 89 f0 22 be 9c 1b 0c 3e
       0.35231286 -0.098238505 -0.1591207 0.13682407
0003d0 98 cb 76 3d 69 45 0b be bb 1e 0e 3e c3 3e 36 bd
       0.060252756 -0.13600697 0.1387891 -0.044493448
0003e0 ab a4 a5 3c d4 94 4d 3d e7 b9 81 bc a9 f6 88 3d
       0.020220121 0.05019076 -0.015835715 0.06687672
0003f0 3c 62 02 3f e4 11 8f be 1c d0 bb be f0 e4 71 3e
       0.50931144 -0.27943337 -0.36682212 0.23622489

sequential/net/while/gru_cell/MatMul_2 f4 [20, 13]
000000 c3 8c 98 bd 21 69 b8 bd 53 4b 7a bc 81 4b f0 bd
       -0.07448723 -0.09004427 -0.015276748 -0.11733151
000010 2a 5f 01 bd 10 b1 c3 3d de c9 25 3e 49 f2 d6 3e
       -0.031584896 0.09555256 0.16190287 0.41981724
000020 7c cb 29 3e 25 e4 9d 3e 84 8e 37 be f5 8f bf bc
       0.1658153 0.30838123 -0.17925459 -0.023384074
000030 80 a3 4a bd 09 58 82 be 81 01 0a 3e 7a 77 35 3e
       -0.049472332 -0.2545779 0.13477136 0.17721358
000040 f9 92 c4 be 70 80 41 3e 4f 1d 18 3e 01 93 58 be
       -0.3839338 0.18896651 0.1485493 -0.21149828
000050 fb f6 0b be 54 50 1f 3c b6 46 6f 3e 12 f3 8c bd
       -0.13668434 0.009723742 0.23366818 -0.068822995
000060 4e b2 6e be 52 eb 4e be 83 8f 8d be cb 29 ee bd
       -0.23310205 -0.20206955 -0.27648553 -0.11629065
000070 60 73 43 3e 1d 04 8d 3e ed 50 b5 3b 4e d1 f3 be
       0.19086981 0.275422 0.0055333287 -0.47620624
000080 33 cc f9 3c 37 bf e3 3d cc cc 87 bd eb 35 41 3e
       0.030492878 0.11120456 -0.06630859 0.18868224
000090 10 26 ed 3d f7 a3 ee 3e 7c 43 5b 3e 28 0d d1 bc
       0.115795255 0.4660947 0.21412462 -0.025518969
0000a0 49 59 d6 bc 00 89 2a bd 9b 2b 53 be a4 a0 70 bd
       -0.026165621 -0.04163456 -0.20622103 -0.05874695
0000b0 22 a5 9b be 7e 66 b4 be 30 32 0c bf 4f b3 b5 be
       -0.30399424 -0.35234445 -0.5476408 -0.35488364
0000c0 51 ac 90 be 3e 3f a5 be f5 65 78 3d d5 11 59 3d
       -0.28256467 -0.32274812 0.06064411 0.05299552
0000d0 0c af 84 3e 4d 6f b0 bd 72 b8 07 3d f1 a8 85 be
       0.259148 -0.08614979 0.033134885 -0.26105455
0000e0 e6 26 3c be a3 59 5c be 4a 5c e2 3d bc 38 20 3e
       -0.18374214 -0.21518569 0.11052759 0.15646642
0000f0 a9 40 6e be 8b c1 f3 3c 4f cc 41 3e 61 ea 21 bd
       -0.23266853 0.029755374 0.18925594 -0.03953016
000100 ea 92 b9 be a2 81 8e be e6 be 46 be 68 73 2b bd
       -0.362449 -0.27833277 -0.1940876 -0.041858107
000110 a7 68 21 be 32 06 fe 3c 27 62 41 3e e5 4e 99 3e
       -0.15762578 0.031008814 0.18885098 0.29943004
000120 e1 28 01 3f b1 0d e8 3e 97 d3 50 be ea 4e 39 be
       0.50453 0.45322946 -0.20393215 -0.1809651
000130 74 89 a8 3e af d9 ec be 57 ee 20 3d 21 5a 58 bc
       0.32917368 -0.4625983 0.0392898 -0.013205082
000140 e6 a7 2a bd 07 92 4c 3e 48 be 83 3d 8d ec 5c be
       -0.041664027 0.1997758 0.06432778 -0.21574612
000150 db e1 4d bc 70 e8 41 be c8 3d e0 3d 7a 70 11 be
       -0.012566055 -0.18936324 0.10949284 -0.14203063
000160 ed 4e ac bd 4b 1c c6 3e b3 b0 93 be 72 46 3a 3e
       -0.084134914 0.3869346 -0.28845748 0.18190935
000170 1c 7b 57 3e 68 ee 74 be 25 99 ab bd 60 a0 05 be
       0.21043056 -0.2391907 -0.083788194 -0.1304946
000180 c0 da 2d 3e 63 5b fc 3c be 0d de be f4 9c 88 3e
       0.16977978 0.030805295 -0.4336986 0.26682246
000190 16 22 e7 3d 80 82 9d bc ee 60 21 be 5e 07 3f 3d
       0.11285798 -0.019227266 -0.15759632 0.046637885
0001a0 6d 97 75 3e c8 a9 00 bd 0e c3 f1 3d 95 24 2c be
       0.23983546 -0.031411916 0.11804782 -0.1681083
0001b0 94 02 44 3e 34 5a 1b 3d aa 4a 43 bd fc f2 ba 3d
       0.19141608 0.03792782 -0.047678627 0.09128377
0001c0 0d 64 fb 3b 97 77 08 be bb 5d dd 3e fe 34 4b 3e
       0.007671839 -0.1332687 0.43235573 0.19844434
0001d0 b4 ea a1 3e d6 8e 92 3e d7 d2 61 be ec a2 5d 3d
       0.31624377 0.286246 -0.22053085 0.054110453
0001e0 29 92 5a bd 05 21 0c be f9 26 5f be 10 4a 66 3e
       -0.053362045 -0.13684471 -0.2179221 0.2248919
0001f0 5c c0 47 3d 9d dc 9a 3e 2f 7a 90 3e 77 5e 57 3e
       0.048767433 0.3024644 0.2821822 0.21032129
000200 38 d5 be 3d a3 6d 1b be 57 73 97 bd 49 69 1f be
       0.09318012 -0.15178542 -0.07395046 -0.15567507
000210 7e b1 10 3e 12 e6 51 be bb f7 e0 bd 58 b8 36 be
       0.14130208 -0.20497921 -0.10984751 -0.17843759
000220 15 a1 99 be 6d b7 ab bd fd 8e a8 be 9c ca d9 be
       -0.30005708 -0.08384595 -0.3292159 -0.4253739
000230 4f af 51 be e6 7f 2e be a5 f5 69 be f6 9a 0a 3e
       -0.20477031 -0.17040977 -0.22847612 0.13535675
000240 f7 28 bc 3d 14 96 dd 3c 11 8d 29 3e 62 df 84 be
       0.09187501 0.027049102 0.16557719 -0.25951678
000250 3b 91 b7 be 0b 42 06 bd d0 ee 48 be 7d 14 9c bd
       -0.3585299 -0.032777827 -0.1962235 -0.07621095
000260 33 c8 03 3d 82 7f 09 be c4 98 83 be a1 74 99 3e
       0.032173347 -0.13427547 -0.25702488 0.29971793
000270 83 85 90 3d e5 9c 37 3e c9 97 5c be 62 8e 2f 3d
       0.07056715 0.17930944 -0.21542276 0.042860396
000280 b3 1b 7e be 3b d4 9c bd 47 e0 a0 3c 45 65 c1 3d
       -0.24815254 -0.07657667 0.019638194 0.09443144
000290 e6 5b 2f be 54 37 c0 be a6 1b 70 be 95 84 2f 3d
       -0.171249 -0.37542212 -0.23448047 0.04285105
0002a0 0e a2 48 be 7f 91 87 3e ae 08 c5 bd d5 48 61 3e
       -0.19593069 0.26478192 -0.09620796 0.2200044
0002b0 1c 39 fe 3d 42 fc 85 bd eb 7a 86 be 15 ff 4d 3e
       0.124132365 -0.06542255 -0.26265654 0.20116837
0002c0 bb 35 90 3d d0 8c 51 bc 97 6e 53 3c 78 c2 ae 3d
       0.07041498 -0.01278992 0.012904785 0.08533186
0002d0 14 dc 4f 3e db 20 0c 3d bb 52 41 3e eb 8b 87 3e
       0.20298797 0.03421102 0.18879215 0.26473936
0002e0 47 4e 95 bd cb 3e bd be d2 f8 94 3d 60 3c 6d bd
       -0.07290321 -0.3696197 0.07274021 -0.057918906
0002f0 a8 78 b7 be ff 5d 20 3d c5 26 0c 3d 6f cd bb bc
       -0.3583424 0.03915214 0.03421666 -0.022925107
000300 fe f7 75 3e 2e 28 b7 3d 48 5a 1f 3e a6 6f 13 be
       0.24020383 0.089432105 0.15561783 -0.14398059
000310 76 b5 82 be 8f 13 a4 3d c7 b8 88 bd a1 85 d9 3e
       -0.2552907 0.08011543 -0.066758685 0.42484763
000320 82 a9 18 3d 43 39 8a 3d 77 06 0e 3f 59 31 1f 3d
       0.03727103 0.06749203 0.55478615 0.03886542
000330 c6 5e 41 bd ca 54 87 3c 2e 6b da 3d ee b7 1a be
       -0.047209524 0.016519923 0.10664974 -0.15109226
000340 c7 95 78 3b 68 79 0c 3e 03 be 6d be d3 15 f9 bd
       0.003793107 0.13718188 -0.23217015 -0.12162366
000350 77 aa 37 3d 58 3b 60 3d c1 c2 ee bc 92 4e b7 be
       0.044840302 0.054744095 -0.0291456 -0.35802132
000360 ab b1 07 be f7 36 71 3d e0 ed fc bb 5d aa 90 3e
       -0.13251369 0.05889031 -0.0077187866 0.28254977
000370 53 8a f7 3d ce 55 6e be a6 ca 65 be f6 6f 96 3d
       0.1208693 -0.2327492 -0.22440585 0.073455736
000380 33 c3 9c 3e cc 07 c9 be ac f0 1b be 38 ce 8f bc
       0.30617675 -0.3926376 -0.15228528 -0.017554387
000390 56 30 d8 bd ac 5c 9d be b3 6f 2f bd 09 8d 31 be
       -0.10556094 -0.30734766 -0.042831134 -0.17338957
0003a0 e9 3b b9 3c 26 62 bf 3e cb 91 8f bd fb ba cc 3c
       0.022611575 0.3737957 -0.0701023 0.024991503
0003b0 8f a6 a6 3e bb a3 ca 3d 7c 49 3d 3e 5b 5c 6f 3e
       0.3254895 0.0989451 0.18485063 0.23375075
0003c0 ae 76 a5 be a4 81 9b be 25 ae 78 3d 9f 14 af 3e
       -0.32317108 -0.30372345 0.060712952 0.3419542
0003d0 f2 2c 1e bc d1 66 7a 3e 99 85 1e 3e 7d 38 c4 bd
       -0.0096542705 0.24453284 0.15480651 -0.09581087
0003e0 8f 7c 93 3d 6c b0 65 3d 3b af be 3e 84 80 8d 3e
       0.07201492 0.056076452 0.37243065 0.27637112
0003f0 b7 9f 24 be e7 30 3c be 94 70 77 3e 3e bd 3b bd
       -0.16076551 -0.1837803 0.24164039 -0.045834772
