wakewords/en/hey_scout.tflite (tflite, 21888 bytes, 10 tensors)

sequential/dense_1/MatMul f4 [1, 20]
000000 a6 b9 dd be 93 78 75 be 88 ce 32 3f 86 c4 53 bd
       -0.433057 -0.23971777 0.6984639 -0.05170109
000010 eb ec 05 be 01 a6 04 bf d7 38 dc bd 78 1b 78 be
       -0.13078658 -0.518158 -0.10753029 -0.24229228
000020 ba 88 ac 3e ef 15 0e bf 1b 24 ff bc 93 b8 17 bf
       0.33698064 -0.5550222 -0.031145146 -0.5926601
000030 06 22 16 be 32 fc 3c bd d2 26 13 3f 62 99 93 bd
       -0.14661416 -0.04613895 0.5748111 -0.0720699
000040 dd 46 4c 3c d3 91 99 3e 96 cd 4a bd fe 13 b6 be
       0.012468067 0.29994068 -0.04951247 -0.35562128

sequential/net/while/gru_cell/strided_slice_3 f4 [20]
000000 f1 46 2f 3e e1 da bd 3e 93 c4 95 be 10 a1 fa 3a
       0.17116906 0.37081054 -0.29251537 0.0019121487
000010 f0 53 99 be 32 17 3d 3e 72 3d d0 bd 34 ac bb 3e
       -0.29946852 0.1846588 -0.1016797 0.36654818
000020 91 d3 38 bf 0f 60 67 3c 03 b5 10 bf 96 7b 8e 3f
       -0.72197825 0.014122023 -0.565262 1.1131465
000030 96 e0 db be 4e 55 74 be b6 41 70 3e ce 57 88 bf
       -0.42944783 -0.23860666 0.23462567 -1.0651796
000040 e3 eb 4c be 57 87 5b be 99 79 0d bf c5 98 59 be
       -0.20011859 -0.21438347 -0.5526367 -0.21249683

sequential/net/while/gru_cell/strided_slice_4 f4 [20]
000000 d7 09 83 be 86 18 91 3f 25 f5 c7 3e a4 0e d0 3e
       -0.25593445 1.1335609 0.39054218 0.4063617
000010 ee 16 04 be f5 28 40 be 98 5b 91 3e 87 89 37 3f
       -0.12899372 -0.18765624 0.28390193 0.71694225
000020 2c 60 06 3f f5 16 66 3f 78 43 3d 3e eb b8 88 bc
       0.52490497 0.8987878 0.18482769 -0.016689738
000030 d6 50 9a 3e ad 32 2d 3e d3 90 33 3e 2a 2a f6 3c
       0.30139798 0.16913863 0.17535715 0.030049402
000040 ef c0 cc 3d a4 4f a4 bd a7 a6 d8 3e 91 82 07 3f
       0.09997737 -0.08023003 0.42314646 0.52933604

sequential/net/while/gru_cell/strided_slice_5 f4 [20]
000000 38 0f 33 be e7 d0 84 be 98 e1 c9 bf 93 7b 72 3f
       -0.17486274 -0.2594063 -1.5771971 0.9471981
000010 64 19 80 3f d7 36 91 3e 8c 8a 80 be 20 02 cd 3e
       1.0007749 0.28362152 -0.25105703 0.40040684
000020 55 70 4b bf c8 22 0e 3f 1b ea 1c 3f c6 cf b1 3e
       -0.7946828 0.5552182 0.61294717 0.3472883
000030 5a c9 d5 3e fc 56 25 bf 56 cf 30 be 16 08 1e bd
       0.41755182 -0.6458585 -0.17266592 -0.03858193
000040 66 74 34 bf 07 d5 28 bf 89 13 b3 bf df 20 9c 3d
       -0.7049011 -0.65950054 -1.3990337 0.07623457

sequential/net/while/gru_cell/MatMul_3 f4 [20, 20]
000000 a6 1b 3f bd 20 b4 ee 3e 1c 35 9b bd 88 9f 9c be
       -0.046657227 0.466218 -0.07578489 -0.30590463
000010 24 29 1f bd f5 be 1f be 27 33 04 bd 50 e1 5d 3e
       -0.038857594 -0.15600188 -0.032275345 0.21667981
000020 00 37 17 be 62 58 82 be 17 15 cc 3e 25 1f 28 3e
       -0.14767075 -0.25458056 0.3985984 0.1641813
000030 45 68 1d 3d 15 ef 62 bd e8 0f 72 3e 8a 48 42 be
       0.038429517 -0.055403788 0.2363888 -0.18972984
000040 88 12 7d bd c6 68 e0 bd 8c 82 ee 3d 11 59 66 3e
       -0.06178525 -0.10957484 0.116459936 0.22494914
000050 a0 42 7b 3e a7 31 ff bb e2 df d7 bc 07 fa c1 3e
       0.24537134 -0.0077879014 -0.026351873 0.37886068
000060 f2 ee d5 3d 79 84 01 3e 76 94 e4 bd c2 28 92 be
       0.10445966 0.1264819 -0.11161129 -0.2854672
000070 b0 9c 99 3d b5 75 c7 3e ef d9 d4 bd d0 ea 04 be
       0.07500589 0.3895699 -0.1039313 -0.12980199
000080 93 d4 39 3c 0f 60 21 3d 52 66 9d bd a0 aa 0e bd
       0.011342186 0.03939825 -0.07685532 -0.03483069
000090 ba f4 38 be af cf d4 bb 8a e2 11 3e 15 15 11 be
       -0.18062106 -0.0064944844 0.14246574 -0.14168198
0000a0 dd c3 4b be e8 ed 32 3d 30 ae fd bb fb 6c 21 3e
       -0.19898935 0.043683916 -0.007741712 0.15764229
0000b0 aa 44 cc bd e0 46 59 be 6b 6b 6f be c9 52 8b 3d
       -0.09974034 -0.21218443 -0.2338082 0.068028994
0000c0 98 14 e0 bd 11 30 3b bd 79 41 72 3e 01 01 2f 3e
       -0.10941428 -0.045700137 0.23657788 0.17090227
0000d0 6c a2 d1 39 4c e6 85 3e 12 4e 10 3f 25 f6 db 3d
       0.000399846 0.26152265 0.56369126 0.10740308
0000e0 2e 3a 25 be 00 1d f6 be 8e 06 c3 bd c3 83 59 bd
       -0.16135475 -0.48069 -0.095227346 -0.053104173
0000f0 09 3e a5 3c 66 ed 9e be 92 d1 b3 bc 94 aa 60 3e
       0.020171182 -0.31040496 -0.021950517 0.2194007
000100 32 2f 81 3d 8f 95 17 be f3 1a 24 be 01 2a 4a 3e
       0.0630783 -0.14803146 -0.16025905 0.19742586
000110 81 d1 cd 3d 12 79 46 3d 98 22 5c 3e 53 f8 04 be
       0.10049725 0.048455305 0.21497571 -0.12985353
000120 85 fc 8e bd bf d0 f2 3c 5b 6f 42 bd 1c 1d 70 3c
       -0.06981758 0.029640554 -0.047469478 0.014655378
000130 bf aa 3a be c9 9f 20 be 95 47 54 be 9a f7 b9 bc
       -0.18229197 -0.15685953 -0.20730431 -0.022701073
000140 49 86 c7 3c 76 8f ce bd 4b 35 39 ba c0 1c 19 3d
       0.024356024 -0.10085957 -0.0007065131 0.037380934
000150 5c 5b d4 3d cd f5 aa 3d 7a 78 3c bd 14 be 3a bd
       0.10368988 0.08347664 -0.046013333 -0.04559143
000160 53 fc dc bd 58 98 61 bc 4c 86 2d 3d 5f 55 31 3e
       -0.107903145 -0.013769232 0.042364404 0.17317723
000170 37 e9 aa 3d f2 0c 78 bb a4 40 51 3e 02 28 c2 bb
       0.083452635 -0.0037849513 0.20434815 -0.0059251795
000180 db e7 a1 be f6 bf 5b be 73 90 e2 be a8 fd 07 3d
       -0.31622204 -0.21459946 -0.4425083 0.03320089
000190 bd 30 ff 3c f8 d3 c5 bc 52 2e 51 3e 49 e0 a0 bd
       0.03115117 -0.024148926 0.20427826 -0.07855279
0001a0 ed bc 8f bd a3 0c 20 3e e5 2e ec 3d 65 73 11 bd
       -0.070184566 0.1562982 0.11532382 -0.03551044
0001b0 d0 88 d5 be b5 03 71 be 4d 3e 1b 3e bd 0e 9d bd
       -0.41705942 -0.2353657 0.15160485 -0.07668827
0001c0 06 a7 95 bd 42 55 87 be 95 11 82 be 66 ce 86 3c
       -0.07307248 -0.26432234 -0.2540404 0.01645584
0001d0 c6 a2 09 3d 25 fd 49 3e 12 e3 fb 3c ce 85 bf bc
       0.0336025 0.19725473 0.030747924 -0.023379233
0001e0 06 92 4c 3d 5a 16 72 be d0 dc 22 3e 05 e1 88 3d
       0.049943946 -0.23641339 0.15904546 0.06683544
0001f0 7d da ba be f4 ef be bc 89 40 cf 3e d6 dc b8 bd
       -0.36494818 -0.023307778 0.40478924 -0.09026496
000200 78 cd bb 3d 6a e2 9b 3c 26 38 01 3e ef ab 52 be
       0.091700494 0.019028861 0.12619075 -0.205734
000210 e5 ec be 3e b3 0c 18 bd 0e 6a 7c ba a1 d4 8b bd
       0.3729011 -0.037121486 -0.00096288405 -0.06827665
000220 1d 2e 89 be 75 0f 7f be 97 6b e7 bd ac 38 79 3e
       -0.26792994 -0.2490824 -0.11299818 0.24338025
000230 d7 d8 aa bb 04 56 af 3b e6 d8 7b bd 05 87 fb bd
       -0.0052138376 0.00535083 -0.061486147 -0.12281612
000240 73 df 2f bd 78 01 38 3e 2b 3b 8b 3d 51 15 d6 be
       -0.042937707 0.1796931 0.06798395 -0.41813138
000250 5b cf c6 bd 0d 48 bd 3d 03 8e 44 3c 13 f6 76 3e
       -0.09707519 0.09242258 0.011996749 0.24117307
000260 55 83 6e 3e 99 40 69 be e4 f0 9d 3b 08 bb 11 3f
       0.23292287 -0.22778548 0.004819976 0.5692601
000270 77 b0 a8 bc 5d 96 f3 3e e5 ac 4d be c2 4c ba bd
       -0.020591957 0.47575656 -0.20085485 -0.09096672
000280 9f d6 1f be 3a 8a f2 3c 5d 96 29 3e d9 bd 45 be
       -0.15609215 0.029606927 0.16561265 -0.19310702
000290 8d 3f 2e 3e da 88 8f bc a3 6b 2e 3e fe fa 13 3e
       0.1701643 -0.01752131 0.17033248 0.14451215
0002a0 ec 35 4e bd 2f f9 c4 3d 9e 46 09 3c 14 2d 47 3e
       -0.050344393 0.096178405 0.008378653 0.1945079
0002b0 82 cb f8 bd 44 f6 08 be dc 20 bb bd 5c 33 35 be
       -0.12148191 -0.13375193 -0.09137127 -0.17695373
0002c0 99 f6 7b 3e ed 2c 33 be 12 8d 52 3e 4b a1 41 be
       0.24605788 -0.17497607 0.20561627 -0.18909185
0002d0 bb 21 67 bd 55 4e 6b bd 54 0b f8 3d bb 27 11 3e
       -0.056428652 -0.05744775 0.12111536 0.14175312
0002e0 e9 0f f1 bd ac d1 1d be b8 a3 90 bd f7 e0 19 3e
       -0.11770613 -0.15412015 -0.07062477 0.15027224
0002f0 4d a7 a8 3c f1 36 6d be 0d 47 26 3e c5 ce 33 3d
       0.020587588 -0.2316549 0.16238041 0.043898363
000300 21 32 38 3e 28 58 5d 3e cf bf 51 be fd f1 c3 3e
       0.17987873 0.2161566 -0.20483325 0.3827056
000310 5f c4 93 3d cf 83 8b 3c c8 e9 2f 3d d4 03 3e bd
       0.07215189 0.017030625 0.04294756 -0.04639037
000320 be 87 98 3d 93 30 9a bd 07 17 8a bd 14 cd e0 bd
       0.07447766 -0.07528796 -0.06742673 -0.109766155
000330 3c 71 7b 3d 66 4b ad be 0a a7 20 3d 96 76 4f 3e
       0.061387286 -0.33846587 0.0392218 0.2026008
000340 00 7d 05 3e 23 55 d1 bd 64 cf cf 3b 09 48 43 be
       0.13035965 -0.10221317 0.0063418616 -0.19070448
000350 28 85 8f 3d e2 87 82 bd bf f8 2a bd 63 63 09 be
       0.070078194 -0.06373574 -0.04174113 -0.1341682
000360 e3 28 ca 3d 20 82 c5 3e 79 4c 66 3e 6d d8 85 3d
       0.0987108 0.3857584 0.2249011 0.065354206
000370 5e dd 03 be 1f 49 0f 3e 31 6d 2a 3e 15 1a 25 3d
       -0.12877414 0.13992737 0.16643216 0.040308077
000380 b0 11 fc bd ab f7 1b be 4c 4d 56 3e fa e4 93 bc
       -0.12308061 -0.15231197 0.20927924 -0.01805352
000390 8b c6 f3 bc ac 68 1d be 9a 10 b7 3e a3 2f cd bc
       -0.029757759 -0.1537196 0.35754853 -0.025047129
0003a0 a3 00 26 3e 8b 41 10 be 77 2e 9a 3e d7 40 9f 3e
       0.1621118 -0.14087503 0.30113575 0.31104156
0003b0 03 bb 26 be 2e 82 a3 bd 96 97 62 be 04 bc 8d 3e
       -0.16282277 -0.07983814 -0.22128138 0.27682507
0003c0 a2 40 11 be 10 49 1c be 11 39 42 3d bb 5e 77 bd
       -0.14184812 -0.15262246 0.047417704 -0.060393076
0003d0 1c 61 91 bd ec 74 62 3e 36 11 83 be c5 b3 86 3d
       -0.070986 0.22114915 -0.25599068 0.06577257
0003e0 7e 1a 1d 3e 6c 6b 12 3e d8 a6 cc 3d d8 4c b0 bc
       0.15342137 0.1429879 0.099927604 -0.021521017
0003f0 a5 83 d3 bd fe 74 76 3e 0b 84 38 3d c9 cb da be
       -0.103278436 0.24068066 0.0450478 -0.427336

sequential/net/while/gru_cell/MatMul_4 f4 [20, 20]
000000 89 99 66 3d 51 dd cb 3d 4a ee 57 3c 43 c9 3c 3e
       0.056298766 0.09954322 0.013179371 0.1843615
000010 4a b1 3c 3d b3 06 4f 3e 8c bf 3c 3e 7e 49 9c 3d
       0.046067514 0.202174 0.18432444 0.07631205
000020 f6 09 89 be 2c c6 c9 be e2 12 d0 3e 18 e2 9d 3e
       -0.26765412 -0.39409006 0.40639406 0.30836558
000030 ba 96 1f be ad e2 c9 be ff 34 8d 3e 9b 36 b6 3c
       -0.15584841 -0.39430752 0.27579495 0.022242835
000040 63 d7 5d bc ac 1a 92 bd f0 d5 3d be db 12 4e be
       -0.013540122 -0.071339935 -0.18538642 -0.2012438
000050 13 76 bc be 53 0c d0 bc 2c 60 26 be c8 39 4d bd
       -0.36808833 -0.025396502 -0.16247624 -0.050103933
000060 2f 23 27 3f 08 03 96 be 07 fa 2d 3e 5f da 00 be
       0.6528806 -0.29299188 0.16989909 -0.12583302
000070 e9 f6 80 be 77 a4 cc bd 22 fb c8 3d 5e 78 83 3e
       -0.25188377 -0.09992307 0.09813525 0.2567777
000080 56 cf d9 3e 49 c0 25 be 20 a2 ea bd 81 62 cb 3e
       0.42540997 -0.16186632 -0.11456704 0.3972359
000090 6a 29 49 bd ac dd 84 be 34 95 13 3e 93 8b 2c be
       -0.04911176 -0.25950372 0.14412385 -0.16850118
0000a0 83 2c 0b bd 65 03 ef bd bb 72 96 be 7c 77 54 be
       -0.033977997 -0.11670569 -0.29384407 -0.20748705
0000b0 e8 3f d1 3e 1c 53 9d bd 60 e2 1a be 64 5f 70 bd
       0.4086907 -0.076818675 -0.15125418 -0.05868472
0000c0 87 11 d0 3d de df 80 3d 68 06 93 bc e1 ca fb bd
       0.10159593 0.06292699 -0.01794739 -0.122945555
0000d0 da 7f e9 3b aa 5c 5c bd 9a 04 4a 3e 7d 6e 2e bd
       0.007125837 -0.05379931 0.19728318 -0.04258584
0000e0 a1 f9 64 3e 73 ff 38 be 80 12 1a be 90 b1 1f 3e
       0.22360851 -0.18066196 -0.1504612 0.15595078
0000f0 f0 60 83 3e 72 ca 88 3e 45 1a 3b 3d 65 f9 81 bc
       0.25659895 0.26716954 0.04567935 -0.01586599
000100 a5 3a 06 3e 26 40 c9 bd f4 44 21 be 11 ec 0e be
       0.13108309 -0.098266885 -0.1574896 -0.1395724
000110 7f 5d 0c 3e 23 ca 19 bc 75 93 a0 3d be b4 5a 3d
       0.13707541 -0.009386572 0.07840625 0.053395025
000120 82 0b ee 3d 89 22 16 bd 28 12 3c 3d b2 47 80 3d
       0.11623289 -0.03665403 0.045915753 0.06263675
000130 9b 49 ac be 6a 61 8f 3d 19 5a af be 1a 54 52 be
       -0.33649907 0.07001002 -0.34248427 -0.20539895
000140 f6 e9 79 bc 56 4b ad bd 7e 4f c7 bd 55 28 32 be
       -0.015253535 -0.08461635 -0.09731959 -0.17398198
000150 ed 9a a1 bd e3 c1 fd be b5 e0 10 be 92 21 35 3d
       -0.07890878 -0.49561986 -0.14148219 0.04422147
000160 c8 3f 91 bd 7d 76 c6 3d f2 ad 92 3e 79 47 32 be
       -0.070922434 0.096905686 0.28648335 -0.17410077
000170 75 30 a4 3d d4 05 a1 bc 83 3c 90 3e d9 7e a5 bd
       0.08017055 -0.0196561 0.28171167 -0.08080835
000180 65 42 54 3e 60 c8 2d be 58 a6 93 be 67 27 80 bb
       0.20728453 -0.16970968 -0.28837848 -0.003910947
000190 e4 14 de 3d b8 e1 55 be 5d 9c bc be 6d f8 9c 3e
       0.10843828 -0.20886886 -0.36838046 0.30658284
0001a0 00 32 97 bd 63 e7 a5 3e 45 79 4c 3d 13 44 8e be
       -0.073825836 0.32403097 0.04992034 -0.27786312
0001b0 8a 72 95 3d 79 37 b7 3e f6 8f 01 3e f8 28 3b be
       0.07297237 0.3578451 0.12652573 -0.18277347
0001c0 94 15 91 be f2 72 be 3d 22 a8 3d be b5 50 f3 3c
       -0.28336775 0.09299268 -0.18521169 0.02970157
0001d0 cb 11 a3 3d 80 a9 83 3e 75 0c 32 bd 2b 26 48 be
       0.07962378 0.25715256 -0.04346891 -0.1954581
0001e0 cb 4c 0a 3e 45 3f f0 bd c4 90 2b 3d d1 fe 99 be
       0.13505857 -0.11730818 0.041886106 -0.30077222
0001f0 e1 aa c7 3e 88 90 f9 be 74 4c 84 3e 8f 96 c7 be
       0.38997558 -0.4874308 0.2583958 -0.38982055
000200 99 3a 81 be 8c e5 63 bd d3 4d 8a 3e 6c f6 96 be
       -0.2524002 -0.055638835 0.270125 -0.2948488
000210 f0 37 ea 3d 21 7c 4a 3d 10 b4 32 3d 00 20 d7 3d
       0.114364505 0.049434785 0.043628752 0.105041504
000220 08 da cc bd ec e7 c7 be d1 e2 04 bf 26 e7 a7 be
       -0.10002524 -0.3904413 -0.51908594 -0.3279354
000230 95 80 c1 be 2e 0f 85 be e7 ca 7e be d8 ad a5 be
       -0.37793413 -0.25988144 -0.24882089 -0.32359195
000240 62 f7 e1 3d a1 ca b7 be 0d fd d7 3d 83 50 23 3e
       0.11033513 -0.3589678 0.105463125 0.15948682
000250 3a a1 77 3d 58 3e 6c bd dc 09 36 3e 67 a0 01 bc
       0.060456492 -0.057676643 0.17777199 -0.007911778
000260 5e bf 6f 3d 62 1d 36 3d 5f 6b d1 3d 11 47 92 3e
       0.05853211 0.044461615 0.102255575 0.28569844
000270 bc 39 77 be a8 b0 a8 bc 4b 6d d4 bd eb 80 63 3e
       -0.24143118 -0.020592049 -0.103724085 0.22217147
000280 29 fd e0 3e 23 f9 d3 bb a0 50 2a be 10 ef c7 3e
       0.43943146 -0.0064689084 -0.16632318 0.39049578
000290 2a d6 7a be 5c b7 df 3e 01 48 c1 bc aa d1 22 3d
       -0.2449576 0.4369458 -0.023593904 0.039750732
0002a0 35 0c ca 3d 74 09 2b 3d 3e 46 a3 3c 36 60 3d bd
       0.098656096 0.041757062 0.019930955 -0.046234332
0002b0 c2 37 36 bc f9 59 0a be 81 2a 6f be fe 6d de be
       -0.011121692 -0.13510884 -0.23356058 -0.43443292
0002c0 b1 20 79 be ed ae 3c 3e 02 99 01 be 7b fc b9 bd
       -0.24328877 0.18426104 -0.12656024 -0.0908136
0002d0 54 59 c0 bd a0 3b 5e bd c7 5d 4f 3e 93 71 84 3d
       -0.09392038 -0.05425608 0.20250617 0.06466975
0002e0 19 ed 46 bb da 4d f6 3e b1 8c 16 3e 67 30 82 be
       -0.0030353724 0.4810627 0.14702107 -0.25427553
0002f0 ea 5f f1 bd 40 c3 b7 3e 4b 1c cd 3d 3c c2 96 3e
       -0.11785872 0.3589115 0.10015162 0.29445064
000300 76 c9 ba bd 9e ea 0e 3e 97 75 8e 3e 88 88 6d be
       -0.09120457 0.13956687 0.2782409 -0.23196614
000310 92 85 8c be b8 ae 95 3d 04 d3 b1 bc 6f 9f ef 3e
       -0.27445656 0.073087156 -0.021707065 0.46801326
000320 00 4f 4d 3b 7b 8a be 3b f6 a1 a9 be 20 6a e7 3d
       0.0031327605 0.005814848 -0.3313138 0.112995386
000330 49 53 d1 be 56 b2 9e be 18 32 e9 3e bb 24 12 3f
       -0.40883854 -0.30995435 0.4554603 0.57087296
000340 31 00 34 bd 67 da c8 3e 31 ac ab bd 12 a9 49 bd
       -0.043945495 0.39229128 -0.08382452 -0.049233504
000350 ab 54 66 be b2 87 27 3c 05 05 ce 3d 39 72 47 bf
       -0.22493236 0.010225223 0.10059551 -0.77908665
000360 d7 a2 9c be e6 4a 2a bc 64 d9 09 3e 1f c9 c1 be
       -0.30592987 -0.010393834 0.13461834 -0.37848756
000370 7f 5e a4 3d d7 a2 1d bc 93 87 90 bd 5e ee 0b 3e
       0.08025836 -0.009621344 -0.07057109 0.13665149
000380 51 59 8c 3c 2b d8 7e bd 32 d9 18 3e bb 09 76 be
       0.017132433 -0.062217873 0.14926603 -0.2402715
000390 5a 41 8f bd d1 d6 71 3e 03 ee 83 bc e1 80 e7 be
       -0.06994887 0.23617102 -0.016104704 -0.45215514
0003a0 7c 56 e1 3e b4 94 a5 bb 90 cd 1b 3e 1e 93 8a 3e
       0.44011295 -0.005053127 0.15215135 0.27065367
0003b0 15 07 1a 3e dc 71 95 be 8a db d8 3e fa 9f 10 be
       0.15041764 -0.2918843 0.42354995 -0.14123526
0003c0 88 f4 03 3d 18 49 51 be 9f cf fd bd 07 5d 14 3e
       0.032215625 -0.2043804 -0.12393116 0.14488612
0003d0 79 0a b9 3d 28 95 f4 be 87 75 aa be d9 f9 0a be
       0.090352006 -0.47770047 -0.3329279 -0.13571872
0003e0 56 3e 6a be 4b c9 4a 3e 23 6a 86 3e 43 d1 a4 be
       -0.22875342 0.1980335 0.2625285 -0.32190904
0003f0 72 73 09 be 38 8c 52 be dd 70 94 be 4b c5 ab 3e
       -0.13422945 -0.20561302 -0.28992358 0.3354896

sequential/net/while/gru_cell/MatMul_5 f4 [20, 20]
000000 5d 9c ab 3e 0a 01 aa bb c6 af 83 3d 17 f7 d3 3d
       0.33517733 -0.005188112 0.064300105 0.10349863
000010 5c 15 4d bc 88 80 bf 3d 8d d5 c1 3c 76 6f f4 3d
       -0.0125172995 0.09350687 0.0236614 0.11935322
000020 49 45 c8 3e 44 19 35 bd 64 55 78 3e 63 2b f3 3d
       0.3911536 -0.04421355 0.24251324 0.1187351
000030 af 21 ea bd f9 72 12 bc c4 74 3b be ce 6c f3 3d
       -0.11432206 -0.008938544 -0.18306261 0.11885987
000040 5b 32 df bb 28 51 03 3e a1 de c6 bd 80 7f fc 3d
       -0.0068114228 0.12823927 -0.09710432 0.12329006
000050 98 4d ca 3d fb a9 25 3e 03 b8 1d 3f 5f 7b 19 bf
       0.09878081 0.16178124 0.61608905 -0.59953874
000060 97 55 03 3e bb e8 50 3e 9d a6 ce 3e 60 ff af bd
       0.12825619 0.2040128 0.4036149 -0.08593631
000070 6b 9f 92 bd 5d 2e 90 3e 8a 64 3f 3e 45 03 ff 3d
       -0.07159313 0.28160372 0.18690696 0.124517955
000080 82 ef 3c 3e 04 90 5a 3e 8b c7 b3 3e 93 b4 61 3e
       0.1845074 0.21344 0.35113177 0.2204154
000090 d8 51 a0 3e 21 15 1f 3e 96 55 f5 3d 83 31 be 3c
       0.31312442 0.15535404 0.11979215 0.023216968
0000a0 1a 87 b6 3d 61 cc 11 3e 4e 8f db 3e 4d 50 a1 3e
       0.08912487 0.1423812 0.4288277 0.31506577
0000b0 32 14 54 3e 5b a5 92 be 9d 5a f0 3e 95 ad 10 bc
       0.20710829 -0.2864178 0.46944132 -0.008830448
0000c0 9c 4f 56 3e ce 91 04 3e be 1b 9c be 26 86 86 be
       0.20928806 0.12946245 -0.30489916 -0.26274222
0000d0 c9 ff c8 be a4 94 9b 3d b6 13 9a bd 95 34 c9 bd
       -0.3925765 0.0759671 -0.07523291 -0.09824482
0000e0 0b c3 a9 3e 00 b3 cb be f2 d3 2a 3f 55 d1 d3 bd
       0.33156618 -0.39785004 0.6672965 -0.10342661
0000f0 35 2b db be 15 6e 28 3d 02 df 02 be 20 f3 89 bc
       -0.42806402 0.041120607 -0.12780383 -0.016839564
000100 3a a5 7a bd a7 ba 17 3e f7 0c 5d 3e dd 1d 2f bc
       -0.06119273 0.14817296 0.21586977 -0.010688272
000110 3a 06 df be c2 86 e2 3d ab 0c b5 bc cf 8f 32 3e
       -0.43559438 0.11060859 -0.022100767 0.17437671
000120 7c d1 ae 3e 8e d8 a1 bd 48 d6 98 be a1 9a 95 3e
       0.341442 -0.07902633 -0.29850984 0.29219535
000130 a5 17 5e be ba 46 c1 be 34 01 51 3f d0 f1 17 3e
       -0.21688707 -0.37749273 0.8164246 0.14838338
000140 e6 f5 c9 bd 6f d9 96 3e 0d 13 63 be 61 21 bd bc
       -0.098613545 0.29462764 -0.22175236 -0.023087205
000150 ea 93 20 3f 5c a2 56 3a af c8 a2 3d d0 30 44 3e
       0.627257 0.00081876456 0.079484336 0.19159245
000160 8a 1b 4d 3e 82 70 fd 3d b5 82 d4 3e 52 8f 7a 3d
       0.20030037 0.12374975 0.41505972 0.061171837
000170 7c 69 12 3d da 4d a6 3e 70 3e 84 be 4c 78 8b be
       0.03574513 0.3248127 -0.25828886 -0.27240217
000180 07 a7 25 3d 0c b0 8b 3e ba 11 59 bf 9e 9e 16 be
       0.040442493 0.2728275 -0.84792674 -0.14708945
000190 6c 66 02 be 48 d1 95 bd da 1b 5b be 09 34 86 3e
       -0.12734383 -0.07315308 -0.21397343 0.26211575
0001a0 f9 c0 56 3c ec a5 ed 3d 2f e3 85 3d a0 29 29 3a
       0.013107532 0.11603913 0.065374725 0.0006453041
0001b0 24 48 05 3e db 8f d1 3d 06 72 78 be bb ab 21 be
       0.130158 0.102325164 -0.24262246 -0.15788166
0001c0 b8 fd 0a 3e d7 1a 26 3e dd 54 a8 bc 47 20 a0 3e
       0.13573349 0.16221176 -0.020548278 0.31274626
0001d0 a8 a3 f4 be 17 d5 1e bd 52 40 c6 3e 6e 9a 43 3e
       -0.4778111 -0.038777437 0.38720948 0.19101879
0001e0 f8 ec bb bd 31 c9 a0 be cc 91 8d 3e 5b de ad 3e
       -0.091760576 -0.31403497 0.27650297 0.33958706
0001f0 33 5c 75 3e c1 14 7f 3d ca 82 27 3f 3b 55 21 3e
       0.23960952 0.06227565 0.65433943 0.15755169
000200 90 db f3 bd 51 44 3f bb d3 e3 b2 3d da af 00 3d
       -0.119071126 -0.0029185007 0.0873486 0.031417705
000210 88 5e 3c be 8e f2 93 3e ea 1d d2 be 7c 20 83 3e
       -0.18395436 0.28895992 -0.41038448 0.2561072
000220 38 63 2b bf 94 dc 89 be e8 dc d6 3e 26 5a 69 be
       -0.6694827 -0.269261 0.41965413 -0.22788295
000230 a5 be 01 3e 6d b5 a9 3e b2 99 ca be cb d5 f4 3e
       0.12670381 0.3314623 -0.39570385 0.4781936
000240 bf 9c b4 3e 00 c0 16 3e 26 2f 24 be 57 ea c3 3e
       0.35275838 0.1472168 -0.1603361 0.38264725
000250 1c 36 95 3d 09 d9 73 bc 6f 4e 9b 3d 2d 30 be 3e
       0.07285711 -0.014883288 0.075833194 0.3714613
000260 32 89 b0 bd b3 17 34 3e 08 54 09 3e 94 87 a4 3e
       -0.08619918 0.17587166 0.13410962 0.32134688
000270 41 be 23 3e 41 b9 39 be 0f 55 75 be 62 cf 31 be
       0.15990545 -0.18137075 -0.23958229 -0.17364267
000280 84 82 ae 3d 97 5c 41 be bd 1a 6d bc a7 90 55 3e
       0.08520988 -0.18882976 -0.014471707 0.20855962
000290 43 81 03 bf d9 eb bd be 3c bc d8 bc 20 3a f8 3d
       -0.5136911 -0.37094 -0.026456945 0.121204615
0002a0 c7 5a 7a 3e aa 84 66 bd 64 1a 90 3b 9a 8c 0f bd
       0.24448691 -0.056278862 0.0043976773 -0.035046197
0002b0 cb cd 5f bd eb 04 e5 3d 50 7b 8d bc d3 ed 3c be
       -0.05463962 0.11182579 -0.017270714 -0.18450098
0002c0 04 77 77 be 67 d3 cb 3e 16 f7 86 be ea 14 a6 3d
       -0.24166495 0.39809725 -0.26360387 0.08109458
0002d0 45 27 af 3e d2 70 a8 3e fd ba 9d bd 21 dd c0 3d
       0.34209648 0.32898575 -0.07701681 0.09417177
0002e0 e0 41 4b 3e 37 1a 3a be a5 d2 ac 3e 04 87 c1 3d
       0.19849348 -0.18174063 0.3375446 0.0944958
0002f0 a9 d7 2d be cb 8b c9 3e fb da c9 3d f7 11 c5 bd
       -0.16976799 0.39364466 0.0985622 -0.09622567
000300 bb 67 38 be 3f 5e d9 3e 80 e7 93 3d 89 3c 2e bf
       -0.1800832 0.42454717 0.072218895 -0.6806112
000310 55 58 d6 bc 7b c2 48 be f2 ad ee be a0 3e 5d 3e
       -0.026165167 -0.19605438 -0.46617085 0.21605921
000320 04 4a 74 3e 89 1a 4c 3e 5b 84 2f be e9 37 8a bd
       0.2385636 0.19931997 -0.17140333 -0.06748945
000330 4a 1e b6 3e ed dd 09 be 72 ed 45 3e 7f a6 4f be
       0.35569984 -0.13463564 0.1932886 -0.20278357
000340 6e 66 44 be 83 0b 9e 3e 97 81 84 be c9 83 07 3e
       -0.19179699 0.30868158 -0.2588012 0.13233866
000350 e4 89 fe be 5e 10 59 bd bc f8 74 3e 00 3a 20 be
       -0.49714577 -0.052994125 0.2392301 -0.15647125
000360 40 11 2e 3e c4 a5 e5 3d 52 3a 10 be af c2 17 be
       0.16998768 0.11213258 -0.14084747 -0.1482036
000370 45 08 42 3e 29 72 23 3e d9 9f 5f be e1 f2 7e be
       0.18948467 0.15961517 -0.21838321 -0.24897338
000380 7f ff 46 be 95 50 01 3f 33 5c c5 3d 4e aa c3 be
       -0.19433402 0.50513583 0.09636726 -0.3821587
000390 86 02 60 3e f6 c3 78 3c 84 79 df be 2c f6 72 3e
       0.21875963 0.0151834395 -0.43647397 0.2372672
0003a0 a2 46 0e bf 6d 4c 20 bd ae cc 21 3e 46 6e e1 3d
       -0.5557653 -0.039135385 0.15800735 0.11007361
0003b0 86 91 8e be fe 28 a8 be 72 f1 80 3e 11 33 d2 3e
       -0.278454 -0.32843775 0.25184208 0.41054586
0003c0 cd 6b 99 be c3 d5 f0 be 0b 58 16 3e 65 26 ce 3d
       -0.29965058 -0.47038087 0.14682023 0.10065917
0003d0 97 dc 92 3e 63 7e f2 bc 73 9b 28 3e fe a9 d1 3d
       0.28683922 -0.029601282 0.16465549 0.102375016
0003e0 e8 b4 c0 3e 70 fa a1 3e ba 00 7f bc 76 aa 0a be
       0.3763802 0.3163638 -0.015564138 -0.13541588
0003f0 68 5a cc 3e 0a 9d 57 be 89 f9 9c be ab 02 41 be
       0.39912724 -0.21056 -0.3065913 -0.18848674

sequential/net/while/gru_cell/MatMul f4 [20, 13]
000000 4e ff 48 bd 30 e8 a2 bc aa 67 79 3c a2 32 2b 3e
       -0.049071603 -0.019886106 0.015222469 0.16718534
000010 97 13 7d bc c7 86 9e 3d 6e c5 b3 3d 9f 76 92 3e
       -0.015446565 0.077405505 0.08777891 0.28606126
000020 80 e6 23 bc 34 82 54 3e 9f 85 2d 3e b7 aa ab 3e
       -0.010003686 0.20752794 0.16945504 0.33528683
000030 f6 a4 82 3e 3d 13 9b 3d aa bf 32 3d a1 49 ca 3b
       0.2551648 0.07572029 0.043639816 0.006173328
000040 d9 a9 51 bc fc 94 7e 3c 6f da 92 bd 0f b5 11 be
       -0.0127968425 0.01553845 -0.07170569 -0.14229225
000050 4d b5 39 3d dc 9e 80 3d 6d 15 d9 bc 35 d1 d8 bd
       0.045338918 0.062803 -0.026499474 -0.10586778
000060 0b 29 aa bd 7e b2 c7 bd aa 91 76 bd 7d 51 aa 3d
       -0.083086096 -0.097508416 -0.06019751 0.08316324
000070 c4 d8 42 be 93 ab e8 3d 0b 18 56 be 26 9b 0a 3e
       -0.19028002 0.1136085 -0.20907609 0.13535747
000080 b6 66 ac ba 8d 1d d2 bd 30 5c 69 be 23 10 3b bd
       -0.0013153169 -0.102595426 -0.22789073 -0.045669686
000090 11 92 a5 3d 04 22 69 3d 88 ae 62 3e ea 8a 6f 3d
       0.080845006 0.056917205 0.22136891 0.05848209
0000a0 d4 51 c4 3d 51 ad da bd 10 42 3a bd d9 b8 cb bc
       0.0958592 -0.10677589 -0.04547316 -0.024868416
0000b0 03 87 61 bb 84 df 01 be d7 e8 4f bd fb 33 92 bd
       -0.0034412749 -0.1268292 -0.050759163 -0.07138821
0000c0 a8 3f a1 bc 08 27 66 bd 92 81 80 3c 96 5c 3f be
       -0.019683674 -0.056189567 0.015686784 -0.18687662
0000d0 b9 ac 2d bd e0 09 f8 bc 22 69 b5 3d 20 30 33 be
       -0.04240105 -0.030278146 0.08857943 -0.17498827
0000e0 8c 96 4d 3c a4 1f 1f bd 82 4e 3e be 35 0c 0f be
       0.0125481 -0.038848534 -0.18584636 -0.139695
0000f0 e1 36 1a be 08 95 2d 3d 35 2e b2 3d d5 9d d5 bd
       -0.15059997 0.042378455 0.087002195 -0.10430495
000100 a8 52 80 3e 71 03 91 be 5e 81 1e bd d0 46 7e 3c
       0.25063062 -0.28322938 -0.038697593 0.015519813
000110 1c 72 52 bd d9 99 f4 3d 7f 1f 80 3e 46 84 34 be
       -0.051378354 0.119434066 0.2502403 -0.17628583
000120 8f 14 ae 3a 83 79 91 3d b4 10 2a 3e 6f b3 a9 bd
       0.0013281273 0.07103255 0.16607934 -0.08286177
000130 ed 39 04 3e 40 ee 8c bd 87 af 39 bd d6 2f 03 bd
       0.12912722 -0.0688138 -0.04533341 -0.03202804
000140 22 96 b9 3c 66 a9 43 3d 16 21 03 3c 64 fd 8c bd
       0.022654597 0.047768973 0.008003494 -0.06884268
000150 9e 3f 8e bd 00 c4 3d 36 6d 79 e5 3c 08 43 c5 bc
       -0.06945728 2.8277282e-06 0.028012002 -0.024079815
000160 f4 8e 9d 3d b0 e1 58 bd 40 51 15 bd d1 bc 3f bd
       0.07693282 -0.052949607 -0.03645444 -0.04681093
000170 91 3c b3 bd 87 ba e9 3d d0 f3 c1 3d 02 eb 3e bd
       -0.087517865 0.114125304 0.09470332 -0.04661084
000180 76 06 e1 bd cd 13 98 3d 40 d3 08 be 00 58 8b be
       -0.109875605 0.07425652 -0.13361835 -0.27215576
000190 47 16 8e 3d 62 c2 e0 3d 19 4e a1 3e 19 3d d1 bc
       0.06937843 0.109745756 0.31504896 -0.025541829
0001a0 00 11 92 3e b1 08 83 bc 0d 48 98 bb 18 40 96 3d
       0.28528595 -0.015995355 -0.004647261 0.07336444
0001b0 21 46 fe bd 74 d4 8a bc 5a 56 19 3e cd c1 28 be
       -0.1241572 -0.016947009 0.14974347 -0.16480179
0001c0 e2 5a 06 bd ff 0a 27 be 09 d6 14 be 8f ed 4c be
       -0.032801516 -0.16312788 -0.14534773 -0.20012496
0001d0 6b a2 cf 3d 90 f7 4c 3d 2c 09 90 3c b0 41 91 bc
       0.10138401 0.05004078 0.017582498 -0.017731518
0001e0 bb 08 02 bd e8 c0 d8 bb c1 1f 00 bd 5c 03 57 3d
       -0.031746607 -0.006614793 -0.031280283 0.052493438
0001f0 76 4b 07 be ad 16 a3 3c fe a2 4d 3d 32 52 dd bc
       -0.1321238 0.019908274 0.05020427 -0.027016733
000200 a5 51 a9 bd 5a e5 a1 be 8b 26 2c 3d 3b f8 0b 3d
       -0.082675256 -0.31620294 0.042028945 0.034172278
000210 6b bc d8 3c 84 e4 e9 bd 53 9c cb bd 4b bc fe 3d
       0.026457032 -0.11420539 -0.09941926 0.12438258
000220 88 c6 d2 bd 70 bd b4 3e 8b 8f 94 be e2 8a 80 3e
       -0.10291773 0.3530078 -0.29015765 0.2510596
000230 94 44 12 3e ca ea 1b 3f 21 16 73 3e bb 93 89 be
       0.14283973 0.60905135 0.2373891 -0.26870522
000240 03 12 10 bd 5d 6d a4 3c 57 30 6f 3d dd 3d 1c bc
       -0.035173427 0.02007168 0.05839571 -0.009536234
000250 d4 da 74 bd 0e 0f 0e bd b5 02 da 3d a5 7f 9f 3a
       -0.059779003 -0.034682326 0.106450476 0.0012168778
000260 39 27 d2 bd 88 ce f1 3d 6d a3 27 3d 25 1f f2 bd
       -0.102613874 0.11806971 0.04092734 -0.118223466
000270 fc cc c1 bd 2d 29 07 bd a6 40 89 bd ae da 88 3e
       -0.09462926 -0.032998253 -0.06701784 0.2672934
000280 f6 aa 89 bd e4 1f 8f 3d 13 86 a1 bc e7 4e 81 3e
       -0.06722061 0.069885045 -0.019717252 0.2525551
000290 8a 09 34 bd c2 48 4f bb a9 5f 71 bd 2a 63 25 3c
       -0.04395441 -0.003162906 -0.05892912 0.010094443
0002a0 f4 54 43 3c e6 3e e0 bd f1 af af bd ad cb 29 3d
       0.01192211 -0.10949497 -0.0857848 0.041454006
0002b0 be c4 72 ba f9 f5 31 bd a4 9c 31 be cc f2 46 bd
       -0.0009260884 -0.04344747 -0.1734491 -0.048571393
0002c0 e4 b0 d3 bd ff 41 03 be db 59 45 3d af d1 a1 3d
       -0.103364736 -0.12818144 0.048181396 0.07901322
0002d0 3d 5a 89 3d 54 17 a0 be 3d 10 14 be ab 09 6e bd
       0.06706665 -0.31267798 -0.1445932 -0.05811469
0002e0 f8 fa 9d 3b 53 84 63 bd 50 78 91 3e 42 ea 42 3e
       0.0048211776 -0.055546116 0.28412104 0.19034675
0002f0 0b 9d 8e 3c dd 41 9b 3c 49 c0 64 be fd 6b 51 bc
       0.017408868 0.018952304 -0.22338976 -0.012782094
000300 fa 66 b0 3d b8 52 c2 3d 77 b1 a8 3d 7c 3c 17 3e
       0.08613391 0.094884336 0.08236974 0.14769167
000310 ed 62 f6 3b 6f 46 d7 bd ea 1e 6d bd 5b c5 96 3d
       0.007519117 -0.10511481 -0.05789081 0.07361861
000320 f5 d8 82 3d 45 6a 8b 3e 19 4c 5d 3a 70 bd 91 bc
       0.063890375 0.27229515 0.00084418204 -0.017790526
000330 e2 81 29 be ae 89 09 3d 4e c6 ab 3c e2 68 cc be
       -0.16553453 0.033578567 0.020968582 -0.3992377
000340 50 55 fc 3b 45 0e 37 bd ea ed 08 3d 35 23 ca 3c
       0.0077005997 -0.044691343 0.033430018 0.024674991
000350 6e 2b 93 3d 93 79 c7 bd 03 60 09 be c5 6b 8f bb
       0.07186018 -0.09739985 -0.13415532 -0.004376861
000360 34 f3 ad 3b 15 57 8d 3e da 07 ba 3e de 94 76 bd
       0.005308533 0.276055 0.36334115 -0.060200565
000370 74 70 35 3e 0f 7f 84 3d ed 84 59 3c 62 27 47 3d
       0.17718679 0.06469547 0.013276321 0.048621543
000380 4c e0 52 bd 5c 04 47 bd 89 2d 97 3d 8f 13 45 be
       -0.051483437 -0.04858814 0.07381732 -0.19245742
000390 76 04 a1 be 60 cb 23 3c ba 5a 4a 3e 91 10 67 bd
       -0.31448716 0.009997219 0.19761172 -0.056412283
0003a0 01 69 9f bd 11 0d 75 bc a5 3d 25 3d 84 32 50 3d
       -0.077837 -0.014956729 0.040341992 0.050829425
0003b0 2a 10 49 3d aa 90 9c bc 92 84 e6 3a de fb 20 3e
       0.04908768 -0.01911195 0.0017587116 0.1572108
0003c0 39 28 52 bb 41 d3 62 3d 69 21 e9 bd 39 ed 09 be
       -0.0032067432 0.05537725 -0.113833256 -0.134694
0003d0 5b 05 08 bd d3 d3 aa 3d d8 30 d0 be 2a 6a df 3c
       -0.033208232 0.083411835 -0.40662265 0.027272303
0003e0 85 85 39 3d f3 2f 63 3c 28 c1 e1 bd 95 82 1e be
       0.04529335 0.013866412 -0.1102317 -0.154795
0003f0 22 0b c0 3d a3 bc f1 bd 0d da 48 be 89 d8 77 3d
       0.093771234 -0.11803558 -0.1961443 0.06050924

sequential/net/while/gru_cell/MatMul_1 f4 [20, 13]
000000 a8 6c c4 bb 42 c1 95 3d 41 50 22 be 99 f7 20 be
       -0.005994398 0.073122516 -0.15850927 -0.15719451
000010 f8 7f 07 be 9e a0 df bd 19 c9 07 3c 90 d3 d7 be
       -0.1323241 -0.10919307 0.0082876915 -0.42153597
000020 98 e4 20 3d e0 5a 58 be 29 37 87 bd 06 80 dc 3b
       0.039280504 -0.21128416 -0.06602318 0.006729129
000030 a5 bd ff 3e b3 6c 27 3d ec 13 25 3c f7 a6 11 3e
       0.49949375 0.040875148 0.0100755505 0.14223848
000040 57 fd da 3d b4 58 1e bd a3 e8 17 be d5 5c 1d 3e
       0.10692852 -0.038658813 -0.14834838 0.15367444
000050 67 6f aa 3e d7 56 0c 3e 6f b9 11 bf 1a 47 b2 3d
       0.33288118 0.13705002 -0.56923574 0.08704968
000060 b9 06 46 3e d0 15 c9 bd 69 bb 4f 3d 8b 74 80 bc
       0.19338502 -0.098186135 0.050715838 -0.015680572
000070 6d 2f 3e be 6c 03 8f bd a6 1d 6c 3d 92 33 dd bd
       -0.18572779 -0.069830745 0.057645462 -0.10800852
000080 a8 2a a8 bd b8 bf 83 bb b3 df 5e be 70 42 4e be
       -0.08211261 -0.0040206574 -0.21765022 -0.20142531
000090 e9 da 41 3e 9f 4c 70 3d 3f 18 f8 3d f1 30 11 3d
       0.18931164 0.05866682 0.121139996 0.035447065
0000a0 54 20 3e 3d ca 00 63 bd 45 fd b0 bd 88 4f 07 be
       0.04641755 -0.055420674 -0.08642057 -0.13213933
0000b0 8c cf 67 bd 69 94 3a bd f2 d1 86 be 7e 67 c4 bc
       -0.056594416 -0.04555169 -0.2633205 -0.02397513
0000c0 38 a2 07 be 45 39 be 3c 16 ad e2 3d 9d d7 67 3c
       -0.13245475 0.023220668 0.1106817 0.014150527
0000d0 9d e8 85 ba a4 ad 8f bc 73 23 02 3e 60 72 be 3c
       -0.0010216419 -0.017538853 0.12708835 0.023247898
0000e0 2e 11 6d 3d 67 ee 6f 3e 2a be 7b 3e 26 94 b0 bc
       0.057877712 0.23430787 0.2458426 -0.021555018
0000f0 27 32 f0 bd a7 c1 51 be c5 1e a7 be 1a 6b 88 3e
       -0.11728316 -0.20484029 -0.32640663 0.26644212
000100 4c 0d 5a be 7f 18 3e 3d ff 96 2b be 62 92 2f 3e
       -0.21294135 0.04641008 -0.16756819 0.17145684
000110 f4 b2 1b 3d de 53 58 bc 24 1c 28 bd a2 c8 50 3e
       0.03801246 -0.013203589 -0.041042462 0.20389035
000120 cf 92 57 3e f7 f3 9e 3d be 4d 88 3e 8e 79 bc bd
       0.21052097 0.07761376 0.26621813 -0.09202872
000130 ed dd 64 be 09 e5 32 3e 77 3d 07 bd 04 51 ab 3c
       -0.22350283 0.17470182 -0.0330176 0.020912655
000140 00 6f a0 bd 04 e3 44 3d fd b0 9c 3d 96 9e 89 3e
       -0.078336716 0.04806806 0.07650945 0.26878804
000150 60 28 c5 3d 1c c3 35 3e 67 7a b6 3d f2 fe 2f 3d
       0.096268415 0.1775021 0.08910065 0.042967744
000160 d6 d5 ac 3c 98 b8 c8 be 03 9d 44 bf 0c 7e 0a bf
       0.021098059 -0.39203334 -0.7680208 -0.5409858
000170 1c 28 b1 3c dc 02 9f bd 61 40 1d 3d f0 7e 46 3e
       0.021625571 -0.07764217 0.038391475 0.1938436
000180 60 bc 6d bd 3c b7 b3 3c 59 3c 2f be 2e f9 a3 bd
       -0.058040977 0.021937959 -0.17112865 -0.08006512
000190 ea 36 9e bd 28 f6 6f bc 5c 3e d7 bd d1 25 1b bf
       -0.07725318 -0.014646091 -0.10509941 -0.6060458
0001a0 20 0e ee 39 f2 d3 b7 3d 59 4b 59 be 33 64 17 3e
       0.0004540542 0.08975972 -0.21220149 0.14784317
0001b0 a9 04 1b bd 78 f5 a5 3e b9 34 1d 3e 44 7f 4e 3e
       -0.03784624 0.3241384 0.15352143 0.20165735
0001c0 ff 4c 25 3e de f3 84 3e 28 b9 8f 3e 60 c1 b5 3e
       0.16142653 0.25967306 0.2807095 0.35499096
0001d0 09 cf 25 be 67 c9 5d bd 55 a9 65 3a 4b 49 0d bc
       -0.16192259 -0.05414715 0.0008760889 -0.008623431
0001e0 68 7b 22 be 59 50 97 3d ea fe 97 3d 4a c9 3f 3e
       -0.15867388 0.07388372 0.07421668 0.1872913
0001f0 38 4d 1a 3f c6 d1 07 be a5 6e 5e 3f 37 4d 99 3e
       0.60274076 -0.13263616 0.8688758 0.29941723
000200 1d 6a a9 be c7 d8 8a 3e 81 d9 40 3d b4 20 91 bd
       -0.3308877 0.27118513 0.047082428 -0.07086316
000210 7b 44 e6 be 95 b3 2b be e5 f6 ab bd a2 50 af 3d
       -0.4497412 -0.16767724 -0.08396701 0.08560301
000220 aa 86 1a 3d 46 07 d8 3e c4 30 62 3e 5a 40 79 be
       0.037726082 0.4219305 0.22088915 -0.24340954
000230 27 4a 03 3e fe 6e 7b 3e b2 56 f0 3e 23 ea 81 3d
       0.12821256 0.24554059 0.46941143 0.06343486
000240 18 d4 c5 bc d8 d0 1f bd ef 48 1d 3e 18 cd 8d be
       -0.024148986 -0.03901753 0.15359853 -0.27695537
000250 da ee cb be 23 d2 fc 3c 6b cd 13 3f 0d bb 0c be
       -0.39830667 0.03086192 0.5773532 -0.13743229
000260 62 db ca bd 1c 9d 64 be 87 a0 b3 3d f1 f5 00 3e
       -0.09905125 -0.22325557 0.087708525 0.12593819
000270 92 5b dc 3b 17 d3 3c bd 12 aa ef 3d 51 8e 69 be
       0.006724783 -0.04609975 0.1170236 -0.22808196
000280 bd b3 26 3e 42 65 44 bd 40 11 99 bd 27 9d 23 bd
       0.16279502 -0.04794813 -0.07473993 -0.039944794
000290 f7 79 08 3e 91 b7 3e 3d ad c1 fc be cd 47 e5 bd
       0.13327776 0.04656178 -0.49366513 -0.111953355
0002a0 60 9c 63 be 38 fe 4b bf 85 2b 29 bd 41 e9 ab 3c
       -0.22227621 -0.7968478 -0.04130127 0.020985248
0002b0 c6 cd fc 3d 8e 4a a5 3b 43 23 29 3d d5 19 06 bd
       0.12343936 0.005044288 0.041293394 -0.03273948
0002c0 ed 25 d2 3d 1d 2f 6e 3e 21 5f 36 3e ef d5 cc 3d
       0.1026114 0.2326016 0.17809726 0.10001742
0002d0 f3 1c d4 3e 2f 4e ce 3e e6 3c bc 3d 8d ce f1 3c
       0.41428337 0.40294024 0.09191303 0.029517436
0002e0 8a be 1b 3e f3 8e 1b be 11 9c ac be 5a 4a 69 be
       0.15209404 -0.1519125 -0.3371282 -0.22782269
0002f0 75 06 8a 3e d9 df 0c be 02 d6 d5 3e 81 3e a2 3e
       0.2695805 -0.13757266 0.41764838 0.31688312
000300 12 16 e8 bc 4c 96 21 bf 7e 86 d5 3e 73 a8 81 3d
       -0.028330836 -0.6311996 0.41704172 0.06330957
000310 f2 6d 69 3d 89 19 8c bd 96 16 2c bd c6 76 e0 3d
       0.056989618 -0.06840808 -0.042013727 0.10960154
000320 d6 04 87 3e 75 81 99 be 40 60 e5 be 70 7a e5 bd
       0.26370877 -0.2998158 -0.44799995 -0.11204994
000330 fe f9 0a be 4e c1 c9 3d d2 b3 c2 3e 13 81 33 be
       -0.13571927 0.09851323 0.38027817 -0.17529707
000340 58 de a5 3d 70 c3 c0 3b ca d9 db 3d 6c 58 0b bd
       0.08099049 0.005882673 0.10734899 -0.034019873
000350 c0 e2 b8 bd 75 3d 78 be 5c 23 1d 3e 19 3d 73 3e
       -0.09027624 -0.24242194 0.1534552 0.23753776
000360 84 0b 27 3d e2 58 c8 bd 96 1f 04 bd 67 9c 9d 3e
       0.040782467 -0.09782578 -0.032256685 0.30783388
000370 53 f2 89 be 4a 1b f6 bd b5 26 97 3c 9a b3 0f be
       -0.2694269 -0.12016924 0.018451074 -0.14033356
000380 17 8b 69 3e 86 45 45 3e b7 bf 27 bd e5 e3 53 be
       0.22806965 0.19264802 -0.040954318 -0.20692404
000390 55 4b 04 3f 5a 4f 29 bd 2a 54 94 be fa d7 f8 bc
       0.5167745 -0.04133544 -0.28970462 -0.030376423
0003a0 0c 57 ac 3e b6 f1 38 3e 3d 1f a4 3d bf a8 3a 3d
       0.33660161 0.18060955 0.08013771 0.045571085
0003b0 29 9a 04 3e d2 69 cb bd 21 2a 38 bd 87 71 51 bd
       0.12949432 -0.09932293 -0.044962052 -0.05113366
0003c0 f2 96 83 3e 92 38 e5 3e 02 18 34 3f f6 d5 1a 3f
       0.257011 0.44769722 0.70349133 0.6048273
0003d0 e5 fc a3 3d 25 ff 20 3e dd 23 52 3f b2 2e 65 bd
       0.0800722 0.1572233 0.82085973 -0.055952735
0003e0 18 aa df 3d a2 78 a6 3c b4 42 70 3d a5 25 95 3d
       0.10921115 0.020321194 0.058657363 0.07282571
0003f0 0b 6f 13 3e 31 69 2d be d4 bc f7 bd 84 85 a5 bc
       0.14397828 -0.16934659 -0.12096563 -0.020205267

sequential/net/while/gru_cell/MatMul_2 f4 [20, 13]
000000 86 80 83 3e bd 5a 65 bd d4 54 82 3d e4 f8 3e be
       0.25683993 -0.055994738 0.06363836 -0.18649632
000010 58 5c 64 be ec 94 5e be c0 f7 af bd 8e 43 db bd
       -0.22300851 -0.21736497 -0.085921764 -0.107062444
000020 71 a1 2f be ef c6 b1 3d e6 d5 93 bd 0c 94 a2 bd
       -0.17151429 0.08680522 -0.07218532 -0.07938394
000030 e1 52 06 be e4 26 d0 bc c2 b6 21 bc 5c 60 c8 3c
       -0.13117553 -0.02540917 -0.009870233 0.02446001
000040 74 b6 b3 3d fd 60 37 3e 38 94 28 bd fa 38 30 bc
       0.087750345 0.17908092 -0.041156977 -0.010755772
000050 2e 1d 68 3e 2d 8f 97 3e 79 0c 4f 3e 56 4d e6 3d
       0.22667381 0.29601422 0.20219602 0.112452194
000060 47 7d 8b 3e 82 ac 90 bd ae 1d 36 bd e4 ef 8d 3d
       0.27244017 -0.07064153 -0.0444619 0.06930521
000070 5b 87 c4 bc b5 b2 12 3e 33 30 bf bd e0 2d 2b 3e
       -0.023990324 0.14325984 -0.09335365 0.16716719
000080 13 79 3e bd b2 fd c8 3c 3a fa 06 be 3f 25 89 bd
       -0.046502184 0.024535034 -0.13181391 -0.06696557
000090 51 88 61 3e 23 d3 c9 bc 6a b2 d3 3b fa 41 a6 be
       0.22024657 -0.02463681 0.0064604776 -0.3247221
0000a0 2e 5a 31 bd 92 67 22 3e 4c 94 25 3d f1 f6 7b 3c
       -0.043298893 0.15859821 0.04042463 0.0153787
0000b0 cc ed 02 bd 26 8f 1c 3e 0b 24 d6 bc 10 f5 56 be
       -0.031965062 0.15288982 -0.026140234 -0.20991921
0000c0 c7 bb f6 bc ed 3f e0 3d 9c a8 ae 3e 3c 12 e4 3b
       -0.030118836 0.10949693 0.34113014 0.0069601815
0000d0 8d 8c 62 3e 23 6b 5d bd fe 18 ba 3d 99 43 56 be
       0.22123928 -0.05405725 0.09086798 -0.20924224
0000e0 72 7a 9f 3c fe 82 af 3e 4a 68 85 bc 7f fa 5e be
       0.019467566 0.34279627 -0.01628508 -0.21775244
0000f0 80 83 64 be bc b9 8c 3c 3d 12 99 3e b9 a9 e7 3d
       -0.22315788 0.017178409 0.29896727 0.11311669
000100 6b 90 b2 3e 09 74 d0 bd b6 3b ad 3d 82 e3 6e 3d
       0.34875807 -0.10178382 0.084586546 0.058322437
000110 a7 68 c0 3b be 59 4a be d3 34 99 be 2a 12 1c 3e
       0.0058718505 -0.19760796 -0.29923114 0.15241304
000120 6a 94 ba bd 64 37 93 bd a7 bc 09 3e 7a 6b 71 3e
       -0.09110339 -0.07188299 0.13450871 0.23576155
000130 14 de f0 bd 75 f1 06 3e d2 ca bb 3e bf 5b 54 bd
       -0.11761108 0.13178046 0.36678177 -0.05184531
000140 f9 c6 55 be 31 4b 36 be 2c ed e7 be f7 9f 20 be
       -0.20876683 -0.17802121 -0.45298135 -0.15686022
000150 d5 c0 80 3e 34 70 20 be ef 1b b2 bd d7 0b 35 3e
       0.2514712 -0.15667802 -0.08696734 0.17680298
000160 5e d4 ac be 12 84 b1 bd b7 da 91 bd 57 34 3b be
       -0.33755773 -0.086677685 -0.07121795 -0.18281685
000170 84 7b 35 bd 2f 72 b6 bd a4 be 9d bd 74 ca 41 3e
       -0.044307247 -0.089084975 -0.077023774 0.18924886
000180 be c6 f1 3d a6 99 50 be 8c 54 29 3d 15 62 f7 bd
       0.11805485 -0.20371112 0.041340396 -0.120792545
000190 64 2e 4b be f1 d6 54 bd cd 1a cc 3d 58 63 b8 3d
       -0.19841915 -0.051962797 0.09966049 0.09003323
0001a0 31 e0 c4 3e b8 24 1c 3e d5 df 9f bd 90 24 1c 3d
       0.38452294 0.15248382 -0.078063644 0.038120806
0001b0 91 13 2e be b1 07 96 bd 15 a0 49 3e bc d9 24 be
       -0.16999651 -0.07325686 0.19689973 -0.16098684
0001c0 89 58 04 3d 92 2b 14 be f1 88 6e 3d ed 10 f3 3d
       0.032310996 -0.14469746 0.058236066 0.11868463
0001d0 de 4c 4c 3d de c5 98 bd 14 35 3a 3d c6 15 75 be
       0.049877994 -0.07459615 0.045460775 -0.23934087
0001e0 51 fb 9a bd 1a 52 b0 3d d9 f4 3d 3e 0a 47 5a be
       -0.07567466 0.0860941 0.18550433 -0.21316162
0001f0 30 88 cb 3d 29 4e 2f 3e 9c 53 d8 bc 84 15 ec 3c
       0.09938085 0.1711966 -0.026407056 0.028818853
000200 a0 45 c8 bd cb f8 ee bc be b1 9d be 87 c8 63 3e
       -0.09778905 -0.029171368 -0.3079967 0.22244464
000210 3b bb c5 3d 84 5a b9 3e 58 8a 5a be 03 f7 c7 bc
       0.09654852 0.3620187 -0.21341836 -0.024409777
000220 c1 6d 65 3e 17 a6 0a be f5 01 c1 be e1 e2 1c 3d
       0.22405149 -0.13539921 -0.37696806 0.038302306
000230 8c 3a 0a 3e a2 70 17 be dc 13 c0 bd 00 df 37 be
       0.13498896 -0.1478906 -0.09378788 -0.17956161
000240 5c d7 0c be ff ed 19 bd 1c e4 9c 3e 3c 57 b4 3c
       -0.13754028 -0.037580486 0.30642784 0.022014253
000250 09 84 b1 3d fe 84 ab bd 4a f3 19 3e 36 0d a6 be
       0.08667762 -0.083749756 0.15034214 -0.32431954
000260 87 cd 84 be d1 b4 08 3e f4 3e c7 3e 86 4e 06 bd
       -0.25938055 0.13350226 0.38915217 -0.03278973
000270 b9 88 53 be 3e 35 55 be e3 12 17 3e fd eb 41 3d
       -0.20657624 -0.20821092 0.14753298 0.047344197
000280 7e ab 03 be fb 93 b8 be c6 db 36 3d 24 19 ef bc
       -0.12858388 -0.360504 0.044643186 -0.029186793
000290 c7 24 6f be 93 23 8e 3d 32 6f 81 3e 73 3e 5c 3e
       -0.23353873 0.06940379 0.25280148 0.21508197
0002a0 49 0e b3 bd 1f 3b 8f 3c 57 16 ae bc f3 e0 15 3e
       -0.08742959 0.017484246 -0.021250887 0.14636593
0002b0 19 f8 70 3e cc 6d d0 3c 30 59 6d be aa 81 9f 3e
       0.23532142 0.02544298 -0.23178554 0.31153613
0002c0 d6 aa 1d 3d e6 2f 39 3e 28 3c 22 3d 54 66 0f 3d
       0.038493 0.18084678 0.03960815 0.035009697
0002d0 db c0 a8 bd 4b 1f 45 3d 5a 01 dd be 7b e9 37 be
       -0.08239909 0.048125546 -0.43165094 -0.1796016
0002e0 d9 72 92 3d 40 48 74 be 2a 39 14 3e a6 59 48 bc
       0.07150812 -0.23855686 0.14474931 -0.012228405
0002f0 43 12 2f be e5 83 15 3e 68 a6 49 be 07 7a c5 3d
       -0.1709681 0.14601095 -0.19692385 0.096424155
000300 76 d6 9e 3d 5b 2f 4d 3e 24 b1 5f bc dc 67 ae be
       0.07755749 0.20037596 -0.013653073 -0.34063613
000310 e8 35 4d 3d e5 21 19 3e 04 95 2d 3d 27 df d1 3d
       0.050100237 0.14954336 0.04237844 0.10247641
000320 c4 65 2f be 2b 39 1e be 60 54 ec bd 67 95 7f bd
       -0.17128664 -0.15451495 -0.11539531 -0.06239834
000330 6c ae 10 be cc 3c 59 bd 88 82 69 be 50 bf bd be
       -0.14129037 -0.053036496 -0.228037 -0.37060022
000340 ba f0 76 3d 7d 90 ff bd da f2 fc 3d 48 41 53 3e
       0.06028817 -0.12478731 0.12351008 0.20630372
000350 19 bc 59 bc f4 b6 e3 bd e7 1f d5 3e 28 8e 08 3d
       -0.013289475 -0.1111888 0.41625902 0.033338696
000360 08 ff c4 3d 4d 90 6f 3e 04 3c 2a 3e 1e 45 18 3e
       0.09618956 0.2339489 0.16624457 0.14870116
000370 0e 00 b1 3e c8 f5 4b be d5 79 ad be 70 b6 65 3e
       0.34570354 -0.19917977 -0.33882013 0.22432876
000380 24 62 18 be e1 f3 87 3d 59 b3 8b 3e 69 75 a4 3d
       -0.14881188 0.06638313 0.2728527 0.08030207
000390 64 13 e2 bd 12 ba ab bd 37 36 a8 3e 14 35 c3 3e
       -0.11038855 -0.083850995 0.32853863 0.38126433
0003a0 bf ab b4 3e 3c 3f a0 3e f8 1f 2f 3e 01 30 ac bc
       0.35287282 0.31298244 0.17102039 -0.021018984
0003b0 aa 67 14 3e d5 95 9c 3d 33 d4 c1 3d e8 07 22 3e
       0.1449267 0.07645766 0.09464302 0.15823328
0003c0 4c 4b 34 bd f7 8e 8b 3e bd 3a 87 be 08 8f 31 be
       -0.04401712 0.2725751 -0.26412 -0.17339718
0003d0 f3 9e 9b 3d 98 84 21 be 5a b8 97 bd 0b 52 56 be
       0.075986765 -0.15773237 -0.07408209 -0.20929734
0003e0 e8 8f 21 be f3 4c 3d 3e 84 ec 17 bd b0 a1 19 be
       -0.15777552 0.18486385 -0.037090793 -0.15003085
0003f0 00 b8 4b 3e e7 ed b2 3e d9 01 b9 bd 6b ea 4c bd
       0.19894409 0.3494713 -0.090335555 -0.050028246
