wakewords/en/hey_firefox.onnx (onnx, 19266 bytes, 1 tensors)

const_fold_opt__112 f4 [20, 1]
0	0x3e93db9b	0.28878483
1	0xbf0f9a7b	-0.56095093
2	0x3e8f6be5	0.28012004
3	0x3e98b8ee	0.2982859
4	0xbdad7e10	-0.0847131
5	0xbe1a149c	-0.15046924
6	0x3edce43c	0.4314288
7	0x3f63e699	0.8902374
8	0x3e0aa6ff	0.13540266
9	0x3e97ea16	0.2967078
10	0x3dcef116	0.10104577
11	0x3ee30a09	0.44343594
12	0x3e6e0ee5	0.2324787
13	0x3e83ed4d	0.25766984
14	0xbca11b09	-0.019666212
15	0xbeaf10e7	-0.34192583
16	0x3e22ccb1	0.15898396
17	0x3ea60d32	0.32431942
18	0x3d3bafb7	0.04582187
19	0x3e051fff	0.13000487
