wakewords/en/hey_mycroft_mk1.onnx (onnx, 15131 bytes, 10 tensors)

dense_1/kernel/read:0 f4 [20, 1]
0	0x3ebb673e	0.36602205
1	0x3eda4e20	0.4263773
2	0xbc3117a4	-0.010808859
3	0xbbd56759	-0.006512564
4	0xbf3ff78a	-0.7498709
5	0x3e54abf8	0.20768726
6	0xbec4bc37	-0.38424847
7	0x3f39eea8	0.72629786
8	0xbdacb57e	-0.084330544
9	0xbebb1e42	-0.36546522
10	0xbee3dad3	-0.44502887
11	0x3db6fbf5	0.08934776
12	0x3fa794ca	1.3092282
13	0x3f11b527	0.5691704
14	0xbcf54ea7	-0.02994473
15	0xbe3e5a1f	-0.18589066
16	0x3f76edf7	0.96456856
17	0x3f6b84bd	0.9199942
18	0xbf535f7a	-0.8256756
19	0x3eb3cdd0	0.3511796

ConstantFolding/net/strided_slice_enter:0 f4 [13, 20]
0	0xbd8de16c	-0.069277614
1	0xbdd9c2af	-0.10632836
2	0xbd9a83d6	-0.07544677
3	0xbc8507c5	-0.016239056
4	0x3bfa5d79	0.0076405373
5	0x3d5aed20	0.053448796
6	0xbc3c2845	-0.01148421
7	0x3d3ed277	0.046587434
8	0x3c0ae78b	0.008478056
9	0x3cd1d253	0.025612986
10	0xbdde2eb2	-0.1084875
11	0xbdc731a8	-0.09726268
12	0xbd8603a6	-0.06543665
13	0xbd9159cb	-0.07097205
14	0x3d12e73c	0.035865054
15	0xbcb3a9bd	-0.021931523
16	0xbd838cc2	-0.06423332
17	0xbb639e6f	-0.0034731885
18	0xbbef3850	-0.007300414
19	0x3dac3481	0.08408452
20	0xbd9b168c	-0.0757266
21	0xbb810b63	-0.003938125
22	0xbd3c97fb	-0.046043377
23	0x3c26d916	0.010183593
24	0x3c0e6fff	0.008693694
25	0x3cc0675b	0.023486784
26	0x3c69d363	0.01427159
27	0x3b9bf276	0.004759128
28	0x3cc176c8	0.02361621
29	0xba5659eb	-0.0008176851
30	0x3c0f1fbf	0.008735596
31	0xbb4a6d17	-0.0030887777
32	0xbd2b1ebc	-0.041777357
33	0xbc783a56	-0.015150627
34	0xbd75f6ba	-0.06004975
35	0xbc245ed6	-0.010032376
36	0xbd5806f0	-0.05274099
37	0xbc276f7c	-0.010219451
38	0xbbd04964	-0.006356405
39	0x3c149299	0.009068155
40	0x3e10b39b	0.14131014
41	0xbd8c9a3e	-0.06865357
42	0x3d899d3e	0.06719445
43	0x3c6878aa	0.014188925
44	0xbe170876	-0.14749321
45	0x3d9cfa5a	0.07664938
46	0x3b4743e6	0.003040546
47	0x3d330f9d	0.04371606
48	0xbd138e0a	-0.03602413
49	0xbd6ee84a	-0.058326997
50	0x3bfc23b4	0.007694686
51	0x3d5162ff	0.0511198
52	0xbd59e6f6	-0.053198777
53	0x3d7e66ef	0.062109884
54	0x3d2f4981	0.04279471
55	0x3d564fb1	0.052322093
56	0xbcaeb141	-0.021324756
57	0xbc16f3d6	-0.009213408
58	0x3d456dc7	0.048200395
59	0xbd8a7694	-0.06760898
60	0xbe3ffdbe	-0.18749139
61	0xbdc56ba5	-0.09639672
62	0x3e93ce7e	0.2886848
63	0x3c6b50d5	0.014362534
64	0x3c433fa1	0.011917026
65	0xbcb80bb8	-0.022466525
66	0x3cc59896	0.02412061
67	0xbc9c67f9	-0.019092547
68	0xbc3d6b7e	-0.011561273
69	0xbe1ae683	-0.15126996
70	0x3ce7c40c	0.028291725
71	0xbe15f059	-0.14642467
72	0x3d69dfee	0.05709832
73	0xbd088107	-0.033326175
74	0xbe00e32b	-0.12586658
75	0x3d1a72a7	0.037706997
76	0xbc2b6ef0	-0.010463461
77	0xbdb10d49	-0.08645112
78	0xbc480ee5	-0.012210582
79	0x3c007f8b	0.007842909
80	0x3da27264	0.079319745
81	0x3dfaddfc	0.122493714
82	0x3cf6506f	0.03006765
83	0xbd55738f	-0.05211216
84	0x3d458063	0.048218142
85	0xbd8b3808	-0.067977965
86	0xbb98a169	-0.0046579135
87	0xbbfc4f6f	-0.007699899
88	0xbac7e344	-0.0015250226
89	0xbdab2e9f	-0.08358502
90	0x3d803712	0.06260504
91	0x3d1770bc	0.036972746
92	0x3e9e39a6	0.30903357
93	0x3ca459c1	0.02006233
94	0x3dfe50da	0.12417765
95	0xbe20dfc2	-0.15710357
96	0xbd1e497a	-0.03864429
97	0x3aed9ff1	0.0018129331
98	0xbd8a5450	-0.067543626
99	0xbd953f1e	-0.07287429
100	0x3db5c8ba	0.08876176
101	0x3cbc607e	0.02299523
102	0xbda1fd16	-0.079096004
103	0x3d1eaa25	0.03873648
104	0x3c831214	0.015999831
105	0xbd972057	-0.07379215
106	0x3c82ec74	0.01598189
107	0x3d1bad5e	0.038007133
108	0xbd83ae97	-0.06429785
109	0x3e16ccb2	0.14726523
110	0xbcd56e80	-0.026053667
111	0x3e1b77a1	0.15182354
112	0xbe069b9a	-0.13145295
113	0x3da80386	0.08203797
114	0x3c6483eb	0.013947467
115	0xbcc82e7d	-0.02443623
116	0x3d7e0b4c	0.062022492
117	0x3d47e2e5	0.048800368
118	0xbd87bb90	-0.066275716
119	0x3df5a9b0	0.11995256
120	0xbde5da8d	-0.11223326
121	0x3d2d7b30	0.04235381
122	0x3da657d1	0.081222184
123	0x3d48e9ec	0.04905121
124	0xbe23bcbc	-0.15989965
125	0x3d814db1	0.063136466
126	0xbd42c24f	-0.04754859
127	0xbd0a1fe2	-0.033721812
128	0x3d420b9c	0.047374353
129	0xbe9ee583	-0.3103448
130	0xbe365384	-0.17805296
131	0x3ca62a3b	0.020283809
132	0x3d3012d0	0.04298669
133	0xbddc7097	-0.10763662
134	0x3e5a53ca	0.21321025
135	0x3dff5d0c	0.12468919
136	0xbd10631b	-0.035250764
137	0x3d3001bb	0.0429704
138	0xbc550e21	-0.013003857
139	0xba03d208	-0.00050285505
140	0x3c9d9a5e	0.019238647
141	0x3df91ccf	0.12163698
142	0xbdad06f8	-0.08448595
143	0xbcb26a91	-0.02177933
144	0x3dac784c	0.08421382
145	0xbdc04b3a	-0.09389348
146	0x3cb469c6	0.022023093
147	0xbde1f54a	-0.11033113
148	0x3db8c243	0.090214275
149	0x3d908b50	0.07057822
150	0xbe5cf45d	-0.21577592
151	0x3c458fb8	0.012058191
152	0xbe17e405	-0.14833076
153	0xbb8af6e4	-0.0042408574
154	0x3e185667	0.1487671
155	0xbb163feb	-0.0022926282
156	0x3c34c39a	0.011032963
157	0x3d7a2f3a	0.061080195
158	0xbd105a1e	-0.035242192
159	0xb92721d2	-0.0001593896
160	0x3e205a0c	0.1565935
161	0xbde889eb	-0.11354431
162	0xbe49b68b	-0.19698541
163	0xbdb3fe72	-0.08788766
164	0x3dab0738	0.08350986
165	0x3e300a2f	0.17191385
166	0x3d0cf53a	0.034413554
167	0x3d580bf1	0.052745763
168	0x3d95a2ea	0.07306464
169	0x3ca772da	0.020440508
170	0x3e3ad23e	0.18244264
171	0x3e3fa0f0	0.18713737
172	0xbdcb698b	-0.0993224
173	0x3db6d08a	0.089264944
174	0xbe71b868	-0.23605502
175	0x3e0cf138	0.13763893
176	0xbc73c0e9	-0.014877536
177	0xbbc3a474	-0.005970532
178	0xbc37ebe4	-0.011225674
179	0x3dd0e108	0.10199171
180	0x3e75b4c7	0.23994742
181	0x3db0731b	0.086157046
182	0x3d823837	0.063583784
183	0x3bb3d1d0	0.005487658
184	0x3baac76b	0.0052117608
185	0xbdd878f0	-0.10569942
186	0xbcda1e6a	-0.02662583
187	0xbcf120ae	-0.029434528
188	0xbbaab920	-0.005210057
189	0xbe7e90ab	-0.24859874
190	0xbdacd3d2	-0.08438839
191	0xbcd34bce	-0.025792982
192	0xbe528286	-0.20557603
193	0xbdd37809	-0.10325629
194	0x3ca410ec	0.0200276
195	0x3e551589	0.20808996
196	0x3e12aa8f	0.14322875
197	0xbd691385	-0.05690338
198	0x3d7c72b8	0.06163284
199	0x3c149b85	0.009070282
200	0xbe2494eb	-0.16072433
201	0x3db45d81	0.08806897
202	0x3e27cb00	0.16386032
203	0xbd27e5b9	-0.040990565
204	0x3d3bdd77	0.045865502
205	0xbc00c699	-0.007859849
206	0xbd965107	-0.073396735
207	0xbc4398fb	-0.011938329
208	0x3c2b248a	0.010445723
209	0x3dac9403	0.084266685
210	0xbc321a36	-0.010870507
211	0x3c09b365	0.008404587
212	0xbc098893	-0.008394378
213	0xbd004a3c	-0.031320795
214	0x3e8cb44e	0.27481312
215	0xbd9168b2	-0.07100047
216	0x3e1a5d6c	0.150747
217	0x3d700eed	0.058607984
218	0x3e1d25bf	0.1534643
219	0x3de3102e	0.110870704
220	0x3e1cbc96	0.15306315
221	0x3d9a5c25	0.075371064
222	0xbe4ac4e2	-0.19801667
223	0xbcc76550	-0.024340302
224	0x3c17db50	0.009268597
225	0x3cf7a717	0.030231042
226	0x3dde623a	0.10858579
227	0x3dcb5f8a	0.09930332
228	0x3d346e05	0.044050235
229	0x3e51fb55	0.20506032
230	0xbbaae4ac	-0.005215248
231	0x3dcc4426	0.09973936
232	0x3e0b9c36	0.13633808
233	0x3dbd2efc	0.09237477
234	0xbe65f6de	-0.22457454
235	0xbd9dd553	-0.07706704
236	0xbd9120b3	-0.07086315
237	0xbdd7a0ad	-0.10528693
238	0xbd06a8f2	-0.032875963
239	0xbe20f702	-0.15719226
240	0x3d31735f	0.043322917
241	0x3d06bb4a	0.032893457
242	0x3e6fb070	0.2340715
243	0xbc81b538	-0.015833482
244	0xbdc5d804	-0.09660342
245	0xbe7d7e4f	-0.24755214
246	0xbcf50380	-0.029908895
247	0x3d7ea284	0.062166706
248	0xbc6fa5ec	-0.014626961
249	0xbe4437c9	-0.19161905
250	0xbd476ce3	-0.048687827
251	0x3a84ef2a	0.0010142077
252	0x3b882d04	0.004155757
253	0xbe08b9d0	-0.13352132
254	0xbe0268e7	-0.1273533
255	0x3db2f155	0.08737437

ConstantFolding/net/strided_slice_8_enter:0 f4 [20]
0	0xbceed167	-0.029152585
1	0xbfa66930	-1.3000851
2	0xbea50b01	-0.32234958
3	0x3f90991f	1.1296729
4	0xbf643426	-0.8914207
5	0xbe58face	-0.21189424
6	0x3f86457a	1.0489953
7	0xbf319ab4	-0.69376683
8	0x3fb3bffd	1.4042965
9	0xbf0d8cab	-0.5529277
10	0x3eb08354	0.34475195
11	0x3f86d7e6	1.0534637
12	0xbe9ba101	-0.30396274
13	0xc0225fdf	-2.5371015
14	0xbefebd7d	-0.49753943
15	0xbf3f38a0	-0.7469578
16	0x3f551157	0.83229584
17	0xc0134c67	-2.3015382
18	0x3e98c718	0.29839396
19	0xc0163a44	-2.3473063

ConstantFolding/net/strided_slice_7_enter:0 f4 [20]
0	0x3febb2c2	1.8413928
1	0xbecf5eba	-0.40501958
2	0x3ef53899	0.47894743
3	0xbf6fb8a6	-0.93641126
4	0x3e84d2a1	0.25941947
5	0x3fbdfb36	1.4842288
6	0x3f474042	0.77832425
7	0x3e7b1168	0.24518359
8	0xbe1ffa8f	-0.15622924
9	0x3fb0a088	1.379899
10	0xbf6099d7	-0.8773474
11	0x3f23ff1a	0.6406113
12	0xbf1a645b	-0.6030938
13	0xbe80c57e	-0.25150675
14	0x3f69cb7d	0.91326123
15	0x3fa530fb	1.2905573
16	0x3e8d4305	0.27590194
17	0x3fc82e12	1.563906
18	0x3ff53328	1.9156237
19	0x3b85680d	0.0040712417

ConstantFolding/net/strided_slice_6_enter:0 f4 [20]
0	0x3f80aced	1.0052773
1	0xbf6efcf8	-0.9335475
2	0x3e22599f	0.158545
3	0x3f0adedd	0.5424631
4	0x3ed0c17d	0.4077262
5	0xbf386e43	-0.72043246
6	0x3fc51b4d	1.5398957
7	0xbd83682c	-0.064163536
8	0xbe05b056	-0.13055548
9	0xbd772d02	-0.060345657
10	0x3d720998	0.05909118
11	0xbf01e033	-0.50732726
12	0xbed9ebb8	-0.42562652
13	0x3ec1a717	0.37822792
14	0x3de21952	0.11039986
15	0xbef62ea3	-0.48082456
16	0xbf17022f	-0.58987707
17	0x3e8f55aa	0.27995044
18	0x3ea7e129	0.3278897
19	0x3e827bbe	0.25485033

ConstantFolding/net/strided_slice_5_enter:0 f4 [20, 20]
0	0x3e224099	0.15844955
1	0x3d585bc3	0.052821886
2	0xbbabee68	-0.005246926
3	0xbe9267c7	-0.285948
4	0x3dc84455	0.09778658
5	0x3e82a06e	0.25513023
6	0xbe2f9a4f	-0.17148708
7	0x3e70abfb	0.23503105
8	0x3e95fe93	0.29295787
9	0xbf1be78b	-0.6090018
10	0x3eecf9bb	0.4628428
11	0xbe9a3357	-0.30117294
12	0x3d8b490b	0.06801041
13	0xbeaf99f3	-0.3429714
14	0x3db29f75	0.0872182
15	0xbf97c073	-1.1855606
16	0x3da4bf81	0.08044339
17	0x3e12d24d	0.14338036
18	0x3e6c26b5	0.2306164
19	0xbe42c069	-0.19018711
20	0x3cf4abd4	0.02986709
21	0x3ecb6c8c	0.39731252
22	0x3b423bfc	0.0029637804
23	0x3dcd88f2	0.10035886
24	0xbe689d68	-0.22716296
25	0xbd9afd09	-0.07567794
26	0xbe262bed	-0.16227694
27	0x3eab6684	0.3347665
28	0xbebbbdea	-0.3666833
29	0x3da22e35	0.079189695
30	0xbd93141f	-0.07181572
31	0x3e9ef331	0.31044915
32	0xbe8339d0	-0.25630045
33	0x3eccc558	0.3999431
34	0x3e5e24dd	0.2169375
35	0x3d6c72a9	0.057726536
36	0x3e74a8a2	0.23892453
37	0xbc39c355	-0.011338075
38	0x3e944f79	0.28966883
39	0x3f3f36ff	0.7469329
40	0xbeda7923	-0.42670545
41	0x3e8da1c9	0.27662495
42	0x3ec6bfad	0.38818112
43	0xbf9ba1fa	-1.2158806
44	0x3ec82cd3	0.39096698
45	0x3e37e0e7	0.17956887
46	0x3ea0593d	0.31318083
47	0x3d87e767	0.06635933
48	0x3f199a02	0.6000062
49	0x3f06baf2	0.52629006
50	0x3ecf1a6b	0.40449843
51	0xbf21df61	-0.63231474
52	0x3d7afd9a	0.06127701
53	0xbde0806e	-0.10961996
54	0xbeb6cdaf	-0.357038
55	0xbf8dbc9d	-1.1073185
56	0xbd3816b2	-0.04494352
57	0xbf10ecba	-0.56611216
58	0x3e4ebfcc	0.20190352
59	0x3f2c492c	0.6729915
60	0xbed1b009	-0.40954617
61	0x3e1fb2c1	0.15595533
62	0x3e8c4083	0.2739297
63	0xbed08ba8	-0.4073155
64	0xbea99257	-0.3311946
65	0x3e6a8205	0.22901161
66	0x3e455d7d	0.19273944
67	0xbe0416e5	-0.12899359
68	0xbe87add8	-0.2649982
69	0x3ebcfde6	0.3691246
70	0x3dbd0105	0.0922871
71	0xbd6b5b3e	-0.057460062
72	0xbbb10e90	-0.0054033473
73	0xbf02e188	-0.51125383
74	0xbe145055	-0.14483769
75	0xbf893d06	-1.0721748
76	0x3ebc1ed8	0.36742282
77	0xbf00c7db	-0.50304955
78	0x3edc7660	0.43059063
79	0xbf068fe6	-0.5256332
80	0xbc125c3c	-0.008933123
81	0xbd4ef2c3	-0.050524484
82	0x3c9fcebc	0.019507758
83	0xbf3d2ff7	-0.73901314
84	0x3cc608d7	0.024174137
85	0x3d85eafc	0.0653896
86	0xbf1fffaf	-0.6249952
87	0xbf0f4203	-0.559601
88	0x3f1052c6	0.563763
89	0x3edf5166	0.4361679
90	0x3cf42474	0.029802538
91	0xbf4ae453	-0.79254645
92	0x3d4cd4b7	0.05000755
93	0x3e9167f1	0.28399613
94	0x3ddaf8e1	0.10692001
95	0x3d6005fd	0.05469321
96	0x3e46ad4e	0.19402048
97	0x3ebddeb2	0.37083966
98	0x3c20293b	0.009775455
99	0xbf14a01d	-0.58056813
100	0x3e712d79	0.23552503
101	0x3f6249e6	0.8839401
102	0x3d657bcd	0.05602627
103	0xba4aff73	-0.00077437534
104	0xbf26982c	-0.65075946
105	0x3cd38074	0.025818087
106	0x3f94d35f	1.1627005
107	0xbf19f93b	-0.6014592
108	0x3ebecd84	0.3726617
109	0x3e3048df	0.17215298
110	0x3cec2663	0.028826898
111	0xbf02cd4c	-0.5109451
112	0x3eb95025	0.36193958
113	0x3ed5af63	0.41735372
114	0x3ee3fb8a	0.44527847
115	0x3ef5d895	0.480168
116	0xbe192af9	-0.14957799
117	0x3f5f44cb	0.87214345
118	0xbf60f180	-0.878685
119	0xbd664699	-0.05621967
120	0xbe2ce779	-0.16885175
121	0xbd653cb4	-0.055966094
122	0x3d0eb94b	0.034844678
123	0x3e123412	0.14277676
124	0xbd3b2919	-0.04569349
125	0x3d1c5d36	0.03817483
126	0x3e17e9b2	0.14835241
127	0xbe22bc81	-0.15892221
128	0x3dcfae11	0.101406224
129	0xb8b4554c	-8.5989566e-05
130	0x3d87f71f	0.066389315
131	0xbdbd8f9a	-0.092559054
132	0xbd88ed81	-0.06685925
133	0x3d665090	0.056229174
134	0xbda05509	-0.07828719
135	0x3d8f43aa	0.06995328
136	0x3c1663fc	0.009179112
137	0x3e1b8eaf	0.15191148
138	0xbdbfcfb5	-0.09365789
139	0xbdbca8b4	-0.09211865
140	0x3ed35738	0.4127748
141	0xbe8cb258	-0.27479815
142	0x3edfd946	0.43720454
143	0xbe462193	-0.19348745
144	0xbf173f22	-0.5908071
145	0xbe2880ea	-0.16455427
146	0xbf6c80ff	-0.9238433
147	0xbecfbc01	-0.40573123
148	0xbd1f995a	-0.038964607
149	0xbe70bbd9	-0.23509158
150	0x3dc9237d	0.09821222
151	0x3e539e78	0.2066592
152	0xbd7234e8	-0.059132487
153	0xbeed8346	-0.46389216
154	0xbda6fbcf	-0.081534974
155	0xbea593d0	-0.32339334
156	0xbe2b22e8	-0.16712534
157	0xbbf1b4a6	-0.0073762713
158	0xbf1409bd	-0.5782736
159	0xbe22d517	-0.159016
160	0x3e612faf	0.21990846
161	0x3f01383c	0.5047643
162	0xbdfb0a30	-0.122578025
163	0x3f2de451	0.6792651
164	0x3f0e3057	0.5554251
165	0xbddb81e2	-0.107181326
166	0x3fda7502	1.7066958
167	0x3c8ed9ce	0.017437842
168	0x3e8004e5	0.25003734
169	0xbf7a4f1c	-0.9777696
170	0x3e33902c	0.17535466
171	0xbf067208	-0.5251775
172	0xbe897186	-0.26844424
173	0xbf1680c5	-0.58790237
174	0x3d8e5f20	0.069517374
175	0xbeccd211	-0.40004018
176	0xbef69581	-0.48160937
177	0x3e53c986	0.20682344
178	0xbe31abb9	-0.17350663
179	0xbe912e6c	-0.2835573
180	0x3b0f9a49	0.002191203
181	0x3e45aec2	0.19304946
182	0xbd0a9412	-0.033832617
183	0x3e941709	0.28923824
184	0xbe8bf912	-0.27338463
185	0x3c002809	0.007822045
186	0x4011d613	2.278691
187	0xbe60d287	-0.2195531
188	0xbe9b5224	-0.30336106
189	0xbd7dc192	-0.06195218
190	0xbbf5bec2	-0.0074995467
191	0xbdcc0cea	-0.09963401
192	0xbd34d3b8	-0.044147223
193	0x3e956a12	0.29182488
194	0x3d413df3	0.04717822
195	0x3e62510e	0.22101232
196	0x3dd85eb3	0.105649374
197	0x3eef4a33	0.46736297
198	0x3d96f833	0.07371559
199	0xbec5d218	-0.3863685
200	0xbdf53061	-0.11972118
201	0xbe917d28	-0.284158
202	0x3d5b7b65	0.053584475
203	0xbdeb928b	-0.1150256
204	0xbec38b58	-0.38192248
205	0xbdc6d73d	-0.09709022
206	0xbfb88fde	-1.4418905
207	0x3e273612	0.1632922
208	0x3f261e5f	0.6489009
209	0x3f40d9f1	0.7533255
210	0x3ea44538	0.3208406
211	0x3e22ba71	0.15891434
212	0xbd53aeb7	-0.051680293
213	0xbf414abd	-0.75504667
214	0xbcffd446	-0.03122915
215	0x3d3bdfdd	0.04586779
216	0xbefb1fc7	-0.49047682
217	0xbf4f81f1	-0.8105765
218	0x3c98bab5	0.018643716
219	0x3e80348a	0.25040084
220	0xbe7c4375	-0.24635108
221	0x3d712c9f	0.058880445
222	0x3de62af2	0.1123866
223	0xbda4edcc	-0.08053169
224	0xbe3b756a	-0.18306509
225	0x3d011218	0.031511396
226	0xbfa2fa8c	-1.2732711
227	0xbe666640	-0.22499943
228	0x3e3c46f2	0.18386438
229	0x3e02de7a	0.1278018
230	0xbd41b042	-0.047287233
231	0xbde63750	-0.11241019
232	0xbea139c0	-0.31489372
233	0x3e6842b0	0.2268169
234	0x3aad2286	0.0013209141
235	0x3ceca40a	0.028886814
236	0xbe663530	-0.22481227
237	0x3ecfd3f7	0.40591404
238	0x3cff3b82	0.031156305
239	0xbf6350d0	-0.88795185
240	0x3a974154	0.0011539855
241	0x3f986f74	1.1909013
242	0x3da90f23	0.0825484
243	0x3ec68261	0.38771346
244	0x3e6fcfc3	0.23419099
245	0xbe21b144	-0.15790278
246	0x3dabc978	0.083880365
247	0xbd93bc21	-0.07213617
248	0xbf023bcf	-0.5087251
249	0xbeb26e8d	-0.3484997
250	0xbe2e909b	-0.1704735
251	0x3cdeee2d	0.02721318
252	0x3d3e87b2	0.046516128
253	0xbf6048db	-0.8761117
254	0xbe348683	-0.17629437
255	0xbf38aef4	-0.7214196

ConstantFolding/net/strided_slice_4_enter:0 f4 [13, 20]
0	0x3d541575	0.051778276
1	0x3d66dc46	0.056362413
2	0x3cdfc574	0.027315833
3	0x3e993b70	0.2992816
4	0x3d98d281	0.074620254
5	0xbe007500	-0.12544632
6	0x3eeae596	0.45878285
7	0xbe0a7464	-0.13520962
8	0xbdc45254	-0.09586015
9	0xbf10d799	-0.56578976
10	0x3e13986d	0.14413615
11	0xbd9987f9	-0.07496638
12	0xbdf227b0	-0.11823976
13	0xbdb9a62d	-0.09064899
14	0x3df47d80	0.11938
15	0x3e35f0e7	0.17767678
16	0x3cf966ca	0.030444521
17	0x3e7522f8	0.23939121
18	0xbea2f29c	-0.3182572
19	0xbea714a8	-0.32632947
20	0x3d9eec5e	0.07759927
21	0xbbee12bf	-0.0072654183
22	0xbbf80a30	-0.007569574
23	0x3d8cfa74	0.06883708
24	0x3cec2c34	0.028829671
25	0x3b969a2f	0.004596017
26	0x3d9d5c8c	0.076836675
27	0xbd9c5775	-0.076338686
28	0xbd54043d	-0.051761854
29	0xbe40c76c	-0.18826073
30	0x3da7bebb	0.08190676
31	0x3e0c78c7	0.13717948
32	0xbc9a63e9	-0.018846469
33	0xbd709d17	-0.058743563
34	0x3d85eb6b	0.06539043
35	0x3d1176a2	0.035513528
36	0xbd020857	-0.031746235
37	0xbcb46e97	-0.02202539
38	0xbdb3e2e2	-0.08783509
39	0x3d94fac7	0.072743945
40	0xbd690dc5	-0.056897897
41	0xbdf9d31e	-0.121984705
42	0x3d94678f	0.07246315
43	0xbc21bcef	-0.009871705
44	0x3b02ebec	0.0019977046
45	0xbc66c40d	-0.014084828
46	0xbefb9744	-0.49138844
47	0x3dccd17e	0.10000895
48	0x3d153c48	0.03643444
49	0x3da6535b	0.081213675
50	0xbabb88de	-0.0014307757
51	0x3cab8e8f	0.020942
52	0xbd5a8345	-0.053347845
53	0x3e2228d5	0.15835889
54	0x3ccf22a8	0.02528508
55	0x3e855094	0.2603804
56	0x3e241694	0.16024238
57	0xbba57c1f	-0.005050197
58	0xbdc2fea1	-0.09521223
59	0xbea7eaeb	-0.32796416
60	0xbd36872a	-0.044562496
61	0xbe08ad9e	-0.1334748
62	0x3bb99405	0.0056633973
63	0xbd6fe74c	-0.05857019
64	0x3d30d17a	0.043168522
65	0x3df419c2	0.119189754
66	0xbe701655	-0.23446019
67	0xbce73641	-0.028224112
68	0xbe389c91	-0.18028475
69	0xbdad51de	-0.084628806
70	0x3d5f1dbb	0.054471713
71	0x3e306c0e	0.1722872
72	0x3bf04b3d	0.007333188
73	0xbdc9a645	-0.098461665
74	0xbcc65bc9	-0.024213688
75	0xbdfaf756	-0.12254207
76	0x3d2eddff	0.04269218
77	0xbe3b0639	-0.18264093
78	0x3d844be4	0.064597875
79	0x3bff3929	0.0077887964
80	0x3e51db75	0.20493872
81	0x3d569767	0.052390482
82	0xbcd839f0	-0.026394814
83	0x3c9998f8	0.018749699
84	0xbd9f4e73	-0.07778635
85	0xbd2cc903	-0.042183887
86	0x3b5567af	0.003256302
87	0xbe3cd3ca	-0.18440166
88	0x3d7884b4	0.06067343
89	0x3d28d2e1	0.041216735
90	0x3c9e01c1	0.019287946
91	0x3e8ef595	0.2792174
92	0x3e477173	0.19476871
93	0x3e22547b	0.15852539
94	0x3cb96c4d	0.02263465
95	0x3e1e7346	0.15473661
96	0xbe4ec7ab	-0.20193355
97	0xbe1d240a	-0.15345779
98	0xbd594253	-0.053041767
99	0x3e8ef8b7	0.2792413
100	0x3d067a05	0.03283121
101	0xbb2d5fed	-0.0026454881
102	0xbda0ef87	-0.07858186
103	0x3e115a10	0.14194512
104	0xbd0eb2c3	-0.03483845
105	0xbe1ee8e4	-0.15518528
106	0x3e5ca341	0.21546651
107	0x3e6b9687	0.2300664
108	0x3e22888d	0.15872402
109	0x3da6330d	0.08115206
110	0xbe1c1579	-0.15242566
111	0x3dd127de	0.10212682
112	0xbd1b5025	-0.03791823
113	0x3dc64815	0.09681717
114	0xbd152947	-0.03641632
115	0x3e63688a	0.22207847
116	0xbd0217d2	-0.031760998
117	0x3dc7de21	0.097591646
118	0xbdb7531f	-0.08951401
119	0x3dca6ab0	0.0988363
120	0xbd9445cb	-0.072398745
121	0x3dea0120	0.11425996
122	0xbc07ac68	-0.008280851
123	0xbddd30d7	-0.10800331
124	0x3d13de32	0.036100574
125	0xbdb841f3	-0.08996954
126	0x3de5fa94	0.112294346
127	0x3c784d9f	0.015155225
128	0xbc550367	-0.013001299
129	0x3d0bf18f	0.034165915
130	0xbe45641f	-0.19276474
131	0xbddf34ab	-0.108987175
132	0xbda59b13	-0.08086219
133	0xbeb753c4	-0.35806096
134	0xbd16d1bd	-0.036821116
135	0xbe61979e	-0.22030494
136	0x3e245c2e	0.16050789
137	0x3e00994b	0.12558477
138	0x3cee24e0	0.029070318
139	0xbe0e6277	-0.13904749
140	0xbd38bb91	-0.045100752
141	0x3deb4c5f	0.11489176
142	0xbc93f4f8	-0.018061146
143	0xbc352042	-0.011055054
144	0xbde8c670	-0.11365974
145	0x3d62ab2d	0.055339027
146	0x3e2f6385	0.17127807
147	0xbe091f24	-0.13390785
148	0x3c735fac	0.014854353
149	0x3ca5f6fb	0.020259371
150	0xbb8dc2d2	-0.004326203
151	0xbd9603fe	-0.0732498
152	0xbd32bd44	-0.04363753
153	0xbd056537	-0.03256723
154	0xbdd13093	-0.10214343
155	0xbf01431e	-0.5049304
156	0xbe170cc5	-0.14750965
157	0x3db28205	0.087162055
158	0x3d80b0dc	0.06283733
159	0x3e861cf5	0.26193967
160	0x3dc32d0f	0.095300786
161	0xbdb8333c	-0.08994147
162	0xbddaf890	-0.10691941
163	0x3e4453d2	0.191726
164	0x3d82540e	0.063636884
165	0x3d516906	0.05112555
166	0xbebb6068	-0.3659699
167	0x3e90f5cd	0.2831253
168	0xbd95e752	-0.073195115
169	0x3de16b0b	0.11006745
170	0x3dd2f85d	0.10301278
171	0x3d80cc90	0.06289017
172	0xbd61901f	-0.055069085
173	0x3ee3a42e	0.44461197
174	0x3d89ebce	0.06734429
175	0x3e8b11ad	0.27161923
176	0xbd149757	-0.03627714
177	0x3dd5749f	0.10422634
178	0x3df79c35	0.12090341
179	0x3d1987d9	0.03748307
180	0x3cad1c98	0.021131799
181	0x3dc4a00e	0.096008405
182	0x3d9e82a2	0.0773976
183	0xbd37a03a	-0.04483054
184	0xbd38e59c	-0.045140848
185	0x3c8d1d48	0.017225876
186	0x3b2c4f98	0.0026292559
187	0x3b5d614f	0.0033779924
188	0x3e19ef88	0.1503278
189	0xba956890	-0.001139896
190	0xbd46ef11	-0.048567835
191	0x3d0e0717	0.03467473
192	0xbda1e1f8	-0.07904428
193	0xbe5f0256	-0.21778235
194	0x3cfeab82	0.03108764
195	0x3c67c6b3	0.014146495
196	0x3dd599e3	0.10429742
197	0xbc8a5ece	-0.01689091
198	0xbd8f66ae	-0.070020065
199	0x3d4378e2	0.047722705
200	0xbd9c97d7	-0.07646149
201	0x3d528b97	0.051402654
202	0xbd895458	-0.067055404
203	0xbcacef70	-0.021110266
204	0xbd652988	-0.05594781
205	0xbca9426f	-0.02066156
206	0x3ebbd451	0.36685422
207	0xbe06e5a1	-0.13173534
208	0x3d6a2e8e	0.057173304
209	0xbd70d177	-0.05879351
210	0x3e03b725	0.12862833
211	0xbd3afd70	-0.045651853
212	0x3cfb8b05	0.030705938
213	0xbe4d9b31	-0.20078732
214	0xbe6961a9	-0.2279116
215	0xbe634719	-0.2219509
216	0x3d993d48	0.074823916
217	0xbc936161	-0.01799077
218	0xbd757ba7	-0.059932377
219	0xbed650eb	-0.4185861
220	0x3e2d5c89	0.1692983
221	0x3c4e0477	0.012574307
222	0xbc23a69c	-0.009988453
223	0x3d8e5262	0.06949307
224	0x3bd8bad0	0.0066140667
225	0xbc21023a	-0.009827191
226	0x3d55ffd3	0.052245926
227	0xbdf91942	-0.12163021
228	0xbe28ae9c	-0.16472858
229	0x3cbe83e0	0.023256242
230	0x3d91f983	0.07127669
231	0xbe29fc5c	-0.16600174
232	0xbc17e551	-0.009270982
233	0xbc835414	-0.016031303
234	0x3d0886d1	0.033331696
235	0xbd4180db	-0.047242027
236	0xbcdd33ab	-0.027002176
237	0x3d9acb17	0.075582676
238	0xbd0d4dfd	-0.034498204
239	0x3e3f9e58	0.18712747
240	0x3d27f103	0.04100133
241	0x3cf9637a	0.030442942
242	0xbd14e4b1	-0.03635091
243	0x3cdb6f32	0.02678642
244	0x3cb508bb	0.02209889
245	0xbd89b08b	-0.06723126
246	0x3d8b359f	0.06797337
247	0x3c68fc32	0.014220284
248	0xbe067fed	-0.13134737
249	0x3d86b8ab	0.06578191
250	0x3d19b438	0.037525386
251	0x3d502531	0.05081672
252	0x3cb01ded	0.021498645
253	0x3d0bbe83	0.034117233
254	0xbd5d2af1	-0.05399603
255	0x3da4afff	0.08041381

ConstantFolding/net/strided_slice_3_enter:0 f4 [20, 20]
0	0xbf590267	-0.8476929
1	0xbf4c0293	-0.7969143
2	0xbf1c0ff1	-0.60961825
3	0xbee94816	-0.4556281
4	0x3e21a7f0	0.1578672
5	0x3f39deba	0.7260548
6	0x3f651546	0.89485586
7	0x3ed98f2c	0.42492044
8	0x3dc1f194	0.094699055
9	0x3dc39720	0.09550309
10	0xbf85868d	-1.0431687
11	0xbe8064f3	-0.25077018
12	0x3e8343bc	0.25637615
13	0xbe65421f	-0.22388504
14	0x3f71b052	0.9440967
15	0x3ee4d4da	0.44693643
16	0xbe910106	-0.28321093
17	0xbf55245e	-0.83258617
18	0x3e422c98	0.18962324
19	0xbcfa82b7	-0.030579908
20	0x3e15abf4	0.14616376
21	0xc027e5d2	-2.623402
22	0x3e94397e	0.28950113
23	0x3e0feb20	0.14054537
24	0x3ef76b31	0.48323968
25	0xbf2df634	-0.679538
26	0x3dcba9c1	0.09944487
27	0xbee48d86	-0.44639224
28	0x3da57af3	0.08080091
29	0xbeb1b091	-0.34705022
30	0xbd93ce72	-0.07217111
31	0xbe9f6d42	-0.31138045
32	0x3ebabc05	0.36471573
33	0x3e869378	0.26284385
34	0xbf535baf	-0.82561773
35	0xbee2b75d	-0.4428052
36	0x3e12ce0f	0.14336418
37	0x3dd8a628	0.10578567
38	0xbf718273	-0.94339675
39	0xbd468aee	-0.048472337
40	0xbfb499cb	-1.4109434
41	0x3f55b146	0.8347362
42	0x3f172389	0.590386
43	0xbf55b394	-0.8347714
44	0xbfb60704	-1.4220891
45	0xbe5bad0f	-0.21452735
46	0xbe34f92a	-0.17673174
47	0xbd2b262a	-0.041784443
48	0x3f43f76b	0.76549405
49	0xbe98256b	-0.29716048
50	0x3f1fe32e	0.62456024
51	0x3d696c07	0.05698779
52	0xbf55dbd1	-0.8353854
53	0xbf911a51	-1.1336156
54	0xbec6be4e	-0.38817066
55	0xbf0e421d	-0.5556963
56	0xbf5ae903	-0.855118
57	0xbf0d048c	-0.55085063
58	0xbe6185ff	-0.22023772
59	0xbc56030f	-0.013062253
60	0x3f1db940	0.61610794
61	0xbf6a9ccd	-0.9164551
62	0xbda58279	-0.08081526
63	0x3efca837	0.49347088
64	0x3f687a83	0.9081194
65	0xbe4fc771	-0.20290925
66	0xbebf125e	-0.373187
67	0xbd9f9060	-0.07791209
68	0xbd7b2938	-0.061318606
69	0x4026935d	2.6027443
70	0xbd08ac66	-0.033367537
71	0xbdd86873	-0.10566797
72	0xbe735def	-0.23766302
73	0xbe18a8ba	-0.14908114
74	0x3f38fa15	0.72256595
75	0x3f0f6c71	0.56024843
76	0xbe729a8f	-0.23691772
77	0x3eb72c2f	0.35775897
78	0x3f0fbf18	0.5615096
79	0xbbebb1a3	-0.007192807
80	0x3f67113c	0.9026067
81	0x3d448583	0.04797889
82	0x3e84a918	0.25910258
83	0xbda082ad	-0.078374244
84	0x3f4d0ec3	0.8010065
85	0x3dbd4e47	0.09243446
86	0x3ed1080c	0.40826452
87	0xbe27da3e	-0.16391847
88	0x3df25c96	0.118340656
89	0x3e8b7592	0.27238137
90	0x3e6175aa	0.22017542
91	0x3e82fc4a	0.25583106
92	0xbe2eb9c6	-0.17063054
93	0x3f0115a3	0.5042364
94	0x3f0d4d7e	0.5519637
95	0x3ead0ffe	0.33801264
96	0xbecc33c1	-0.39883235
97	0x3d803674	0.06260386
98	0xbeda1f35	-0.42601934
99	0x3c7a30c4	0.015270416
100	0x3f03d15f	0.5149135
101	0x3f51b774	0.8192055
102	0x3f025bc8	0.509213
103	0x3ec526e5	0.38506237
104	0x3f057f9a	0.5214783
105	0xbf15dc74	-0.5853951
106	0xbf6f361a	-0.9344193
107	0xbe4734c4	-0.19453722
108	0x3cdb65db	0.026781967
109	0xbf1d3a35	-0.6141694
110	0xbe959d6d	-0.2922167
111	0x3f15c025	0.58496314
112	0x3ee6da53	0.45088443
113	0x3e6647d4	0.22488338
114	0x3e6b6554	0.22987872
115	0x3e12549d	0.1429009
116	0xbe7a88f2	-0.24466303
117	0xbf000ebf	-0.500225
118	0x3ececc2b	0.40390143
119	0xbe2a6bd5	-0.16642697
120	0x3b90492a	0.004403253
121	0x3ec87757	0.3915355
122	0x3e6a4055	0.22876103
123	0xbd379b21	-0.044825677
124	0x3bb62114	0.0055581424
125	0x3dc4990e	0.09599505
126	0x3efe764e	0.49699634
127	0x3d760c5e	0.060070388
128	0xbd819abc	-0.06328341
129	0xbe3e0137	-0.18555151
130	0xbd602e3c	-0.054731593
131	0x3da85988	0.08220202
132	0xbc9c2608	-0.019061103
133	0xbdb65e54	-0.089047104
134	0x3dec8509	0.11548812
135	0x3e134ebc	0.14385504
136	0xba9594ae	-0.0011412108
137	0xbe2a07cc	-0.16604537
138	0x3ef6ee7f	0.48228833
139	0x3a1af59f	0.0005911234
140	0x3ece5e3f	0.4030628
141	0xbf43fb9c	-0.765558
142	0x3f085473	0.5325386
143	0x3f131609	0.574555
144	0x3e2f9994	0.17148429
145	0xbddcc39f	-0.10779499
146	0xbdcd9828	-0.10038787
147	0xbdb4b4fb	-0.08823582
148	0xbe99dbe3	-0.30050573
149	0x3f431d3b	0.7621648
150	0x3f59de84	0.85105157
151	0xbe799298	-0.24372327
152	0x3e728be8	0.23686182
153	0x3e871bdc	0.26388443
154	0x3f44a2c9	0.7681089
155	0x3e909edc	0.282462
156	0x3d9607df	0.0732572
157	0xbebea2a7	-0.3723347
158	0x3f67c8cf	0.90540785
159	0x3d7e61e6	0.062105082
160	0x3d5a967c	0.05336617
161	0xbe945f66	-0.28979033
162	0x3e88b814	0.2670294
163	0xbd9e6ef4	-0.077360064
164	0xbdb97be5	-0.09056834
165	0x3cd05e3d	0.025435561
166	0xbc52c1f5	-0.012863626
167	0x3ed5acd3	0.41733417
168	0x3dedf632	0.11619224
169	0xbebd8594	-0.37015975
170	0x3e84c840	0.2593403
171	0x3d99ea3c	0.0751538
172	0x3db6c32e	0.08923946
173	0xbdd09f2c	-0.101866096
174	0xbf0ee966	-0.5582489
175	0xbdfd339c	-0.12363359
176	0x3ebf364d	0.37346116
177	0xbed03b67	-0.4067032
178	0x3f1f02d4	0.6211369
179	0xbe47cfa6	-0.19512805
180	0x3b472ddc	0.0030392325
181	0xbee786da	-0.4522007
182	0xbe9a14d2	-0.3009401
183	0xbd7d6d8e	-0.061872058
184	0x3eae0951	0.33991483
185	0xbf015207	-0.5051579
186	0xbe95b238	-0.29237533
187	0xbeed7b48	-0.4638312
188	0x3dde1a38	0.108448446
189	0x3fad7e6b	1.3554205
190	0xbdea3cbb	-0.11437365
191	0xbf0bb9d5	-0.5458043
192	0xbe11f342	-0.14252952
193	0xbe053581	-0.13008691
194	0x3ece6d8f	0.40317962
195	0x3c9b3c86	0.018949758
196	0xbeacc093	-0.33740672
197	0xbd078378	-0.033084363
198	0xbec434c9	-0.38321522
199	0xbcd2ffbe	-0.025756713
200	0xbf145352	-0.57939637
201	0xba6e05aa	-0.00090798235
202	0x3eaa076f	0.33208796
203	0x3d98b674	0.07456675
204	0xbf2cf90f	-0.67567533
205	0xbd8d7359	-0.069067664
206	0xbe835852	-0.2565332
207	0x3f0500de	0.5195445
208	0xbd600a82	-0.05469752
209	0x3e6cc502	0.23122028
210	0x3faceebd	1.3510357
211	0x3e192694	0.14956123
212	0x3da60bd8	0.08107728
213	0x3f1beede	0.6091136
214	0xbdca7553	-0.09885659
215	0xbe0bce84	-0.13652998
216	0xbe5adc67	-0.2137314
217	0xbe2332d4	-0.15937358
218	0x3d14b6b3	0.036307048
219	0x3e2b095d	0.1670279
220	0xbdfe4e8b	-0.12417325
221	0xbefb9c58	-0.49142718
222	0x3e81f7a9	0.25384262
223	0x3e1dc60a	0.15407577
224	0xbc87acea	-0.016561944
225	0x3d73c304	0.059512153
226	0xbd1c3760	-0.038138747
227	0x3ec1333b	0.37734398
228	0x3d7725d6	0.060338818
229	0x3ecf059f	0.40433976
230	0x3ef24f81	0.47326282
231	0x3e116884	0.14200026
232	0xbeb31dee	-0.34983772
233	0xbe5b6772	-0.2142618
234	0x3d2d6c19	0.042339418
235	0xbe279335	-0.16364749
236	0xbe9fc70e	-0.31206554
237	0xbe287805	-0.16452034
238	0x3e3aaeb7	0.18230711
239	0x3d74dd50	0.059781373
240	0xbe8f1ebe	-0.27953142
241	0x3da59352	0.0808474
242	0x3ef9b7fe	0.48773187
243	0x3f6c55a9	0.9231821
244	0x3ee7bcf2	0.4526134
245	0xbea587a1	-0.3233004
246	0xbead6962	-0.33869463
247	0x3d299bc3	0.04140831
248	0x3dbd936a	0.092566326
249	0xbebbe292	-0.36696297
250	0x3f058c03	0.52166766
251	0xbe6c60b3	-0.23083763
252	0xc00daeaa	-2.2137856
253	0x3e6700d1	0.22558905
254	0xbf7126eb	-0.9420001
255	0x3f33f85f	0.7030086

ConstantFolding/net/strided_slice_2_enter:0 f4 [13, 20]
0	0xbdfc621d	-0.12323401
1	0xbd415ac6	-0.04720571
2	0xbe4043f1	-0.18775918
3	0xbeed781d	-0.46380702
4	0xbe5ffaa0	-0.2187295
5	0x3d90009e	0.07031368
6	0x3e5a12b8	0.21296203
7	0x3c02ce59	0.007983767
8	0x3e3314a3	0.17488341
9	0xbe9b3eb2	-0.3032127
10	0xbd2d2480	-0.042271137
11	0xba9ee7b4	-0.0012123496
12	0xbd5074c7	-0.050892618
13	0x3d01ebec	0.031719133
14	0xbe5075ff	-0.20357512
15	0xbd903349	-0.07041032
16	0xbdaa3337	-0.0831055
17	0x3d9b25a2	0.07575537
18	0xbd063695	-0.032766897
19	0xbe03dd41	-0.1287737
20	0x3cc2acd7	0.023764057
21	0xbd109399	-0.03529701
22	0xbcad0334	-0.021119691
23	0xbd633a89	-0.055475745
24	0xbcfd819d	-0.030945593
25	0x3c9b3795	0.018947402
26	0x3e2d82d9	0.16944446
27	0x3dadbd15	0.0848333
28	0x3d2496fe	0.04018306
29	0xbcf45fb3	-0.02983079
30	0xbbe0458a	-0.006844227
31	0xbcd64bae	-0.026159134
32	0x3d1bac15	0.038005907
33	0xbe67efd7	-0.22650085
34	0x3d0829c2	0.03324295
35	0xbd43ed57	-0.047833767
36	0x3caaccb0	0.020849556
37	0xbd9d8bee	-0.07692705
38	0x3dbf9c13	0.09355941
39	0xbd8a7df2	-0.067623034
40	0xbebef857	-0.37298843
41	0xbec2e396	-0.3806426
42	0x3dc4c909	0.09608657
43	0x3e4ca4e4	0.19984776
44	0xbc63467e	-0.013871787
45	0x3e0e9b42	0.13926414
46	0x3e5fd735	0.21859439
47	0x3c9a44d8	0.018831655
48	0xbe25332f	-0.16132806
49	0x3e2bec2d	0.16789313
50	0x3dc50288	0.096196234
51	0xbd1c5d4c	-0.038174912
52	0x3e19c550	0.15016675
53	0x3e9213db	0.28530774
54	0x3e06ec67	0.13176118
55	0x3e823692	0.2543226
56	0xbdbc7ca5	-0.092034616
57	0x3e4a1435	0.19734271
58	0x3e6420e3	0.2227817
59	0xbd3ec6cb	-0.046576302
60	0xbd4008da	-0.04688344
61	0x3e35fd75	0.17772467
62	0xbe4bc9d8	-0.19901216
63	0x3e05c042	0.13061622
64	0x3dee3635	0.11631433
65	0xbe1387a9	-0.14407219
66	0x3f2bd35b	0.6711938
67	0xbe8522e4	-0.26003182
68	0xbe5d26df	-0.2159686
69	0x3e8857f0	0.2662959
70	0x3e85c6f1	0.26128343
71	0xbdc0b768	-0.09409982
72	0x3c7c904b	0.0154152615
73	0xbedb0397	-0.42776176
74	0x3e0ded94	0.1386016
75	0xbe684744	-0.22683436
76	0x3e2293ad	0.15876646
77	0x3d851e94	0.06499973
78	0x3d546d4a	0.05186204
79	0xbd889026	-0.06668119
80	0xbe78fe14	-0.24315673
81	0x3e49ebba	0.19718829
82	0x3f195447	0.5989422
83	0xbdb3c4fe	-0.08777808
84	0xbd595e3e	-0.053068392
85	0xbbe3cfb0	-0.0069522485
86	0x3e3c0802	0.1836243
87	0xbe4491bb	-0.19196217
88	0xbc5bbc85	-0.013411646
89	0x3e67c27c	0.22632784
90	0x3e8630f9	0.26209238
91	0xbee6c311	-0.450707
92	0x381bed90	3.7176127e-05
93	0xbe982752	-0.297175
94	0xbcf47bf2	-0.029844258
95	0xbdded452	-0.10880341
96	0xbd792fc9	-0.060836587
97	0xbed0c8db	-0.4077824
98	0xbe34394d	-0.17599984
99	0x3d9575b2	0.07297839
100	0xbe5859ac	-0.21127957
101	0xbe9560e5	-0.29175487
102	0x3ea4f775	0.32220045
103	0xbf0bebc4	-0.54656625
104	0xbe71d0a1	-0.23614742
105	0xbe7b7cbd	-0.24559303
106	0x3eaa4682	0.33256918
107	0xbdb341ed	-0.08752809
108	0x3d727fae	0.059203796
109	0x3d75c1e2	0.059999354
110	0xbd28299a	-0.0410553
111	0x3d9b0868	0.07569963
112	0xbd71ebb5	-0.05906268
113	0x3f10d3a8	0.5657296
114	0x3ddfba11	0.10924161
115	0xbe99fe92	-0.30077034
116	0xbe29b42b	-0.16572635
117	0x3c864f56	0.016395252
118	0x3e11069c	0.14162678
119	0x3d7808fb	0.06055544
120	0xbcba5fe9	-0.022750812
121	0xbcb54a34	-0.02213011
122	0xbefab211	-0.4896398
123	0x3e97d7ae	0.29656738
124	0x3d866f68	0.06564218
125	0x3e18b975	0.14914496
126	0x3f5971a4	0.84939027
127	0x3e34901c	0.17633098
128	0x3d4accb0	0.04951161
129	0x3b2e5b82	0.0026604836
130	0xbe82d189	-0.25550488
131	0xbd2dad3a	-0.04240153
132	0xbe35e703	-0.17763905
133	0x3b99c040	0.0046921074
134	0xbe912de1	-0.28355315
135	0xbe9c347e	-0.30508798
136	0x3de620f7	0.11236756
137	0x3e62ff48	0.22167695
138	0x3dbd6625	0.09247998
139	0x3d9bb6fb	0.0760326
140	0x3f20dfc8	0.62841463
141	0xbde9abdd	-0.114097334
142	0x3db44be9	0.08803541
143	0xbdb78673	-0.08961191
144	0xbdb9ae53	-0.09066453
145	0x3e9b5b71	0.30343202
146	0xbec53bef	-0.38522288
147	0xbe229c26	-0.15879878
148	0x3db15359	0.086584754
149	0x3bc94af4	0.0061429683
150	0x3c11860a	0.008882055
151	0x3eafddbb	0.34348854
152	0x3dce811d	0.1008322
153	0xbecc3b8c	-0.3988918
154	0xbe169b5a	-0.147077
155	0xbf0f670c	-0.5601661
156	0x3dcc9618	0.099895656
157	0xbd8d03ff	-0.06885528
158	0xbe4c4850	-0.1994946
159	0x3d6d7759	0.057975147
160	0xbedc2920	-0.43000126
161	0xbe8ba47c	-0.2727393
162	0x3e9be2bc	0.30446422
163	0x3e4d289e	0.20035025
164	0xbd3f025c	-0.04663311
165	0xbe18e623	-0.1493154
166	0x3d9e9edd	0.077451445
167	0x3e2dbe11	0.16967036
168	0xbc5b9349	-0.013401815
169	0xbe003cc2	-0.12523177
170	0xbe048f50	-0.12945294
171	0xbcd427ab	-0.025897821
172	0x3c7e4231	0.015518711
173	0xbe35264d	-0.17690392
174	0x3ebe519c	0.37171638
175	0x3f5ae603	0.8550722
176	0xbcc25a64	-0.023724742
177	0x3cf826d4	0.030291952
178	0xbe9d16b9	-0.306814
179	0xbd329f75	-0.0436091
180	0x3d6a2061	0.057159785
181	0xbef52737	-0.4788148
182	0xbd6bacc1	-0.057537798
183	0xbe5cf8a2	-0.21579221
184	0xbd59b188	-0.053147823
185	0x3df35bf2	0.118827716
186	0x3d1042a2	0.035219796
187	0xbef86955	-0.48517862
188	0xbdd02453	-0.10163178
189	0xbe40e113	-0.18835859
190	0xbe1652e6	-0.1468006
191	0xbe1f8873	-0.15579395
192	0x3dfaeff5	0.122527994
193	0xbe21e75f	-0.15810917
194	0xbe08d53b	-0.13362591
195	0xbe0aadf8	-0.13542926
196	0x3e8559c7	0.26045057
197	0x3e170348	0.14747345
198	0x3ed14319	0.40871504
199	0xbc948e17	-0.01813416
200	0xbe5292cc	-0.20563811
201	0x3d313f00	0.043272972
202	0xbe7a8453	-0.2446454
203	0x3ea2b2db	0.3177708
204	0x3e182221	0.14856769
205	0xbe5181e4	-0.20459706
206	0xbf99a3df	-1.2003134
207	0x3e1f0ba3	0.15531783
208	0xbd971d48	-0.07378632
209	0xbe9c1c73	-0.30490455
210	0x3d8dcb19	0.069235034
211	0xbe67469a	-0.22585526
212	0xbe26ad00	-0.16276932
213	0xbd08cb98	-0.033397287
214	0xbe2d5813	-0.16928129
215	0xbf3b1c9d	-0.73090535
216	0x3c3f8d20	0.011691362
217	0x3e0f849d	0.14015432
218	0xbd2fa3ec	-0.042880937
219	0xbd45b076	-0.04826399
220	0xbe9053e1	-0.28188995
221	0x3ec5dd9e	0.38645643
222	0x3d586f38	0.05284044
223	0xbf0cf7e3	-0.55065745
224	0x3ee0b7a5	0.4389011
225	0xbd9f7631	-0.07786215
226	0x3e6b71d4	0.2299264
227	0x3ed87d1d	0.42282954
228	0x3d697c59	0.057003353
229	0x3bac2649	0.0052535874
230	0x3e1d1f70	0.15344024
231	0xbe986c38	-0.29770064
232	0x3d10a821	0.03531659
233	0xbee78a68	-0.45222783
234	0xbce088ca	-0.027408976
235	0x3f13c9c7	0.5772976
236	0x3e281199	0.16412963
237	0xbcf6d7ce	-0.0301322
238	0x3cd01270	0.025399417
239	0xbb1e848f	-0.0024187898
240	0x3ecf05cb	0.40434107
241	0xbe4efe86	-0.2021428
242	0xbc2c7f5a	-0.01052841
243	0xbe85fcf1	-0.2616954
244	0x3dabfc3f	0.083977215
245	0x3ec7f9bd	0.39057723
246	0x3e371d74	0.17882329
247	0xbe7cdf9a	-0.24694672
248	0xbd1813a4	-0.037128106
249	0xbe9cd0c3	-0.30628023
250	0x3dc221ac	0.09479079
251	0xbebb0fb3	-0.36535415
252	0x3d52184c	0.051292703
253	0x3eb60f5e	0.355586
254	0x3b028192	0.0019913656
255	0xbe178528	-0.14796889

ConstantFolding/net/strided_slice_1_enter:0 f4 [20, 20]
0	0xbe73e34b	-0.23817174
1	0x3d9042cb	0.0704399
2	0xbc704698	-0.014665268
3	0x3dc0e090	0.09417832
4	0x3ed5ee32	0.4178329
5	0xbdcc2a0d	-0.09968958
6	0x3c1802ad	0.009277982
7	0x3c8108c6	0.015751254
8	0xbe39d7f9	-0.18148793
9	0x3e4852b1	0.19562794
10	0x3bcc87f2	0.006241792
11	0x3d9ff7f4	0.07810965
12	0x3df7215c	0.1206691
13	0x3db0c1fe	0.08630751
14	0xbf158e12	-0.5841991
15	0xbf381465	-0.7190612
16	0x3df02a88	0.11726862
17	0xbec01338	-0.37514663
18	0xbc31f426	-0.010861432
19	0x3c79af94	0.015239615
20	0x3f17cd63	0.5929777
21	0xbe73558c	-0.23763102
22	0xbe93cc68	-0.28866887
23	0xbd96ce26	-0.073635384
24	0xbdd1c140	-0.10241938
25	0x3e81a3ad	0.25320187
26	0xbe7cd0ce	-0.24689028
27	0xbe8e84f1	-0.278358
28	0xbcff7df3	-0.031187987
29	0x3e1fb404	0.15596014
30	0x3dd0bc0c	0.10192117
31	0x3e9a1090	0.3009076
32	0xbe6d51f3	-0.23175792
33	0xbde87e2c	-0.113521904
34	0x3f4e0b8c	0.8048637
35	0x3e1462b2	0.14490774
36	0x3e95ed7c	0.2928275
37	0xbe514894	-0.20437843
38	0xbd1a45d1	-0.03766424
39	0x3e499ed1	0.1968949
40	0xbec9925b	-0.39369473
41	0xbecdd238	-0.40199447
42	0xbf80d094	-1.0063653
43	0x3e64d0f2	0.22345331
44	0x3f512cb9	0.81708866
45	0xbfac99b5	-1.3484408
46	0x3e4bc0b7	0.19897734
47	0x3eb321df	0.3498678
48	0x3be0811f	0.00685133
49	0xbefbffa4	-0.49218476
50	0x3f644dec	0.891814
51	0x3e660ae0	0.22465086
52	0xbcd4b7fc	-0.025966637
53	0x3e8e478e	0.27788967
54	0xbfc5574d	-1.5417267
55	0x3d86944f	0.06571256
56	0xbea15ebe	-0.31517595
57	0xbf880c1a	-1.0628693
58	0xbe8b9282	-0.27260214
59	0x3e057fc2	0.13037017
60	0xbeed4579	-0.46342066
61	0x3c0c3de8	0.0085596815
62	0x3ebeed04	0.37290204
63	0x3f35869b	0.70908517
64	0xbe124746	-0.14285001
65	0xbed11884	-0.40839016
66	0xbe0b7380	-0.13618279
67	0xbcb0ebe4	-0.021596856
68	0x3e85bd4b	0.26120982
69	0xbd8c135f	-0.06839632
70	0xbe74d22f	-0.23908304
71	0xbd9bb71d	-0.076032855
72	0xbde1b196	-0.110202
73	0x3e6e35b0	0.23262668
74	0x3e72128c	0.23639888
75	0x3d415af2	0.047205873
76	0x3e6e64b4	0.23280603
77	0xbed8b230	-0.42323446
78	0xbe208edd	-0.15679498
79	0x3e3b8bbe	0.18315026
80	0xbf2f4898	-0.68470144
81	0x3e95dab6	0.29268426
82	0xbc6fb36d	-0.014630181
83	0x3cfc3de0	0.030791223
84	0x3ed84011	0.4223638
85	0xbd1ba858	-0.038002342
86	0x3f0e5dc9	0.55611855
87	0xbe4ebdf3	-0.20189647
88	0x3e32d478	0.17463863
89	0x3d0cd10f	0.03437906
90	0x3f24e15a	0.6440636
91	0xbe11c59d	-0.1423554
92	0xbe8632dc	-0.26210678
93	0x3cb5a0a1	0.02217132
94	0xbf156f22	-0.583727
95	0x3e225da2	0.1585603
96	0x3db07b62	0.086172834
97	0xbe982a61	-0.29719833
98	0xbdccd363	-0.10001256
99	0xbec8507e	-0.3912391
100	0x3e1cbde1	0.15306808
101	0xbcb1eb7e	-0.021718737
102	0xbeb2aa73	-0.34895667
103	0xbd7252bb	-0.05916093
104	0x3ee7f169	0.4530137
105	0x3dc16382	0.09442808
106	0x3e0e4775	0.13894446
107	0xbe4a2776	-0.19741616
108	0x3dc78743	0.09742596
109	0xbe4ee24f	-0.20203517
110	0x3ea2f5b9	0.31828097
111	0xbe8f06e9	-0.2793496
112	0xbe879f03	-0.26488504
113	0x3c9f78fd	0.019466871
114	0xbeecadb3	-0.46226272
115	0xbda7eccf	-0.081994645
116	0xbeb18555	-0.34672037
117	0xbe74a187	-0.23889743
118	0xbd10c707	-0.035346057
119	0x3d79d0d8	0.060990185
120	0x3d53db31	0.05172271
121	0x3e4b18b0	0.19833636
122	0xbd0cd95f	-0.03438699
123	0xbcdb0b89	-0.026738899
124	0x3d460af8	0.048350304
125	0xbe4682bb	-0.19385807
126	0x3e5591a9	0.20856346
127	0x3ca99205	0.02069951
128	0xbdaf17bd	-0.085494496
129	0x3c2ed51e	0.010670928
130	0xbbc612ea	-0.006044735
131	0xbc9643af	-0.01834282
132	0x3aa62f10	0.0012678821
133	0x3da306b4	0.07960263
134	0xbe395bc7	-0.18101417
135	0xbd3248f0	-0.04352659
136	0x3c7a41b4	0.015274454
137	0x3e20753f	0.15669726
138	0xbcd3f25a	-0.025872398
139	0xbd51eb93	-0.05125005
140	0x3f08a301	0.53373724
141	0x3ed82163	0.42212972
142	0x3ded1e59	0.11578054
143	0xbe8a3021	-0.26989844
144	0xbe5cffd9	-0.21581973
145	0xbdc011a5	-0.093783654
146	0x3e2af5fc	0.16695398
147	0xbe57c52f	-0.21071313
148	0x3d6dba8d	0.058039237
149	0x3e1e23e8	0.15443385
150	0x3c9a1aa2	0.018811528
151	0xbda07054	-0.07833925
152	0x3dbeaf96	0.09310834
153	0xbdef3ce9	-0.116815396
154	0x3f6582f2	0.8965293
155	0x3e4ae840	0.19815159
156	0xbd87f3b0	-0.066382766
157	0x3e7822ad	0.24231978
158	0xbdd651ed	-0.10464845
159	0x3de36a2d	0.11104236
160	0x3df2824f	0.11841261
161	0xbe43c9d6	-0.19119963
162	0x3e3b5907	0.1829568
163	0x3d81fe72	0.0634736
164	0x3d513e7c	0.05108498
165	0xbdd91355	-0.105993904
166	0xbd8f13fc	-0.069862336
167	0x3e91e54e	0.28495258
168	0x3ed14c84	0.4087869
169	0x3dd7d200	0.10538101
170	0xbe78b122	-0.24286321
171	0x3e8b7d41	0.27244
172	0x3d077180	0.033067226
173	0x3e627ffe	0.22119138
174	0x3f41ab61	0.7565213
175	0x3dbf4ac4	0.09340432
176	0xbe6e1ffc	-0.23254389
177	0x3dbfc3ba	0.09363504
178	0x3e260f4f	0.16216777
179	0x3d9144f0	0.07093227
180	0xbe4bbeb3	-0.19896965
181	0x3b87b56a	0.0041414993
182	0x3e80a736	0.25127572
183	0xbb836506	-0.0040098457
184	0x3e1e0020	0.15429735
185	0xbe675d3c	-0.2259416
186	0x3d08a0a7	0.033356335
187	0x3d1233c8	0.035693914
188	0xbd699f25	-0.057036538
189	0x3e5c27d4	0.21499568
190	0x3e572406	0.21009836
191	0x3a9b5b05	0.0011852687
192	0x3df85e4a	0.12127359
193	0x3eb5264a	0.35380775
194	0xbe552bbe	-0.20817468
195	0xbde01dee	-0.10943209
196	0x3eab166e	0.3341555
197	0xbddbe079	-0.10736174
198	0xbc6eeb5d	-0.014582482
199	0xbdf1c5ca	-0.118053034
200	0xbeb20ce7	-0.3477547
201	0x3e6fe08d	0.23425503
202	0xbdd1b8e9	-0.10240347
203	0xbe386f3c	-0.18011183
204	0x3e73ee7b	0.23821442
205	0xbdfb85e2	-0.122813955
206	0x3c1f174a	0.009710142
207	0x3e85d266	0.26137084
208	0x3e5546fd	0.20827861
209	0x3e9e9107	0.30970022
210	0x3ecd7a76	0.40132493
211	0xbe8c5d7d	-0.27415076
212	0xbdb26e5d	-0.087124564
213	0x3d204ca1	0.03913558
214	0xbe0d11c7	-0.13776313
215	0xbe976962	-0.29572588
216	0xbdc33ebf	-0.09533452
217	0xbe0f2f36	-0.13982853
218	0xbcb814de	-0.022470888
219	0x3db1f3f6	0.0868911
220	0xbe5c3eb1	-0.2150829
221	0x3e896551	0.2683511
222	0x3e7f0f42	0.24908164
223	0xbe0f2c9c	-0.13981861
224	0x3e934721	0.28765205
225	0xbeb473cf	-0.35244605
226	0x3ea78be8	0.32723927
227	0xbd959e60	-0.07305598
228	0x3cc42a6a	0.023946006
229	0xbdfc90e6	-0.12332325
230	0x3e491f74	0.19640905
231	0xbcf7e667	-0.030261232
232	0x3e248442	0.16066077
233	0xbcbac2dd	-0.022797996
234	0xbdbc5020	-0.0919497
235	0xbd50dd1a	-0.05099211
236	0x3babaa46	0.005238804
237	0xbd079052	-0.03309662
238	0xbe086ab8	-0.1332196
239	0xbea5dfa5	-0.3239719
240	0xbe235379	-0.15949811
241	0xbe086b59	-0.133222
242	0x3f018e34	0.5060761
243	0x3e23c1ae	0.15991852
244	0xbf0364aa	-0.51325476
245	0xbe9f51c5	-0.31117073
246	0x3e5487bb	0.20754902
247	0x3e2c6569	0.1683556
248	0xbe1d627a	-0.15369597
249	0x3de79678	0.113079965
250	0x3dfdcc43	0.123924755
251	0x3f1fe140	0.6245308
252	0xbeb1f9fa	-0.3476103
253	0xbe2e976f	-0.17049955
254	0x3f439118	0.7639327
255	0x3eb68571	0.35648683
