wakewords/en/hey_firefox.tflite (tflite, 21888 bytes, 10 tensors)

sequential/dense_1/MatMul f4 [1, 20]
0.28878483 -0.56095093 0.28012004 0.2982859 -0.0847131 -0.15046924 0.4314288 0.8902374
0.13540266 0.2967078 0.10104577 0.44343594 0.2324787 0.25766984 -0.019666212 -0.34192583
0.15898396 0.32431942 0.04582187 0.13000487
00000000: 9bdb 933e 7b9a 0fbf e56b 8f3e eeb8 983e
00000010: 107e adbd 9c14 1abe 3ce4 dc3e 99e6 633f
00000020: ffa6 0a3e 16ea 973e 16f1 ce3d 090a e33e
00000030: e50e 6e3e 4ded 833e 091b a1bc e710 afbe
00000040: b1cc 223e 320d a63e b7af 3b3d ff1f 053e

sequential/net/while/gru_cell/strided_slice_3 f4 [20]
0.060364865 0.18051824 -0.061084934 -0.11507245 -0.010415199 0.37394375 0.22974853 0.15864503
-0.034578823 0.13884197 -0.12319677 -0.13053016 0.03673306 0.13690308 0.13667765 -0.023986608
0.05010414 0.11756791 0.06238044 0.10280552
00000000: 2641 773d c6d9 383e 3234 7abd 1bab ebbd
00000010: 83a4 2abc 8e75 bf3e 3343 6b3e d873 223e
00000020: 86a2 0dbd 972c 0e3e 974e fcbd b3a9 05be
00000030: 6875 163d 5230 0c3e 3af5 0b3e 907f c4bc
00000040: 003a 4d3d 72c7 f03d a282 7f3d b38b d23d

sequential/net/while/gru_cell/strided_slice_4 f4 [20]
0.3183411 0.07652556 0.32550374 0.057248063 0.2507127 0.14545096 0.546636 0.13854238
-0.23708227 0.06442771 0.061341494 0.35548273 0.029801548 0.17732413 0.12377507 0.22861382
0.097957976 0.3300448 -0.055662517 0.017934516
00000000: 9bfd a23e 6fb9 9c3d 6da8 a63e f27c 6a3d
00000010: 6a5d 803e 19f1 143e 56f0 0b3f 0ede 0d3e
00000020: b2c5 72be adf2 833d 3841 7b3d d501 b63e
00000030: 6022 f43c 7594 353e c97d fd3d be19 6a3e
00000040: 319e c83d a2fb a83e 61fe 63bd 68eb 923c

sequential/net/while/gru_cell/strided_slice_5 f4 [20]
-0.20141901 0.314887 -0.18377599 0.079725906 -0.40833998 -0.030168789 -0.23665056 -0.68821436
-0.005046139 -0.017645698 -0.12907587 -0.21762663 0.2902941 -0.34403455 -0.0020024893 0.690215
-0.15631655 0.15638952 0.14358217 0.12047173
00000000: c940 4ebe de38 a13e c62f 3cbe 5647 a33d
00000010: f011 d1be 8924 f7bc 8654 72be d12e 30bf
00000020: 155a a5bb b68d 90bc 772c 04be 84d9 5ebe
00000030: 6ea1 943e 4c25 b0be 323c 03bb eeb1 303f
00000040: 7211 20be 9324 203e 3407 133e e2b9 f63d

sequential/net/while/gru_cell/MatMul_3 f4 [20, 20]
-0.0466754 0.17825238 0.07200474 -0.049332835 0.05663377 0.3129468 -0.15427156 -0.017059283
-0.3100352 0.11682922 -0.0227455 -0.075331286 -0.046554595 0.11954452 -0.1264184 -0.1067104
0.1038801 -0.025149237 0.26221547 0.037704203 0.07643163 -0.29454422 0.08037938 -0.0011184621
-0.2058629 -0.053856436 -0.25982884 0.12234025 -0.049421653 0.09029263 0.09468538 -0.15079363
0.115789525 0.036984492 0.026762951 0.1378233 0.10638955 0.103412606 -0.19836462 0.32576844
-0.007634699 0.26075685 0.242117 0.2494289 -0.11581047 0.09216663 -0.015183822 -0.06408904
-0.036994196 0.02816604 -0.015421136 -0.06836545 -0.08297471 -0.23965958 -0.11043088 -0.15714566
-0.057917956 0.04826612 -0.11279002 0.09583619 -0.11616846 -0.021598995 -0.34137657 -0.31161058
-0.26623964 -0.11376228 0.110584594 0.0017082507 -0.17198154 0.021328567 -0.10379732 0.03185345
-0.048685137 -0.00082953076 0.011073961 -0.15242827 0.22676785 -0.0792826 -0.07623438 0.026376018
-0.06519538 0.058325812 -0.37088287 -0.05083527 0.1823474 -0.18888211 -0.20783044 -0.08554938
0.07401509 0.016580174 0.08133277 -0.027186658 -0.09812273 -0.061026253 -0.3516846 -0.09573349
0.29857263 -0.14401138 -0.03486278 -0.0061212946 0.52259684 0.03459252 0.29125062 -0.06710828
-0.08720726 -0.4184883 -0.2793534 -0.06397342 0.14778697 -0.14519477 0.056165453 -0.26433524
0.060911294 0.12892357 -0.08732548 -0.0489866 0.051369566 0.011942248 0.08788476 0.17569056
-0.186571 -0.012168418 0.09687636 0.27599934 -0.21440744 -0.06386468 0.11880702 -0.13407613
0.12774898 0.101849526 0.25154495 0.090762176 0.032091405 0.22927378 -0.15913661 0.2185013
-0.11536571 0.09033902 -0.23899208 -0.044642687 -0.33695439 -0.033675928 0.33606 -0.040934514
0.27038574 -0.13366427 -0.09899658 -0.16311188 -0.0015561262 0.100716606 -0.09895311 0.02901166
0.09916006 -0.028794175 0.10964657 0.07063804 -0.047616083 0.34607676 0.16748373 0.09230276
-0.09297874 -0.073604144 -0.064677775 -0.11068106 0.3459478 0.15963735 0.13322096 0.022520738
-0.06944612 0.10296862 0.16918564 0.09637581 0.029019035 0.08442652 -0.06860021 0.06738673
0.048945826 0.21095823 0.081968635 -0.047024857 -0.045133404 -0.03505294 0.042454727 0.0646374
-0.19672632 0.31870827 -0.011602925 -0.11420562 -0.09085196 0.22059427 -0.2119893 0.23081043
0.004912941 -0.22011223 0.12860161 0.056961305 -0.46012318 -0.11480831 0.21613313 -0.1050122
0.045777794 -0.08823142 0.05110286 -0.041644774 -0.03732585 -0.083860286 0.09681138 -0.007754433
-0.03891084 -0.04500681 0.03116267 0.36495304 -0.0060345517 -0.33279246 0.05637865 0.0108748125
0.08572254 0.20910569 0.1311604 0.030577544 -0.022980263 0.08448457 0.0011909242 0.18547074
-0.0047435304 -0.07862272 0.27519193 0.05893165 0.00778002 -0.19883753 0.11829373 -0.37356657
-0.021799896 0.025064304 -0.06123749 -0.07437616 -0.058009993 -0.032949664 0.08773743 0.008025906
-0.27774957 -0.11894093 -8.404439e-05 0.017443353 0.17302996 0.066574 -0.042569745 -0.31145236
0.07099563 0.11668579 0.25283885 -0.015011939 0.0047952416 0.01632026 0.040137894 -0.046303675
00000000: b42e 3fbd cb87 363e 3977 933d 3a11 4abd
00000010: d0f8 673d 903a a03e 5df9 1dbe e9bf 8bbc
00000020: efbc 9ebe 2844 ef3d c554 babc 4a47 9abd
00000030: 08b0 3ebd c2d3 f43d d373 01be fb8a dabd
00000040: 17bf d43d c605 cebc 1b41 863e b96f 1a3d
00000050: 3088 9c3d 80ce 96be f29d a43d 5c99 92ba
00000060: b9cd 52be 9198 5cbd 4908 85be 868d fa3d
00000070: 5c6e 4abd 58eb b83d 69ea c13d a569 1abe
00000080: 0f23 ed3d 0d7d 173d fa3d db3c 8d21 0d3e
00000090: c4e2 d93d fdc9 d33d 1820 4bbe 1fcb a63e
000000a0: 7f2c fabb ec81 853e 85ed 773e 4a6a 7f3e
000000b0: 0a2e edbd dcc1 bc3d 91c5 78bc 1d41 83bd
000000c0: 3a87 17bd 78bc e63c efa8 7cbc 2f03 8cbd
000000d0: a5ee a9bd 5269 75be 9629 e2bd cbea 20be
000000e0: 613b 6dbd b2b2 453d 74fe e6bd c445 c43d
000000f0: bbe9 edbd 60f0 b0bc e9c8 aebe 6c8b 9fbe
00000100: 9050 88be 33fc e8bd 2d7a e23d 62e7 df3a
00000110: ee1b 30be 3fb9 ae3c b093 d4bd c378 023d
00000120: 116a 47bd de74 59ba 8f6f 353c 2816 1cbe
00000130: d535 683e ea5e a2bd c520 9cbd 8512 d83c
00000140: 2885 85bd 0ce7 6e3d 5ce4 bdbe a538 50bd
00000150: 47b9 3a3e 506a 41be 81d1 54be 8334 afbd
00000160: 3995 973d 25d3 873c cc91 a63d 8eb6 debc
00000170: 92f4 c8bd aaf6 79bd 0110 b4be ec0f c4bd
00000180: 83de 983e b877 13be 46cc 0ebd 2495 c8bb
00000190: e8c8 053f e3b0 0d3d cd1e 953e 1170 89bd
000001a0: b899 b2bd 1944 d6be 6907 8fbe 7f04 83bd
000001b0: 7855 173e f0ad 14be bf0d 663d f356 87be
000001c0: 1f7e 793d 8a04 043e b4d7 b2bd 2ca6 48bd
000001d0: e568 523d 6ba9 433c edfc b33d 3ae8 333e
000001e0: 780c 3fbe 0b5e 47bc 1d67 c63d c94f 8d3e
000001f0: a08d 5bbe 7ccb 82bd 1851 f33d 414b 09be
00000200: a1d0 023e 7c96 d03d 80ca 803e 85e1 b93d
00000210: 4772 033d bfc6 6a3e b5f4 22be cebe 5f3e
00000220: db44 ecbd aa03 b93d 57ba 74be 40db 36bd
00000230: 4985 acbe c5ef 09bd 0e10 ac3e f3aa 27bd
00000240: 0070 8a3e 49df 08be b8be cabd cd06 27be
00000250: eef6 cbba 8244 ce3d eea7 cabd dca9 ed3c
00000260: 6e14 cb3d c3e1 ebbc 628e e03d adaa 903d
00000270: 1509 43bd f930 b13e db80 2b3e 3b09 bd3d
00000280: a36b bebd c5bd 96bd c875 84bd c0ac e2bd
00000290: 1220 b13e f977 233e 136b 083e 697d b83c
000002a0: c439 8ebd 36e1 d23d 003f 2d3e ae60 c53d
000002b0: 54b9 ed3c d0e7 ac3d 447e 8cbd 0e02 8a3d
000002c0: 6b7b 483d 6f05 583e 2cdf a73d 239d 40bd
000002d0: cedd 38bd ac93 0fbd 02e5 2d3d 9d60 843d
000002e0: a072 49be bb2d a33e 321a 3ebc a3e4 e9bd
000002f0: 9810 babd 77e3 613e b913 59be 9259 6c3e
00000300: bcfc a03b 1a65 61be 24b0 033e 4250 693d
00000310: 4495 ebbe 9f20 ebbd 0152 5d3e a310 d7bd
00000320: 7f81 3b3d adb2 b4bd 3c51 513d b693 2abd
00000330: fee2 18bd f1be abbd 0b45 c63d e618 febb
00000340: f960 1fbd 1059 38bd db48 ff3c 20db ba3e
00000350: 7dbd c5bb c663 aabe 4ded 663d 452c 323c
00000360: 4d8f af3d cd1f 563e e94e 063e c27d fa3c
00000370: 1b41 bcbc 3f06 ad3d c918 9c3a 0bec 3d3e
00000380: 9e6f 9bbb f304 a1bd f5e5 8c3e 5062 713d
00000390: 8aef fe3b 119c 4bbe fc43 f23d 1e44 bfbe
000003a0: b295 b2bc a853 cd3c 2ad4 7abd 8752 98bd
000003b0: e39b 6dbd 3af6 06bd afaf b33d 177f 033c
000003c0: 3135 8ebe 4d97 f3bd fd40 b0b8 5de5 8e3c
000003d0: c42e 313e f357 883d 9d5d 2ebd af76 9fbe
000003e0: 2866 913d f6f8 ee3d 1874 813e a3f4 75bc
000003f0: 6721 9d3b 11b2 853c a267 243d eca8 3dbd

sequential/net/while/gru_cell/MatMul_4 f4 [20, 20]
-0.5314214 0.04506707 0.19057278 0.23073013 0.10805016 -0.075732164 0.004803295 0.025251696
0.0065050405 0.087580085 -0.15986198 -0.070035644 0.21743755 0.2359763 -0.10039503 0.041480955
-0.18358967 0.012677703 -0.07681351 -0.07816413 -0.19040155 0.22105205 0.17682743 0.29582235
0.03148115 -0.17108135 -0.31824446 0.04948761 0.13622199 0.25635996 0.0023881688 -0.26766124
0.32960165 0.07789318 -0.18742822 0.34195358 -0.021471737 0.0009367356 -0.23028842 0.036451053
0.09135931 0.1329071 -0.18230994 -0.068452954 -0.4810477 0.058434516 0.021429965 0.07912244
-0.088170186 0.49165148 -0.06631674 0.033576902 0.2303239 -0.043242052 -0.16592376 0.050232444
0.07687071 0.015974093 0.22252268 -0.11903124 0.06839339 0.1307607 -0.3686631 -0.2725104
-0.14284284 0.02502073 -0.010798143 -0.11395718 -0.051193196 0.23410763 -0.18377134 -0.014327623
-0.26863265 -0.4640987 -0.3672918 0.25766036 -0.48861694 0.30180925 0.1326272 -0.28692397
-0.019046132 0.07003363 -0.3624015 -0.051949937 -0.16601726 -0.10268738 0.018716242 -0.043850534
-0.35279554 -0.21256308 -0.13228838 -0.11133699 0.0416636 -0.097959615 -0.17557012 0.09084253
-0.14271626 -0.19346496 0.057831895 0.07038539 -0.013575736 -0.33478418 0.04434874 0.036757845
0.35180283 -0.14034078 -0.035758402 -0.13373597 0.041884862 -0.24647942 -0.1265231 -0.11011787
0.07368607 0.017033882 0.091425195 -0.11881276 -0.010682796 -0.07131756 0.30608732 -0.03177798
-0.26972014 -0.033912435 0.024659706 -0.09165982 0.10783436 0.02445811 -0.06771378 0.024359807
0.29030636 0.07883399 -0.08685015 0.0010481367 0.042857252 0.42691907 -0.18956184 -0.24227905
-0.004727223 -0.19417804 0.14190835 0.22345261 0.44917768 0.006750125 0.122093216 -0.31435627
0.024739949 0.009267856 -0.3587036 -0.10087682 -0.04470072 -0.09700888 0.36921352 -0.25768784
0.0873238 0.08947034 0.09226798 -0.1878293 0.17143798 -0.24408339 -0.114641026 -0.2190341
0.24035282 -0.18255775 0.18904541 0.1876312 0.0118528465 0.10608855 0.10003214 0.21817513
0.18683684 -0.14773542 0.052991025 -0.21179971 0.15495072 -0.078835875 -0.027404314 0.060248744
0.24365203 0.16194859 -0.1600416 -0.09972751 -0.12832896 0.090474546 -0.11613013 -0.040277086
-0.1681358 -0.011576544 -0.12076893 0.044484302 -0.36965227 0.1326597 -0.22605543 0.07251016
0.07668516 -0.11761894 -0.08705019 0.034791067 0.028182883 -0.051299244 0.57784337 0.11341707
-0.20326014 0.22542123 0.24473783 0.04129471 -0.23498967 0.19958425 -0.023030926 -0.07674274
-0.14939971 -0.107021965 -0.10208439 -0.19412048 0.21407582 -0.19620539 -0.10563967 -0.045481443
0.09959856 -0.036996305 -0.106852345 0.2378759 0.022185128 0.033350404 -0.04785544 0.09047268
0.1812077 0.12109723 0.18668391 0.2926156 0.17429613 -0.08215809 0.14765035 0.25580376
0.122312695 0.14794187 -0.13249356 -0.09781945 0.08947558 0.16582754 0.2647851 0.060372487
0.12966472 0.19520366 0.04490443 0.0499038 0.22285938 0.0119169485 -0.12205788 0.13337038
0.04467414 0.2951134 -0.05212872 -0.12715018 0.1914188 0.07281593 0.013581854 -0.15531361
00000000: 3c0b 08bf 3f98 383d 8325 433e 8544 6c3e
00000010: 6749 dd3d 7719 9bbd f564 9d3b a5dc ce3c
00000020: 3c28 d53b 305d b33d dcb2 23be d96e 8fbd
00000030: f3a7 5e3e c5a3 713e e99b cdbd efe7 293d
00000040: eefe 3bbe 24b6 4f3c 6750 9dbd 8414 a0bd
00000050: a0f8 42be 785b 623e 4012 353e 0776 973e
00000060: 61f2 003d f32f 2fbe f0f0 a2be 85b3 4a3d
00000070: c77d 0b3e 9d41 833e d382 1c3b e50a 89be
00000080: 8cc1 a83e 7686 9f3d 2fed 3fbe 8a14 af3e
00000090: 7fe5 afbc 438f 753a bad0 6bbe b34d 153d
000000a0: 971a bb3d cc18 083e 75af 3abe 1031 8cbd
000000b0: e24b f6be 0859 6f3d e58d af3c f20a a23d
000000c0: 9292 b4bd beb9 fb3e 12d1 87bd ef87 093d
000000d0: 07da 6b3e 941e 31bd ebe7 29be 89c0 4d3d
000000e0: 646e 9d3d 1adc 823c fcdc 633e a7c6 f3bd
000000f0: d511 8c3d 22e6 053e 69c1 bcbe 7c86 8bbe
00000100: 6545 12be 46f8 cc3c b2ea 30bc 6262 e9bd
00000110: f5af 51bd e9b9 6f3e 8e2e 3cbe 68be 6abc
00000120: 388a 89be 589e edbe ac0d bcbe 0fec 833e
00000130: 002c fabe be86 9a3e 6dcf 073e b3e7 92be
00000140: a206 9cbc cb6d 8f3d b08c b9be 75c9 54bd
00000150: 6e00 2abe c34d d2bd ce52 993c 9e9c 33bd
00000160: 9ea1 b4be 23aa 59be 9b76 07be a604 e4bd
00000170: 73a7 2a3d 0d9f c8bd a7c8 33be a60b ba3d
00000180: 3624 12be ae1b 46be 23e1 6c3d 3726 903d
00000190: c46c 5ebc d568 abbe 06a7 353d 658f 163d
000001a0: 801f b43e 7eb5 0fbe 6777 12bd 15f2 08be
000001b0: 768f 2b3d 1a65 7cbe 468f 01be 7a85 e1bd
000001c0: b9e8 963d a48a 8b3c 223d bb3d 1b54 f3bd
000001d0: e506 2fbc f10e 92bd 7ab7 9c3e a129 02bd
000001e0: c218 8abe c4e7 0abd 2703 ca3c 25b8 bbbd
000001f0: 43d8 dc3d 605c c83c 86ad 8abd 388e c73c
00000200: 09a3 943e b773 a13d 7ede b1bd a261 893a
00000210: 168b 2f3d 2395 da3e 801c 42be 0018 78be
00000220: d2e6 9abb 9cd6 46be 6c50 113e c3d0 643e
00000230: 9efa e53e 2730 dd3b 020c fa3d 4ef3 a0be
00000240: 6fab ca3c 35d8 173c 00a8 b7be 8298 cebd
00000250: 1a18 37bd 97ac c6bd 8e09 bd3e a9ef 83be
00000260: d2d6 b23d 3a3c b73d fff6 bc3d 5356 40be
00000270: 708d 2f3e fff0 79be eac8 eabd 7a4a 60be
00000280: 0d1f 763e 6bf0 3abe 1f95 413e 6522 403e
00000290: 7132 423c f444 d93d a7dd cc3d 4d69 5f3e
000002a0: 2852 3f3e f447 17be 1e0d 593d 06e2 58be
000002b0: 67ab 1e3e b474 a1bd 037f e0bc 63c7 763d
000002c0: eb7f 793e dad5 253e f2e1 23be f03d ccbd
000002d0: ab68 03be b84a b93d a2d5 edbd 96f9 24bd
000002e0: cb2b 2cbe 8bab 3dbc b355 f7bd 2c35 363d
000002f0: 1043 bdbe f2d7 073e 137b 67be 3580 943d
00000300: 1c0d 9d3d 33e2 f0bd 5f47 b2bd 1481 0e3d
00000310: cadf e63c 281f 52bd 8bed 133f 3547 e83d
00000320: 6d23 50be d3d4 663e 8e9c 7a3e a424 293d
00000330: 22a1 70be d05f 4c3e 5aab bcbc 4c2b 9dbd
00000340: 3dfc 18be 552e dbbd 9f11 d1bd 85c7 46be
00000350: b136 5b3e 11ea 48be 9c59 d8bd c04a 3abd
00000360: 54fa cb3d 7089 17bd 67d5 dabd bd95 733e
00000370: 96bd b53c 6f9a 083d 1104 44bd be49 b93d
00000380: 838e 393e d301 f83d 112a 3f3e b6d1 953e
00000390: af7a 323e 8042 a8bd a731 173e b6f8 823e
000003a0: 147f fa3d 137e 173e 64ac 07be 9055 c8bd
000003b0: f93e b73d b2ce 293e ea91 873e 2449 773d
000003c0: d4c6 043e 78e3 473e b5ed 373d ed67 4c3d
000003d0: 4035 643e 4e3f 433c 7bf9 f9bd 3f92 083e
000003e0: 3bfc 363d 1b19 973e ed84 55bd a833 02be
000003f0: 4a03 443e 8520 953d 6d86 5e3c 880a 1fbe

sequential/net/while/gru_cell/MatMul_5 f4 [20, 20]
0.39486894 -0.15011315 0.28425482 0.0072660726 -0.08660102 -0.32382154 -0.3928408 -0.18544269
-0.19651733 0.22514407 0.19487564 -0.50689477 0.1502142 -0.27933237 0.32120278 0.18179332
0.03358036 -0.03999077 0.4482932 0.18989451 -0.38653573 0.2631045 -0.33216667 0.1887398
-0.052438326 0.14802021 -0.26518354 -0.07672 0.022759596 0.095152736 0.10982901 -0.07920529
0.11434375 0.018915296 -0.043904044 0.51482296 -0.0586577 0.048767198 -0.12547664 0.020006122
0.07890513 0.039480813 0.2546859 -0.041222442 0.08390121 -0.52449834 0.19587569 -0.27316156
-0.13924122 0.11310587 -0.13848782 0.16203739 -0.117692 0.3715697 -0.08296955 -0.55123615
0.11379376 -0.05386053 -0.049081206 0.4646733 0.25586826 0.029025843 0.027975485 -0.06882107
0.660474 -0.0047955946 -0.3164362 0.069276705 0.0049055917 -0.16343732 0.39344943 -0.047251735
0.38819486 -0.015654594 -0.09951183 0.50805277 0.15303336 0.076656856 -0.17884973 -0.13413961
-0.05255662 0.20881139 -0.19642104 0.5046795 0.33006698 0.2578961 -0.24860662 -0.02150954
0.32821617 0.3683449 0.2841299 0.18041517 -0.28898016 0.3148429 -0.07894376 0.2429749
0.19249351 -0.0952948 0.3141318 0.07280579 0.07012484 -0.1969893 0.16112219 0.05179689
0.259604 0.52005345 -0.24525358 0.15472478 -0.14500023 -0.12564833 -0.3247317 0.024475997
0.09353067 -0.11510024 -0.03314714 -0.020568907 -0.195457 0.1545651 -0.30082488 -0.318888
0.09770356 -0.25621536 -0.10034736 -0.021752726 0.56911194 -0.5525847 0.27919805 0.752513
0.030584592 -0.073585816 0.14018404 0.17900932 -0.051910993 0.1289585 -0.24932921 -0.050684795
0.16202171 -0.06772445 -0.039092347 -0.33982062 -0.0047711823 -0.29635426 0.046466503 -0.11576056
0.21144077 0.17316553 0.2533969 0.24600713 -0.10693244 0.049058445 0.076670274 0.047914654
0.10712694 0.14336182 -0.09744634 -0.901617 0.23024328 -0.40093938 0.23164482 0.079577945
0.08030981 0.2813478 -0.5267614 0.09801354 0.42912713 -0.15727477 -0.068663575 0.01906049
0.04473654 0.048473287 -0.3571764 -0.084294826 -0.011773011 0.18195482 0.22240207 -0.20272648
0.14580329 0.042899877 0.09014982 0.124505326 -0.13410127 0.021340517 -0.04285637 -0.08646109
-0.13982064 -0.08448488 0.13479288 0.050100815 -0.16370578 0.010302452 0.02524858 0.17801021
-0.12493065 0.19442701 -0.18167153 -0.01627376 -0.313621 0.025610836 0.24085706 -0.064437315
0.117756635 -0.1481974 0.10595145 0.17513378 0.07986701 0.0856129 -0.20656848 -0.12310874
-0.25227746 0.027106622 -0.030492276 0.19344704 -0.16275004 -0.15604761 0.030160662 -0.17898588
0.34069732 -0.20853432 0.2274173 0.06378392 0.14331765 0.022756448 -0.04364797 0.17433892
0.111375876 0.39153376 -0.24466677 0.30151117 0.016892865 -0.28354248 -0.12897542 -0.10391199
-0.084624186 0.1950072 -0.08732785 0.23144983 0.2728259 -0.112011336 -0.0370855 0.123868905
-0.042664617 0.03728622 0.41179314 -0.21305372 0.15639125 -0.39804432 0.34724542 0.13552445
-0.40985188 0.16729549 -0.2276569 0.045019377 0.16619574 -0.13366681 -0.056508757 -0.024554752
00000000: 432c ca3e 43b7 19be d989 913e 3c18 ee3b
00000010: e05b b1bd f0cb a5be 6e22 c9be b0e4 3dbe
00000020: d73b 49be 2b8c 663e 7b8d 473e dbc3 01bf
00000030: c0d1 193e a704 8fbe b174 a43e 0728 3a3e
00000040: 8f8b 093d 5dcd 23bd b086 e53e b573 423e
00000050: 03e8 c5be a2b5 863e c011 aabe 0245 413e
00000060: 92c9 56bd 9c92 173e 23c6 87be 601f 9dbd
00000070: 5572 ba3c 70df c23d 08ee e03d 6236 a2bd
00000080: 0e2d ea3d 40f4 9a3c bad4 33bd 70cb 033f
00000090: 0e43 70bd 1dc0 473d f37c 00be e1e3 a33c
000000a0: 0399 a13d a2b6 213d 3166 823e ddd8 28bd
000000b0: 66d4 ab3d 8645 06bf a393 483e d5db 8bbe
000000c0: 4095 0ebe 0da4 e73d c0cf 0dbe 21ed 253e
000000d0: 8108 f1bd 623e be3e f0eb a9bd d01d 0dbf
000000e0: b40c e93d dc9c 5cbd 6009 49bd a9e9 ed3e
000000f0: 2a01 833e 9bc7 ed3c d82c e53c 10f2 8cbd
00000100: d314 293f 5d24 9dbb ed03 a2be f2e0 8d3d
00000110: 16bf a03b 1d5c 27be 3472 c93e 098b 41bd
00000120: 7ac1 c63e 103e 80bc dccc cbbd bf0f 023f
00000130: c7b4 1c3e 45fe 9c3d 6224 37be e55b 09be
00000140: 9c45 57bd a7d2 553e 9922 49be ad32 013f
00000150: 8afe a83e f50a 843e bc92 7ebe c634 b0bc
00000160: f30b a83e b497 bc3e 7979 913e c1be 383e
00000170: 35f5 93be 1733 a13e 44ad a1bd 6ace 783e
00000180: 051d 453e ec29 c3bd e2d5 a03e 341b 953d
00000190: 9d9d 8f3d 90b7 49be 37fd 243e fa28 543d
000001a0: d1ea 843e 3922 053f c123 7bbe 2c70 1e3e
000001b0: f17a 14be f5a9 00be 3c43 a6be e381 c83c
000001c0: 028d bf3d adb9 ebbd 4cc5 07bd 2080 a8bc
000001d0: e125 48be 5046 1e3e b805 9abe 4a45 a3be
000001e0: ce18 c83d a92e 83be eb82 cdbd c632 b2bc
000001f0: 52b1 113f 3176 0dbf 0cf3 8e3e b1a4 403f
00000200: 8a8c fa3c 29b4 96bd 688c 0f3e 384e 373e
00000210: 9fa0 54bd b20d 043e 2850 7fbe dc9a 4fbd
00000220: 05e9 253e 1eb3 8abd 4c1f 20bd f8fc adbe
00000230: 9457 9cbb bfbb 97be a953 3e3d df13 edbd
00000240: ee83 583e 4e52 313e 3dbd 813e 4be9 7b3e
00000250: 65ff dabd 82f1 483d 4e05 9d3d 2842 443d
00000260: 5e65 db3d 71cd 123e f291 c7bd 5fd0 66bf
00000270: e5c4 6b3e ed47 cdbe 4d34 6d3e c3f9 a23d
00000280: 7879 a43d d20c 903e d6d9 06bf 53bb c83d
00000290: 8db6 db3e a30c 21be 7d9f 8cbd bf24 9c3c
000002a0: aa3d 373d ed8b 463d d3df b6be c4a2 acbd
000002b0: 96e3 40bc 5d52 3a3e 5ebd 633e 8897 4fbe
000002c0: 754d 153e c8b7 2f3d 78a0 b83d a6fc fe3d
000002d0: d851 09be 4fd2 ae3c 298a 2fbd 8312 b1bd
000002e0: 242d 0fbe 6906 adbd 2507 0a3e 8336 4d3d
000002f0: 7da2 27be 9ecb 283c 1cd6 ce3c 4f48 363e
00000300: a4db ffbd e017 473e 1a08 3abe 8c50 85bc
00000310: ef92 a0be d1cd d13c 3ca3 763e b6f7 83bd
00000320: 642a f13d 0fc1 17be 13fd d83d 4556 333e
00000330: 5191 a33d d155 af3d b086 53be 6f20 fcbd
00000340: 832a 81be b50e de3c f0ca f9bc fb16 463e
00000350: f2a7 26be f2ca 1fbe 7e13 f73c 1348 37be
00000360: e16f ae3e 058a 55be 15e0 683e 25a1 823d
00000370: ddc1 123e bb6b ba3c 37c8 32bd e785 323e
00000380: 0919 e43d 1d77 c83e ed89 7abe ac5f 9a3e
00000390: e862 8a3c 7b2c 91be 2212 04be cfcf d4bd
000003a0: 724f adbd f8af 473e f2d8 b2bd 2f01 6d3e
000003b0: d6af 8b3e 3366 e5bd f7e6 17bd fbae fd3d
000003c0: 18c1 2ebd 6fb9 183d 8dd6 d23e c12a 5abe
000003d0: 0725 203e 77cc cbbe 27ca b13e ecc6 0a3e
000003e0: 1bd8 d1be 824f 2b3e e41e 69be 3d66 383d
000003f0: 372f 2a3e f4df 08be ba75 67bd 0c27 c9bc

sequential/net/while/gru_cell/MatMul f4 [20, 13]
-0.022012176 -0.02289939 -0.007526573 0.41513267 0.013535015 -0.19185238 0.18617098 0.29211885
-0.014064097 -0.34612733 0.3946336 -0.16874349 -0.34386712 -0.07561401 -0.0026202896 0.10256775
-0.047304746 0.1691871 0.11509384 0.052344054 0.5526338 0.18928945 0.040727872 -0.20090927
0.5193095 0.30290854 -0.19800656 -0.07574915 -0.01927373 0.088840194 -0.00049326156 -0.005553722
0.08935789 0.115754046 0.103432976 -0.30850652 0.06614076 0.035608552 0.11886493 0.038850296
-0.02223819 -0.02182942 -0.1258852 0.101828836 0.11234931 -0.25138995 0.119109064 -0.13984197
0.013163054 -0.40377754 0.026091594 -0.24889755 -0.09343272 0.024599371 -0.15817338 -0.0528053
0.15480384 0.09971461 0.0010512474 0.048377022 0.1382256 -0.27160594 0.25827992 0.12173953
0.090000056 0.0030264996 0.029931651 -0.054106746 -0.047812346 -0.50640744 0.17360502 -0.064792
-0.03296452 0.08997674 0.38269466 0.21624798 -0.2404457 -0.019581769 -0.25554496 -0.07536006
0.04576463 -0.0030402595 0.17827551 0.114914134 -0.24122062 -0.07079029 0.008765856 -0.040504877
-0.052213497 0.12437747 0.37040398 -0.17760205 0.0032199179 0.024369268 0.083971985 0.08913206
-0.104558095 0.15543057 0.08225032 -0.3926507 0.1888066 0.059544124 -0.12713094 -0.27802366
-0.01828289 0.31303698 0.03679469 -0.16652867 -0.03778751 -0.2551235 -0.36099204 -0.3667849
0.15106553 -0.10701687 0.10667401 -0.05167969 -0.24120036 -0.04665884 0.019721897 0.096687585
0.28588504 0.01296239 0.33848378 0.3865122 0.31701446 0.3702099 0.12150361 0.3084738
-0.31595787 0.55348194 0.07107021 0.059307273 -0.028364848 -0.03969286 -0.07854131 -0.021246346
0.13070616 -0.032296546 -0.39600185 -0.10607982 -0.2705731 -0.09792228 0.00023910048 0.1886382
0.10547256 0.018423226 0.013959111 -0.04480199 -0.10409586 0.12628575 0.2152273 -0.034984093
-0.09953823 -0.040781308 0.12896027 0.3899151 0.030401243 -0.067796454 0.060517974 0.017219251
0.12528598 -0.16254237 -0.056425173 0.23297907 0.16436622 -0.34336373 0.1324265 -0.055701148
0.26211533 -0.021524519 0.3545055 -0.21796016 0.053423483 -0.004301728 -0.17409807 -0.07137765
-0.31306705 -0.123328805 -0.017895218 -0.1071374 -0.31578037 -0.23169462 -0.02829273 -0.018308867
-0.046442255 -0.018782424 0.079458766 0.052110452 -0.12259215 0.2880677 0.29503626 0.0164776
0.016512671 0.15676048 -0.06070436 0.16084157 -0.12836742 0.05292751 -0.013207644 -0.22163627
0.02779522 -0.08537249 -0.29211012 0.063821696 0.25704342 0.0195853 -0.250874 0.28187346
-0.007603232 0.01901722 0.24204494 0.10707388 0.107994266 0.0017461746 0.08793105 -0.113509305
-0.02853278 -0.21486953 -0.20104182 0.03590911 -0.26077315 0.07034051 -0.029721063 0.0046867486
0.05292542 -0.12722154 -0.18406011 0.36140808 -0.08630232 -0.009485698 -0.07158276 -0.060749523
-0.25683197 0.059088293 0.3143964 0.06983319 -0.09894689 -0.38872406 -0.013821194 0.5002362
0.037728235 -0.7549112 -0.05123355 0.5081536 -0.06321552 -0.31174085 0.18124883 0.036720242
-0.03546354 -0.011729703 -0.38542 -0.12319263 0.0958724 -0.008735931 0.15414111 0.026308097
00000000: e152 b4bc 8097 bbbc 78a1 f6bb 458c d43e
00000010: f8c1 5d3c f374 44be 9ba3 3e3e 9a90 953e
00000020: 196d 66bc 9a37 b1be 6a0d ca3e 18cb 2cbe
00000030: 5a0f b0be 85db 9abd 2ab9 2bbb 0a0f d23d
00000040: 9fc2 41bd 623f 2d3e 52b6 eb3d b866 563d
00000050: 6979 0d3f 18d5 413e 45d2 263d 29bb 4dbe
00000060: 78f1 043f d416 9b3e 3bc2 4abe 5f22 9bbd
00000070: f1e3 9dbc d9f1 b53d 394e 01ba fffb b5bb
00000080: 4501 b73d 7510 ed3d abd4 d33d 91f4 9dbe
00000090: cf74 873d 46da 113d 756f f33d 7d21 1f3d
000000a0: dd2c b6bc 9dd3 b2bc 0de8 00be a38b d03d
000000b0: 6517 e63d 2fb6 80be 74ef f33d bc32 0fbe
000000c0: daa9 573c eebb cebe 0abe d53c 00df 7ebe
000000d0: a759 bfbd 9f84 c93c 34f8 21be 5f4a 58bd
000000e0: e684 1e3e 2c37 cc3d 02ca 893a fc26 463d
000000f0: 038b 0d3e ef0f 8bbe 443d 843e 9352 f93d
00000100: f351 b83d 3d58 463b 3933 f53c 099f 5dbd
00000110: e1d6 43bd eba3 01bf 84c5 313e abb1 84bd
00000120: ce05 07bd ba45 b83d 8ef0 c33e 1c70 5d3e
00000130: 6637 76be f269 a0bc cad6 82be 6056 9abd
00000140: b173 3b3d 173f 47bb db8d 363e 1a58 eb3d
00000150: 8a02 77be 80fa 90bd aa9e 0f3c 71e8 25bd
00000160: d2dd 55bd 9db9 fe3d 97a5 bd3e 50dd 35be
00000170: 4205 533b 0fa2 c73c 81f9 ab3d df8a b63d
00000180: 8e22 d6bd 3129 1f3e db72 a83d 8309 c9be
00000190: 8456 413e 8ae4 733d 9d2e 02be 1e59 8ebe
000001a0: 00c6 95bc 6246 a03e 07b6 163d 7e86 2abe
000001b0: 13c7 1abd 8c9f 82be f3d3 b8be 3bcb bbbe
000001c0: ecb0 1a3e a92b dbbd e777 da3d 15ae 53bd
000001d0: 3afd 76be 571d 3fbd d18f a13c 2404 c63d
000001e0: 865f 923e 3460 543c bf4d ad3e ede4 c53e
000001f0: b84f a23e 278c bd3e e2d6 f83d 47f0 9d3e
00000200: 3bc5 a1be feb0 0d3f 428d 913d 2fec 723d
00000210: 665d e8bc fb94 22bd 44da a0bd d10c aebc
00000220: d6d7 053e 6249 04bd c1c0 cabe 6040 d9bd
00000230: 8f88 8abe 7a8b c8bd 0cb7 7a39 5f2a 413e
00000240: ff01 d83d 4eec 963c c1b4 643c 4b82 37bd
00000250: 3630 d5bd 0d51 013e 8c64 5c3e 7b4b 0fbd
00000260: b3da cbbd 4d0a 27bd 290e 043e f4a2 c73e
00000270: 070c f93c ded8 8abd b2e1 773d 630f 8d3c
00000280: f84a 003e 8271 26be 151e 67bd 1192 6e3e
00000290: 9e4f 283e 5fcd afbe d09a 073e e326 64bd
000002a0: fb33 863e 3054 b0bc bf81 b53e f330 5fbe
000002b0: 95d2 5a3d 83f5 8cbb c446 32be 722e 92bd
000002c0: 534a a0be d093 fcbd fe98 92bc da6a dbbd
000002d0: f7ad a1be 5b41 6dbe 28c6 e7bc 7afc 95bc
000002e0: 3c3a 3ebd 99dd 99bc 47bb a23d c571 553d
000002f0: 9811 fbbd 9c7d 933e fe0e 973e 08fc 863c
00000300: 9545 873c d285 203e 23a5 78bd a7b3 243e
00000310: c072 03be 84ca 583d e064 58bc 9ef4 62be
00000320: cdb2 e33c c6d7 aebd 758f 95be f3b4 823d
00000330: 329b 833e 5a71 a03c 8f72 80be b851 903e
00000340: 8824 f9bb 00ca 9b3c a1da 773e 8d49 db3d
00000350: 192c dd3d e6df e43a 3215 b43d 9177 e8bd
00000360: 94bd e9bc c206 5cbe e8dd 4dbe 6e15 133d
00000370: 0f84 85be af0e 903d 9679 f3bc 4c93 993b
00000380: 53c8 583d 5d46 02be 417a 3cbe 7b0a b93e
00000390: 45bf b0bd e769 1bbc fb99 92bd 7ed4 78bd
000003a0: 7b7f 83be 9106 723d 91f8 a03e b404 8f3d
000003b0: aba4 cabd d706 c7be 4a72 62bc 7b0f 003f
000003c0: ec88 1a3d dc41 41bf 45da 51bd 5b16 023f
000003d0: 2377 81bd 7f9c 9fbe 4b99 393e f767 163d
000003e0: 3842 11bd f12d 40bc c555 c5be 6b4c fcbd
000003f0: c058 c43d 2621 0fbc 2bd7 1d3e 1484 d73c

sequential/net/while/gru_cell/MatMul_1 f4 [20, 13]
-0.41841844 -0.0008513208 -0.05811094 0.017148154 -0.094588384 0.03954765 0.028648311 0.01534145
0.5064664 0.17115572 0.06594647 0.28419793 -0.06279056 -0.5511246 -0.022586089 0.01840635
0.1202584 -0.057622008 -0.22134553 -0.072889835 0.09492358 0.08857496 -0.076171376 -0.05366826
0.2165845 0.22073963 -0.02585065 0.12910022 -0.24687502 -0.10560582 0.23882842 0.36163083
0.32044104 0.0683731 0.28118783 -0.606816 -0.14623001 0.06657309 -0.47658423 -0.05710552
-0.01920364 -0.11625868 0.21792637 -0.22176558 -0.3318638 -0.0883779 0.110632636 0.14675903
-0.19809122 0.09448574 0.13996625 -0.033495497 0.16631643 0.11595501 -0.2463105 -0.052887343
0.09790946 0.3095319 -0.06833698 0.4496678 0.049038947 0.043422863 -0.1647006 -0.3247009
-0.10218216 0.04851084 -0.062786564 0.23978393 -0.02873447 -0.007891832 0.18194243 0.13395448
0.009444116 0.13139124 0.19065353 -0.060723323 0.681269 -0.45313692 0.1618804 0.030659677
-0.04986411 -0.064254455 -0.23045072 0.016915763 0.26619956 0.23445441 -0.2687314 0.12978362
0.02605583 -0.33065164 -0.26662356 0.11550474 -0.21094076 0.3305419 0.29915366 0.016014313
-0.05002214 0.056748718 0.09783072 0.15857641 0.20230713 -0.2489814 0.2668297 0.10912981
0.080755234 -0.051145196 0.16994932 0.0074608168 0.01108964 -0.39944702 -0.32111827 -0.17639935
-0.31999993 0.019377995 0.13851912 -0.027561562 -0.050847996 -0.069541514 0.10662061 -0.12642656
-0.09689738 -0.31022564 0.113714255 0.13118719 0.099009514 0.07388862 -0.072043784 -0.1350231
-0.102098696 -0.83805346 -0.6195681 0.11362648 0.043962415 -0.15311132 0.10626678 0.13935232
0.5031143 -0.031892 0.24576934 0.07119791 -0.09708421 -0.06212125 -0.21692315 0.051946223
0.019424139 0.41775852 -0.37807405 -0.24687502 -0.04807886 -0.63402903 -0.36169407 0.26290616
-0.025429647 -0.086440824 0.21403022 -0.5529987 -0.0046129427 0.07382585 -0.44509995 -0.40097114
-0.08214218 0.29044873 -0.3931436 -0.20772219 -0.004373643 -0.3014481 0.1866428 -0.17684864
0.17794725 -0.12802136 0.23950438 0.096379295 -0.37765032 0.46693337 0.42020285 -0.66537416
0.28160042 -0.12907262 -0.54499876 -0.037663735 -0.7385073 0.20886864 -0.16937804 -0.049302496
-0.21258804 -0.39483678 0.15862256 -0.08166075 -0.2040783 0.122746095 -0.06460497 -0.46647817
-0.21929897 -0.18009946 0.06073624 0.28853515 0.077960216 -0.070894815 0.23848651 -0.119802274
0.15168501 0.070561156 0.037245564 -0.10837717 -0.021949125 -0.090601616 -0.30075762 -0.057047803
-0.22042477 0.043670036 -0.01706289 -0.011116006 0.085198775 0.13042477 0.14737836 -0.14273803
-0.0571366 0.33379632 0.2749628 -0.35553828 0.32153767 -0.03557678 -0.05844092 -0.040925827
0.054797012 -0.25448626 -0.24652496 0.055933334 -0.12324794 0.34359208 0.06941169 0.19234788
0.167106 0.15336473 0.03074105 0.0048332354 0.22464561 -0.15846911 0.020791745 -0.10468792
-0.22877689 -0.31149915 -0.40509176 -0.17897649 -0.6163637 0.07116081 -0.4500742 -0.043752998
0.044507947 0.14908554 0.565545 -0.084620826 -0.16731122 -0.28051654 -0.057230834 -0.1764052
00000000: f13a d6be 2c2b 5fba bd05 6ebd 497a 8c3c
00000010: 8eb7 c1bd b7fc 213d ddaf ea3c b55a 7b3c
00000020: c8a7 013f 7243 2f3e f10e 873d 6482 913e
00000030: 5698 80bd 8016 0dbf 7606 b9bc eac8 963c
00000040: 094a f63d 0e05 6cbd 67a8 62be 4447 95bd
00000050: 4b67 c23d ca66 b53d bdff 9bbd 40d3 5bbd
00000060: 54c8 5d3e 9209 623e bec4 d3bc d932 043e
00000070: cecc 7cbe dd47 d8bd 708f 743e ad27 b93e
00000080: d910 a43e 3207 8c3d daf7 8f3e 4b58 1bbf
00000090: 52bd 15be 7957 883d d902 f4be 7ae7 69bd
000000a0: f450 9dbc 0819 eebd 1728 5f3e 8416 63be
000000b0: 0dea a9be 79ff b4bd 5d93 e23d 0048 163e
000000c0: 6dd8 4abe bd81 c13d 5053 0f3e 9332 09bd
000000d0: db4e 2a3e d279 ed3d d238 7cbe 66a0 58bd
000000e0: c184 c83d f77a 9e3e 42f4 8bbd dc3a e63e
000000f0: 10dd 483d 2cdc 313d 46a7 28be 323f a6be
00000100: e144 d1bd 4db3 463d 3e96 80bd eb89 753e
00000110: 8d64 ebbc be4c 01bc 1e4f 3a3e 5d2b 093e
00000120: 7ebb 1a3c 6d8b 063e ae3a 433e 05b9 78bd
00000130: a567 2e3f 9001 e8be fac3 253e 012a fb3c
00000140: 4f3e 4cbd d797 83bd 46fb 6bbe ed92 8a3c
00000150: 4f4b 883e d114 703e 2997 89be ffe5 043e
00000160: 0973 d53c 2c4b a9be e282 88be c08d ec3d
00000170: db00 58be ca3c a93e ab2a 993e 7330 833c
00000180: 04e4 4cbd 5871 683d 795b c83d db61 223e
00000190: 9a29 4f3e fbf4 7ebe e79d 883e 737f df3d
000001a0: 0063 a53d a07d 51bd 3207 2e3e de79 f43b
000001b0: 52b1 353c 5284 ccbe 9d69 a4be 08a2 34be
000001c0: 08d7 a3be 9abe 9e3c f5d7 0d3e c9c8 e1bc
000001d0: fd45 50bd c86b 8ebd e85b da3d f775 01be
000001e0: 2272 c6bd e5d5 9ebe 05e3 e83d ef55 063e
000001f0: 80c5 ca3d eb52 973d b18b 93bd 7f43 0abe
00000200: 1f19 d1bd ac8a 56bf 049c 1ebf 00b5 e83d
00000210: ef11 343d 37c9 1cbe 66a2 d93d 60b2 0e3e
00000220: 19cc 003f 30a1 02bd f5aa 7b3e 36d0 913d
00000230: 16d4 c6bd da72 7ebd 1a21 5ebe 90c5 543d
00000240: 5f1f 9f3c 72e4 d53e ec92 c1be cecc 7cbe
00000250: 57ee 44bd ba4f 22bf f72f b9be a39b 863e
00000260: d651 d0bc e307 b1bd bd2a 5b3e 5391 0dbf
00000270: 2b28 97bb 0232 973d 24e4 e3be 174c cdbe
00000280: 293a a8bd b2b5 943e 1e4a c9be 20b5 54be
00000290: c750 8fbb 6857 9abe 4a1f 3f3e cf17 35be
000002a0: ce37 363e 0818 03be a340 753e 8262 c53d
000002b0: 625b c1be e411 ef3e d424 d73e f655 2abf
000002c0: ee2d 903e 9d2b 04be 0a85 0bbf 4a45 1abd
000002d0: d00e 3dbf a9e1 553e 7071 2dbe 6af1 49bd
000002e0: aeb0 59be 0c28 cabe f46d 223e c03d a7bd
000002f0: e7f9 50be 4e62 fb3d 9c4f 84bd 3ad6 eebe
00000300: e98f 60be fe6b 38be 90c6 783d e1ba 933e
00000310: 9ba9 9f3d 4d31 91bd cf35 743e e55a f5bd
00000320: 5153 1b3e 5e82 903d ce8e 183d daf4 ddbd
00000330: a7ce b3bc 578d b9bd e7fc 99be f5aa 69bd
00000340: 08b7 61be 5adf 323d 79c7 8bbc e91f 36bc
00000350: b27c ae3d 128e 053e 5aea 163e eb29 12be
00000360: 1108 6abd 5ae7 aa3e edc7 8c3e 1d09 b6be
00000370: 96a0 a43e f5b8 11bd bf5f 6fbd d7a1 27bd
00000380: d572 603d 064c 82be 0a71 7cbe 5a1a 653d
00000390: 6a69 fcbd 4deb af3e b727 8e3d d8f6 443e
000003a0: d61d 2b3e a50b 1d3e a8d4 fb3c 1e60 9e3b
000003b0: 8009 663e ba45 22be 7353 aa3c 9f66 d6bd
000003c0: 7d44 6abe d17c 9fbe 3068 cfbe 9d45 37be
000003d0: 03ca 1dbf c2bc 913d 2070 e6be 5836 33bd
000003e0: f74d 363d e1a9 183e 8fc7 103f af4d adbd
000003f0: a253 2bbe dd9f 8fbe e16a 6abd 91a3 34be

sequential/net/while/gru_cell/MatMul_2 f4 [20, 13]
0.24920589 -0.015533187 -0.118917465 0.003673701 -0.24986355 -0.04195961 -0.011463959 0.12927799
-0.282967 -0.2669964 -0.012964509 -0.09372208 0.41632414 0.12946823 0.063012876 -0.2508825
0.21612144 -0.34872904 0.013183401 0.060539693 0.20478062 0.10685736 -0.081497885 -0.13725704
-0.22414131 0.19098607 -0.16233736 -0.035467457 0.19354802 0.28486276 0.12531652 -0.25969365
-0.088672794 -0.066478185 0.16018625 0.3445962 -0.055521376 0.33895504 0.0032383853 0.18410397
0.13606833 -0.17698586 -0.285541 -0.14752805 0.059970036 -0.07040929 -0.22451733 -0.42511627
-0.13516861 0.056252565 -0.36350945 -0.13925998 -0.0018371532 -0.10173047 0.15841529 0.144279
-0.22194119 -0.3734003 0.016469674 0.045351654 0.0012633674 0.069762096 0.037552796 -0.042484395
0.00415809 -0.040899064 0.11540193 -0.05382252 0.13995719 -0.24775563 0.47088546 0.1594694
-0.11584968 0.15824665 -0.009370763 0.22443017 -0.07279035 -0.13703068 -0.004809483 0.029544532
-0.1688623 -0.06494943 0.26098546 0.4497668 -0.052153114 -0.09293305 0.20026986 0.069217965
-0.22900124 -0.12890027 -0.0025710352 -0.20218372 -0.027997093 -0.17820737 0.10507727 -0.15684482
-0.0861558 -0.026787525 0.25323406 -0.5183322 -0.21849225 0.1801377 0.18677269 0.3443002
0.043555472 -0.14993206 0.035985254 0.09232837 -0.1615475 -0.10723972 -0.1707969 0.10554233
-0.35424796 -0.15525982 -0.16297166 -0.20143616 -0.17310782 -0.32200643 -0.023062652 -0.15048255
0.061774492 0.27188793 0.27447107 0.033434823 0.4434037 0.21001317 -0.063187666 -0.030896595
0.2125406 0.0130214915 -0.2083199 -0.14586756 0.040829673 0.14981808 0.054778356 -0.04130948
0.04899996 -0.18552828 0.13854156 0.23150617 0.07131034 0.10077342 -0.0328437 0.0017982693
0.046471268 -0.22115451 0.21271339 -0.32953998 -0.13698143 0.1807166 -0.1284565 0.04952154
-0.12365108 -0.012210297 0.2680583 -0.2526943 -0.26774186 -0.054021616 -0.06392053 -0.41932458
-0.28461486 0.12496314 -0.23642525 -0.49128392 -0.15654907 0.04950534 -0.23326941 0.057773262
-0.19370553 0.22344741 0.032807387 0.03470782 -0.056167405 -0.14470956 0.33474705 -0.30356106
-0.063802056 0.107419804 0.013104337 0.12457372 0.01369665 -0.026955158 -0.21486819 -0.18598616
0.10666529 0.16578278 0.025118677 0.33479896 0.32799754 0.12685221 0.24662142 0.09669477
0.37115765 -0.07136238 -0.16090646 -0.06895368 0.036929775 -0.21813218 0.15076359 0.21665667
-0.03136629 -0.18118091 -0.010474898 -0.065538414 -0.021785462 -0.6036723 0.029536981 0.11751745
0.078219645 0.068846814 0.17366317 -0.37550315 0.16304946 -0.27000457 -0.30394235 -0.20335756
-0.11074894 0.18540376 -0.07797122 -0.26540935 -0.6335031 -0.31106812 0.04625416 0.17263119
-0.05885165 0.05503515 -0.37983185 0.10141188 -0.12756924 -0.2731081 0.0032120624 0.17442378
-0.03135581 0.13356785 -0.12403179 -0.011116088 0.16464907 0.21422975 -0.050784986 0.112797715
0.26765433 0.060469374 0.021340517 -0.005480401 0.15466885 -0.19957338 0.017642364 0.0638746
0.26425216 -0.022336693 0.17421909 0.07505355 0.055258576 0.17434156 -0.5170434 -0.23425661
00000000: d42f 7f3e e97e 7ebc 008b f3bd 7ac2 703b
00000010: 3bdc 7fbe d7dd 2bbd 54d3 3bbc 7361 043e
00000020: 0de1 90be c1b3 88be 1869 54bc 5df1 bfbd
00000030: 7028 d53e 5293 043e e50c 813d ac73 80be
00000040: f04e 5d3e 9d8c b2be 31ff 573c 78f8 773d
00000050: 03b2 513e 08d8 da3d 5de8 a6bd 1c8d 0cbe
00000060: 4d85 65be da91 433e c43b 26be 5346 11bd
00000070: 7431 463e 88d9 913e f952 003e 91f6 84be
00000080: 159a b5bd b725 88bd dd07 243e ea6e b03e
00000090: 626a 63bd 848b ad3e 173b 543b c085 3c3e
000000a0: 7f55 0b3e c83b 35be 6e32 92be 9811 17be
000000b0: 24a3 753d bf32 90bd dfe7 65be d7a8 d9be
000000c0: a469 0abe 1769 663d e91d babe 2b9a 0ebe
000000d0: a2cc f0ba 1158 d0bd 9e37 223e e0bd 133e
000000e0: 8d44 63be 532e bfbe 69eb 863c a8c2 393d
000000f0: 9397 a53a 6edf 8e3d f6d0 193d 1e04 2ebd
00000100: 9640 883b c785 27bd d957 ec3d 0175 5cbd
00000110: f050 0f3e a7b3 7dbe e617 f13e f24b 233e
00000120: 9942 edbd 690b 223e d487 19bc 06d1 653e
00000130: 1b13 95bd c551 0cbe de98 9dbb 6007 f23c
00000140: 3dea 2cbe 3504 85bd e39f 853e d647 e63e
00000150: 819e 55bd af53 bebd 8b13 4d3e 26c2 8d3d
00000160: 4d7f 6abe 6ffe 03be d07e 28bb 4009 4fbe
00000170: 295a e5bc fe7b 36be c032 d73d ee9b 20be
00000180: 7472 b0bd 8371 dbbc e5a7 813e 6bb1 04bf
00000190: 6fbc 5fbe 0476 383e 5741 3f3e 1e48 b03e
000001a0: 3967 323d ca87 19be 4665 133d a816 bd3d
000001b0: b56c 25be 80a0 dbbd 62e5 2ebe 9426 d83d
000001c0: fd5f b5be 6efc 1ebe 0be2 26be 4845 4ebe
000001d0: 2d43 31be 07de a4be e3ed bcbc 1918 1abe
000001e0: 4007 7d3d e534 8b3e 7987 8c3e f4f2 083d
000001f0: cf05 e33e b10d 573e 8968 81bd db1a fdbc
00000200: 3ea4 593e 1858 553c d051 55be 4e5e 15be
00000210: 043d 273d e969 193e 455f 603d 2134 29bd
00000220: 2fb4 483d 20fb 3dbe d7dd 0d3e f40f 6d3e
00000230: 280b 923d 4b62 ce3d 1e87 06bd e8b3 eb3a
00000240: a858 3e3d 5476 62be 8ad1 593e 77b9 a8be
00000250: dc44 0cbe c60d 393e 1a8a 03be 19d7 4a3d
00000260: c73c fdbd b30d 48bc f03e 893e 2661 81be
00000270: 7615 89be c545 5dbd c4e8 82bd b6b1 d6be
00000280: 0ab9 91be adec ff3d 7619 72be 9189 fbbe
00000290: 664e 20be 1dc6 4a3d 2dde 6ebe a8a3 6c3d
000002a0: be5a 46be 66cf 643e 0a61 063d c929 0e3d
000002b0: cb0f 66bd be2e 14be f763 ab3e 5b6c 9bbe
000002c0: a7aa 82bd eafe db3d 93b3 563c 8220 ff3d
000002d0: ea67 603c 10d1 dcbc 6806 5cbe 2873 3ebe
000002e0: 5573 da3d f6c2 293e afc5 cd3c c56a ab3e
000002f0: 4bef a73e 8ce5 013e 538a 7c3e e807 c63d
00000300: 6008 be3e 7126 92bd aac4 24be 9637 8dbd
00000310: ad43 173d 0b5e 5fbe c561 1a3e 3fdb 5d3e
00000320: f079 00bd 7d87 39be e89e 2bbc 0139 86bd
00000330: 6d77 b2bc 458a 1abf 8af7 f13c fdac f03d
00000340: 9f31 a03d 8fff 8c3d c2d4 313e f341 c0be
00000350: 70f6 263e 0a3e 8abe 559e 9bbe f73c 50be
00000360: 57d0 e2bd 7cda 3d3e 60af 9fbd bce3 87be
00000370: 422d 22bf 5244 9fbe 0175 3d3d 3bc6 303e
00000380: 6e0e 71bd 8a6c 613d 5279 c2be 08b1 cf3d
00000390: 83a1 02be d3d4 8bbe 7781 523b 269c 323e
000003a0: f36e 00bd 03c6 083e 6104 febd 4120 36bc
000003b0: c499 283e 0b5f 5b3e eb03 50bd 7d02 e73d
000003c0: fd09 893e bcae 773d 4fd2 ae3c f094 b3bb
000003d0: 8361 1e3e f75c 4cbe b886 903c b0d0 823d
000003e0: 0f4c 873e 71fb b6bc 7d66 323e adb5 993d
000003f0: d156 623d 9886 323e f55c 04bf f7e0 6fbe
