wakewords/en/hey_moxie.onnx (onnx, 19250 bytes, 1 tensors)

const_fold_opt__112 f4 [20, 1]
0	0x3ed010aa	0.40637714
1	0x3ef01752	0.46892792
2	0xbe33095e	-0.17484042
3	0x3d24f5ca	0.040273465
4	0xbe253124	-0.16132027
5	0x3e392d96	0.18083796
6	0x3eca0f7b	0.39464936
7	0x3e5853af	0.21125673
8	0x3efce5ef	0.49394175
9	0x3f1f2f2c	0.62181354
10	0x3d8db627	0.069195084
11	0x3d40dce3	0.047085654
12	0x3ee6d092	0.45081002
13	0x3e1c3e3d	0.15258117
14	0xbeed1450	-0.4630456
15	0xbe89f161	-0.2694197
16	0x3e9e145b	0.30874905
17	0xbd14f387	-0.03636506
18	0x3e3ba66a	0.183252
19	0x3ed61ecc	0.4182037
