wakewords/en/hey_k9.onnx (onnx, 19261 bytes, 1 tensors)

const_fold_opt__112 f4 [20, 1]
00000000: 8ce4 b13e 2e5f 68be 4b3f b33e ebda d9be
00000010: 1728 53be 0121 d1be e7eb 043e 739f c0be
00000020: 4822 24bf 939b 9abe adf3 adbe f2a5 3e3f
00000030: 051c 1abe 674a 333f 6c2b 38bf 8b35 debe
00000040: 2211 0bbf b300 7dbe fe21 6d3e 3f2f df3d
0.3474468 -0.22692558 0.35009226 -0.42549834 -0.20620762 -0.40845492 0.12980615 -0.3762165
-0.6411481 -0.3019682 -0.33974972 0.7447196 -0.15049751 0.70035404 -0.71941257 -0.43400225
-0.5432302 -0.24707298 0.23157498 0.10897683
