wakewords/en/hey_chatterbox.onnx (onnx, 19255 bytes, 1 tensors)

const_fold_opt__113 f4 [20, 1]
-0.28258023 0.36902866 -0.31389052 -0.48939216 -0.81134444 0.45591396 0.50247514 0.5492762
0.14764695 -0.37357014 -0.3062156 0.13804996 0.017646408 -0.40264353 -0.07250736 0.69161206
0.4102394 -0.19463347 0.4175473 -0.5050261
00000000: 5bae 90be 53f1 bc3e 42b6 a0be 9c91 fabe
00000010: 45b4 4fbf 8e6d e93e 36a2 003f 5d9d 0c3f
00000020: c330 173e 9644 bfbe 4bc8 9cbe f85c 0d3e
00000030: 338f 903c 4b27 cebe bd7e 94bd 7d0d 313f
00000040: e60a d23e ff4d 47be c2c8 d53e 6449 01bf
