wakewords/en/hey_kit.tflite (tflite, 21888 bytes, 10 tensors)

sequential/dense_1/MatMul f4 [1, 20]
000000 6f f0 0b bf 2e cc a1 be 68 be e9 3e 1b 7b ea bd
       -0.5466375 -0.3160109 0.4565308 -0.11449262
000010 a6 dd 9c 3e d1 2b 12 3f 2d 7e 5d 3e 06 4b 02 3e
       0.30637854 0.5709811 0.21630163 0.12723932
000020 d8 71 95 bd 8d a0 de 3e 4a 1b 08 3e 82 ad ad 3d
       -0.072971046 0.43481866 0.1329166 0.084803596
000030 9a dd 51 3d 05 aa e5 3e a9 5f f5 bd 39 a8 dc be
       0.051236726 0.44856277 -0.11981136 -0.43097094
000040 82 1e a5 be 04 e4 24 bf fc e4 7a be 94 21 89 3e
       -0.32249838 -0.64410424 -0.24501413 0.2678343

sequential/net/while/gru_cell/strided_slice_3 f4 [20]
000000 ff cc 8a 3d 6b e8 0c be 1d 01 a0 3c 98 ca 0f 3f
       0.06777381 -0.13760535 0.01953178 0.5616851
000010 04 14 97 3e e1 d0 b5 3a 82 ec 0b bf 11 ae fe 3d
       0.29507458 0.0013871455 -0.5465776 0.12435544
000020 5a 49 a5 bd e4 fa ab be c6 db 28 bf ef 71 8e be
       -0.08070631 -0.33589852 -0.6596035 -0.278213
000030 98 9f a2 be 53 a2 ee 3d 61 8e b2 be 0c 96 f7 be
       -0.31762385 0.11652055 -0.3487425 -0.48356664
000040 6a c6 8b 3d 39 7e 08 bd 75 cb 8e 3e 5a 3d a7 bd
       0.06824954 -0.0333235 0.278896 -0.08165999

sequential/net/while/gru_cell/strided_slice_4 f4 [20]
000000 5f 53 33 3f a3 58 a2 3e 55 04 95 3e db b1 b0 3e
       0.7004909 0.3170825 0.29104868 0.34510693
000010 58 e5 83 3f a7 4b b3 3e ba 84 3d 3f 44 8c 3d 3f
       1.0304365 0.35018656 0.7403065 0.74042153
000020 48 6c 75 3e cb 0f 94 3e 83 8f dd 3e bf 6d 2e 3f
       0.23967087 0.289183 0.43273553 0.6813621
000030 a5 8f a2 3d 8d 35 9d 3f 90 89 86 be b1 a0 c7 bd
       0.07937554 1.2281967 -0.26276827 -0.09747446
000040 f0 9d 96 3e 5b 10 16 3d 8a df a1 3e d3 47 4b 3e
       0.29417372 0.03663669 0.3161586 0.19851618

sequential/net/while/gru_cell/strided_slice_5 f4 [20]
000000 4b 99 91 3e ef b5 db 3d 28 1f 36 3d 48 0d 51 be
       0.28437266 0.107280605 0.044463307 -0.20415223
000010 ff a7 b1 bf 17 e7 1f bf 3c 63 41 bf a6 30 b4 be
       -1.3879393 -0.6246199 -0.75542045 -0.35193366
000020 1c 5c 0b be 0f b1 0b bf ae 0e d7 be 63 13 36 3f
       -0.13609356 -0.54567045 -0.42003387 0.7112333
000030 92 90 8f 3e e6 ff 2e 3e 20 da 0a 3e 0a bf f0 3e
       0.28039986 0.17089805 0.1355977 0.4702075
000040 69 76 9e bc 93 86 2d 3f 9a 42 68 3e c2 91 11 3f
       -0.019343572 0.6778347 0.22681656 0.56863034

sequential/net/while/gru_cell/MatMul_3 f4 [20, 20]
000000 17 36 f0 3d 8e 00 0f 3e 81 45 88 3d 78 32 30 3e
       0.11729067 0.13965055 0.06653882 0.17206752
000010 8e 35 8d 3d c1 78 ae be 9c fd 42 3e da ae 07 bc
       0.0689498 -0.34076503 0.19042057 -0.008281434
000020 03 49 a2 bd 69 38 9f 3e 81 56 45 be dc 97 af bd
       -0.07924082 0.31097725 -0.1927128 -0.08573887
000030 89 8f 16 3e 3c 3e 65 bd 8a 79 fb 3d d1 4e 0e 3e
       0.14703192 -0.055967554 0.12279041 0.13897254
000040 70 35 41 bd ab b6 11 3d 2d 0f 47 3d 49 a3 18 3e
       -0.047170103 0.035574596 0.048598457 0.14906038
000050 94 47 14 3e 02 73 8a 3d f6 0b 85 bc a1 3d 08 bd
       0.1448043 0.06760217 -0.016241055 -0.0332619
000060 4f db 37 be f9 26 37 be aa 31 0a 3d 23 09 a0 3d
       -0.17954753 -0.1788596 0.03373877 0.07814243
000070 97 02 90 3e 91 5f 55 3e 06 50 52 3e b9 6d 83 3d
       0.28126976 0.20837237 0.20538339 0.06417412
000080 4e 6f e4 3d 98 58 22 3e cf 27 9e 3e 11 e9 51 3e
       0.11154042 0.15854108 0.30889747 0.20499064
000090 a8 22 05 be 2b 66 21 3e 3d da 3c 3d 93 68 cb bd
       -0.13001502 0.1576163 0.046106566 -0.09932055
0000a0 4b 95 fd 3d 40 29 96 3e b1 8e 35 bc ca f8 3a 3e
       0.12381991 0.29328346 -0.011081384 0.18258968
0000b0 47 00 0f 3e 06 3f f5 bd ff b1 d0 3d bc e0 a8 3d
       0.1396495 -0.119749114 0.101902 0.0824599
0000c0 ab 7a 16 3d a2 10 42 3e 4c ce 23 3d c1 4c a4 3e
       0.03673808 0.18951657 0.039991662 0.3208981
0000d0 3b e4 7d be b7 34 94 bd 62 45 83 bd 4d 8f bb 3d
       -0.24794094 -0.07236617 -0.06409718 0.09158192
0000e0 7a a8 88 3d 5e c9 4d 3e 37 90 aa be 67 ed 47 be
       0.06672759 0.20096347 -0.33313152 -0.19524156
0000f0 fa 2c c9 bd ec 2e 2f be 15 81 00 3d ab b1 51 be
       -0.09823032 -0.17107743 0.031373102 -0.20477931
000100 83 19 aa bd 8d 6f 12 be 3c 62 1e 3e 99 11 24 be
       -0.08305647 -0.14300366 0.15467161 -0.16022338
000110 c1 26 4d bb 84 67 44 3e 29 88 ac 3d ea 6c cb 3d
       -0.0031303617 0.19180113 0.08424408 0.09932883
000120 30 e1 7f b9 4e 92 49 3d 83 d5 e1 3e 07 10 08 bd
       -0.00024402584 0.049211793 0.4410821 -0.03321841
000130 ab e2 b8 be 53 29 02 3d 55 da ff 3d 2e 48 23 be
       -0.36110434 0.03177769 0.124928154 -0.15945503
000140 2b fd 79 be 10 f5 17 be 9a 94 96 3e 1f 94 bc bd
       -0.24412982 -0.14839578 0.2941025 -0.09207939
000150 e5 59 1e 3e c7 77 1d 3d 5d 88 05 be 1d d5 21 3e
       0.1546398 0.038444307 -0.130403 0.15803953
000160 b9 4f 33 3d 1f 46 32 bd e6 3b 30 be b7 b9 cd bd
       0.0437772 -0.043523904 -0.1721035 -0.10045188
000170 ce a2 94 bd f8 40 9e ba b9 09 60 3d 12 71 9e 3e
       -0.07257615 -0.0012073806 0.054696772 0.3094564
000180 bf d1 a6 bd 74 d6 c6 3e 84 ff 7b 3d a9 34 bd 3d
       -0.08145475 0.3883549 0.061522976 0.0923856
000190 6a 54 9a bc b9 1c 1c be fc 01 cc 3d 0f 3b d9 bd
       -0.01883908 -0.15245332 0.09961316 -0.10606968
0001a0 cd fe 1f 3e f0 a8 ab bb 75 fa b2 3c 65 a7 cf 3d
       0.15624543 -0.005238645 0.021847943 0.1013935
0001b0 d1 3f 0c 3e 71 76 50 bd e9 9d 84 bc e0 7a 58 bb
       0.13696219 -0.050894205 -0.016188579 -0.0033032224
0001c0 38 55 dc 3b 50 09 0a bd 24 94 4a 3e 38 ea a0 3e
       0.006724026 -0.033700287 0.19783074 0.31428695
0001d0 0e 51 55 bc 06 dc e9 3d 2d 22 32 3d 16 3f 93 bd
       -0.013019813 0.11418919 0.043489624 -0.07189767
0001e0 2b 2f fd 3c 9e 9f e8 3d 27 9a 55 be 0e 53 d0 be
       0.03090628 0.113585696 -0.20859586 -0.40688366
0001f0 7f 78 97 3e c3 8f 4b be 16 eb 8b 3e 4e 3b 75 3e
       0.2958412 -0.1987906 0.27327794 0.23948404
000200 30 3e 0a 3e 50 b1 c6 bd bd ba 17 bd 2f a5 7c be
       0.13500285 -0.097017884 -0.037043322 -0.24672388
000210 83 5e 28 3d 3a bb 4b 3d 6b 55 1c bd 93 75 11 3d
       0.04110576 0.0497391 -0.0381674 0.03551252
000220 a4 5c 48 3e 01 55 3e 3d e4 d2 fd bd 5d 64 b4 3d
       0.1956659 0.046467785 -0.1239374 0.08808205
000230 8b 7c 00 3e de bc 18 be 37 ba 39 be a9 4b 00 be
       0.1254751 -0.14915797 -0.18137442 -0.12528862
000240 d1 66 30 3d 13 b9 96 3c a2 41 08 bd e4 46 5f be
       0.043066803 0.018398797 -0.033265717 -0.21804386
000250 fd 79 40 be 69 3f 88 bd ce cc c1 be f6 84 14 be
       -0.18796535 -0.066527195 -0.37851566 -0.14503846
000260 bc 75 8f 3c df 8d 5a be 6f 5e ba be ef 73 0a be
       0.017512195 -0.21343182 -0.36400172 -0.13520788
000270 f7 be 9f 3d 73 2a 98 be 26 d0 23 be b4 34 f8 3d
       0.078000955 -0.29719886 -0.15997371 0.12119427
000280 a5 9a 7b bd 77 9b c0 bc 52 c5 25 3d cc 92 a7 bd
       -0.061426777 -0.023511631 0.040471382 -0.08182296
000290 84 06 11 bd b1 22 a6 3d ad d1 61 bd 01 bc 02 bb
       -0.035406604 0.081120856 -0.055131603 -0.0019948485
0002a0 a6 dd a1 bd 33 fc b0 bd 3c 30 94 bd ee 03 06 3e
       -0.07903604 -0.08641853 -0.072357625 0.13087437
0002b0 d5 eb 69 3d bd e8 88 bd 7a d6 6e be fd f7 d1 3c
       0.057109673 -0.06685016 -0.23324004 0.025630945
0002c0 a0 5f 56 bc 93 95 7f 3d e2 8e 5f 3d 41 76 b2 bd
       -0.013084322 0.062398504 0.054579623 -0.087139614
0002d0 fc 52 a9 3e 62 0f 31 ba c6 67 03 bc e1 63 a6 3d
       0.33071125 -0.00067543064 -0.008020347 0.08124519
0002e0 37 a9 a0 3e e4 73 97 bd d6 d6 fa bc a6 cb 3e 3e
       0.313791 -0.07395151 -0.03062002 0.18632373
0002f0 5d 8e af bc b4 ba 97 bb 96 30 29 3c 35 a1 fd bd
       -0.021430189 -0.004630411 0.010326525 -0.123842634
000300 95 d3 e0 3c 7f e7 a5 bc 39 0d 40 bd b3 9d 33 3d
       0.02744464 -0.020251988 -0.04688761 0.043851566
000310 a2 b8 0c bd db 79 29 3d a1 0e f2 bd 0e 31 b0 bd
       -0.034355767 0.041375976 -0.118191965 -0.086031064
000320 be 36 10 3f 24 73 27 be e7 b6 8c 3e 0c d3 5b 3e
       0.5633353 -0.16352516 0.27483293 0.21467227
000330 42 98 4d be 1e 03 b3 3e df 14 a7 3d ac 5c 50 3e
       -0.20077613 0.34963316 0.08158278 0.20347852
000340 43 81 27 3e 40 29 4f be c9 66 0a be f4 d3 47 bb
       0.16357903 -0.2023058 -0.13515772 -0.0030491324
000350 5b 1f 2a 3c 13 8c 1c be 3c ed 44 3e 0c ce b3 3d
       0.010383452 -0.15287809 0.19231123 0.08779535
000360 fc 9f 99 be be 2c 2b 3d 41 8d 28 be 3e cc 26 3e
       -0.3000487 0.041790716 -0.16460134 0.1628885
000370 76 a2 ce 3e 1b 12 c1 3d 1e 42 38 be 1f 76 c1 3d
       0.40358323 0.094272815 -0.17993972 0.09446358
000380 a1 17 ea bc 4e 4b cc 3b 8f b0 43 be 1c de bd bd
       -0.02857572 0.006234563 -0.1911032 -0.092708796
000390 31 61 0c 3d 8c 8b 55 3e f7 b1 a2 bd 53 05 20 be
       0.034272376 0.20854014 -0.079441 -0.15627031
0003a0 9c 91 4d 3c 20 08 8f bd e6 a2 ae bc 7d 70 90 be
       0.012546923 -0.069839716 -0.02131791 -0.28210822
0003b0 b8 0a 81 3b 8b 3d f6 3d 5d 23 c0 bd 57 10 06 3e
       0.0039380454 0.12023457 -0.09381745 0.1309217
0003c0 ad 3c ec bd 12 dd c0 3e 30 19 ba 3d 63 90 4d be
       -0.115350105 0.37668663 0.090868354 -0.2007461
0003d0 ee 95 cc 3c e6 c2 5f 3e c1 ff 6d 3d f4 ea 2a bd
       0.024973836 0.21851692 0.058105234 -0.041727975
0003e0 40 24 df be 28 9e 81 3e da 7f 8e bd 28 0f 15 3e
       -0.43582344 0.25315976 -0.069579795 0.14556563
0003f0 1c ac 51 3e e9 07 f6 3d ee ab c6 be 61 1f 26 be
       0.20475811 0.120132275 -0.38803047 -0.16222908

sequential/net/while/gru_cell/MatMul_4 f4 [20, 20]
000000 d4 43 9b 3e d3 59 58 be 8a 06 08 3d 41 fb fc bd
       0.30325186 -0.21128015 0.03320936 -0.123526104
000010 26 e7 57 be f4 0d a5 be c7 00 d1 bd 24 ab 2c bc
       -0.2108427 -0.32237208 -0.102052264 -0.01053885
000020 5c a1 cb 3c 86 bc 37 bd 46 64 99 bc f9 d9 b5 3d
       0.024857216 -0.044857524 -0.018724572 0.088794656
000030 c8 c0 7d bc 0e b0 9e 3e 03 d0 c6 be d6 7e b5 3e
       -0.015487857 0.30993694 -0.38830575 0.3544833
000040 7a 00 71 be e0 41 6c bd 44 71 c8 bd 4e cb 2b be
       -0.23535338 -0.05768001 -0.09787229 -0.16776773
000050 3d 7a bd bc 17 b1 11 3e de 81 26 3e f1 1d ed bd
       -0.023129577 0.1422771 0.16260478 -0.115779765
000060 a0 2e 2d 3e 38 8e 57 3d 39 65 a4 3d dc b1 89 3d
       0.16912317 0.052625865 0.08027119 0.06723377
000070 64 e4 58 3e 1b e8 9e bd c9 a1 88 3d 5b 1d d0 bc
       0.21180874 -0.07759114 0.06671483 -0.025404623
000080 6b a8 88 bc 82 cc 15 bb 1f 3b 8b 3e 10 fd b7 3d
       -0.01668187 -0.0022857492 0.27193543 0.08983815
000090 42 fc a6 3d 76 b3 10 be 4b 83 63 3e 92 76 9c 3e
       0.08153583 -0.14130959 0.22218053 0.30559212
0000a0 8a a3 59 bf ee 28 e4 3d 15 88 06 be e5 12 1b be
       -0.85015166 0.11140619 -0.13137849 -0.15143926
0000b0 dd ff ab 3e 00 02 d3 be 1f 58 d9 bd ad 21 e8 3c
       0.33593646 -0.41212463 -0.10612511 0.02833637
0000c0 f4 2f 4f 3e e6 6e 44 be 05 72 14 be 5d 12 ca 3c
       0.20233136 -0.1918293 -0.1449662 0.02466696
0000d0 4b 40 5f be 1e 70 60 3e 13 09 d4 3c 16 60 19 3e
       -0.2180187 0.2191777 0.025883233 0.1497806
0000e0 d8 12 60 bd 9b bf 2e be e9 24 23 be 2a ce 9f bd
       -0.05470547 -0.17065279 -0.15932049 -0.078029945
0000f0 8b be ce bd 61 79 b7 3e 40 a8 a8 3c 56 b0 4a be
       -0.10094937 0.35834792 0.02058804 -0.1979383
000100 62 15 89 3e 9f 7a 3e be 99 17 57 be 05 34 05 bf
       0.26774126 -0.18601464 -0.21005096 -0.520325
000110 51 9c fb bd f5 d7 96 3e c3 4f e4 bc 76 1f dc 3c
       -0.12285674 0.29461637 -0.027870065 0.02687047
000120 06 f4 00 bf bb 2e 2c be f4 83 bb be d4 a2 28 be
       -0.5037235 -0.16814701 -0.3662411 -0.16468364
000130 4a b4 0f be 06 3e 78 3e b2 67 73 3d 23 43 5e be
       -0.14033619 0.2424241 0.059425063 -0.21705298
000140 35 34 8e bc af d0 45 be 1e c3 2f 3e 35 71 c0 3c
       -0.017358879 -0.19317888 0.17164275 0.023491481
000150 ad 8d 3f be c6 a1 be 3d 3c 34 13 be 7a 36 11 be
       -0.18706389 0.093081996 -0.14375395 -0.14180937
000160 6e 02 36 3e ca 45 4c 3e 64 78 11 be 32 10 3f bd
       0.17774364 0.19948497 -0.14206082 -0.046646304
000170 62 30 ee bd a6 c1 dd 3e 0b b0 09 3e 16 60 15 be
       -0.11630322 0.43311805 0.13446061 -0.14587435
000180 6b 83 d5 be c4 ae b5 3d dc b3 0e be 01 24 ab 3e
       -0.41701826 0.088712245 -0.13935798 0.33425906
000190 75 4f 47 3c 18 21 57 3e 0e 61 b1 3d e3 8c 76 be
       0.01216494 0.21008718 0.0866109 -0.24077182
0001a0 04 a1 49 3d ff f3 6a be 61 96 38 3d 3d 26 cb 3e
       0.049225822 -0.2294464 0.045065288 0.3967761
0001b0 a3 7c 63 3e 4b 5d e0 bc d7 23 2b be 6b 79 be 3d
       0.22215514 -0.027388236 -0.1671289 0.093005024
0001c0 40 e5 59 be 8b b8 66 3e 5e c8 80 3e 0c 22 29 3d
       -0.21278858 0.22531335 0.25152868 0.041292235
0001d0 32 60 98 3d ef 8d fa 3d b9 92 ac 3e e6 91 45 3d
       0.07440223 0.12234103 0.3370569 0.048234843
0001e0 21 e2 2c be d8 0e 98 bd 8e 04 08 3e 04 3a 2f be
       -0.16883136 -0.07424706 0.13282987 -0.17111975
0001f0 be ec 72 be 92 88 9d be 64 b9 b5 3e 7e e4 e9 bd
       -0.23723122 -0.30768257 0.35493004 -0.114205346
000200 68 44 d6 bc 3f c8 62 be 39 36 15 bf 7c 10 60 3d
       -0.026155666 -0.221467 -0.5828586 0.05470322
000210 f8 a6 5c 3c b2 c0 3d be cc d4 82 3c 25 cf 3c 3e
       0.013467543 -0.18530539 0.01597061 0.18438394
000220 a3 b1 bd 3e c1 b6 ea bc b0 c6 49 3e 59 98 e5 bd
       0.3704959 -0.028651597 0.197047 -0.11210699
000230 ac 37 12 3d 2e 56 f6 bc 65 32 95 be 5e bb 5b bd
       0.035697624 -0.03007039 -0.2914001 -0.053645484
000240 1f e1 34 3e f7 b7 9c be 71 6b 36 be 14 98 14 3e
       0.17664002 -0.30609104 -0.17814423 0.14511138
000250 bd 52 2f 3e c6 31 11 3e 62 8c 2a be 99 0c 85 be
       0.17121406 0.14179143 -0.16655114 -0.25986174
000260 89 ff 54 3e 55 cd a7 bc a7 33 43 bd b2 4e e6 3c
       0.20800604 -0.020483652 -0.04765668 0.028113697
000270 90 5a 8b bc 2b ec cc 3d c3 96 3b 3c 2c 3d 1a bd
       -0.017010957 0.10005983 0.011449519 -0.037655994
000280 bd 4f 04 bd 43 b4 57 3e b2 d8 b6 bd 00 8d 40 bf
       -0.032302607 0.21064858 -0.0892805 -0.7521515
000290 70 85 24 3e 8c 40 ea 3c 47 75 c6 bd e2 98 ec bd
       0.16066527 0.028595231 -0.09690338 -0.115525976
0002a0 ad f2 fb bd 0a 30 08 3e 00 f1 48 3d 26 62 8d 3e
       -0.12302146 0.13299575 0.04905796 0.27613944
0002b0 75 1d 89 3e 7e b8 06 3d 28 84 ce be a3 d1 b3 3d
       0.26780286 0.03289079 -0.40335202 0.087802194
0002c0 63 b9 3c be 50 21 d1 3e 33 69 92 3e 96 fe 89 bd
       -0.18430094 0.40845728 0.28595886 -0.067380115
0002d0 7f 84 94 3d 65 bc 0c 3e 24 93 10 3e f3 37 36 be
       0.07251834 0.13743742 0.1411863 -0.1779478
0002e0 7a 25 89 be 37 22 57 be b7 83 b8 3d d4 6d f9 3e
       -0.26786405 -0.21009146 0.090094976 0.48716605
0002f0 a1 99 bf 3b 52 00 06 bb e5 bc 5d 3e ce be 99 3e
       0.0058471714 -0.0020446968 0.21654089 0.30028385
000300 d4 e4 96 3e ff c6 78 3e f1 ee bc be af 16 90 bd
       0.29471457 0.24294661 -0.36901048 -0.070355766
000310 bb 0d 89 3e 65 57 32 be 2d 20 dd 3d a8 81 3f 3e
       0.26768288 -0.17416151 0.10797153 0.18701804
000320 dc b5 74 3e 04 f9 b8 3e ef 2a 56 3e d0 40 b9 3e
       0.23897499 0.36127484 0.20914815 0.3618226
000330 53 7e 6b 3c 8b 58 67 3e 6b d3 14 3e 50 1e 21 bd
       0.01437338 0.2259237 0.14533775 -0.03933555
000340 30 c1 08 3c ee 97 f3 bd 04 52 76 3e 58 ca bd 3e
       0.008346841 -0.11894213 0.24054724 0.3706844
000350 77 cd c3 3d eb a6 e5 bc 17 61 8e 3e f3 0e b2 bc
       0.09560674 -0.028033694 0.2780845 -0.021735644
000360 b3 37 ef bd 40 19 fc 3d 2f cb 62 3c 09 85 95 3e
       -0.11680546 0.123095036 0.013842388 0.2920306
000370 86 32 d6 bc 69 0d 75 3d db 82 db 3d f6 60 8f 3e
       -0.026147138 0.059827242 0.10718318 0.28003663
000380 9f b9 6f bd 8b 57 07 3e a8 a1 d5 3d 14 85 88 be
       -0.05852663 0.13216989 0.10431224 -0.2666403
000390 40 51 56 3d da e6 27 be 2d c1 a9 bd 4e 0e 0c bd
       0.05232358 -0.16396657 -0.082887985 -0.03419333
0003a0 02 4e 96 3d dd 8d 1b be b1 ba 4e be d0 6f 24 be
       0.073390976 -0.15190835 -0.20188405 -0.16058278
0003b0 9b ab 0b be 65 84 65 bd 27 3c 56 bd c7 76 40 be
       -0.13639681 -0.056034464 -0.05230346 -0.1879531
0003c0 e1 a6 11 3e 0b f8 2f be 22 83 eb bd 66 0c 10 3e
       0.14223816 -0.17184465 -0.11499621 0.1406723
0003d0 4f 4e eb 3e 42 26 4d 3e c9 52 9c be a9 b8 32 be
       0.45958182 0.20034125 -0.3053191 -0.17453255
0003e0 91 f3 9c be 76 bf 02 be f1 d3 22 bf a0 a3 a0 3d
       -0.30654576 -0.12768349 -0.63604647 0.07843709
0003f0 a8 d4 d4 3d 9c 9e 05 bc 6f 0a 4a be 96 3f 06 3e
       0.103921235 -0.008155491 -0.19730543 0.13110194

sequential/net/while/gru_cell/MatMul_5 f4 [20, 20]
000000 3a f5 46 3d 16 3f b0 3d 40 77 0b bd d9 5a 68 3e
       0.04857371 0.08605783 -0.034049273 0.22690906
000010 04 f0 f7 bd 97 7e 5e be 6c 6f 9e be 67 22 89 bb
       -0.12106326 -0.21727978 -0.30944383 -0.0041850093
000020 63 10 a7 3d 33 39 e9 3e a3 14 41 be e6 e7 05 3e
       0.081574224 0.45551452 -0.18855529 0.13076743
000030 e5 98 ef bd 2e 57 86 3e 59 c3 63 3e 80 24 21 3a
       -0.11699084 0.26238388 0.22242488 0.00061471015
000040 2e b8 b6 bc ef 82 3b 3e 80 0b 9c 3e 43 a7 da 3d
       -0.02230462 0.18311666 0.30477524 0.10676434
000050 67 01 2f 3e 5a dd ba 3e 00 61 3b 3e f1 3e 5c 3e
       0.17090379 0.36497003 0.18298721 0.21508385
000060 a7 9e 44 be 79 b3 e7 be d5 ea af be 8f e0 fb 3e
       -0.19201146 -0.45254114 -0.3435885 0.49194762
000070 d1 cc 25 be 25 4a 74 be 79 fb 9d 3e 1f 0e ca bd
       -0.16191413 -0.23856409 0.3085592 -0.09865975
000080 7f 93 39 3e dc c8 0b 3e ac ab 92 be c5 f0 a0 be
       0.18122672 0.1365084 -0.286466 -0.31433693
000090 e8 b7 d8 3d c7 48 3f 3d 68 f5 5b be 78 cd 66 be
       0.10581952 0.046700265 -0.21480334 -0.22539318
0000a0 1b 5c 1b 3e 21 e3 13 be 3d d1 04 3d 06 d9 47 be
       0.15171854 -0.14442112 0.032426108 -0.19516382
0000b0 ca a8 21 be ba 07 b1 3e 56 47 c4 bc 4d f5 1c be
       -0.15787044 0.34576207 -0.023959797 -0.1532795
0000c0 32 ee a3 3e a3 60 ef 3e 1a 18 71 be af 01 eb bd
       0.32017666 0.46753415 -0.2354435 -0.114749305
0000d0 2a c9 dc bd 5e d5 ee bc ad 88 f9 bd f2 f7 5f 3d
       -0.107805565 -0.029154476 -0.12184272 0.05467982
0000e0 f5 61 bb bb ed ab 88 be 97 17 09 3c 34 70 63 3e
       -0.0057184645 -0.2669367 0.008367441 0.22210771
0000f0 38 94 d3 bd c0 bd 9a 3e 61 24 dd bd 4f a0 1a 3e
       -0.10331005 0.30222893 -0.10797954 0.15100215
000100 86 3a ae be 55 d8 0c 3d 02 9b 0f 3c b3 a6 b2 3e
       -0.34029025 0.034385998 0.008764984 0.34892806
000110 96 5a 71 3e e5 47 c5 3e 70 3e 88 3e 46 0f 17 3d
       0.23569712 0.38531414 0.26610136 0.0368798
000120 f8 56 e6 be 6b 51 c3 bd ee 72 ac bd c0 e8 09 3e
       -0.44988227 -0.095370136 -0.084203586 0.13467693
000130 c4 ab 27 bd 21 f1 b4 3d a0 58 d3 bc d1 60 da bd
       -0.040935293 0.08835054 -0.025799096 -0.106629975
000140 bc 74 92 be 0d b7 97 bb e7 f5 ae be 99 70 b8 be
       -0.28604686 -0.0046299757 -0.34171984 -0.36023405
000150 38 99 2b 3f 6a 68 e8 3c 04 6e ec 3e 23 95 e9 bd
       0.6703067 0.028370101 0.46177685 -0.11405399
000160 6b 9b 3d bd 3e e4 89 3d c8 69 85 3e 1a 8e 2a bd
       -0.046290796 0.06732987 0.26057267 -0.041639425
000170 72 95 06 3f 87 47 2f be 0d 9f 04 3e 20 df ec be
       0.52571785 -0.1711713 0.12951298 -0.4626398
000180 2f e9 54 3e da 8c 2c 3e 85 a5 aa 3e e6 b9 9d 3e
       0.20792077 0.16850606 0.33329406 0.30805892
000190 f1 6f 9b bd fe df 83 be 9c b2 22 3e 15 6e c3 3e
       -0.075897105 -0.2575683 0.15888447 0.38169923
0001a0 cb b8 6f 3e 8f 77 28 3e 42 9c eb 3c 94 ad cb be
       0.23410337 0.16451858 0.028761033 -0.39780867
0001b0 91 ce 80 3e e5 63 0e 3e dd 55 91 bd 74 0e 82 be
       0.25157598 0.13905294 -0.07096455 -0.25401652
0001c0 61 aa 7e be 27 82 f4 3e cf 66 79 be 5b d5 70 be
       -0.24869682 0.47755548 -0.24355625 -0.23518889
0001d0 d8 d0 37 3d 9d 93 df bd 73 e6 d8 3d 40 1c c5 be
       0.044876903 -0.10916827 0.1059083 -0.38498116
0001e0 14 82 e4 bd 57 2c 32 bd 85 b9 f5 bd 2e c3 d4 be
       -0.11157623 -0.043499317 -0.11998276 -0.4155516
0001f0 d6 ad 18 3f ed 1c e4 3d ff b0 c2 3b 95 dd 8e bd
       0.5964025 0.1113833 0.0059415097 -0.06975857
000200 77 d1 20 3e a7 00 c2 bc f1 d0 24 3e ef a6 1e 3e
       0.15704904 -0.023681952 0.1609533 0.15493368
000210 0e ca 08 3e 8b 21 2a be 39 c1 0d be ab 4a fd be
       0.13358328 -0.16614358 -0.1384324 -0.4947103
000220 de 3d f4 3d d5 83 04 be 13 51 8f 3c 8a 17 84 be
       0.11925863 -0.12940915 0.017494714 -0.2579921
000230 33 8d a6 3e 23 48 95 be b6 d7 c8 bd b0 8d 25 3e
       0.325296 -0.29156598 -0.098067686 0.1616733
000240 ca 80 f3 be e6 e6 ae 3e 88 18 3b 3c 9f a7 95 3e
       -0.47559196 0.34160537 0.011419423 0.29229447
000250 99 00 98 3d 06 52 9b 3e 5d 9d 13 bf e5 9e 20 bd
       0.07421989 0.30336016 -0.5766199 -0.039214034
000260 e7 23 09 be 59 60 19 3e 7d d8 b6 bc 8f b2 af 3d
       -0.13392602 0.1497816 -0.022320027 0.08578979
000270 bb 73 0a 3e 9c 97 5a be 64 87 88 3d da d3 aa bc
       0.1352071 -0.21346897 0.06666449 -0.020852972
000280 e1 71 da be 39 f1 bc 3e ca 0b 64 3e bf 4b c1 bd
       -0.42665008 0.36902788 0.22270122 -0.094382755
000290 f0 20 a4 be 9a 6e 7e 3e 4c 68 00 3e f8 02 06 3e
       -0.3205638 0.24846879 0.12539786 0.1308707
0002a0 69 60 a1 3d 2b 95 15 be 6a 32 54 3e fa bb 0b 3f
       0.07879717 -0.14607684 0.20722356 0.54583704
0002b0 76 12 b5 3d eb fb b9 bd 0a fc f5 3c e3 ae f0 bd
       0.08841412 -0.09081253 0.030027408 -0.11752107
0002c0 fe 76 58 be 70 35 51 3b fe 01 9f 3d e9 19 75 bc
       -0.21139142 0.003192272 0.07764052 -0.014959791
0002d0 0e d0 93 3e 30 96 1d bd 43 64 27 3d 22 51 cd be
       0.2886967 -0.038473308 0.0408671 -0.40100962
0002e0 76 bb b6 3d 05 e0 1f be 25 fa 09 3e a6 33 87 3e
       0.08922474 -0.156128 0.13474329 0.26406592
0002f0 15 3c 88 be ec 96 9f 3e a3 f7 d7 bd ef b4 cb 3e
       -0.2660834 0.31169832 -0.1054528 0.3978648
000300 a3 a6 dd be 8b 9e b5 3d 95 40 ec be 2c 78 a8 bc
       -0.43291196 0.0886813 -0.46143022 -0.020565115
000310 63 8b ce 3e 8c 27 e8 be 6c 16 c9 be a8 d4 f0 be
       0.4034072 -0.45342672 -0.3927492 -0.47037244
000320 f3 e5 9c 3d fd bc 8f 3e 83 d1 6b bd ff 4c 34 be
       0.07661047 0.28073874 -0.057572853 -0.17607497
000330 1a 67 ec bd 82 47 05 bf 8b 06 a4 3e 22 3c 2f 3e
       -0.115431026 -0.5206224 0.32036242 0.17112783
000340 f0 e6 ac 3d eb 94 31 3d 7b 60 78 3e 51 b3 8f be
       0.08442485 0.04335491 0.24255554 -0.28066495
000350 39 a1 2c 3e 10 9c b4 bd 80 a0 a8 bc 88 de 76 3e
       0.16858377 -0.08818829 -0.020584345 0.24108326
000360 74 4f 8b 3d 04 bd 48 3d b8 a0 0e 3d fa d7 97 bd
       0.06802264 0.049008384 0.034821242 -0.07414241
000370 ef 23 6a 3d 33 52 24 3e f0 17 4a 3e 64 a5 b4 bd
       0.057163175 0.16046982 0.19735694 -0.08820608
000380 ca 23 90 be 95 99 6f 3e 1e b0 e6 3e 90 b0 e9 be
       -0.28152305 0.2339843 0.45056242 -0.4564252
000390 12 1c ba be fb dd b0 3d 5f 8b ee be 2a 9c 7d 3e
       -0.3634954 0.086360894 -0.46590707 0.24766603
0003a0 54 bf 70 bd aa 9c 81 be 94 dd c7 3c f3 c5 c0 3e
       -0.058776215 -0.25314838 0.024397649 0.37651023
0003b0 4a 6d c6 bd a4 19 dd 3e 86 d3 02 bf 6c 19 4b 3e
       -0.09688814 0.43183625 -0.5110401 0.19833916
0003c0 26 28 a1 3e 95 f7 64 3e a5 3a fb bc c4 33 44 3b
       0.31475943 0.2236007 -0.030667612 0.0029938081
0003d0 00 94 b8 3c 10 da 3c 3c c1 8a e2 be 22 78 80 3e
       0.02253151 0.0115265995 -0.44246486 0.25091654
0003e0 cd 1d b6 3d 98 56 4f be 57 dd 4d 3c 54 f4 11 3e
       0.08892403 -0.20247877 0.012564979 0.1425336
0003f0 de 5f 9a 3c bf a2 27 3c 58 b5 e9 3b 50 c0 e6 bd
       0.018844541 0.010231673 0.0071322136 -0.112671494

sequential/net/while/gru_cell/MatMul f4 [20, 13]
000000 97 0a 56 bc 53 73 f1 bc bf e6 82 3d ef a2 b7 ba
       -0.013064048 -0.029473936 0.063916676 -0.001401035
000010 d0 a5 36 bc 93 44 0e be 77 72 f8 bd 44 1a 54 bd
       -0.011147931 -0.13893346 -0.121312074 -0.05178286
000020 07 30 13 be 38 7f 1a bd 12 ff e5 bd 5d 9d 48 be
       -0.1437379 -0.03771898 -0.112302914 -0.1959128
000030 18 99 2c 39 43 b5 5f bd ec 39 3b 3d cc 8e fd bb
       0.0001646023 -0.054616224 0.045709535 -0.00773797
000040 1c 86 09 3e 5f f0 b8 3d cf c4 ad 3d 76 49 6b 3d
       0.13430065 0.09030222 0.08484804 0.057443105
000050 4f a4 17 be 9d c9 98 3b f5 2d 2a bc 18 b7 c9 3c
       -0.14808773 0.004662706 -0.010386934 0.024623439
000060 08 80 83 3e a9 4b 8f be bb ea 8e bd f6 44 7f 3c
       0.25683618 -0.27987412 -0.06978365 0.015580406
000070 4d 45 7d bc 27 e9 5b bd 11 4c 19 3d 26 f9 dd 3d
       -0.015458417 -0.05368915 0.03742606 0.10838537
000080 c9 a2 91 3d ee 49 9f bd 74 4a e4 bd 44 52 ea bd
       0.07111127 -0.07777773 -0.11147013 -0.11441472
000090 70 bb 21 be 2b 6d a4 3d be ff 69 3d 2b d2 4c bd
       -0.15794158 0.08028635 0.05712866 -0.05000512
0000a0 e7 1a 3b bd b5 9f 93 3d 16 10 12 bd a9 0f 6b bd
       -0.045679953 0.07208196 -0.035659872 -0.05738798
0000b0 db 22 8b bc dc 63 63 be 94 e7 de be b6 8f 17 be
       -0.016984394 -0.22206062 -0.43536055 -0.14800915
0000c0 2b de 6a 3e 2a b2 3f 3e ef d6 28 3e 06 68 ac 3b
       0.22936313 0.18720308 0.1648824 0.005261424
0000d0 48 81 38 be 36 d5 40 3c 24 bd 7c bc 43 11 a9 bd
       -0.18018067 0.011769583 -0.015425954 -0.082552455
0000e0 93 4a fc 3c 0a a0 bd 3d 22 38 f5 bd 88 cc 74 3d
       0.030797279 0.09259041 -0.11973597 0.05976537
0000f0 8e 5b f3 bd 6d 8d 07 be d6 a9 c9 bc 14 ff 9d 3d
       -0.11882697 -0.13237543 -0.024617117 0.07714668
000100 ba 59 b4 bd 1a a9 fe bd c5 ab a5 bb 2f 43 1d bd
       -0.088061765 -0.12434597 -0.005055877 -0.03839415
000110 d2 0a 0b be 0b 06 eb 3c 4d 79 8e 3c 71 2a 73 3d
       -0.13578346 0.028689405 0.017391825 0.059366647
000120 e6 56 d5 3d ed 08 20 bc dd c5 73 be c2 3d f9 bd
       0.10416965 -0.009767753 -0.23805948 -0.121699825
000130 5f b1 a1 3d df 6e 03 3d 01 28 59 3d 57 f1 c2 bb
       0.07895159 0.032088157 0.053016666 -0.00594918
000140 82 94 16 bd ed b3 bf bd ea 9d 9b ba 53 31 c0 bd
       -0.03676272 -0.0936049 -0.0011872624 -0.09384408
000150 30 c7 0b 3e cb 25 78 bd d2 51 87 3c 7f f4 2a be
       0.13650203 -0.060582917 0.016518507 -0.1669483
000160 aa 0d 31 be f9 d1 26 bd 63 e2 e4 bd 1a 23 5f 3c
       -0.17290369 -0.04072759 -0.11175992 0.013619209
000170 ca dd ba 3c 44 c7 71 bd bb f2 b1 bd 88 68 34 bd
       0.022810835 -0.059027925 -0.08688875 -0.044045
000180 e7 b0 56 bd d5 16 fc 3c b0 19 b1 bd 23 b3 0f bd
       -0.0524148 0.030772606 -0.086474776 -0.035082947
000190 dc ba 79 3c 5b 07 c2 bd c0 31 95 bd 32 ea 5e 3e
       0.015242305 -0.09474059 -0.0728488 0.21769026
0001a0 58 4e 19 3d 9b c2 a1 bc 1d 66 bc 3c ff df c3 bd
       0.03742823 -0.019746115 0.02299791 -0.09564208
0001b0 8b b4 94 bd 95 b6 68 bd ff 3f 53 3d b1 6d 9e 3b
       -0.07260998 -0.05681475 0.051574703 0.0048348536
0001c0 c9 de 9b 3c e3 37 13 3e d6 e6 2e 3e 3e 77 25 bc
       0.01902713 0.14376788 0.17080244 -0.01009923
0001d0 4a 73 38 3e c6 f4 aa ba 5b 6b 42 bd a5 9c aa bc
       0.1801273 -0.0013042919 -0.047465663 -0.020826647
0001e0 07 81 80 be aa f5 97 3d 0c a2 86 3c 24 2c 2d 3e
       -0.2509844 0.074199036 0.016434692 0.1691137
0001f0 11 ca b2 bb 0c 85 ca bd cd 6b 2d bd ce 8f 34 3e
       -0.005456217 -0.09888658 -0.042339135 0.17632982
000200 a6 d5 36 bd 1d 16 db 3d 8e 87 01 3c 2e db 2d 3d
       -0.044637345 0.10697577 0.007905854 0.042445354
000210 a2 b7 34 bd 1a 3f 16 be 4b 05 0e 3c 09 0d f4 bc
       -0.04412044 -0.14672509 0.008668254 -0.029791372
000220 1c bb a1 3d 9c 35 0f bd 28 3a 01 be 82 22 57 3e
       0.078970164 -0.034963235 -0.12619841 0.21009257
000230 70 98 57 3a 1f d0 4e 3e 6c 2c c8 3d 19 7c 33 3e
       0.0008224314 0.2019658 0.09774098 0.17527808
000240 b4 ce a9 3c 85 7a 6c bc 3a ad 42 3e 9d 19 24 bd
       0.020728447 -0.014433508 0.19011393 -0.04006349
000250 78 bf a6 bd 4e 5c 05 bd 88 b6 6e 3e 3b b1 6d 3d
       -0.081419885 -0.03255873 0.23311818 0.05803035
000260 b5 4c 01 be b5 60 67 3e 07 c1 7f be f2 08 b3 be
       -0.12626918 0.22595485 -0.24975978 -0.34967762
000270 71 6b 55 be 8d c4 7c 3c 34 bc 8e 3d 7f c7 9b bd
       -0.20841767 0.015427721 0.06969491 -0.0760641
000280 42 0d 94 3d 97 7e 87 bc b7 0b 9e be ee 6b 26 bd
       0.07229091 -0.016539855 -0.30868313 -0.040630274
000290 4a 41 d4 3d c2 e6 9c bc 4c f6 06 bd 98 02 84 bd
       0.103640154 -0.019153003 -0.03294973 -0.06445807
0002a0 5d b3 fb 3d a8 5c ae be 95 90 8a bd 54 72 ec 3d
       0.1229007 -0.34055066 -0.06765858 0.11545244
0002b0 ba 42 4f 3d 07 fd 17 bd ab ec 90 bd 65 53 a0 3c
       0.050600745 -0.03710654 -0.07076391 0.019571016
0002c0 da 1c 1c 3e 8d e8 61 be 14 67 a9 bd 0c 0e 39 ba
       0.15245381 -0.22061367 -0.08271614 -0.0007059283
0002d0 06 5e 08 3e 17 3b 5c bd 70 05 b0 bc fe 3c 82 3c
       0.13317117 -0.05376729 -0.021486968 0.015898224
0002e0 50 81 3e 3e c2 54 5a 3e 96 97 4d 3d cd 15 2c 3e
       0.18604016 0.21321395 0.05019339 0.16805191
0002f0 0c f8 15 3e ab 34 8e bd 65 6d 8e 3e 2d cb 00 3f
       0.14645404 -0.06943639 0.27817836 0.5031002
000300 55 f5 08 3f 44 e9 5c 3e 08 7a 59 3b ae cf 3b bc
       0.53499347 0.21573359 0.0033184309 -0.011463089
000310 6a bc 52 3c f8 4a 74 3d 55 ff 74 bc f7 73 53 3d
       0.012862304 0.05964181 -0.014953454 0.051624265
000320 3a 51 72 bd 54 7c 6e bd 33 44 8d bb 04 08 95 bd
       -0.059159495 -0.058224037 -0.0043111085 -0.072769195
000330 94 70 1a be a5 fc fb 3d ea dc d7 3c 7d 84 ce 3d
       -0.15082008 0.123040475 0.026350457 0.10083864
000340 ba 58 1a 3d ea dd 31 bc d2 15 29 bc 2f 0b 68 bd
       0.037682272 -0.010856131 -0.010320144 -0.05665129
000350 f5 ce 16 be 22 55 c4 bc 91 de 88 bd 45 fe df bd
       -0.14727385 -0.023966376 -0.06683076 -0.1093717
000360 e3 7c 2b be 68 28 4b bd ab 19 a2 3d 7d d8 c4 bd
       -0.16746859 -0.04959908 0.07915052 -0.09611604
000370 fc 1f 70 be b7 e9 4e 3d ca b8 6c 3c 46 57 22 bd
       -0.23449701 0.050515857 0.014448354 -0.03963401
000380 11 4e da bd bc d5 be 3b f4 81 6c 3d 37 b5 e2 ba
       -0.10659421 0.005823819 0.05774112 -0.0017296438
000390 ec 77 36 be b9 d2 22 be 84 7c dc 3c 90 d8 b4 bd
       -0.17819184 -0.15900697 0.026914842 -0.088303685
0003a0 ed e3 22 be e0 18 fb bd e6 a8 99 bc 32 d6 02 bd
       -0.1590726 -0.12260604 -0.018757295 -0.031942554
0003b0 b2 cf 30 3d 7d 8b b6 3d cb 1e 91 3d b1 8f f5 3d
       0.043166824 0.08913324 0.070859514 0.119902976
0003c0 3f 35 3e 3e 41 f0 7b 3e fd 5d 8e 3d ca 36 eb bd
       0.18575 0.24603368 0.069515206 -0.114850596
0003d0 84 dd 74 bd e2 04 ff bd 4f 4c ea be 98 49 52 3c
       -0.059781566 -0.12452103 -0.45761344 0.012834929
0003e0 57 7b d5 3c 00 6e 7e 3d f7 fd aa 3d fb 60 b8 bd
       0.02605979 0.062116623 0.08349221 -0.090028726
0003f0 ac 83 95 bd e7 09 31 3d 43 8a 2a 3e e1 96 08 3e
       -0.07300505 0.043222334 0.16654305 0.13338806

sequential/net/while/gru_cell/MatMul_1 f4 [20, 13]
000000 d3 af b0 be c9 fa 2b 3d 56 f3 22 3e b5 05 01 3e
       -0.34509143 0.041987214 0.15913138 0.12599833
000010 ce 55 31 3e 0b 69 34 3e e6 70 c6 bd d1 9d 2d 3d
       0.17317888 0.17618196 -0.096895024 0.042386834
000020 91 81 d2 bd 42 f0 85 3e 0f 5c d0 3e 7a 61 44 bd
       -0.10278619 0.26159865 0.40695235 -0.047944523
000030 20 bd 10 bd 85 f9 8d be 24 7b 15 bd b8 3e 5a 3e
       -0.035336614 -0.2772943 -0.03649439 0.21312988
000040 9e 14 9d bd 71 1d e5 bd c4 75 3f 3d a0 21 83 be
       -0.07669948 -0.11187256 0.04674317 -0.2561159
000050 62 4b 33 be f8 f7 e7 3d 55 c2 91 3e 38 39 bd bd
       -0.17509225 0.11326593 0.28468576 -0.09239429
000060 e8 ce c9 bd 71 3f 12 3e 5d 0e d6 bc 4a e8 1b 3e
       -0.09853917 0.14282013 -0.026129896 0.1522533
000070 98 e2 9f bd c2 f5 58 3e f4 b2 fa 3d 46 53 1f be
       -0.07806891 0.21187499 0.12241164 -0.1555911
000080 47 ba c7 be 71 1b 5d 3e 5b 2d d2 be 34 f6 ea be
       -0.39009306 0.215925 -0.41050228 -0.45890963
000090 44 e5 b7 bd 36 5a b1 3d 2b aa e6 bd e8 7e 45 bd
       -0.08979276 0.086597845 -0.11262926 -0.04821673
0000a0 90 27 2a bd 66 e9 5d bd 7e b1 15 3e a0 fc 9b be
       -0.041541636 -0.054177664 0.14618489 -0.30466175
0000b0 12 4b 9a be c6 81 cd 3c d1 da 5c bf 3f cf a3 3a
       -0.301354 0.025086295 -0.8627139 0.0012497677
0000c0 24 4c 0d bd c5 61 f0 ba ab 30 0e be 8f 13 ef bd
       -0.03449644 -0.0018339684 -0.13885753 -0.116736524
0000d0 21 5b df 3d c8 0e 5a bd 6a 83 00 be cf 1a 0e be
       0.10906053 -0.053236753 -0.1255013 -0.13877414
0000e0 a8 32 3c 3d 8d 14 1c bd 79 99 29 be 02 9c 35 3e
       0.045946747 -0.038105536 -0.16562451 0.17735294
0000f0 46 8c 2c 3e 68 03 26 bf 47 14 87 bd e8 be 67 be
       0.16850385 -0.6484895 -0.065956645 -0.22631419
000100 29 1d d7 be 39 5e 0a 3d e6 65 4d 3d b5 18 bc bd
       -0.42014435 0.033781264 0.050146006 -0.091844
000110 e3 1f 6b 3e 36 b7 9c be 56 e8 cd bd 8d 03 bb 3d
       0.22961383 -0.3060853 -0.1005408 0.09131537
000120 30 b3 4e bb 97 30 ca 3e a6 c4 7f bd d9 c2 6e 3e
       -0.003153991 0.39490196 -0.062443398 0.23316516
000130 d6 f9 05 3d df b7 30 be 48 ec 32 3e 27 e6 ed 3c
       0.032708965 -0.17257641 0.17472947 0.02904041
000140 a6 f0 8a 3e e9 9f 0e 3e e5 e3 40 bd 88 8e 5c be
       0.27136725 0.13928188 -0.047092337 -0.21538746
000150 4c 08 66 3e 40 04 2d be c4 0e 00 be b1 ae d6 3e
       0.22464103 -0.16896152 -0.12505633 0.41930154
000160 15 52 a1 3d db 30 05 3f d5 50 09 3f a1 b7 1b be
       0.07876984 0.5202767 0.53638965 -0.15206768
000170 23 50 44 3d e1 b9 ec bd 26 b7 dc bc 6b bf 77 bd
       0.047927987 -0.11558891 -0.0269428 -0.060485285
000180 37 fb 84 3c f2 a3 7b 3e 0a 58 1c 3e e9 78 2d 3d
       0.01623307 0.24574259 0.15267959 0.042351637
000190 a8 a7 19 be 7e 80 98 3e 64 50 98 be 70 dc 55 bd
       -0.15005362 0.29785532 -0.29748833 -0.05221218
0001a0 f4 8d 1b 3c 84 01 cc 3d 48 02 27 bd 3c ae 3b 3e
       0.0094942935 0.099612266 -0.04077366 0.18328184
0001b0 05 e3 db be 6a 8c 48 be aa 19 a9 3c fa ca cb be
       -0.4294664 -0.19584814 0.02064212 -0.39803296
0001c0 ff 37 8a be c2 56 93 be 50 2e c4 3d 54 84 22 3d
       -0.26995847 -0.28777128 0.09579146 0.03967698
0001d0 28 02 bc 3e 49 c7 3e 3d 3c f5 57 3d 6d 83 de 3d
       0.36720395 0.046576772 0.052724108 0.10864911
0001e0 1a bf 07 3e 80 a5 42 3d 43 9f bf 3d 7d 03 33 bd
       0.13256493 0.047521114 0.09356549 -0.0437045
0001f0 c1 4b 58 3e aa be 39 3e bd 56 85 3e bd 30 40 3e
       0.21122648 0.18139139 0.2604274 0.18768592
000200 b2 64 5b 3e fe bc 2f 3e 56 43 91 bc cd 2d 8c bd
       0.21425131 0.17161939 -0.017732304 -0.06844673
000210 73 02 26 3d 36 f3 64 3e fe 8f 03 be 0c f8 df bd
       0.04052968 0.22358403 -0.12847897 -0.10935983
000220 6b e8 53 be da 6a bb be e0 d0 31 be cd cd 17 be
       -0.20694129 -0.3660496 -0.17364836 -0.148246
000230 8b 5e fa 3d 38 ed b1 bd a9 3c 6f be f0 d9 19 be
       0.12225064 -0.08687824 -0.23362984 -0.15024543
000240 50 ed 09 3e b9 1f 9c 3d 7f 89 e1 3d 63 62 37 3e
       0.13469434 0.07623238 0.110125534 0.17908625
000250 81 55 2e 3d c1 d2 0f be 01 8f 85 be c8 a1 11 3e
       0.04256201 -0.1404524 -0.26085666 0.14221871
000260 f2 2f b7 bd f8 db a6 bd 11 0f f8 be 7b dc 3c bf
       -0.08944692 -0.081474245 -0.48448995 -0.73773926
000270 9b f6 01 3d 78 4e 83 39 ef 19 23 be 12 ea 91 bc
       0.031729322 0.0002504473 -0.15927862 -0.017811809
000280 8b c8 d7 be fa b8 08 bf c6 85 06 be 0e 1d 96 be
       -0.4214519 -0.5340725 -0.13136968 -0.29319042
000290 44 4d 86 be 41 31 82 bd 18 2a b9 be cd 1d 57 be
       -0.26230824 -0.06357051 -0.36164927 -0.21007462
0002a0 8a 2e 97 be 51 f2 f4 be 68 f0 da bd fd 0b 99 3e
       -0.29527694 -0.47841123 -0.10690385 0.2989196
0002b0 f3 6d 12 be 5b 70 32 bf a5 9f 55 be 47 05 0d be
       -0.14299755 -0.6970269 -0.20861681 -0.13771544
0002c0 ae d9 e5 bd ad 6e 84 3e cd 79 06 3e 6c 40 52 bf
       -0.1122316 0.2586569 0.13132401 -0.8212955
0002d0 6c c5 25 3d c8 55 1b bf db 9d 0f be ec a1 d6 bb
       0.04047148 -0.60677767 -0.14025061 -0.0065500643
0002e0 6f 0d e3 bd 8c a1 50 3d 9e c5 17 3e 08 49 92 3e
       -0.11086547 0.050935313 0.14821479 0.28571343
0002f0 15 bb 5c bd b5 ac e7 be 0f 57 62 3d 94 01 50 3e
       -0.053889353 -0.45248953 0.055258807 0.20313102
000300 40 63 c2 3d d4 bb 43 3e bf a1 91 3e 7b 15 0a be
       0.09491587 0.1911462 0.28443715 -0.13484757
000310 d9 a0 18 3c 68 75 96 bd 56 fd 3c be 93 ce 39 bc
       0.009315693 -0.07346612 -0.18456015 -0.011340755
000320 ae 99 17 3e da 62 2b 3d d0 dc af 3e 1f 25 61 3d
       0.14804718 0.04184232 0.34348154 0.054967042
000330 33 5f c7 be 4d f7 29 3e 3a 7c 03 3d 85 79 80 3e
       -0.3893982 0.16598244 0.032100894 0.25092712
000340 0d 1a d8 3c 0e 2b 39 3d 76 a1 4b bd 62 36 09 3d
       0.02637961 0.045207076 -0.049714528 0.03349913
000350 93 af 2d be d9 ab 10 be ad e4 d3 bd d9 73 92 3d
       -0.16961507 -0.14128055 -0.10346351 0.071510024
000360 35 d9 12 3e 73 8c 18 be d5 3f 7f 3e 2b 07 d7 3d
       0.1434067 -0.14897327 0.24926694 0.10499414
000370 8f 95 bf 3e 41 ef 23 3f e1 6f 07 3e 86 11 08 3d
       0.37418792 0.6403695 0.13226272 0.033219837
000380 32 8b ea bd 53 52 0e be 03 0b 94 be df 9b 20 3e
       -0.11452331 -0.13898592 -0.2891465 0.1568446
000390 0c e1 cf bd f8 b9 42 3e 01 bc 46 be 45 61 7f 3e
       -0.10150346 0.19016254 -0.19407655 0.24939449
0003a0 19 c8 01 be 33 b4 29 be f5 3e d6 bb 92 2a a5 3c
       -0.12673987 -0.16572647 -0.006538267 0.0201619
0003b0 c7 48 ae bd 79 a1 65 3e 42 94 27 be 21 21 15 bd
       -0.08509975 0.22424878 -0.1636515 -0.036408547
0003c0 d7 1e e7 bd d2 3e 73 3e 34 1a 2b 3d 58 ae 4a be
       -0.11285179 0.23754433 0.041773036 -0.1979307
0003d0 b8 88 60 3e 9a 75 0f bc d4 8f a0 3d 48 2e f6 3d
       0.21927154 -0.008756066 0.07839933 0.12020546
0003e0 81 dc 9d bd ee f3 83 3c 9f 34 44 be 9a 15 77 be
       -0.077080734 0.016107526 -0.19160698 -0.24129334
0003f0 23 cb df bd 5d 2d b7 3e 9f ec ac 3d 1b 68 15 3e
       -0.10927417 0.35776797 0.084435694 0.14590494

sequential/net/while/gru_cell/MatMul_2 f4 [20, 13]
000000 e2 57 75 3e 10 c5 13 be 87 fe 35 be b1 f1 b3 3d
       0.23959306 -0.14430642 -0.17772876 0.08786333
000010 02 1e 2a be f7 30 66 3d a1 a6 02 3f 68 43 45 3e
       -0.1661301 0.05619904 0.51035506 0.19263995
000020 b7 b0 9c 3e 8b e4 00 3f 78 45 40 bc 97 4d 64 be
       0.30603573 0.5034873 -0.011735313 -0.22295223
000030 ea 61 f6 bd b1 85 44 3e 8c de fa 3d a2 be d5 3d
       -0.120303944 0.19191624 0.12249479 0.10436751
000040 be 5d 26 3e e4 9b 1b bd 80 40 1f be 13 92 39 be
       0.16246697 -0.037990466 -0.15551949 -0.18122129
000050 18 06 0f bf 97 29 d3 3d e2 39 cd 3c 56 bf 3f bc
       -0.55868673 0.10310667 0.025052015 -0.011703333
000060 b7 79 35 3e 5c 8b 87 3c 1f 2c c2 be d7 34 01 bd
       0.17722212 0.016545944 -0.37924287 -0.031544533
000070 a0 d1 6a bd 4d 69 fa bc 5b a6 da bc ea 32 e6 bd
       -0.05732882 -0.03056779 -0.026690653 -0.1124018
000080 d7 96 c0 bd 66 85 d3 3d 34 57 3c be 07 95 4d 3e
       -0.094037704 0.10328178 -0.1839264 0.2007638
000090 7d 0d 19 3e 2c 47 6a 3d 3b 42 58 be c4 95 01 3e
       0.14946552 0.05719678 -0.21119015 0.12654787
0000a0 1c 05 98 bd 80 cc 40 bc 8e 12 dd bc 9d 24 76 3e
       -0.074228495 -0.011767507 -0.026986387 0.24037404
0000b0 c7 94 d3 bd 5b ac b4 be 01 57 e4 bd 84 bc a0 be
       -0.103311114 -0.35287747 -0.11149407 -0.31393826
0000c0 06 d0 8b bb 9c 51 bb ba b7 f2 9e 3d 1f 7d 02 bd
       -0.0042667417 -0.0014291289 0.07761138 -0.031857606
0000d0 e3 a2 bb 3c b8 a5 1b bd f1 86 56 be a5 99 55 3d
       0.022904819 -0.03799984 -0.20949914 0.05214848
0000e0 ad 5a 13 be 2c 35 ac be 36 af 3a bd 94 f6 67 3d
       -0.14390059 -0.33634317 -0.04557725 0.05663164
0000f0 88 93 cf be af 23 6f be 64 39 48 be 83 fd ab be
       -0.40542245 -0.23353456 -0.19553143 -0.33591852
000100 b1 ad 6a be 71 d3 f6 3d 7f 21 bc 3d 37 e0 29 be
       -0.2291782 0.12052048 0.091860764 -0.16589437
000110 47 3c 1b be 4b 60 99 3d 1b f6 12 3e 25 66 bb bd
       -0.15159713 0.074890696 0.14351694 -0.09150342
000120 42 7b 95 bc 89 ac a0 3e 00 aa b6 be fc c1 2d be
       -0.01824725 0.31381634 -0.35676575 -0.1696853
000130 88 38 3b 3c c9 28 fd 3b 26 00 a5 3d d2 46 a8 3d
       0.011427052 0.0077258092 0.08056669 0.08216633
000140 2a 19 b6 3e e0 0e 1b 3e 12 ab 11 3e 8c 59 8f be
       0.35566074 0.15142393 0.14225414 -0.27998006
000150 43 c5 45 be 45 3e 65 be 5b 7f 7d be b9 2d d2 3d
       -0.1931353 -0.22387035 -0.24755614 0.10262627
000160 39 47 b3 3d 74 5b 74 bd 05 a6 a6 3d 6c 52 d0 bd
       0.08753819 -0.05965753 0.081371345 -0.10171971
000170 ae 10 7d 3d 3c e1 14 be 0e 71 67 bd d8 56 38 3e
       0.061783485 -0.14539045 -0.0565043 0.18001878
000180 cf 45 22 3e 16 f7 5e 3e 18 86 9d 3e a0 41 6a 3c
       0.15846942 0.21773943 0.30766368 0.014297873
000190 cf 04 b5 be 07 94 84 3e cc f3 b6 3b ff 04 2d 3d
       -0.3535523 0.25894186 0.005583262 0.042241093
0001a0 1e 41 85 be 17 98 79 3d 20 7a 17 3e f0 42 9d 3e
       -0.26026243 0.06093606 0.1479268 0.30715132
0001b0 3b 8a f1 3d 13 c1 90 3e 9c 1b 39 3e 46 de 91 bc
       0.117939435 0.28272304 0.18076938 -0.017806184
0001c0 be 65 38 3c 4b 57 e4 bd b0 26 50 ba 63 ed 8e be
       0.011254726 -0.11149462 -0.0007940335 -0.27915487
0001d0 e9 dc d9 be 80 cc 8e be 85 de 39 3e 6a 0f 0e bd
       -0.42551354 -0.27890396 0.1815129 -0.03468267
0001e0 37 21 b4 3d 2a d2 92 3e 07 50 14 3e 11 e9 2e be
       0.08795398 0.28675967 0.14483653 -0.17081095
0001f0 e4 93 00 be ec 2e be 3d 3f 7e bc 3d fd 1c 62 3e
       -0.12556416 0.092862934 0.09203767 0.2208137
000200 36 a2 fc 3d fb 0f 1b be 31 dd 05 be 60 41 c6 bd
       0.12335627 -0.15142815 -0.13072659 -0.09680438
000210 f2 08 33 be 4c 1e 2d be ca b2 03 bd f6 e9 89 3e
       -0.17483881 -0.16906089 -0.03215293 0.2693631
000220 1c ef ab 3c a1 c1 b8 3e ec 35 1c 3f 1c 23 05 3e
       0.02098804 0.36085227 0.6101978 0.13001674
000230 10 e6 a6 bd 17 8f 4b 3e c8 af 74 3d bf bf a3 3d
       -0.0814935 0.19878803 0.05973795 0.07995557
000240 74 9e 34 3e e9 ba 8b 3c 35 1a 75 3d a1 bf 35 be
       0.1763857 0.0170569 0.059839446 -0.17748882
000250 55 8a 79 3e 80 0e 70 3d c4 c2 0d bc de 7d a8 bd
       0.24369176 0.05860758 -0.008652393 -0.08227132
000260 30 c4 95 be 5b b1 02 bf 25 16 0e 3d 89 ae 9e be
       -0.29251242 -0.5105187 0.034689087 -0.30992535
000270 71 cc 15 3f 99 3e 63 3e 77 55 ec 3d 48 37 a1 bd
       0.5851508 0.22191848 0.115397386 -0.07871872
000280 81 a5 23 3e a0 24 ec bd 46 50 96 be 68 5e 02 be
       0.15981103 -0.11530423 -0.2935812 -0.12731326
000290 32 8c 34 bc 19 8f 51 3d a0 a9 b0 bc 54 bf aa 3c
       -0.011019753 0.05116186 -0.021565259 0.020843185
0002a0 f6 cb 9c 3c 39 ad 51 bd 2e 68 fa bd fa 5e 1b 3d
       0.019140225 -0.05119059 -0.12226902 0.037932374
0002b0 e8 95 15 3e 18 f8 4e 3c 41 b5 e1 bd 56 74 80 3e
       0.14607966 0.012632392 -0.110208996 0.25088757
0002c0 6a 9d fc 3d 97 f0 85 be da a7 af 3d f2 0c 9f 3d
       0.12334712 -0.26160118 0.08576937 0.07766141
0002d0 e0 9b 95 3e 12 8b d6 3e c2 2d 01 bf 8f 04 ec be
       0.29220486 0.41902977 -0.50460446 -0.46097228
0002e0 53 1b e1 3d 48 6f a0 bd ec 89 6b 3e 00 73 99 3e
       0.1099154 -0.07833725 0.23001832 0.2997055
0002f0 5d 55 2b 3e 4c 95 06 3e 94 0e 56 3e 3e 9c ba bd
       0.16731782 0.1314289 0.20903999 -0.09111832
000300 8f 12 12 be a5 8e 96 3e 30 8f 14 bd bf 94 d5 be
       -0.14264892 0.29405704 -0.036269367 -0.41715047
000310 00 b0 f5 3d 76 84 62 bd a2 16 44 be 7c c2 8a bc
       0.1199646 -0.055302106 -0.19149259 -0.01693844
000320 f0 b9 43 3e ad 95 62 bd 88 e7 39 3e d7 e5 6a bc
       0.19113898 -0.055318523 0.18154728 -0.014337025
000330 4d 60 78 be df b5 6b bd 68 0e 22 3e 3b ac 0d 3e
       -0.24255486 -0.057546493 0.15825808 0.13835232
000340 b4 b5 c4 bd 83 a1 55 be 1b 8d 6a 3e 2a 51 1e 3e
       -0.096049696 -0.20862393 0.2290539 0.15460649
000350 fa 4c 09 3e 1e ec c6 3e b7 38 c2 3d 68 f3 e9 3d
       0.1340827 0.38852018 0.09483474 0.11423379
000360 7c 55 9b 3e 3f db 83 3e 6d 63 fb bd c0 b5 82 3c
       0.30338657 0.2575321 -0.12274823 0.015955806
000370 b2 94 19 3e d7 80 88 be 48 ed 52 3e 51 96 31 be
       0.14998129 -0.26660797 0.20598328 -0.17342497
000380 3f 7d 6c 3d a5 d8 85 3c 52 4b 3a bd 22 a0 08 be
       0.05773663 0.016338656 -0.045481987 -0.13342336
000390 c6 1a ae bd 06 6b 0a ba a6 9f 65 be ed ed cd bd
       -0.085012004 -0.000528023 -0.22424182 -0.10055146
0003a0 1b 70 90 3c 56 ab 55 be 05 1d 88 bc e6 20 5d 3e
       0.017631581 -0.2086614 -0.0166154 0.21594581
0003b0 8f 4d c2 3d 33 7c 54 3e 6a ef a1 be 67 58 af be
       0.094874494 0.20750503 -0.3162797 -0.34247133
0003c0 42 72 02 be f1 d8 98 be 85 79 ca bd 28 45 3b 3c
       -0.12738898 -0.29853013 -0.09886459 0.011430062
0003d0 bc ed 8b 3d 35 50 ea 3d f9 0a bd 3d 26 93 1b be
       0.068324536 0.114410795 0.092306085 -0.15192851
0003e0 4a 27 d4 bd b7 ce 24 be 50 c0 88 bd 75 ee bd bd
       -0.10359056 -0.1609448 -0.06677306 -0.09273998
0003f0 cc a5 55 3d 50 77 0e 3b 23 47 76 be 04 ea 90 be
       0.05216007 0.0021738596 -0.24050574 -0.2830354
