wakewords/en/hey_kit.onnx (onnx, 19284 bytes, 1 tensors)

const_fold_opt__112 f4 [20, 1]
00000000: 6ff0 0bbf 2ecc a1be 68be e93e 1b7b eabd
00000010: a6dd 9c3e d12b 123f 2d7e 5d3e 064b 023e
00000020: d871 95bd 8da0 de3e 4a1b 083e 82ad ad3d
00000030: 9add 513d 05aa e53e a95f f5bd 39a8 dcbe
00000040: 821e a5be 04e4 24bf fce4 7abe 9421 893e
-0.5466375 -0.3160109 0.4565308 -0.11449262 0.30637854 0.5709811 0.21630163 0.12723932
-0.072971046 0.43481866 0.1329166 0.084803596 0.051236726 0.44856277 -0.11981136 -0.43097094
-0.32249838 -0.64410424 -0.24501413 0.2678343
