wakewords/en/hey_chatterbox.tflite (tflite, 21888 bytes, 10 tensors)

sequential/dense_1/MatMul f4 [1, 20]
000000 5b ae 90 be 53 f1 bc 3e 42 b6 a0 be 9c 91 fa be
       -0.28258023 0.36902866 -0.31389052 -0.48939216
000010 45 b4 4f bf 8e 6d e9 3e 36 a2 00 3f 5d 9d 0c 3f
       -0.81134444 0.45591396 0.50247514 0.5492762
000020 c3 30 17 3e 96 44 bf be 4b c8 9c be f8 5c 0d 3e
       0.14764695 -0.37357014 -0.3062156 0.13804996
000030 33 8f 90 3c 4b 27 ce be bd 7e 94 bd 7d 0d 31 3f
       0.017646408 -0.40264353 -0.07250736 0.69161206
000040 e6 0a d2 3e ff 4d 47 be c2 c8 d5 3e 64 49 01 bf
       0.4102394 -0.19463347 0.4175473 -0.5050261

sequential/net/while/gru_cell/strided_slice_3 f4 [20]
000000 84 49 b1 3d 6b ac 12 3e d7 02 80 3d b6 d4 b4 3c
       0.086566 0.14323585 0.06250542 0.022074085
000010 7d f4 03 be bb ba 30 3e 51 10 cc 3d 3f 5f 2e 3e
       -0.12886234 0.17258732 0.099640496 0.17028521
000020 23 53 9a 3b 29 38 82 bc 8b 62 ce 3c 35 fd 45 bc
       0.0047096177 -0.01589592 0.025193473 -0.012084295
000030 3a cc a4 bc ab 74 ac 3d a4 a9 91 3d d7 c7 3d bd
       -0.020116914 0.0842069 0.071124345 -0.04633316
000040 bd eb 20 3e 6b 3c e3 3d 6a 2c bb 3c f5 3b 8b 3c
       0.15714927 0.11095508 0.022848327 0.016996363

sequential/net/while/gru_cell/strided_slice_4 f4 [20]
000000 66 e4 e7 3d 68 bc e8 3d 8a ea 97 bd bd 4d e2 3d
       0.113228604 0.11364061 -0.07417782 0.11049984
000010 80 f0 bb 3d 7b 32 8b 3d 63 85 10 3e 9d 13 17 3e
       0.09176731 0.06796738 0.14113383 0.14753576
000020 0f b7 85 3d 22 e1 89 3e 01 89 77 3c b5 c7 30 3e
       0.06529056 0.26929575 0.015108348 0.17263682
000030 66 a8 f1 3d 9a 67 e8 3d eb 24 19 3e 06 2c 2e 3c
       0.117996976 0.113478854 0.1495549 0.010630613
000040 72 bf ca 3d 64 55 ce 3d e0 67 11 3d db 10 5d 3c
       0.098997965 0.10074881 0.035499454 0.013492788

sequential/net/while/gru_cell/strided_slice_5 f4 [20]
000000 d9 b3 11 3e a7 95 10 be 5d 0a aa bd 80 cd ac 3e
       0.14228763 -0.14119588 -0.08302758 0.33750534
000010 aa 07 06 3f 46 60 1a be c4 70 56 bd 79 1e 53 be
       0.52355444 -0.15075788 -0.052353635 -0.20617093
000020 77 f8 a3 3e af c4 e8 bc 9f f2 78 3d d3 1d 1c bd
       0.320255 -0.028414099 0.060778257 -0.03811438
000030 17 8b 71 be 4a d2 84 3e bd 4a e6 3c ce 88 b6 be
       -0.23588215 0.25941688 0.02811181 -0.3565125
000040 a0 29 b4 bd 3b 5c 24 3e 01 6e ac be 3e 5c 83 3e
       -0.08797002 0.16050808 -0.33677676 0.25656313

sequential/net/while/gru_cell/MatMul_3 f4 [20, 20]
000000 5a 9b 75 3d fc 3f ae bc 28 0a 14 3d d7 b8 13 3d
       0.059962608 -0.021270745 0.0361425 0.03606495
000010 67 8d 1c 3e 4a 49 0f bd 42 2b 1f bd 34 cb 8d 3d
       0.15288316 -0.034982003 -0.038859613 0.069235235
000020 06 2c 52 3e 37 97 26 3e cb 9b 92 bd 2f fc 58 3d
       0.20524606 0.16268621 -0.071586214 0.052974876
000030 a7 cf c8 bd 83 7a 60 be 44 2d 09 3e 08 ad b8 bd
       -0.098052315 -0.21921735 0.13396174 -0.09017378
000040 57 4d 23 3d 0f 10 0b be 0b 9c 9b 3d 96 70 d7 bd
       0.03986868 -0.13580345 0.07598122 -0.10519521
000050 7e 42 f2 bc 32 b6 7e 3d 27 b6 0c be 62 23 4c be
       -0.029572722 0.062185474 -0.1374136 -0.19935372
000060 ef 3f bf bd 7b a7 d7 3d 41 68 1d 3e f5 0d 24 bd
       -0.09338366 0.10529991 0.15371801 -0.040052373
000070 3d fc 30 3e c2 1d a6 3e c4 7f 1f 3e 4d 83 4d be
       0.17283721 0.32444578 0.15576082 -0.20069619
000080 b4 68 76 bd a2 e6 17 be 63 f2 1f 3d aa 24 24 bd
       -0.060158446 -0.14834073 0.039049517 -0.040074028
000090 e5 2c 04 3e 80 d4 4c be 18 9f 13 3e 55 bd a7 bd
       0.12907751 -0.20002937 0.14416158 -0.08190409
0000a0 81 9b bb be f7 ff 79 3d e6 42 8e be bb b7 0d 3b
       -0.36642078 0.061035123 -0.27785414 0.0021624404
0000b0 d4 f6 a9 be cf 39 c7 3b db d8 fd 3d cc a2 1a bd
       -0.33196127 0.0060798894 0.123948775 -0.03775291
0000c0 1d 67 9e bd a6 33 20 3e fd 21 3f 3e 49 0d db bd
       -0.07734511 0.15644702 0.18665309 -0.10695893
0000d0 c8 9c 3a bd e1 a3 97 be 62 b5 2f be ff c1 73 3e
       -0.045559675 -0.29617217 -0.17159036 0.23804472
0000e0 c9 0e 0c 3d 34 a6 1a 3d 4d aa 05 ba 04 11 33 bd
       0.034193788 0.03775616 -0.0005098924 -0.0437174
0000f0 3c 13 2d be 0a 81 83 bb e0 bb 31 bd ed 6c 66 bc
       -0.16901869 -0.0040131854 -0.043392062 -0.014064056
000100 b8 6f 30 3d 45 56 2e bd e0 67 ba 3e 21 99 09 be
       0.043075293 -0.04256274 0.36407375 -0.1343732
000110 f1 a6 57 bd 19 46 02 3e b3 e0 3d 3e ed f0 d1 bd
       -0.052649442 0.12722053 0.18542747 -0.10251031
000120 c1 a8 53 3e b3 b3 88 bd fb 18 06 be d3 c3 56 bc
       0.20669843 -0.066749 -0.13095467 -0.013108212
000130 17 86 67 be 26 8d 54 3e 9e de 06 be 30 1a a8 bd
       -0.22609745 0.20756969 -0.13170859 -0.0820812
000140 01 24 fe bd aa 4c 24 bc 37 65 0f 3b 95 72 13 bd
       -0.12409211 -0.010028044 0.0021880397 -0.035997946
000150 b3 17 f9 bd 01 52 69 bc ac cb 3f bd ae b0 cf bd
       -0.121627234 -0.014240743 -0.046825096 -0.10141121
000160 cc a0 15 bc b6 ad d0 bc e8 c8 a3 3b 31 12 29 3c
       -0.009132575 -0.025473457 0.004998315 0.010319279
000170 a7 3e 74 3e e8 f8 46 be 5b 34 1b 3e 3a 89 11 3d
       0.23852025 -0.19430888 0.15156691 0.03553126
000180 e2 a7 09 be 69 9c f1 3d f7 cb 8d be 8a 1e 80 3d
       -0.13442948 0.11797411 -0.27694675 0.06255825
000190 97 82 7c 3e 68 d7 28 3e 90 80 72 be 1d 8b 09 3e
       0.24659191 0.16488421 -0.23681855 0.13431974
0001a0 f4 6d 88 bd 18 3c 55 3c 40 0c dc 3e f6 e2 f5 3d
       -0.06661597 0.013014816 0.42978096 0.1200618
0001b0 47 ab 0b 3e a5 ae e5 bd b7 e4 5b bd e2 d2 38 3d
       0.13639556 -0.112149514 -0.053684916 0.04512299
0001c0 11 ac 1a bd 94 d2 49 be 47 02 fe 3d ae 55 1b bd
       -0.03776175 -0.19709235 0.12402778 -0.037923507
0001d0 43 68 77 be 3e 8a bd 3d aa 26 6e be 35 ee dc be
       -0.24160866 0.09254883 -0.23256937 -0.43150488
0001e0 67 9a a0 3d 69 2e ab 3d 6d d9 36 be 20 00 76 3d
       0.0784195 0.083584614 -0.17856379 0.060058713
0001f0 fa 75 98 3b 06 f2 3e bd a6 d8 24 3e 43 12 29 bd
       0.004652736 -0.04661753 0.1609827 -0.04127718
000200 e2 84 93 3c f9 58 fd bd 4c ee b3 bd 40 94 6e bd
       0.0180077 -0.12370486 -0.08785686 -0.05824685
000210 d9 d4 8a 3d b6 e5 88 3d 5f ac 4c be 56 ee 0e bd
       0.06778879 0.06684439 -0.1998763 -0.034895264
000220 b2 39 d8 3c 45 61 c1 3d 31 d9 32 3d 09 0d d3 bd
       0.026394699 0.09442381 0.04366416 -0.10305221
000230 0e 1e 38 3e 72 da 3f 3e bf f5 b2 bc 70 3d ee 3c
       0.17980215 0.18735674 -0.021845696 0.02908203
000240 ec b6 05 be ae 27 4a 3e dc 49 a1 bc ca ff 9f 3d
       -0.1305806 0.19741699 -0.01968854 0.0781246
000250 0c 9a 13 3e 41 f5 c0 3d 99 27 74 3e 30 04 35 3e
       0.14414233 0.094217785 0.2384323 0.17677379
000260 60 0c 97 be 91 6e 8d 3d ee fc 1f 3e 94 44 86 3c
       -0.2950163 0.069058545 0.15623829 0.016390122
000270 39 86 cf 3b 04 db 9b 3d 4f e4 be 3c 84 22 5b be
       0.0063331393 0.07610133 0.023302225 -0.21399885
000280 08 b2 19 bd 55 88 36 bd b8 7c 1b be 7a 30 d2 3d
       -0.0375233 -0.04456361 -0.15184295 0.102631524
000290 73 e9 9a 3e 78 26 47 be d0 c5 99 bd 0b 5b 80 bc
       0.30256233 -0.19448268 -0.07508433 -0.015668413
0002a0 c1 da a9 3d 37 d9 fe bd 3b d1 62 bc 7e 1f 93 bd
       0.08293677 -0.12443774 -0.01384383 -0.07183741
0002b0 cb 8e 7a 3d 3d 0c 2e bd 06 10 ac bd 23 58 a6 3c
       0.061171334 -0.04249214 -0.08401494 0.020305699
0002c0 27 b2 15 be 80 89 d0 bd 0d 6b 9d bd 73 34 37 3e
       -0.14618741 -0.10182476 -0.07686434 0.17891102
0002d0 3e a4 b6 3d 8e 3a 83 bd 9c 63 28 3e 60 68 bd bc
       0.089180455 -0.06407653 0.16444248 -0.023121059
0002e0 15 af d0 3d e2 92 fc bd e8 c1 56 3e 83 2f 08 3e
       0.10189644 -0.12332703 0.20972407 0.13299374
0002f0 35 c8 18 be e9 7a 0b 3d eb 15 5d 3d 22 51 1f be
       -0.14920123 0.034052763 0.05397598 -0.15558293
000300 a7 05 f7 bd 56 c5 93 3d 66 53 4c 3d a9 3e 60 3d
       -0.12061625 0.07215373 0.049884222 0.054747257
000310 13 06 5c be 56 c0 02 3e dc ee 74 3d 04 5f 85 3e
       -0.21486692 0.12768683 0.059798107 0.26049054
000320 e0 02 4c bb 20 7f 1b 3e ac ac 84 3e a5 1f 0a 3e
       -0.0031129643 0.15185213 0.25912988 0.13488634
000330 88 55 08 be ee 4e 02 be 75 15 91 bc 35 4b e5 3d
       -0.13313878 -0.12725422 -0.017710427 0.11195985
000340 81 9f b6 3c 3a 53 3e be 94 dd 05 bd 28 6a 52 3e
       0.022292854 -0.18586436 -0.032682016 0.20548308
000350 7f b3 11 3e c9 30 f5 bc 2e 64 1a bd 30 83 26 be
       0.14228629 -0.02993049 -0.037693195 -0.16260982
000360 e7 7f e8 3d 92 60 5d 3d b3 3f b8 3d b3 be 55 3d
       0.113525204 0.054047175 0.08996525 0.052183818
000370 8e f1 a3 3c 8b c7 1d be 67 eb cc 3d da d8 4e bd
       0.020012643 -0.15408151 0.10005837 -0.050499775
000380 2b f2 11 3e 6e 8b b3 3e 19 67 a4 3e 40 02 97 bb
       0.14252536 0.35067314 0.32109907 -0.0046084225
000390 53 02 04 bd 7e 8f 0c be 9a c2 5c be 22 bc 87 be
       -0.03222878 -0.13726613 -0.2155861 -0.2651072
0003a0 97 f5 b8 3d 7f 45 e5 3d 38 2c 60 be 74 94 45 3e
       0.090312175 0.11194896 -0.21891868 0.19294912
0003b0 e3 48 94 bc 72 06 61 be fe 27 85 be 1b 27 1f be
       -0.018101161 -0.21975115 -0.26007074 -0.15542261
0003c0 3e 28 9d bd f9 1d 49 3d 1f 26 35 3d 13 56 96 ba
       -0.07673691 0.04910085 0.04422581 -0.0011469744
0003d0 e4 47 c3 bd 0b 11 ed 3d 7a 5d 80 be e2 fa 90 3e
       -0.095351964 0.11575516 -0.25071317 0.28316408
0003e0 4a b3 5c be 9e e2 40 3e 71 b5 2e 3e d9 f4 6e 3d
       -0.21552768 0.18836448 0.17061402 0.058338974
0003f0 26 c5 fa 3c ea 2a 51 3d a0 6a b6 3c bd 33 8c bd
       0.030611586 0.051066317 0.02226764 -0.06845806

sequential/net/while/gru_cell/MatMul_4 f4 [20, 20]
000000 f3 49 95 bd f5 f8 2a be 1f 81 a8 be 45 0a 16 bd
       -0.07289495 -0.16696532 -0.32911012 -0.036630888
000010 fc e6 49 3e e8 b5 ae bd 32 19 3a 3e fc b8 89 bc
       0.1971702 -0.085307896 0.18173674 -0.01681184
000020 54 ab ed bd e1 e5 19 3e 71 0a ab be 24 0e d3 bd
       -0.11604944 0.15029098 -0.33406404 -0.103054315
000030 9e b5 9c bc 1f e6 8c be 52 d3 fd 3c e7 66 a9 3d
       -0.01912957 -0.27519318 0.030984554 0.0827158
000040 91 88 d9 bc cc e2 f6 3b 6f d1 1d bc e3 3e 11 3e
       -0.026554378 0.0075343605 -0.009632452 0.14184146
000050 bb 40 36 3e 1f 1b 83 3c 83 ef 1d bd f4 3c d4 3c
       0.1779813 0.016004143 -0.038558494 0.025907971
000060 f8 1b f9 3d ca 85 ac be fe b6 6d bd df cd c2 3d
       0.12163538 -0.33695823 -0.058035843 0.09511923
000070 1a ec 19 bd d0 74 91 3d 69 60 45 3d c8 7c 06 be
       -0.03757868 0.07102358 0.048187647 -0.13133538
000080 f0 b0 23 3d 29 51 f2 bd a7 aa 8c 3e 2a c9 3b be
       0.039963663 -0.11831886 0.27473947 -0.18338457
000090 21 ab 8d 3e 7a 4f ca 3d 51 aa 80 3e 78 c9 e8 3c
       0.27669623 0.0987844 0.2512994 0.02841638
0000a0 61 4f d9 3d c4 a3 12 bc ba 03 11 be 48 da 85 bd
       0.106108434 -0.008950178 -0.14161578 -0.065357745
0000b0 31 79 d4 bd 5c 01 35 3c 39 39 ea bc be af 54 bd
       -0.10374678 0.011047687 -0.028591739 -0.051925413
0000c0 44 83 82 3c eb 0d 1b be 02 35 a8 bb 32 00 78 3d
       0.015931733 -0.15142028 -0.005133272 0.06054706
0000d0 39 38 db 3d 78 61 45 3d eb c5 38 be 6d 61 e2 bd
       0.10704083 0.048188657 -0.1804425 -0.11053739
0000e0 ac 1b a9 3d 56 c7 ff 3c b6 f9 0d 3e 5a 1c 17 3d
       0.08257231 0.03122298 0.13864788 0.036892273
0000f0 55 a0 10 bd ae 1c 89 bc 7d 9c be 3c a8 52 04 3e
       -0.035309155 -0.016737308 0.023267979 0.12922156
000100 bc f0 0e bb ad eb 5c be bd c7 e0 3d 42 34 89 be
       -0.002181097 -0.21574278 0.10975597 -0.26797682
000110 e4 29 2d 3e d4 b1 9c 3d c8 05 0c be c1 05 46 3d
       0.16910511 0.076511055 -0.1367408 0.04834533
000120 b2 b6 06 be 45 7e 85 3e ea 16 6f be 37 7e 62 be
       -0.1315563 0.26072899 -0.23348585 -0.2211846
000130 cb c0 cd bd ce 98 c2 3d 8b 10 bf 3d 50 6f af bd
       -0.10046538 0.095018014 0.09329327 -0.08566153
000140 94 63 bf 3d 1c 87 94 be ee 72 59 be c5 43 4f be
       0.09345165 -0.2900933 -0.21235248 -0.20240696
000150 d7 4b 05 3e f7 dd 9e 3d 1f fc 14 bc d1 85 b3 be
       0.13017212 0.0775718 -0.0090933135 -0.3506303
000160 1a 9d d4 bd be 3b ba bd d4 69 d0 3d 6c bc a0 bc
       -0.10381527 -0.09093426 0.10176435 -0.019621097
000170 3c d1 42 3e 2d fa b9 bd 97 1b 0c 3d 20 ad 57 be
       0.19025129 -0.0908092 0.034206 -0.21062136
000180 76 0b 08 3b ec 04 62 bd f8 ce 16 bd 35 f7 af be
       0.0020758784 -0.055180475 -0.036818475 -0.34368291
000190 27 9f cb bd b8 11 22 be 12 24 24 be e9 d6 03 bd
       -0.09942465 -0.15827072 -0.16029385 -0.032187376
0001a0 bf 52 d0 bd 43 0c c0 be 5a 98 51 bc 55 28 8f be
       -0.101720326 -0.37509355 -0.012792671 -0.27960458
0001b0 c8 7e 91 3e 06 6f 1f be 96 17 62 3e 57 50 a3 3d
       0.2841704 -0.15569696 0.2207931 0.07974308
0001c0 90 7c 8b be 2b 66 94 3e 99 b5 d9 bd d4 c2 41 3d
       -0.2724347 0.28984198 -0.1063034 0.047304943
0001d0 f3 bb 59 bd 2e b8 82 bd e7 28 80 3b 95 e3 17 3d
       -0.053157758 -0.06382786 0.003911126 0.037082274
0001e0 7f c1 5f bd 05 25 0f 3e ef 39 2b 3a 0d a7 2d be
       -0.05462789 0.13978966 0.0006531765 -0.16958256
0001f0 bb 23 06 3e 4a 97 7c be f3 cd 91 bd 4a f3 fb bc
       0.13099568 -0.24667087 -0.0711936 -0.030755658
000200 91 bf 55 be 44 8d 23 bc 6e 1c 89 bd 9e 42 09 bc
       -0.20873858 -0.009982411 -0.06694876 -0.008377699
000210 a3 c7 1f be 87 ea 5b be 2e 1b c8 3d 95 b7 7b bd
       -0.15603499 -0.21476184 0.09770809 -0.061454374
000220 fa f4 05 3d 5f 20 9f be b7 51 dc bb c0 71 ec bc
       0.03270433 -0.31079385 -0.0067236084 -0.028862834
000230 b6 ea 29 be 02 7a 5b 3d fb 70 f6 3c bb b6 28 be
       -0.16593441 0.053583153 0.03008317 -0.16475956
000240 c6 73 56 bd 49 cc 07 be c5 ac b5 3d 7c 06 95 be
       -0.052356504 -0.13261522 0.08870844 -0.2910651
000250 c5 e7 5b 3d 76 3d 5a 3d 2b 24 6a 3e 1d e0 31 3c
       0.05368783 0.05328127 0.2286536 0.010856655
000260 74 33 43 3e 1a 3d 15 3e 07 8c c0 3e 28 49 28 bd
       0.19062597 0.1457409 0.37606832 -0.041085392
000270 d9 64 f7 3d 2a b4 87 bc b8 f1 8b be 7f 33 8a bc
       0.12079782 -0.016565401 -0.27332854 -0.016870258
000280 1c 60 81 3d 43 7a 5d be b3 72 00 3e 55 14 42 3e
       0.063171595 -0.2162867 0.12543754 0.18953069
000290 38 10 5d bd f4 cd a9 be cf 5f bf bd 62 8c ae bd
       -0.053970546 -0.33164942 -0.09344446 -0.0852287
0002a0 60 be bd 3d 1f 22 7c be 8b e4 dc bd 70 0b 58 be
       0.09264827 -0.24622391 -0.107857786 -0.21098113
0002b0 98 7e 77 3d a6 81 b8 3e c3 c7 ed bd c2 26 c3 3b
       0.060423464 0.36036414 -0.11610367 0.005955548
0002c0 1b d6 04 be 35 7a af 3d b9 59 0d bd 40 3b 0d be
       -0.129723 0.08568231 -0.034509394 -0.13792133
0002d0 64 0f 23 3e 5a 3b 63 3d 1e a9 21 be 42 79 e4 3e
       0.1592384 0.055476524 -0.1578717 0.44623762
0002e0 7b 2f 90 3e 69 f8 c7 3d 85 6e a0 bd 0e fd 8b bb
       0.28161225 0.09764177 -0.0783358 -0.00427211
0002f0 28 4d 8b 3e b9 b8 a7 bd 5b ff 14 be 2c 72 65 bd
       0.27207303 -0.0818953 -0.14550535 -0.056017086
000300 b6 88 55 be df 0e be 3d 6e d4 d1 3d ad df 66 be
       -0.20852932 0.0928018 0.10245596 -0.22546263
000310 ab be 7c 3e e7 25 94 be e0 a6 c9 bd 9a 84 2c be
       0.24682109 -0.28935167 -0.09846282 -0.16847458
000320 1d ab 64 bd af c0 5d 3e d2 7a 4c 3e e8 7b 0e 3e
       -0.05582725 0.21655534 0.19968727 0.13914454
000330 05 a2 37 be db f2 20 3d 68 d6 5d 3d 4f 47 1c bd
       -0.179329 0.039294105 0.05415955 -0.038153943
000340 e6 1a 09 3e 22 aa 5b 3d 8c 97 49 3d 58 9b 22 be
       0.13389167 0.05362905 0.049216792 -0.15879571
000350 ed ca 9d 3e a8 b5 cc bb 22 16 a3 3e 22 1d 2b be
       0.30818883 -0.006247241 0.31852823 -0.16710332
000360 79 96 8d 3e 2f e4 29 be 4f 9f 3c 3e 25 b3 0c be
       0.27653864 -0.16590951 0.18420146 -0.13740213
000370 66 91 8a 3d c1 2a bb 3e df f0 18 3c 84 9b a1 3e
       0.06766014 0.36556056 0.009334772 0.31563962
000380 d2 80 aa bb 3c 60 8b be c3 2a f9 3c 9a 6c 3e be
       -0.005203345 -0.27221859 0.030415898 -0.18596116
000390 b6 99 07 3e ad 33 d5 3d b0 fe 84 be b7 95 5b bd
       0.1324223 0.10410247 -0.2597556 -0.053609576
0003a0 35 2d 8e bd b0 01 1b 3e 51 30 84 3d 8b 69 48 be
       -0.06942216 0.15137362 0.06454528 -0.19571511
0003b0 c8 13 c8 3c 76 8b cc be 53 b0 68 be 62 42 68 3e
       0.024423495 -0.3995015 -0.22723512 0.22681573
0003c0 c3 a8 f3 3d 2a da 1f be 8c 01 27 3d 7b ef 6b 3e
       0.11897423 -0.15610567 0.04077296 0.23040573
0003d0 83 90 05 bd a8 21 f9 3d 21 25 93 bd 69 c6 2a bd
       -0.03260852 0.121646225 -0.07184816 -0.041693125
0003e0 ff 0a cf 3d 59 f0 92 be 95 fe 10 3d 20 ee a0 be
       0.10109519 -0.28698996 0.03539904 -0.31431675
0003f0 99 53 58 be 1e 32 32 3d 31 7d a9 3c ad 92 5f bd
       -0.2112564 0.043504827 0.020689579 -0.05458324

sequential/net/while/gru_cell/MatMul_5 f4 [20, 20]
000000 3a 30 77 3c 43 6a dd bc 16 9f 22 bc f9 67 c9 3e
       0.015087182 -0.027028209 -0.009925624 0.39337137
000010 f6 45 3d 3e e4 74 61 bc 16 99 59 be 70 f2 1f 3e
       0.18483719 -0.013760779 -0.21249804 0.15619826
000020 8d f5 f9 bd a4 2f d9 bd 87 64 87 be 25 54 7d bd
       -0.12205038 -0.1060479 -0.26443884 -0.061847825
000030 84 cf 66 be a2 28 93 3e d3 1b 07 3e 1f 2c 8c be
       -0.22540098 0.28741938 0.13194208 -0.27377412
000040 e7 f6 53 3d 6c e3 5f be 05 58 30 be c9 4d 93 bd
       0.051749136 -0.21864098 -0.17221077 -0.07192571
000050 c9 1a 8a 3d 9f e9 bd bd df a0 ad 3d ae 05 18 3e
       0.0674339 -0.09273075 0.08477949 0.14845917
000060 7a 98 66 3d de 81 da bc cd 7c 39 bd e0 26 a0 bd
       0.056297757 -0.026673254 -0.045285035 -0.07819915
000070 e1 ff d7 3c e8 33 8e 3e 73 29 14 be 65 49 0d 3d
       0.02636713 0.27773976 -0.14468937 0.034493823
000080 65 7e 5d bd d3 2a 17 3d ba 46 a2 3e bf 8b b3 bc
       -0.054075617 0.036906075 0.31694585 -0.021917222
000090 d5 47 f5 3c 5c cf 66 be cd d2 0f 3d ad f3 47 be
       0.029941479 -0.22540039 0.035113145 -0.19526549
0000a0 34 7d ec 3d cf e4 8f be df 0e 05 3e 27 ee c3 bc
       0.11547318 -0.28104255 0.12993954 -0.02391727
0000b0 4b 93 3a be 22 3b aa 3b 91 d3 d3 be 2f 3e 08 3e
       -0.1822025 0.0051950375 -0.4137235 0.13304971
0000c0 0d 3c e6 bc d6 99 8b 3e ec 7c b7 3e 33 35 77 be
       -0.028104806 0.27265805 0.35837495 -0.24141388
0000d0 9f bf 7a be 4a 2c 0f bd b5 21 45 be b6 82 27 3e
       -0.2448716 -0.034954347 -0.1925114 0.16358456
0000e0 1f 6d ef bd 82 45 fb 3d b4 bd 2f be d0 d2 da bb
       -0.11690735 0.12269117 -0.1716221 -0.006677963
0000f0 e9 cf fe 3d e9 7f ba bc 0a 73 29 be 03 fd c7 3e
       0.124419995 -0.02276607 -0.1654779 0.3906022
000100 02 55 93 3e 04 2e 82 be 16 10 67 be 7c 26 fa 3d
       0.28775793 -0.25425732 -0.2256473 0.122143716
000110 7c a2 d8 3e bc a0 15 3d b6 5d 41 be 83 46 cb bd
       0.42311466 0.03653024 -0.18883404 -0.099255584
000120 ac 06 8a bb 21 13 6f 3e cf 8b 80 3d 2a b2 2b 3d
       -0.004212221 0.23347141 0.062766664 0.041917957
000130 ed 6b 45 be 98 eb fc 3d 96 b7 39 bd 0d 63 60 bd
       -0.19279452 0.123496234 -0.045341097 -0.054781962
000140 c8 9d 86 bd 9f 41 62 3c 38 90 c4 bd b6 87 de bc
       -0.06573063 0.013809591 -0.0959782 -0.027164321
000150 35 13 ae 3d 81 c2 e1 3c 0e 32 2f be 2e 9a 8b be
       0.08499757 0.027558567 -0.17108938 -0.27266067
000160 fc 9a b5 3e c9 c8 28 be 16 1a 4e be 7c bb 61 bd
       0.35469806 -0.16482843 -0.20127138 -0.05511044
000170 39 d7 97 be 7d 65 10 3e 45 eb 8a be 90 22 86 be
       -0.2965639 0.14101215 -0.2713262 -0.26198244
000180 b6 bd 47 be 5e 7a 38 3e aa 51 3d be cd 3b 3b 3e
       -0.19505963 0.1801543 -0.18488184 0.18284531
000190 e8 c9 28 be dc 37 0d be c9 58 bf 3e c8 b3 4a 3d
       -0.16483271 -0.1379084 0.37372425 0.04948786
0001a0 08 e6 ad bb 1c 38 64 ba d0 12 71 3e 00 6c 57 3e
       -0.005306963 -0.0008705871 0.23542333 0.21037292
0001b0 8f be 76 3d 11 12 d6 3d 49 4a c5 bd 34 66 57 3e
       0.060240325 0.10452665 -0.096333094 0.21035081
0001c0 05 3b 09 be 24 f9 61 be 17 c6 82 be 03 b4 cd bb
       -0.1340142 -0.22067696 -0.25541756 -0.0062775626
0001d0 d3 eb 86 3e 65 7f 83 bd 2d dc 4c be ea e2 85 be
       0.26351795 -0.06420783 -0.20005865 -0.26149684
0001e0 15 94 79 3e b1 ac 36 3e 63 de 8b be 02 c5 63 3c
       0.24372895 0.17839314 -0.27318105 0.013901951
0001f0 45 8d da bd 28 fd 9e 3d 89 5f b2 bc 5c c7 04 3d
       -0.10671476 0.077631295 -0.02177407 0.032416686
000200 79 f9 8f 3d c3 bb 96 3e 6d 0b d7 3d 84 c8 88 3d
       0.07030005 0.29440126 0.10500226 0.0667887
000210 9a 78 14 3e 57 f4 3d be ce 81 a4 be 09 6b 25 bd
       0.14499131 -0.1855024 -0.32130283 -0.04038528
000220 88 d8 f9 3d 9f e4 22 be 29 43 78 be a9 24 93 bd
       0.12199503 -0.15907525 -0.2424437 -0.07184727
000230 cb 4e bc 3d ef 38 e9 3d f0 9a 4d 3e 21 19 ee 3c
       0.09194716 0.11387812 0.20078635 0.029064717
000240 9d b5 d3 bd a7 f0 b9 3e 33 c6 45 3e f8 44 92 3e
       -0.10337374 0.36316416 0.19313888 0.28568244
000250 3a 7b 4f 3e da 43 84 3d aa 0e 5c be 59 3b f3 bd
       0.20261851 0.06458254 -0.21489969 -0.11876554
000260 9b 1d 46 be 61 37 33 be 96 9c dd bd 06 08 79 be
       -0.19347231 -0.17501594 -0.10820882 -0.24319467
000270 5f af 5b 3e 02 6d 8f 3d fe 2a 74 3e a9 70 12 be
       0.21453618 0.070032135 0.23844525 -0.14300789
000280 bc 70 61 3e d7 96 80 3e e6 d3 32 be c4 41 2b 3e
       0.22015661 0.25115082 -0.17463645 0.16724306
000290 6a 92 c7 3d 74 4f f7 bd 77 c3 38 be c6 69 aa be
       0.09744723 -0.12075701 -0.18043314 -0.33283824
0002a0 51 ae b0 3e ea 1c dc bc 94 5a 1f be ff 9b b9 3e
       0.34507993 -0.026869256 -0.15561897 0.36251828
0002b0 a6 3b 28 bc 7a d8 a3 3e 35 6f 9e 3d 21 68 b9 bd
       -0.010268128 0.32001096 0.07736055 -0.09053064
0002c0 97 39 00 3d 1d fa 09 be ad 99 23 3e d2 0a e4 bc
       0.031304922 -0.13474317 0.15976591 -0.02783719
0002d0 63 58 41 3e 4a 34 c6 3d e2 f5 33 be e4 1f 37 be
       0.18881373 0.09677942 -0.17574266 -0.17883259
0002e0 92 6f ca be 61 3a 1a bd da 1a 07 bd 2f 15 8a 3d
       -0.39538246 -0.03765333 -0.032984592 0.06742322
0002f0 23 20 0c be 1b 63 17 3e 70 32 ee bd fb d6 44 3e
       -0.13684134 0.147839 -0.11630714 0.19222634
000300 10 71 d3 3d b6 36 fb be 79 24 b5 3e 6b 3a ea bd
       0.10324299 -0.4906518 0.3537939 -0.114369236
000310 ed 96 3e 3e 08 82 d4 bc e4 c3 e7 bd 49 4b 75 bd
       0.18612261 -0.02594091 -0.1131666 -0.05988625
000320 10 35 50 be db b6 d5 3d 6d 46 ab 3d 19 fb 20 3e
       -0.20332742 0.104352675 0.08363042 0.15720786
000330 1f 50 8b be d4 05 9f be ea 07 84 be be fc 23 be
       -0.27209565 -0.31059134 -0.25787288 -0.16014382
000340 6d d7 35 3d e8 d6 32 3e f3 2e 32 3e f8 05 c7 3e
       0.0443949 0.17464793 0.17400722 0.3887174
000350 59 84 a4 3d 8a 26 b4 bd 01 68 b0 bd 8d 68 5c 3e
       0.08033056 -0.08796413 -0.08613587 0.21524258
000360 62 e3 17 bd 04 ad 7a 3b 31 8b de 3d 96 93 09 bd
       -0.037082084 0.0038250098 0.108663924 -0.033588015
000370 d9 9c 7b 3e 1d 55 4e 3d 8c 93 c0 bc 62 74 f4 3b
       0.24571551 0.05037414 -0.023507856 0.007460163
000380 c0 ee 73 3d f9 fa 5f 3e bc 71 01 3e 22 6f 85 3e
       0.05955386 0.21873082 0.12641042 0.2606135
000390 81 54 c8 bd 3f 14 82 3e e6 f9 45 be 70 1e 46 3e
       -0.09781743 0.25406072 -0.1933361 0.19347548
0003a0 40 d2 4c 3e c7 13 bd bd ac ee 31 bb 75 ac 85 3d
       0.20002079 -0.09232288 -0.0027150316 0.06527034
0003b0 ff 05 8c 3e 73 ba 4a 3e f5 9e 51 38 22 ef 80 be
       0.27348325 0.19797687 4.9977523e-05 -0.25182444
0003c0 38 08 54 be 23 e6 2c 3c 95 e1 87 be 34 46 53 3e
       -0.2070626 0.010552916 -0.26539293 0.20632249
0003d0 78 75 38 be e6 34 1e 3d b2 6b 66 3d e2 9a 08 be
       -0.18013561 0.038624667 0.05625505 -0.13340333
0003e0 a0 2b 42 be b0 ea 07 be bc 90 72 3c fe cd 46 bd
       -0.18961954 -0.1327312 0.014805015 -0.048536293
0003f0 1b ec 2c 3d 08 53 8e be 01 bf f5 3c 7e 37 ac be
       0.042217355 -0.27797723 0.029998304 -0.33636087

sequential/net/while/gru_cell/MatMul f4 [20, 13]
000000 3b 48 19 3d 2d 91 26 bd bc 81 16 bd 7b 26 f5 3d
       0.0374224 -0.040665794 -0.036744818 0.1197023
000010 4e 7f 9a 3d 28 c2 da bd 83 9b 0c be 8b 8a 5d 3e
       0.07543813 -0.106815636 -0.13731198 0.21634881
000020 6c 5c 9f bc 7b f1 01 3d 5b 23 fc 3e 60 53 6e be
       -0.01945325 0.031724434 0.49245724 -0.23273993
000030 35 2c 8a 3e 96 6b 2c be 4f 17 a7 3d d8 2b 4c 3e
       0.26986852 -0.16837916 0.08158743 0.199386
000040 4d 3d 00 bd c6 7f 9b 3e 7b c0 a7 3e 4a f1 c2 3c
       -0.03130846 0.3037092 0.32764038 0.023796696
000050 26 03 b3 3e 26 88 14 bc 31 1b 60 3d 59 5e 8c be
       0.3496334 -0.009065663 0.05471343 -0.27415732
000060 93 f5 b6 3e a8 41 26 3e 89 42 1f 3c 9c 6d 46 be
       0.35734233 0.16235983 0.009720453 -0.1937775
000070 39 8d 28 3e ca d5 60 bd fa 21 65 be fc f3 72 bd
       0.16460122 -0.054891385 -0.22376242 -0.059314713
000080 72 29 91 3e 11 b1 a1 be bd 44 3f be 68 5e cd 3d
       0.28351933 -0.31580403 -0.18678565 0.10027772
000090 1c ad 86 ba 99 6a b3 be d4 75 b1 3e b6 70 d2 bd
       -0.0010274979 -0.35042265 0.34660208 -0.10275404
0000a0 ee b3 49 be 1c 91 47 3e 05 da c3 3d f6 9b 80 be
       -0.19697544 0.19488949 0.09563068 -0.2511899
0000b0 66 bd 83 bd af b9 23 3e 72 fb f4 be 60 c3 cb bd
       -0.06432609 0.15988801 -0.47848088 -0.09949374
0000c0 15 1c ef 3d 5f 21 36 3e a9 50 cd 3e c1 0f dc bc
       0.11675278 0.17786168 0.401006 -0.02686298
0000d0 31 45 b1 3d 0f 0f 00 3e d4 6a cb 3e ab 61 0b 3e
       0.08655775 0.12505744 0.3972994 0.13611476
0000e0 f1 90 c5 3d d3 3e b1 3e e8 45 d9 3d 52 d6 ba 3d
       0.09646786 0.34618244 0.10609037 0.091229096
0000f0 fb ef 15 3e d2 37 f9 3c 8b 90 b7 3e 36 5e 16 3e
       0.14642327 0.030422125 0.35852465 0.14684376
000100 d3 3b 80 3e 8c 20 0e 3d b7 0f 9b 3d 2d fe f7 bd
       0.25045642 0.034699008 0.07571357 -0.12109027
000110 e1 98 89 be c4 c8 a1 3d aa 26 8c be 35 a0 8e be
       -0.2687445 0.07899621 -0.27373248 -0.27856603
000120 ad bd a9 bd 7d 87 36 be bf 7a ce be a2 47 ca bd
       -0.08288131 -0.17825122 -0.40328023 -0.09876944
000130 3a 49 24 3e c0 3a 08 3e e9 82 4e bd 85 fb 5a 3e
       0.16043559 0.13303661 -0.050417814 0.2138501
000140 84 63 c3 be 41 08 ae be c0 de f2 bc e8 87 ae 3e
       -0.38161862 -0.33990672 -0.029647231 0.34088063
000150 8f d2 b6 3d 81 66 5d be e5 23 fb be a7 82 76 3e
       0.089268796 -0.21621133 -0.49050823 0.24073277
000160 e8 1e 5d be 5a 87 b8 3e c4 c4 11 bd 72 a1 9a 3d
       -0.21593821 0.36040765 -0.03558804 0.075503245
000170 f6 92 bf 3d 5d 04 17 3e 0a bc d4 bd 9f 1d c0 be
       0.093542024 0.14747758 -0.10387428 -0.375226
000180 12 2d 27 be 09 7d a9 3d 37 9b de bd d4 32 d6 3c
       -0.16325787 0.08275802 -0.10869449 0.026147284
000190 ee 57 dc bd 19 3e 6b bd b6 84 07 be f6 1c 99 be
       -0.10758959 -0.057432268 -0.13234219 -0.29904908
0001a0 1b 32 fe bc e6 0d 1a 3d 7b 97 77 3e b6 6b d2 3d
       -0.031029752 0.03761091 0.24178879 0.102744505
0001b0 0a 7d 68 3e 24 1a 70 3c 60 94 2f 3c 26 2e 7f bc
       0.22703949 0.01465467 0.010716528 -0.0155749675
0001c0 b4 40 77 be 0e c0 f2 bd 60 2b 02 be 2c 1c d2 3d
       -0.24145776 -0.11853038 -0.12711859 0.102592796
0001d0 1b 6d c0 3d 22 b6 73 3d 59 76 4c 3d 2c 47 89 3d
       0.0939581 0.059499867 0.049917553 0.06703028
0001e0 c3 f7 b1 3d 13 83 00 bc 9e 2f f9 3c 0a 21 8e 3d
       0.08689835 -0.0078437505 0.030418213 0.069398955
0001f0 fd 12 e0 bc db 3e 2e 3d 50 e4 09 3e 63 9e 9a be
       -0.027352804 0.042540412 0.13466 -0.30198964
000200 62 fa 8d bd 05 b2 c0 be 26 7b 1e 3d 59 68 3d bd
       -0.06932522 -0.37635818 0.038691662 -0.04624209
000210 9d be 05 3e b6 d4 c9 bc 01 a3 42 bd cd 99 b2 bd
       0.13060994 -0.024637561 -0.047518734 -0.087207414
000220 40 59 b4 bd 5d fd 2c be 99 e2 b7 3d f5 67 fb bc
       -0.088060856 -0.16893525 0.08978767 -0.030689219
000230 55 89 6b 3c 11 42 40 bf 21 36 22 3d 9b 53 79 3d
       0.014376004 -0.7510081 0.039602403 0.060870748
000240 83 61 42 3d 14 89 eb bd 7f 81 06 bd 23 4e 79 3e
       0.047456276 -0.11500755 -0.03283834 0.24346213
000250 2d 95 34 ba b3 06 b8 3d 04 2d 35 3e ab e7 8b 3d
       -0.0006888684 0.08985653 0.17692953 0.068312965
000260 fd 27 d9 be ed d4 c3 bd e9 7e 66 3e 08 dc 95 3e
       -0.4241332 -0.09562097 0.2250935 0.29269433
000270 a8 e7 fe 3d 93 c1 c7 3c 33 93 7a be 7c 41 00 3e
       0.12446529 0.024384296 -0.24470215 0.1252498
000280 4d eb 66 3e a6 a2 b6 bc a4 8f a3 be 18 35 87 be
       0.22550698 -0.022294354 -0.31945527 -0.26407695
000290 b3 8f 23 3e 7f 65 51 be 79 a8 ba 3e 64 41 15 be
       0.15972786 -0.20448874 0.3645666 -0.14575726
0002a0 92 e3 bd be 17 fa 65 be 9d ce 87 bd eb 05 63 3e
       -0.37087685 -0.22458683 -0.06631205 0.22170226
0002b0 40 91 be bc 94 8b 95 3a d2 59 ba bd 1b 2e d0 bd
       -0.02326262 0.0011409395 -0.09099163 -0.10165044
0002c0 84 10 54 be 1b 57 c4 bd 64 2e 57 3e 07 a0 e2 be
       -0.20709425 -0.095869265 0.2101379 -0.44262716
0002d0 aa 69 a7 3e d7 0e 59 3c d5 31 0b 3c 70 93 59 bc
       0.32697803 0.013248167 0.008495768 -0.013279781
0002e0 23 ec b8 3d 80 e2 21 be 34 ae 47 3d 5b 39 20 3e
       0.090294145 -0.15809059 0.048750117 0.1564688
0002f0 72 2d 70 3e 97 2a 91 be 49 cc 68 be ea 7b 99 3e
       0.23454836 -0.28352806 -0.22734179 0.2997735
000300 d2 bf 2c 3e 1f 53 ac bc 6d e4 f1 bc 6f 10 48 3e
       0.16870049 -0.021035729 -0.029527867 0.19537519
000310 85 9c 36 3d 36 50 07 3e 04 23 b6 be 76 fc a5 be
       0.044582862 0.13214192 -0.3557359 -0.32419175
000320 87 26 55 3e 5a 77 82 3e 2d b6 8b be 46 1d 82 3e
       0.20815478 0.25481683 -0.27287427 0.2541296
000330 19 59 83 3e 6d af 81 3e 03 7b 4a be 19 b2 20 bd
       0.25653914 0.25329152 -0.19773488 -0.039232347
000340 a4 69 96 be a2 3d 96 bb d8 03 ee 3d 72 e4 6c 3b
       -0.29377472 -0.004584984 0.11621827 0.0036146906
000350 52 18 8b 3e ee 80 78 3e af 8f 61 be bc 3c c4 bd
       0.27166992 0.24267933 -0.22027467 -0.09581897
000360 19 94 7b be d6 6c 37 3d 89 d2 0c 3e b4 b1 06 3d
       -0.24568214 0.04478153 0.13752188 0.032884315
000370 c6 e5 fe 3e 25 95 4e bd 43 5e 08 3d 86 58 44 bc
       0.49784678 -0.050435204 0.03329302 -0.011983996
000380 4e 55 c0 bd 98 a7 0f 3e bf 46 82 3e df 6d 4c be
       -0.093912706 0.14028776 0.254446 -0.19963787
000390 65 20 11 be cf 37 ff 3d 4b ac 0c 3d 35 64 30 be
       -0.14172514 0.124618165 0.034344 -0.17225726
0003a0 2d c8 82 3e c0 8d 1e 3e 5b 59 e2 3d c5 fe 18 3e
       0.25543347 0.15483761 0.110521995 0.14940937
0003b0 16 78 38 bd c8 d7 53 3d 95 53 0b 3e 11 b6 01 3d
       -0.045036398 0.051719457 0.13606103 0.031667773
0003c0 e2 3f 85 3e a3 95 4f 3e 89 b8 63 3e 5f bc 48 3e
       0.260253 0.20271926 0.22238363 0.19603108
0003d0 17 37 97 3e 37 1c 87 3e 5d ce 01 3d ac c7 b2 bd
       0.29534218 0.26388714 0.031690944 -0.08729491
0003e0 8c ac fb bd 9e a2 0e 3e 6a dd 60 be ae 5c b5 bd
       -0.1228877 0.13929221 -0.21959463 -0.08855568
0003f0 f2 8e 01 3e 84 85 e1 bd 71 44 91 be 99 e1 b1 bd
       0.12652186 -0.11011794 -0.2837253 -0.086856075

sequential/net/while/gru_cell/MatMul_1 f4 [20, 13]
000000 87 31 da 3d 82 fa 76 bd 1d 5f 46 be bc 24 72 be
       0.10653978 -0.060297497 -0.1937222 -0.23646826
000010 95 c9 74 3d 2b f0 02 be a3 20 85 be 8b 1c af 3e
       0.059762556 -0.1278693 -0.26001462 0.34201464
000020 8c d6 c6 3c af 64 30 be 26 72 0f be dc 9c e3 be
       0.024272226 -0.17225908 -0.14008388 -0.44455612
000030 82 ed 7f 3e 99 e4 cc bd 2b 02 41 3c 24 c7 8d bd
       0.24992946 -0.10004539 0.011780302 -0.06922749
000040 64 60 22 3e a5 52 ed 3d 8a 7e 1b bd 71 66 b3 bd
       0.15857083 0.11588029 -0.037962474 -0.087597735
000050 36 53 70 3e af 5f a5 3e e1 55 94 3e d9 66 aa 3e
       0.23469242 0.32299563 0.2897177 0.33281592
000060 13 9e d7 bd 48 40 51 3d 25 d9 ac bd 3d fb 21 be
       -0.10528197 0.051086694 -0.084398545 -0.15818496
000070 6a c6 8b be 43 9f f2 bd d7 cf 3c be 59 0d e6 3d
       -0.27299815 -0.11846783 -0.1843866 0.112330146
000080 f4 35 ab 3e b9 7a 09 3e d1 76 8e 3e aa b0 af bd
       0.334396 0.13425721 0.27825025 -0.08578618
000090 09 86 bd 3d bb 85 cf bd 09 57 b4 3e 97 cb f7 ba
       0.09254081 -0.10132929 0.35222653 -0.0018905279
0000a0 95 f5 72 3d d2 13 93 be fa 3e 21 3e 85 ee 05 bf
       0.059316237 -0.2872606 0.1574668 -0.52317077
0000b0 0b 40 1a 3e 7b bd a5 3d fa e6 09 bd 69 a0 fc bd
       0.15063493 0.08092781 -0.033667542 -0.12335283
0000c0 6a ce 0a bd 57 f8 4d 3d 00 0f 3b be 43 46 85 3c
       -0.033888258 0.050285663 -0.18267441 0.016268855
0000d0 30 37 42 be a9 75 76 3e 56 24 15 be 9b c6 17 3e
       -0.18966365 0.24068321 -0.14564642 0.14821856
0000e0 40 55 c7 3d 9b d0 5e be 26 05 c1 3e ee 36 75 be
       0.09733057 -0.21759264 0.3769924 -0.23946735
0000f0 c8 d9 96 be 1a 1a 49 3d 91 23 19 3e 06 41 74 be
       -0.2946303 0.049097158 0.14954974 -0.2385293
000100 65 3b ed be 70 e6 f3 3b 3d d1 58 3e 9d f8 06 be
       -0.46334377 0.007443242 0.21173568 -0.13180776
000110 dc 79 fd 3d a0 a6 fd 3d 40 aa 63 3c 3c e4 5a 3e
       0.123767585 0.12385297 0.013895571 0.21376127
000120 dc a0 ae 3d a2 a7 67 bc e6 f1 36 be f1 ca 04 3e
       0.08526775 -0.014139088 -0.17865714 0.12968041
000130 17 91 3d be 53 ce d4 3c ca 21 2d be 60 c5 0d 3e
       -0.18512379 0.02597729 -0.16907421 0.13844824
000140 ff 5d d8 3d e7 72 b0 3e 16 7e 14 3e 7a 64 f8 3c
       0.10564803 0.34462664 0.14501223 0.030321348
000150 cc 79 d3 bc 1d c7 36 be 1c eb 62 3e 57 fb 71 be
       -0.025814913 -0.17849393 0.2216 -0.23631035
000160 51 b9 e1 3d fe fd 8a be 57 85 1d be b9 fc 23 3c
       0.110216744 -0.27146906 -0.15382896 0.010008984
000170 37 92 13 be 90 32 79 bd 6f 3c c9 bd a8 ac 74 3e
       -0.14411245 -0.060839236 -0.0982598 0.23893988
000180 7a d1 10 3e be 72 3c 3e b8 64 d2 bb f2 dd 12 be
       0.14142409 0.18403146 -0.006420698 -0.14342478
000190 75 af 0e be b2 58 f7 bd ac 02 19 be e2 7b ff 3e
       -0.13934119 -0.12077464 -0.14942425 0.49899203
0001a0 19 be 7b 3c c1 47 e4 3b 00 69 cd be fb f5 07 be
       0.015365147 0.0069665615 -0.4011917 -0.13277428
0001b0 65 69 60 be be 85 fd bd fd 3e b2 3c b6 ee 47 3c
       -0.21915205 -0.12379025 0.02175855 0.012202909
0001c0 b4 35 68 3e e1 40 e0 3d 1a 2b 74 3e 8c 02 da bc
       0.22676736 0.10949875 0.23844567 -0.026612543
0001d0 d1 15 29 3e 07 d8 16 be a9 c8 57 3e 4b 77 23 be
       0.16512229 -0.14730845 0.2107264 -0.15963475
0001e0 6f 63 80 3e 1f 9b 4f be 9b 1d c3 3d 6e 79 9c 3d
       0.25075862 -0.20274018 0.09527131 0.076403484
0001f0 4e 42 b5 3d 20 48 10 bd c5 85 ae 3c 32 4f 47 3e
       0.08850537 -0.035225034 0.02130402 0.19463804
000200 94 b1 ac be 05 46 fb bd 7f a4 1c be 0b 82 15 3e
       -0.3372923 -0.122692145 -0.15297125 0.14600389
000210 99 dd d6 bd 0a fe 07 bf 88 4a ab 3d 25 17 47 3e
       -0.10491485 -0.5312201 0.08363825 0.19442423
000220 38 3c 68 be 14 98 5e be a8 9b 2c be f6 1e 00 bf
       -0.22679222 -0.217377 -0.16856253 -0.5004724
000230 bb cd 3a be db 87 9d bc 2c 93 ae 3e 06 07 2c be
       -0.18242542 -0.01922982 0.34096658 -0.16799554
000240 75 8e 10 3e 5d 7b c0 b9 44 42 85 3d 2f 99 e9 3d
       0.14116843 -0.00036713007 0.0650678 0.114061706
000250 b9 09 fc 3d 50 d9 37 be 72 aa a0 bd 7b b0 e8 3c
       0.12306542 -0.17953992 -0.0784501 0.028404465
000260 15 c6 ae bc 7c cd ba bd 93 ed d6 3d fe 14 80 be
       -0.021334687 -0.09121224 0.104945324 -0.25016016
000270 e3 50 36 3e 4c 72 1d 3e 5a 31 5b be 7b fa 24 bc
       0.17804293 0.15375632 -0.21405545 -0.010069485
000280 2a 86 9a be 15 b6 d2 be 51 7b 47 be 98 cd 0c be
       -0.30180484 -0.41154543 -0.19480635 -0.13750303
000290 a7 66 58 3d 0f 31 31 be 89 6c a2 be 9d 2b 7c 3d
       0.052832272 -0.1730387 -0.3172343 0.06156503
0002a0 89 9b 78 be 8a e4 93 3e 18 60 27 3d 6a ad 29 be
       -0.24278082 0.288853 0.040863127 -0.16570058
0002b0 4f a8 58 bd 4a ce ca 3c 56 e1 4d be 2d 02 b6 3e
       -0.052894887 0.02475657 -0.2010549 0.35548535
0002c0 ab 2d dd 3d c8 94 08 3c c5 c0 67 3d ab 02 9d 3d
       0.10799726 0.008336253 0.056580324 0.076665245
0002d0 e2 6a de be af 89 e3 bd 62 50 86 3e 0c 30 12 3e
       -0.4344092 -0.111102454 0.26233202 0.14276141
0002e0 b4 bc 9e be 0f b4 81 be 29 9a 81 3d 74 b6 0c 3f
       -0.31003344 -0.25332686 0.06328232 0.549659
0002f0 39 3c 89 3d 35 39 eb 3c 2f e8 5e be ff e6 d3 3e
       0.0670094 0.028713802 -0.21768259 0.41387174
000300 a7 b6 87 3c 71 06 31 be 1f 9e 46 3e bc ac 23 be
       0.016566588 -0.17287613 0.19396256 -0.15983862
000310 86 34 13 bd 2c a8 d5 be 08 ec 7d be b3 dd 37 3e
       -0.035938762 -0.41729867 -0.2479707 0.17955665
000320 f7 0d df bd 5e 0d cb be 19 f8 eb 3e e7 6e e6 bc
       -0.108913355 -0.39658636 0.4608772 -0.028129054
000330 50 b5 8c 3d ab e8 3f 3e 6e cc 32 3d 9a a4 84 3e
       0.0687052 0.187411 0.04365199 0.2590683
000340 32 82 4d 3d 26 c2 2c 3e fb 73 47 3e 1c 5a 10 3e
       0.050172992 0.16870937 0.19477837 0.14096874
000350 4d 56 15 3e e7 6f 29 be 5b f4 6a be ea 9d 82 be
       0.14583702 -0.16546594 -0.22944777 -0.25511104
000360 e6 e9 b1 3b 04 e7 a8 3b a2 fd 79 3e 40 dd 9e be
       0.005429494 0.0051544923 0.2441316 -0.31028175
000370 ce 2c ff bd 90 7a 84 bd 85 07 64 3c 2f 9a 6a 3d
       -0.12459718 -0.064686894 0.013917808 0.057275947
000380 89 27 cf 3d de ff 35 3e c3 4f 80 3e 58 21 be 3d
       0.101149626 0.17773387 0.25060853 0.092837036
000390 c2 09 65 3e eb 86 36 bd 53 87 bd bc 22 b7 69 3d
       0.22367004 -0.04456226 -0.023135817 0.057059415
0003a0 cb 3a 89 be 9f 65 a5 be 88 db d2 bd c3 ea 03 3d
       -0.26802668 -0.32304093 -0.102957785 0.032206308
0003b0 65 4f 48 3d 28 ec b4 3e 89 c7 8c be 08 7a 40 3e
       0.04890384 0.35336423 -0.27495983 0.18796551
0003c0 82 35 d5 3e 3c 47 22 3e 51 d3 0f be 76 ad 55 be
       0.41642386 0.15847486 -0.14045455 -0.20866951
0003d0 fb 87 93 bd 6c 7f fc 3c 4a 31 92 bd b9 da c6 bd
       -0.072036706 0.030822478 -0.071383074 -0.09709687
0003e0 b4 3e 68 bd 5e 4d 4a 3c e1 95 04 3f 70 cc 6d bd
       -0.056700423 0.012347547 0.517912 -0.058056295
0003f0 ff f6 52 be 23 00 ec 3c 8c dc a7 3c be ef d9 bd
       -0.20602034 0.028808659 0.020490907 -0.1064143

sequential/net/while/gru_cell/MatMul_2 f4 [20, 13]
000000 41 31 b4 bd bd 8c 0e 3e 49 39 cb 3d 99 f0 27 bf
       -0.08798457 0.13920875 0.09923036 -0.656015
000010 a7 a7 e3 bd fd 33 4f be 96 31 84 be d1 4f 61 be
       -0.111159615 -0.20234676 -0.2581908 -0.22003104
000020 f0 fc 75 3d 4f 32 59 be ea 45 08 bf fa 56 af bd
       0.060055673 -0.21210597 -0.5323168 -0.08561511
000030 99 6b 73 be 2e ee 3e bd 26 2b fd 3d 08 d3 6c 3d
       -0.23771514 -0.046613865 0.123617455 0.057818443
000040 8d 78 0f 3e 24 7b 9e 3c 70 08 c5 bd a5 ea af be
       0.1401083 0.019345827 -0.0962075 -0.34358707
000050 8e c9 42 3d c3 43 60 3e a2 31 4e 3c 4b 1e d8 be
       0.0475555 0.21900849 0.012585076 -0.42210612
000060 b3 c3 87 bd 78 e9 8b bd 1a 8f 82 3e b1 60 9d bc
       -0.066291235 -0.0683164 0.25499803 -0.019211145
000070 86 c2 a2 bd ad 3a 20 bc ca ad 87 be c9 35 a4 be
       -0.07947259 -0.009779614 -0.26499778 -0.32072285
000080 9b 32 85 be df 98 bf bc ff dd ba 3b 84 4a 15 be
       -0.2601517 -0.023388324 0.0057027335 -0.14579207
000090 59 be c2 be 31 cb 97 3d b3 d8 00 3b 7f db 82 bd
       -0.3803585 0.074118026 0.0019660413 -0.06389522
0000a0 b6 96 f1 3d ad e9 29 be 01 9b 25 be 7e 82 2a be
       0.11796324 -0.16593046 -0.1617241 -0.16651341
0000b0 97 df 39 3e a0 30 6b be d5 04 11 3e db 96 42 be
       0.18151699 -0.22967768 0.14162 -0.1900286
0000c0 0d ac b6 be b3 69 6e be 9a c0 65 be 62 98 cb 3d
       -0.3567814 -0.23282509 -0.22436753 0.09941174
0000d0 64 05 32 be ca cd 4f be 72 53 28 be 0b 58 ec 3d
       -0.17384869 -0.20293346 -0.16438082 0.1154023
0000e0 3f b7 30 3d fe cb c0 be 8e ed 37 3c 72 c5 86 bb
       0.043143507 -0.37655634 0.011226071 -0.004112893
0000f0 c0 70 6f be 57 67 8f be 9a ba 80 bd da 63 44 be
       -0.23382854 -0.2800853 -0.062855914 -0.19178715
000100 8f 52 b8 be e6 90 18 3d be 43 58 be 96 b0 8e 3e
       -0.36000487 0.03724756 -0.21119592 0.278691
000110 ff d4 fb 3d 0d 90 6a be a3 8e c5 bd 53 5a 5d be
       0.12296485 -0.22906514 -0.096463464 -0.21616487
000120 18 b2 bb bd 8c e9 d5 bd 66 09 d2 3c 01 ad f2 bd
       -0.09164828 -0.10444936 0.025639247 -0.11849404
000130 52 52 9a 3e 9b 2a 2d 3d 24 96 11 be 3c 1b cb bd
       0.3014093 0.04227696 -0.1421743 -0.09917304
000140 a2 f8 81 be df 90 07 3e f6 f5 1f be 93 f6 f5 3e
       -0.25385004 0.13238858 -0.1562117 0.48039684
000150 28 ed 45 3e 8d e9 f1 3c c9 57 e4 bd 2c 1d 75 3e
       0.19328749 0.029530311 -0.11149556 0.2393691
000160 60 36 94 3e 37 27 37 3e ce 96 e0 3d 40 f1 be 3c
       0.28947735 0.17886053 0.10966264 0.023308396
000170 30 a4 44 3e 8f 66 80 bc 63 d9 82 bc 91 b5 39 be
       0.19203258 -0.015673904 -0.015972799 -0.18135668
000180 35 e7 6c be 95 ac b2 bd 31 e1 fc bd 62 d2 41 3d
       -0.23135073 -0.08724324 -0.12347639 0.047319777
000190 33 45 a1 bd fa 67 98 3d 34 63 48 3e fa f4 06 be
       -0.07874527 0.07441707 0.19569093 -0.13179389
0001a0 59 a2 9e 3c 23 2c bb 3d d5 7b 70 be 5b 1b 64 be
       0.019364523 0.09139278 -0.23484738 -0.2227606
0001b0 a5 f4 21 be 47 09 57 3d 0b c9 23 bd a2 c8 d7 be
       -0.1581598 0.052499082 -0.03998665 -0.42145258
0001c0 ee 3b 74 3e 61 25 af 3e 5f 12 fc 3d c1 0b d7 bd
       0.23850986 0.34208205 0.123081915 -0.10500289
0001d0 ce 98 fc be 29 65 95 3d b9 ca 2a be f9 24 a6 3e
       -0.4933533 0.072946854 -0.16678895 0.32450083
0001e0 83 2f 56 bd 9e 5a 46 be 3e 8a d9 3d 9d 43 a3 be
       -0.052291404 -0.19370505 0.10622071 -0.31887522
0001f0 e5 98 d5 3e 45 55 54 3d 3b de d0 be fe 3a 0f bd
       0.41718212 0.05183913 -0.40794548 -0.03496837
000200 73 62 80 3e ec 44 2d 3e aa ca 04 be 2b fc 7b be
       0.2507511 0.16920823 -0.12967935 -0.24607913
000210 aa 60 68 3e 08 5d 9f 3e 8e c7 08 be 9a 4a df 3e
       0.22693124 0.31125665 -0.13357374 0.43611604
000220 11 68 d3 3d 73 4e 5f be c9 bb 19 3e 8c 37 da 3e
       0.103225835 -0.2180727 0.1501304 0.42620504
000230 01 ac 94 3e 94 05 f5 3d ba 6f b9 bd 91 9c e0 ba
       0.2903748 0.119639546 -0.09054513 -0.0017136504
000240 e3 cc 50 3e e1 81 10 be 13 57 f0 be 97 ff 31 3e
       0.20390658 -0.14112045 -0.46941432 0.17382656
000250 1a 47 a9 bc 3e 18 6d be 71 d6 25 be 25 52 08 be
       -0.020663787 -0.23153779 -0.16195084 -0.13312586
000260 b3 5a 52 bd ef 29 ee bc f0 12 7c 3d c1 ec a4 3e
       -0.05135603 -0.02907273 0.061541498 0.3221188
000270 cd 34 aa 3d 21 3f d3 bd be 33 68 be e3 bd 5b be
       0.08310852 -0.10314775 -0.22675988 -0.21459155
000280 43 57 90 3e 27 53 e1 3e 5d 70 28 bd 4c aa 8e 3e
       0.28191575 0.44008753 -0.041122783 0.278643
000290 16 42 6c 3e f5 2d e5 bd 8e ce 1c 3e 46 da da 3d
       0.23072085 -0.11190406 0.1531317 0.106861636
0002a0 17 d4 01 3e 3e ef 0f 3e 8f d7 07 3e 37 8a a3 be
       0.12678562 0.14056107 0.13265823 -0.31941387
0002b0 2b cf e2 bd 84 64 7b be de f5 65 be b5 0a 11 3e
       -0.110746704 -0.24550062 -0.22457072 0.1416424
0002c0 d6 53 3a be 71 36 34 3d a4 16 39 be 9a a7 12 be
       -0.18196043 0.043997232 -0.18075043 -0.14321747
0002d0 62 9d 0e be 99 82 ee 3d 88 dd fc 3d 85 3b ac 3b
       -0.13927224 0.11646003 0.12346941 0.0052561187
0002e0 86 45 e7 3d 92 d2 0e 3e 00 d7 3b 3e 58 a9 26 be
       0.112925574 0.13947514 0.18343735 -0.16275537
0002f0 46 d6 3a be 4f f4 e3 3e 08 20 8e 3e 6b 9d f4 bd
       -0.18245801 0.4452233 0.27758813 -0.119440876
000300 cd 90 8a be 92 31 84 3d ee 7a 8c be 6b 4b ed 3d
       -0.270636 0.06454767 -0.27437538 0.115866505
000310 ed 1c dc bd 7b 76 f8 3d e6 80 ab 3e ac aa 62 be
       -0.10747705 0.12131973 0.3349678 -0.22135419
000320 3f d9 b2 3d 18 a9 4d be ba b7 6f 3e 13 a3 2e bd
       0.08732843 -0.20084035 0.2340993 -0.04263599
000330 b3 e9 6c bc 5f 2f 98 3e 33 14 58 3e 1e 02 5c 3d
       -0.014460015 0.2972364 0.21101455 0.053712957
000340 07 81 5e be 7a d3 1d 3e 67 36 3c be f6 6b 12 bd
       -0.21728908 0.15412703 -0.18380128 -0.03574749
000350 f6 21 af 3d f5 74 85 3e 01 24 0c bd 68 45 31 be
       0.085513994 0.26065794 -0.034214024 -0.17311633
000360 c8 aa 90 3e a6 68 5f 3e be ef 05 be b8 8f fd bd
       0.28255296 0.21817264 -0.13079736 -0.12380928
000370 cd 2a f4 bd 43 b1 37 be b1 6b 64 be c3 60 7a bd
       -0.11922226 -0.17938714 -0.22306706 -0.061127435
000380 4e 69 16 bd 04 06 94 bd 60 21 ef 3d 41 0f 3e be
       -0.03672152 -0.0722771 0.11676288 -0.18560506
000390 5f 57 1a bd 78 43 02 3e 66 90 bb bd b4 02 16 3e
       -0.03768098 0.1272105 -0.09158401 0.14649469
0003a0 ba 8d 79 3e eb 6a 12 3e df c8 2d be 2d 74 07 be
       0.2437047 0.14298598 -0.16971157 -0.13227911
0003b0 2f 89 8d be 85 2a 15 be 7f f6 be 3e 49 24 13 be
       -0.27643725 -0.14567001 0.37297437 -0.1436931
0003c0 f0 c9 63 bc 6f f8 92 3e 2d 43 d3 3e 45 9b 4d bd
       -0.013903126 0.28705165 0.4126219 -0.050196905
0003d0 0c 97 57 3e a4 bf 03 3d 80 7f a4 bd 34 51 35 be
       0.21053714 0.032165185 -0.08032131 -0.17706758
0003e0 b6 58 4d 3e cd 54 24 3e 02 08 b2 3e 39 59 90 bd
       0.20053372 0.16047974 0.34771734 -0.07048268
0003f0 25 17 81 3d df 78 bb be 71 0a d7 3e c3 32 69 3b
       0.063032426 -0.36615655 0.42000154 0.0035583235
