wakewords/en/hey_scout.onnx (onnx, 19300 bytes, 1 tensors)

const_fold_opt__112 f4 [20, 1]
000000 a6 b9 dd be 93 78 75 be 88 ce 32 3f 86 c4 53 bd
       -0.433057 -0.23971777 0.6984639 -0.05170109
000010 eb ec 05 be 01 a6 04 bf d7 38 dc bd 78 1b 78 be
       -0.13078658 -0.518158 -0.10753029 -0.24229228
000020 ba 88 ac 3e ef 15 0e bf 1b 24 ff bc 93 b8 17 bf
       0.33698064 -0.5550222 -0.031145146 -0.5926601
000030 06 22 16 be 32 fc 3c bd d2 26 13 3f 62 99 93 bd
       -0.14661416 -0.04613895 0.5748111 -0.0720699
000040 dd 46 4c 3c d3 91 99 3e 96 cd 4a bd fe 13 b6 be
       0.012468067 0.29994068 -0.04951247 -0.35562128
