wakewords/en/hey_robin.onnx (onnx, 15494 bytes, 10 tensors)

dense_1/kernel/read:0 f4 [20, 1]
00000000: c4bc 693e 38ae d33e 8790 eb3e d676 4e3f
00000010: 841d 29bf 0435 1b3e bf2c c5bd 8da7 8abe
00000020: 9278 8b3e aa8e 433e f50d cdbd 7b08 d0be
00000030: edb8 3e3e 694e 2ebf 7fb2 853e f963 d0be
00000040: 9124 153e 82f8 c8be 7381 0fbf 985f c7be
0.22825915 0.41343856 0.46008703 0.8065008 -0.6606066 0.15156943 -0.09627675 -0.27080956
0.27240425 0.19097391 -0.10012428 -0.4063147 0.18625231 -0.68088394 0.26112744 -0.40701273
0.1456473 -0.39252096 -0.560569 -0.3894012

ConstantFolding/net/strided_slice_enter:0 f4 [13, 20]
00000000: 026a e1bb 4f75 cb3c 3c26 c3bc c482 e73c
00000010: 141b 88bb 8a80 ac3d 0397 a0bc 6c3a 2eba
00000020: 8043 12be c5de 513b eadc f1bd b087 e93c
00000030: 7903 813e 9b69 67bd 437b 87be 0c4a b73b
00000040: 91cc e2bd 57c3 9a3c 5a48 85bc 28a7 f1bc
00000050: da11 143d 55a9 8b3c 0173 e9bc 04ba c63d
00000060: 2b06 8e3c 9198 a3bd 325e 8d3d 7082 8bbd
00000070: 9ef1 853d d122 aebe d655 edbd 4aba 35bc
00000080: 44a0 e03d b2b0 43bd ed80 07bc 049f 8fbd
00000090: f9fe dd3c 2fb6 1c3d 4748 7abd 5c80 303d
000000a0: 9a0b 233e d055 4bbd a04e 89bd 3880 78bc
000000b0: dd60 3a3e b6f3 3c3d 7924 63bd e549 ee3d
000000c0: 4e18 babd d6ca 9f3e 642d 733d cc33 ba3d
000000d0: 5b22 55bd 045d b7bc 783d 013d 0884 51be
000000e0: e134 9e3d 8451 70be 42e4 b9bd 103c 02be
000000f0: af1c 533c 515c debd e260 583d aa84 8c3e
00000100: c676 8ebd 9233 363d 2258 f9bd 86b1 9fbd
00000110: d21f c0bc bf89 813c 0851 70bd 8558 cb3d
00000120: 3cc6 30bd 72f1 74bd e53b 2abc e8fa b9bd
00000130: 3487 503d 81c9 08bd d034 f63c c0b5 0d3c
00000140: 2e7e fdbc d792 083c 8358 3abe f9d8 273d
00000150: 1baf 7fbc 7fba 8cbd 3893 273e 33b6 70bb
00000160: 0087 c63d b91e 2e3e 125d 6d3d cb6a c3bd
00000170: 39fc 5e3c a3d4 5d3e 2fa1 d83d 0f7e 0a3e
00000180: 51df 81bd ea36 19bc 1aba ebbd 6525 3c3d
00000190: 9953 4bbd d0eb ae3c eab6 6c3d 3e79 943d
000001a0: 9383 17bd 376c 833e 3d6c 47bc 63c7 143e
000001b0: f6f7 a8bd 0c49 013e 09b6 6dbc 5d81 49be
000001c0: ff77 8cbd e8fb f63d 8ba8 763e ffab 543f
000001d0: f536 82be 0b01 37bc ca98 b9bc 4bc1 873d
000001e0: df7c 7cbd b62e 273e 6a6c 863e 6784 163c
000001f0: b9dd e5bd 46a7 913d 7f73 1ebe 7d93 293e
00000200: 149d f6bc 211c efbd e2a3 0a3f 90a1 52bd
00000210: 0630 c2bd a986 a239 6da6 1bbe b6c8 e2bd
00000220: e391 36be 9d1f 9a3d e58d 7f3e d7a3 aa3d
00000230: 408a 81bc 88b5 a4be 9ac6 41bc 6e47 89bd
00000240: b9cb 7ebe 66c2 e2bc b061 8e3d d4a4 0b3d
00000250: 5888 0dbe 241a 993e 61c1 18be e276 003e
00000260: aa42 0bbe e0f3 383d a4f1 cb3c 21d2 0bbf
00000270: 998b 263e 5621 643e 7a56 a63d d69a a4bc
00000280: ccda dcbd 748f aabd 966f 90bd 3c07 913c
00000290: 8909 6ebd be28 d6bd 51c4 97bc 6dac 91be
000002a0: a1f2 513e 18ce a53d 674b 09be 37a8 193e
000002b0: 8c00 f33c 14ac e8bb 9547 903d d900 3b3e
000002c0: e5ad b53d deab 273d 15d1 0d3e d077 0bbe
000002d0: 8408 b7bd 5a27 3a3e d5d5 71bb beba 203e
000002e0: 5a44 9a3e 62e3 96bb adc4 5bbd 7225 29be
000002f0: 5e0a 8b3e 8894 c33e 47b2 8a3e 426c 293c
00000300: 4eb2 4ebd f979 86be db10 40bd 83e1 69be
00000310: a367 08be 83fd 93be cc6b 243e bff6 d4bd
00000320: ca2d a13d db51 31be fddb 1dbd 8fb6 98bd
00000330: b034 313e 7062 01be fcf1 f0bc 25d7 503e
00000340: de91 91bd 6b9e 0ebd 072d f73e 6436 81bc
00000350: 70db 8bbd 4181 03bd de32 b6bb 2680 8cbe
00000360: 63c8 313d c5ac c33d c295 823d c89c 7cbe
00000370: 4662 033d a962 d03d 0271 8f3e 71f7 303f
00000380: acd9 cd3d ef95 73bd 6c99 afbc 8d55 773e
00000390: 0f4b 4ebe fdc3 833d c9f6 763d 8e57 3bbc
000003a0: a021 c4bd cbac 233e a1f7 1fbe 0c25 96bc
000003b0: 468d ac3b 8a97 d9bc c6bf 243d 1a4f 71bd
000003c0: 94ef 28be 01dc b33d 8d6b df3b 7f87 303c
000003d0: d607 9ebc abca abbd 8847 2fbd c20c 7ebe
000003e0: 0fa2 91be db20 053d ab0a 47be f2a7 e73d
000003f0: 08e0 223e a7c4 24be bb4d f8be fa68 b23e
-0.006879092 0.02483621 -0.023821943 0.028260596 -0.0041536186 0.084229544 -0.019603258 -0.0006646279
-0.14283562 0.003202365 -0.11809714 0.028507084 0.25197962 -0.056497198 -0.2646123 0.005593544
-0.11074174 0.018891973 -0.016269851 -0.029498652 0.036149837 0.017048517 -0.028497221 0.097034484
0.017336925 -0.07988084 0.06902732 -0.06811988 0.065402254 -0.34010938 -0.115886375 -0.011091778
0.10968068 -0.04777593 -0.008270484 -0.07012752 0.02709912 0.03825968 -0.061104085 0.043091163
0.15922394 -0.049642384 -0.0670445 -0.0151672885 0.18201013 0.04613086 -0.055454705 0.11635188
-0.09086667 0.3120944 0.05936946 0.09091911 -0.052034717 -0.02238322 0.03155276 -0.20460522
0.077249296 -0.23468596 -0.0907674 -0.12718225 0.012885257 -0.10857452 0.05282677 0.27444965
-0.06956248 0.044482775 -0.12175013 -0.07797532 -0.023452673 0.015812753 -0.058671027 0.09928993
-0.0431578 -0.059800573 -0.0103902565 -0.0908106 0.05091019 -0.033395294 0.03005448 0.00864929
-0.030943956 0.008335791 -0.18197827 0.040978406 -0.015605713 -0.06871509 0.16364753 -0.0036729693
0.09693718 0.17003907 0.057950087 -0.095418535 0.013609939 0.21663146 0.10577618 0.1352465
-0.06341422 -0.009351471 -0.115101054 0.0459341 -0.04964027 0.021352679 0.057791628 0.072496876
-0.036990713 0.256685 -0.012171802 0.14529185 -0.0825042 0.12625521 -0.014508733 -0.19678254
-0.06858825 0.12059766 0.24087732 0.83074945 -0.25432554 -0.011169682 -0.022655863 0.066286646
-0.061642524 0.16326413 0.26254588 0.009186841 -0.11223931 0.07111983 -0.15473746 0.16560169
-0.030104198 -0.11675287 0.54156315 -0.05142361 -0.09481816 0.00030999377 -0.15200205 -0.11073439
-0.17829089 0.07525561 0.24956472 0.08332031 -0.015812993 -0.32169747 -0.011827135 -0.06703077
-0.24882402 -0.027680587 0.06952226 0.03409274 -0.13821542 0.29902756 -0.14917518 0.1254535
-0.13599649 0.045154452 0.024895497 -0.54617506 0.1626419 0.22278342 0.08121963 -0.020093363
-0.1078392 -0.08328143 -0.07052533 0.017703645 -0.058114562 -0.1045699 -0.018526228 -0.28451863
0.20502712 0.0809595 -0.1340767 0.15005575 0.029663347 -0.0071005914 0.07044903 0.18262042
0.088710584 0.04093539 0.1384929 -0.13619924 -0.08937171 0.18179074 -0.0036901135 0.15696236
0.30130273 -0.004604743 -0.05365436 -0.1651819 0.27156347 0.38199258 0.2708914 0.010340752
-0.050463013 -0.26264933 -0.046891075 -0.22839932 -0.13320784 -0.28904352 0.16056746 -0.103986256
0.07870062 -0.17316382 -0.038539875 -0.07456695 0.17305255 -0.12635207 -0.029412262 0.20394571
-0.071079 -0.034819048 0.4827654 -0.015773006 -0.06828964 -0.032105688 -0.005560263 -0.2744152
0.043403994 0.095544375 0.0637622 -0.24669182 0.032076143 0.10175068 0.28015906 0.69127566
0.10051283 -0.05946916 -0.021435462 0.24153729 -0.2014582 0.06433866 0.060293946 -0.011434449
-0.09576726 0.15983884 -0.15621807 -0.018328212 0.0052658645 -0.026561517 0.040221952 -0.058913328
-0.16497642 0.08782197 0.006818241 0.010774492 -0.019290846 -0.08388265 -0.042792827 -0.24809554
-0.28443953 0.032502037 -0.19437663 0.1131133 0.15905774 -0.16090642 -0.48496804 0.34845716

ConstantFolding/net/strided_slice_8_enter:0 f4 [20]
00000000: abd6 ffbe dc6c 51bf 300b 6bbe 3c39 0abf
00000010: bd41 423f beaf 78bf 287c 24bd 36b5 433f
00000020: 4612 abbe b9a7 793f 1ea1 eabe 043a 2f3f
00000030: ec77 173e c294 793f 6c74 79bf c899 703b
00000040: f841 f3be 42c2 88bf edc7 573e eeac e63e
-0.49968466 -0.8180673 -0.22953486 -0.5399358 0.7588156 -0.9714316 -0.040157467 0.7644838
-0.3341238 0.9752155 -0.45826048 0.684479 0.1479184 0.9749261 -0.9744327 0.0036712755
-0.47511268 -1.0684283 0.2107236 0.4505381

ConstantFolding/net/strided_slice_7_enter:0 f4 [20]
00000000: 3c1a 7a3e 8cc1 aa3e c94f 1dbd fb79 103e
00000010: 7a6c 663e e072 e43e 92c1 ed3e 9d78 cf3c
00000020: 177f 18be f4df f93e 29bc 1e3e 40b6 f73d
00000030: 980f c63e 9b7d d53e ad8b 6e3e 5873 a73e
00000040: 6d85 d23e f7f1 a73e 3a6e ce3c 1d8c 293e
0.2442407 0.3335079 -0.038406167 0.14109032 0.22502318 0.44618893 0.46436745 0.025326068
-0.14892231 0.48803675 0.15501465 0.12095308 0.38683772 0.41697392 0.2329547 0.32705188
0.4111742 0.32801792 0.025199044 0.16557355

ConstantFolding/net/strided_slice_6_enter:0 f4 [20]
00000000: bdba bb3c ebe1 3abf f592 ea3d d179 81be
00000010: 6e99 c0be ae8d 5fbf 4b48 e4bc 6e8b 2e3e
00000020: 9d66 e9be 15fc 84bf 3859 85be 2c3c 073e
00000030: 0952 8c3c 134b 74be f5cb 623e a36a e0be
00000040: 7190 c53e f93d 043e 6646 df3d 92d8 013f
0.022916192 -0.73000973 0.11453811 -0.2528825 -0.37617058 -0.8732556 -0.027866503 0.17045376
-0.455861 -1.0389429 -0.2604463 0.13206547 0.017128961 -0.23856764 0.22148116 -0.43831357
0.38586763 0.12914266 0.10902099 0.50721085

ConstantFolding/net/strided_slice_5_enter:0 f4 [20, 20]
00000000: 8327 fd3d 363a 80bd b81b 92bd a33f e0bd
00000010: 9f33 36be 1ed7 a3be d030 833e 31f4 1ebe
00000020: 6d7c a33e 1024 393c 0e01 2ebe 23ba 52be
00000030: eb44 553d 4860 4b3e 2b7c 1f3f 525c aebe
00000040: e9a8 ff3e 36c5 9fbd ef60 f5be d10a 8ebe
00000050: 50a1 84bc 01bf b33e 8986 1a3f 72ca 25bd
00000060: 9652 efbd d552 a73e ea03 933e d44a ee3d
00000070: e3e5 063e 59ef 0fbf 679b c03e d0ac 7a3e
00000080: 937e 9f3d 9bec 31be b49a 883e e1e1 703e
00000090: 0869 053f 7724 123f 500e e73e 4476 373d
000000a0: beec e6ba f932 6bbb 78bf 2cbe 199a 3ebd
000000b0: 032c 663a c628 b8be ff5f e3bb d4d5 96be
000000c0: a207 b03e f60b 6cbd 2362 293d 3e94 b43d
000000d0: f652 313f 25c1 e83c eb08 523e c438 ba3d
000000e0: acb6 c2ba 7516 11be ce2f 09bd e9d6 07be
000000f0: aada 0dbd afc4 5bbe b9de 9abd 7d78 9a3b
00000100: c0bc 55be 41ab f2bd 6839 373e 2f20 a1b9
00000110: 4704 c13d b281 8c3d 44c1 bd3c d5c4 2cbe
00000120: 554c 5cbe bf2d 453d a7c6 963d 0952 c23e
00000130: 4a8a 23be 249e 16bd 5ec4 d73d b729 86be
00000140: 780f 44bd fa17 38bd 6a26 64be f82e febd
00000150: 66bf 2cbd 3878 e6be b2b2 143e ba70 0b3e
00000160: f128 d53d 349a 823d e0b4 87be eb68 953d
00000170: b7ec 183f f6d4 c23c 566a 2cbe 5bc6 313e
00000180: 6d5a e7be f9fc 843e f752 35be 1f23 80bc
00000190: 48db 1f3f 5ab8 263e 8be3 6ebe 1ad7 a83d
000001a0: f742 25be 52b6 9abd 7594 4d3e 6d04 62be
000001b0: 983b 4a3e b6b0 18be fccf 21be 5aee 50be
000001c0: cebf c0be 0d91 97be 7372 38bd 0237 9f3e
000001d0: 42eb 5abe 473a f63e 9aa2 623e 3128 403e
000001e0: 17e0 97be 4561 78bd 3fe6 243e 6f5a 9fbc
000001f0: b770 203f 9921 c5be 1cba f03d 9309 3abe
00000200: 9b4d a8bd d789 613e f469 9e3e 4374 80bd
00000210: 69de 6fbe dbe1 9fbe 09ca 8d3d f37d 37be
00000220: b2fd bebe 9701 cdbd 05a5 8abe 5741 b73d
00000230: 4929 bd3e f6e0 893e 64a3 87be f384 813e
00000240: 9b3b 91be 8a85 1e3d ab08 c63e fdd6 2a3d
00000250: fd1e 41bf 23c8 b33d 363b 89be af6d b33e
00000260: 63a4 293e 65c3 2e3e 371e 01bf eaad 963d
00000270: dfd4 943e 90d2 44bd 2b22 bd3e 681d 2dbc
00000280: ec44 4e3d 6074 0e3b 14c4 cb3e e79a de3e
00000290: c0e8 b73e 789b 78be f1fc dd3d 4741 3e3c
000002a0: be5a 8fbe 9420 c3be ebde e33d c8bc e9be
000002b0: 5774 953d 43e9 14bf 95eb acbd d0f7 5b3e
000002c0: 87d5 9b3d 52cb 80be 6d08 693d f7eb 903c
000002d0: ecb3 ddbd badc d1bd 3d04 a5be afee dcbc
000002e0: 2834 a13d 03a8 9a3e 8f17 9fbe 664f 9a3e
000002f0: 7e89 873d 4a52 a03e dbf2 85be e37c b13e
00000300: b267 b53c 9340 823e 5967 fabd be36 06bc
00000310: 2c61 18bd 14e4 b4bd 9e13 483e 7efe a33c
00000320: 3d5b a03e 76a4 063d 130c 053f 03be 0a3f
00000330: 7873 8b3e 80ad 4f3e 6c2c c9be fc5d a3be
00000340: ed14 6fbe 0759 a93e 39c9 863e 3b3e 9bbd
00000350: c97b cb3d c95b d2bd be34 bf3e 7054 cd3e
00000360: 7b6e e83e 62da d23d 3ea3 c73d e234 54be
00000370: 22b9 413e 0043 d7be 9cdb 92bd 2e20 8dbe
00000380: e310 003e fa4f 3fbe 6c69 303e e55c d43e
00000390: a8dc 443e 4a3b c03c 59a1 88bd 306f 9b3c
000003a0: 8d78 6ebe 2c7a 6d3e 8ca3 b23d b588 75be
000003b0: 467c 23bd 5482 e53d c9c8 5cbe 9160 da3e
000003c0: 8632 e5bd 618c d9bd 9dde 8f3e 7535 893e
000003d0: a337 83be ac5f c53e fda0 a3be 030f 403e
000003e0: 18af 873e 7007 823d 225c 0e3d a1d9 053e
000003f0: 4ae4 033f 31e5 fbbd f087 57bc 0005 21be
0.12361052 -0.06261103 -0.07134193 -0.10949638 -0.1779313 -0.3200006 0.25623178 -0.15522839
0.31930867 0.011300102 -0.1699259 -0.20578818 0.05206768 0.19860947 0.6229884 -0.3405481
0.49933556 -0.07801287 -0.47925517 -0.27742627 -0.016190201 0.35106662 0.60361534 -0.04047627
-0.11685674 0.32680383 0.28713924 0.11635366 0.13173632 -0.5622459 0.37618563 0.24479985
0.07787814 -0.17375414 0.2668053 0.23523666 0.5211339 0.5708689 0.45128107 0.04479052
-0.0017618162 -0.0035888536 -0.16869915 -0.046533678 0.0008780362 -0.35968608 -0.006938934 -0.29460013
0.34380823 -0.057628594 0.041353356 0.088173375 0.69267213 0.028412411 0.20511214 0.090928584
-0.0014855466 -0.14168723 -0.033492856 -0.13265575 -0.034632362 -0.21461748 -0.07562012 0.0047140704
-0.20872784 -0.1184907 0.17892992 -0.00030732292 0.09424644 0.06860675 0.023163445 -0.1687196
-0.21513493 0.04813933 0.07362109 0.37953213 -0.15970722 -0.03677191 0.10535501 -0.262037
-0.047866315 -0.04494474 -0.22280279 -0.12411302 -0.04217472 -0.45013595 0.14521292 0.1361722
0.104081996 0.06377068 -0.26505184 0.07295402 0.597362 0.023783188 -0.16837439 0.17360823
-0.45186177 0.25974253 -0.1770743 -0.015641747 0.6244397 0.16281262 -0.23328988 0.08244152
-0.16138826 -0.07554306 0.20076163 -0.22072001 0.19749296 -0.1491116 -0.15801996 -0.20403424
-0.37646335 -0.29602852 -0.045031022 0.31096655 -0.21378806 0.48091337 0.2213234 0.18765332
-0.29663154 -0.06063964 0.16103457 -0.019452302 0.6267199 -0.38502195 0.117542475 -0.18167715
-0.08217927 0.22025238 0.3094021 -0.06272175 -0.23424686 -0.31227002 0.06923301 -0.1791914
-0.3730293 -0.10010069 -0.27079025 0.089480095 0.3694556 0.26929444 -0.26491845 0.25296745
-0.28365788 0.03870157 0.38678488 0.041708935 -0.7543791 0.087784074 -0.26802987 0.3504462
0.16566615 0.17066725 -0.5043673 0.0735739 0.29068658 -0.04805237 0.3694013 -0.010566093
0.050358698 0.0021736845 0.39798033 0.43477556 0.35919762 -0.24278057 0.1083926 0.011612243
-0.27998918 -0.38110793 0.111265026 -0.4565184 0.07297581 -0.5816843 -0.08443371 0.21481252
0.076090865 -0.2515512 0.0568928 0.017690642 -0.10825333 -0.102471784 -0.32229796 -0.026969282
0.07871276 0.30206308 -0.3107266 0.301387 0.066180214 0.31312782 -0.26161847 0.34665594
0.022144172 0.2543989 -0.12226743 -0.0081917625 -0.037202045 -0.08832565 0.19538733 0.020018812
0.3131961 0.032871686 0.5197155 0.54196185 0.27236533 0.20281029 -0.39291704 -0.31907642
-0.23347826 0.33075735 0.26325396 -0.07580229 0.099357195 -0.10271413 0.37344927 0.40103483
0.4539679 0.102955595 0.09747933 -0.20723298 0.18918279 -0.42043304 -0.071707934 -0.27563614
0.12506442 -0.18682852 0.17227715 0.41477123 0.19224799 0.023465771 -0.066713996 0.018973917
-0.23288174 0.23191136 0.087226 -0.23977931 -0.03991344 0.11206499 -0.21560968 0.426518
-0.11191277 -0.10622478 0.28099528 0.26798597 -0.25628385 0.38549554 -0.31958762 0.18755727
0.26500773 0.06349075 0.034755833 0.130713 0.51520216 -0.12299574 -0.013154969 -0.15724564

ConstantFolding/net/strided_slice_4_enter:0 f4 [13, 20]
00000000: 01bb 963d 4537 293e 26f7 cdbc 9f74 993e
00000010: ed49 0dbc 582b 3fbb d58c b6bc ebb6 e43d
00000020: 3587 c9be 1c75 833e 1692 9cbe 08e7 253d
00000030: 40f1 943d 349d 88bd cff3 043c 2ec3 2f3d
00000040: e005 af3c abf3 293e 2772 253d 5562 88bd
00000050: 39b0 bd3d a4fb 293e 0ebc 163d ff50 113e
00000060: b178 673e ba26 373e 64b2 e1bd 77b9 e03d
00000070: 431c 803c 615f 2f3d 7d3c 1f3e 5ed0 1f3e
00000080: e7c4 b33c cf51 ea3c 9689 19bd 786a 21be
00000090: 667c 9dbd 16b7 19bd 19a8 233e cc0a 49bd
000000a0: 6155 2bbc c30e 66be 7d2b 1b3e e010 ddbd
000000b0: 5362 463d 7e3c 083d 87f7 1cbe 3339 1f3d
000000c0: d1c7 153e 2c0a e1bd e9d7 d3bd 1522 98bd
000000d0: b88d a7be 1b59 7fbd 61bb 1e3e bbb3 24be
000000e0: ac9f 91bd c1ae 1d3e ed6d 813d 6f16 9cbc
000000f0: 8021 d1bd 0879 edbd e5e8 143e 3a71 14be
00000100: def5 d1bd b7f5 87bd de18 e4bd e242 b6bc
00000110: 406b f23d abee ee3d 79de 6fbb ac28 d4bd
00000120: 1afd 3e3d 48d9 b0bd 876d 853e 0089 a1bd
00000130: 0341 5dbd ac4d a33e a55e 2abd 4682 9b3e
00000140: 6ff2 8c3d 2dbe c93d b194 a6bd b1ef 23bd
00000150: ab44 813c 53ff b4bc 04cf 213e 27f0 26be
00000160: 6a43 8e3d 032f 8bbe 71cf efbd dfab c63d
00000170: 454d 17bd 6f40 1abd 7b21 2abe 60e7 bb3d
00000180: 16b5 543d 8197 a1bd 01be 6fbd f4a3 85be
00000190: 48eb 493e 62f8 1dbe e524 7dbc dfa2 b1bc
000001a0: d553 f2bd 8db7 89be 0030 a83e 223c 48be
000001b0: c932 a5be 87c3 72be 51d7 e3bd 4c3a 753d
000001c0: dfb3 213e 3ce9 053d 8b51 65be b53f 833e
000001d0: 6c95 503e 939e 36be c427 663c d00b 8fbe
000001e0: 7a50 fcbc 92ef 4c3d 72e2 52be 167b d9bd
000001f0: fcae ccbd 86ab bbbe cda6 453e 9a1b c4be
00000200: 2104 e9bd de15 453e 3002 d7bd a419 b4bd
00000210: 7886 3c3e d744 18bc 767b 04be abc2 bb3d
00000220: ede8 6e3e 2967 3bbd d568 0dbd 596e 443e
00000230: 48b5 183e fac7 523e ea63 1dbf 3a8f e2bc
00000240: 55cb 3cbe 5002 dbbe a027 10bd 9a95 d3bd
00000250: 52a3 663e ab60 9c3e 5bca 14be 1dde 42bd
00000260: 9922 d1bd aebb 99bb ab1d 043e a34a 0b3d
00000270: 25ba 02be 5369 603b 2fc8 3ebd ab87 3e3e
00000280: 1e13 2e3c 91af e73d 1073 4ebe 8660 413e
00000290: b338 b4bd 05a4 6fbe b753 88bd 7117 b43d
000002a0: f239 413d 09b3 10be bf74 35be 9c27 4cbe
000002b0: 460b 8fbe ee5f 443e 78c0 e03d 5bac c73d
000002c0: d725 27be 15b1 393c f04b 91bd 77c0 fcbc
000002d0: bf51 40be a5be 99be 3da9 8f3e e6ad 2d3e
000002e0: 633d c0bd 0d2f 36be ad24 4bbe 7e1e a6be
000002f0: ca01 01be e145 a33d dcd2 b53e 28d2 06be
00000300: f0e3 69be ae53 8fbe 0cf2 433c 6332 bc3e
00000310: 6dae f7bd bcc9 18be d10c 86be 871f 933d
00000320: 0e11 5cbe f332 e73d 4480 87bc d781 0cbe
00000330: 2372 173e 8696 59bd cd5d 2ebe e3dc c5bc
00000340: 0db5 a23e be3e 373d 0f6e 163e 1c2e 7c3d
00000350: f228 353c b581 f73d 37e1 bd3d 2b38 2dbe
00000360: 4d7f a2be 2bca 8ebd 2d10 06bd 4245 a7be
00000370: fc43 74be 5014 42be 1418 38be 01e4 1dbe
00000380: 3215 7cbd a6f6 e03d bbed 203e 0026 1dbf
00000390: 456c b93d 68fc a53c 4ed7 833c 2472 edbd
000003a0: 3823 b2bd 3b9b d43d d0af 8b3d 625d 5d3c
000003b0: 8e7d 323e 6c79 67bc 2574 af3d 707c 9bbe
000003c0: 6980 91bd 1c01 8abe 166a 22be 55e5 8d3d
000003d0: 29f1 58bd 95d6 f7be 4e13 53bd ac68 b9be
000003e0: 6a5c cabe 5e74 07bf 3733 cfbe c276 21bd
000003f0: a687 31be 6ab3 97bd 96e8 78bc 3910 593c
0.07359887 0.1652499 -0.025142264 0.29971787 -0.008623582 -0.0029170122 -0.02228395 0.11167701
-0.39360967 0.25675285 -0.30580205 0.04050353 0.07272577 -0.06670609 0.008114769 0.042910747
0.021365106 0.16596858 0.040392067 -0.0665938 0.092621274 0.165999 0.036800437 0.14191054
0.22604634 0.17885867 -0.110203534 0.109728746 0.015638476 0.04281557 0.15550418 0.1560683
0.021944476 0.028603463 -0.037484728 -0.15763271 -0.07689743 -0.03752812 0.15982093 -0.049082562
-0.010457368 -0.22466569 0.15153308 -0.10794234 0.048433613 0.033260815 -0.15328799 0.03887291
0.14627005 -0.10988268 -0.10343916 -0.07428376 -0.3272531 -0.062340837 0.15501167 -0.16084187
-0.07110533 0.15398695 0.06319795 -0.019053666 -0.10211468 -0.115953505 0.14541967 -0.14496318
-0.102519736 -0.06638663 -0.111375555 -0.02224869 0.118368626 0.11666616 -0.003660111 -0.1035932
0.046628095 -0.08635193 0.26060125 -0.07887459 -0.054017078 0.31895196 -0.041594166 0.30372828
0.06882178 0.09850726 -0.081338294 -0.04002351 0.015779814 -0.022094404 0.15801626 -0.16302548
0.06946452 -0.27184305 -0.11709488 0.097007506 -0.036938924 -0.037659105 -0.16614334 0.09174991
0.05193051 -0.07890225 -0.05853081 -0.2610165 0.19718659 -0.15426782 -0.015450691 -0.021684108
-0.11832396 -0.2689785 0.3284912 -0.19554189 -0.32265308 -0.237074 -0.11125053 0.05987005
0.15791272 0.032693133 -0.22394387 0.25634542 0.203695 -0.17833929 0.014047567 -0.279387
-0.030800093 0.05003316 -0.20594195 -0.1061918 -0.09994313 -0.366543 0.1930191 -0.38302308
-0.11377741 0.19246623 -0.10498464 -0.08793953 0.18410671 -0.009293756 -0.12937722 0.09167989
0.23331042 -0.045752678 -0.034523804 0.1918272 0.14912903 0.20584098 -0.6148058 -0.027656186
-0.1843694 -0.42775202 -0.03519404 -0.103312686 0.2252324 0.30542502 -0.14530317 -0.047575105
-0.10211677 -0.0046915626 0.12901942 0.034006726 -0.12766321 0.0034242466 -0.04657763 0.1860644
0.010624675 0.113127835 -0.2016108 0.18884477 -0.08799877 -0.23402412 -0.06656592 0.087935336
0.0471744 -0.14130796 -0.17720316 -0.19936985 -0.27938288 0.1917722 0.109742105 0.09749671
-0.16323029 0.011333724 -0.07094562 -0.030853493 -0.18781184 -0.30028263 0.28058806 0.16960868
-0.093867086 -0.17791386 -0.1983821 -0.3244514 -0.12598339 0.07972313 0.35512435 -0.13166106
-0.22840858 -0.2799353 0.011959564 0.36757192 -0.12093816 -0.14920706 -0.26181653 0.07183748
-0.21490881 0.11289015 -0.016540654 -0.13721405 0.14789633 -0.053122066 -0.1702797 -0.024153179
0.31778756 0.04473757 0.14690422 0.06156741 0.011057125 0.120852865 0.09271472 -0.16915958
-0.31737748 -0.06972154 -0.03273027 -0.32670027 -0.23854059 -0.18953061 -0.17977935 -0.15419008
-0.06154365 0.109845445 0.15715687 -0.6138611 0.09053854 0.020261958 0.016093876 -0.11594036
-0.08698124 0.1038117 0.06820643 0.013511034 0.17430708 -0.01412807 0.08567075 -0.30368376
-0.071045704 -0.2695397 -0.15860781 0.06928507 -0.052964363 -0.484059 -0.051532082 -0.3621267
-0.3952363 -0.5291194 -0.4046876 -0.039419897 -0.17336902 -0.074072674 -0.015192172 0.013248497

ConstantFolding/net/strided_slice_3_enter:0 f4 [20, 20]
00000000: 4554 fa3e 540b e43d 5e3b 1d3d d105 fe3e
00000010: 65c5 c33e 9e6c 433e 1c6f a33d d7d3 5f3d
00000020: d83b 703e b366 d9bb eabb 623e 9642 19be
00000030: 90cd 513e ddb9 03be b8a8 c8bc df89 2fbe
00000040: 1699 1fbd d4c0 fdbd 18a3 85bd 6e21 88bd
00000050: 99d8 58be 250b 9c3b df48 453e f4ca 833d
00000060: 0678 613e 11fd f0be 5d7d 80bd d6d4 e6bd
00000070: cbbf ff3d ceed d73c 09ce 1ebe 35e1 80be
00000080: 2cca 4cbd e65f 9a3e 0baa e5bd 3a59 75be
00000090: 4913 97be 0f69 83bd 6755 09be 14a1 283e
000000a0: 7450 1cbe 50db 7f3d 9752 76bd 42fc a13d
000000b0: 0083 9f3e 4e3f d1bd 9d57 fc3d 796d 3f3e
000000c0: db0d 96bd d65d 5b3e 6f24 95be 14d4 023e
000000d0: 72ff 2a3e 9dd4 2bbe d1b0 093e 6e5c 01be
000000e0: b8f8 96bb 99e6 adbe 9a62 bebd c277 23bd
000000f0: 99cc 8b3e 07c9 043e bf7c 78be b101 2cbe
00000100: 7583 30be ffd1 61be 1f25 8f3d a0ba bebc
00000110: 0bdb cbbb f63a 3e3d 26d0 5dbd 8fb2 e9bd
00000120: 281c 55be 6a32 fcbc 8d6d 1e3e 5cb6 abbe
00000130: ff5e 04be e701 8a3e 5a93 60be d311 82bc
00000140: c754 863e 5cb5 193e be1c 45be ae3b 08bb
00000150: 76ef 7a3d 7784 f93e 0cdb 8e3e fb2d 1d3e
00000160: 7f6f 2dbe 0488 93be 9d75 3cbe 9e7e f33d
00000170: fab4 1e3e a729 9a3c f74f e73d b706 9b3e
00000180: deca 243f 3644 ae3c 5971 823e cf85 1fbe
00000190: 7b94 27bd 91c7 e03d 7978 843e 88e1 3a3e
000001a0: 6560 e3bd 375f 73be ac7c 4ebc 1510 8d3d
000001b0: 0ec7 ef3d 6d2e 9a3e 4b44 b3be 72e6 293e
000001c0: cffd c43c 478a a33e 5976 98be eb85 1cbf
000001d0: 8559 8f3d 23bc 84bd 1248 96be 6abf 8ebe
000001e0: 3646 33bf 77d7 27be 78b8 7cbe af10 003f
000001f0: e2c3 04bf 1078 42be 8503 a5be 6f43 0fbe
00000200: d025 2a3e 8580 9f3e 6aad 153e 6acf 00be
00000210: 3f9e bcbe ae55 27be d1ee e63d 3fe8 6a3e
00000220: 1106 873c a457 2f3c 96b5 98bd e4c6 673e
00000230: 79f7 1dbe 7d05 8bbe 416d 8ebe fffb efbd
00000240: 11ee b0be fb85 0f3d 4bb3 893e b4c0 93bb
00000250: e38a 793d 66aa 0fbe a887 833e b6f9 833d
00000260: 32b9 a13e 05a7 0f3e b737 72bd 5fdf 8c3d
00000270: 67b8 2fbe 4fbc 363d fc3c 7a3e b774 ef3d
00000280: f03e 20be 2851 aebe 0a71 b4bd 2e8d ccbd
00000290: 97e2 2dbd 059c e0bd 2773 b23d 62e5 a13c
000002a0: eb38 9fbe 952b f8bd ab6b 523e e660 58be
000002b0: 913e 95be 6c9f 8cbd f976 5cbe 8903 97be
000002c0: 8db5 563d 80d9 273e 8161 b03e 073a 583e
000002d0: cfa8 8e3e 90eb 733e 9fed d03e 6fe2 1abc
000002e0: b4ce 063f e1a1 03be 0b56 f23d 2dad 8dbe
000002f0: f835 b53e f42e 733e 6634 4ebe e4ad 38bd
00000300: f836 e03c a766 cabc 3e99 ccbd 798b 6fbd
00000310: cc27 a6bd b846 033d 6d41 9bbd 8721 fd3e
00000320: c5c0 e23c f75c 5cbe 3657 c23e a1ec ba3d
00000330: 9beb 78bd ace8 2e3e a23b a13e 3c43 033e
00000340: 34bb 873d 6543 45bf d921 12bf aaf0 853e
00000350: ba7e 503d c9d8 9fbd d401 aabd 3b35 7b3d
00000360: 6da6 493d 0bb8 c1bb c13f 933e b696 21be
00000370: 88d5 143e fe63 793d e3ea b2bc c823 6a3e
00000380: 1049 8eba f5a7 f8bc ef5b 50be 51f4 f43c
00000390: fda9 783e 7101 e83d 5ab1 af3e 3193 ac3e
000003a0: 173e 60be 6556 2b3e 65e9 753d 5dd4 45be
000003b0: be82 b4be 5ce0 54be 8c6d 583e c79e 693e
000003c0: d370 363e eb8d 4ebd 1fbe 2cbe b9f4 65be
000003d0: de05 903c 7fa1 bf3d 6376 013f 9770 14be
000003e0: 0407 353e 70e4 d0bd 6f74 49bf 58b4 86bc
000003f0: dc42 cebd c1a0 ab3c 9296 203c 3601 2e3d
0.48892418 0.11134973 0.038386695 0.49613813 0.38236538 0.19084403 0.07980177 0.054645386
0.23460329 -0.006634557 0.22141996 -0.14966807 0.20488572 -0.1286387 -0.024494514 -0.17142437
-0.038964354 -0.12390295 -0.06525248 -0.06647001 -0.21176375 0.0047620707 0.1926608 0.064351946
0.22018442 -0.47068074 -0.06273911 -0.11271064 0.124877535 0.026358511 -0.15508284 -0.2517182
-0.049997494 0.3015129 -0.11214074 -0.23959818 -0.295069 -0.06416523 -0.13411485 0.16467696
-0.15265065 0.062465012 -0.060137358 0.079094425 0.31154633 -0.102171525 0.123213984 0.18694104
-0.073268615 0.21422514 -0.2912936 0.12776214 0.16699007 -0.16780324 0.13446356 -0.12632915
-0.0046072863 -0.33964995 -0.092961505 -0.03990913 0.27304533 0.12967311 -0.24266337 -0.1679752
-0.17237647 -0.22052763 0.06989502 -0.02328235 -0.0062211803 0.04644295 -0.054153584 -0.114110105
-0.20811522 -0.030785758 0.15471478 -0.33537567 -0.12926863 0.26954576 -0.2193121 -0.01587764
0.26236555 0.1501059 -0.19249246 -0.0020787525 0.061263524 0.48733875 0.27901495 0.15349571
-0.16937064 -0.2881471 -0.18404241 0.11889385 0.15498725 0.01881869 0.11294549 0.3027856
0.6437205 0.02127276 0.25477102 -0.15578388 -0.040913086 0.10975564 0.25873163 0.18250096
-0.1110237 -0.2376679 -0.012602966 0.06887833 0.117078885 0.30113545 -0.3501304 0.16591814
0.024046807 0.31941435 -0.29777792 -0.6114184 0.06999496 -0.06481197 -0.2935186 -0.27880412
-0.7002901 -0.16390787 -0.24679744 0.5002546 -0.51861393 -0.18991113 -0.32229248 -0.13990568
0.16615987 0.3115274 0.14616933 -0.12579122 -0.36839482 -0.16341278 0.11276019 0.22940157
0.016482385 0.0107020475 -0.0745651 0.22634465 -0.15426435 -0.27152625 -0.2781773 -0.11717986
-0.3455663 0.035039883 0.26894602 -0.004509056 0.06092347 -0.14029846 0.25689435 0.06444113
0.31586605 0.14028557 -0.059135165 0.06878542 -0.17160188 0.04461318 0.24437326 0.116921835
-0.15649009 -0.34046292 -0.08810623 -0.099878654 -0.04245242 -0.10967258 0.0871337 0.019762699
-0.31098112 -0.121176876 0.20548885 -0.21130714 -0.29149297 -0.06866345 -0.2152976 -0.29494885
0.052419234 0.16391563 0.3444939 0.21115886 0.27863166 0.23820329 0.4080629 -0.0094534
0.52659154 -0.1285472 0.11832818 -0.27671185 0.35392737 0.2374838 -0.20137176 -0.04508771
0.027369961 -0.024707152 -0.09990166 -0.05848262 -0.081130594 0.032049865 -0.07580838 0.49439642
0.02767981 -0.21519838 0.37957162 0.09127165 -0.060771566 0.17080945 0.3149081 0.12818617
0.06627503 -0.7705596 -0.570829 0.26160175 0.050902106 -0.0780502 -0.0830113 0.06133006
0.04923098 -0.005911832 0.28759578 -0.15780148 0.1453458 0.060886376 -0.021840518 0.22865212
-0.0010855515 -0.030353526 -0.2034757 0.029901655 0.24283595 0.113284 0.34314996 0.33706048
-0.21898685 0.16732176 0.060037035 -0.19319291 -0.35255998 -0.20788711 0.21135539 0.22814475
0.17816477 -0.050428312 -0.168694 -0.22456636 0.017580923 0.09356975 0.5057127 -0.14496075
0.17678457 -0.10199821 -0.7869329 -0.016443416 -0.10071346 0.020950677 0.009801524 0.042481624

ConstantFolding/net/strided_slice_2_enter:0 f4 [13, 20]
00000000: 6a7f cd3b 7135 a63c f8b4 2f3e 2bc2 283d
00000010: ee6a 893d cf44 c0be a114 453e c388 b53e
00000020: bc13 2ebd b971 c53e 5a8f 9cbd 63e5 11bf
00000030: 8486 2e3c b12b 93be 120f 4a3e 2b2c f93e
00000040: 837f b7bd 0137 d4bc 6f2d 9f3d 5260 8dbd
00000050: 7756 543f b331 ffbc 3c63 f23d 4341 c13e
00000060: bcec a63d 65d3 c43c 0c8f 363f fc38 293d
00000070: 5039 06bd 99d1 003e 5e5c 96be f46b 63bd
00000080: 4a91 cf3c c92e 1abc 2005 bebb 3c7f 20be
00000090: c6c0 083d 1268 0bbe 921e eebd cd71 1dbd
000000a0: 6bb0 123e 8e08 c83c 1244 0f3e a962 43bf
000000b0: 9392 a3bb c3f4 c53d 41fc bdbe b64e 41be
000000c0: 70d3 bbbe bd65 cd3d 4ee2 873d e40d 343e
000000d0: aaeb 8c3d 6c3f 50be bafc 4d3c ba2e 16be
000000e0: f5c6 37bd 1bb3 073c 873b a1bd 16e8 773d
000000f0: be0f db3d 8c85 6f3b b472 8c3d bfda 06be
00000100: 3b22 013e a9a8 09be 6ba0 80bb 77a9 61be
00000110: a155 813d e3d2 eb3d b089 2b3e 6aba e83d
00000120: 94a2 233e a554 12be ac4f 8dbd a20b c53d
00000130: 7cda 0fbe b2d1 7ebc b3fc ec3d 9f0b 823e
00000140: 7bfe 29be 1e1f 49bc 5d10 debd 0d29 f2be
00000150: 9555 a03d 1173 25bb 1be1 3cbe a6c0 4dbd
00000160: 9df3 af3d ebf9 a6bd a007 c53c a497 91be
00000170: 0b19 e9bd 5a55 eb3d 9467 84be 7963 84be
00000180: e070 193c 87f5 c33d a433 2bbe c6a9 a9bd
00000190: f7b7 4fbe 4251 393e 7fdc c3be c1d1 943e
000001a0: 7763 88bc 4dfa 1f3e ffe9 54bd 1329 873e
000001b0: bd5b 40be 3e67 25be 39eb 393f 19e0 483e
000001c0: c41c e9bd e183 133e 7740 d6bd 6415 0dbe
000001d0: a5a0 e63d 93cc 893e 99dc c1be b034 e0bd
000001e0: 27e9 b4bb 82ec 153e a933 b5be 8f1a 80be
000001f0: 0aff 293f 7afa 7abd c344 2cbe ea40 913d
00000200: 6c25 7a3d a78d 4cbc 0963 6a3f 53e7 2c3e
00000210: 3059 bfbe c45b aabc 42dc 293e fecd 2c3e
00000220: d8be 4e3d 41a0 93bd 4fb2 843e fc6f c93c
00000230: b6f4 4ebf 20db cfbe ea30 d73e ed23 98be
00000240: 81c6 7c3e 83b8 5e3e 0851 b6be 07fa 4a3d
00000250: 5529 8bbd 17e4 07be 21d3 2f3e 8d34 97be
00000260: 7b14 91be 3edd b23c 43fc 123e b33d 0b3e
00000270: c683 bd3e d412 64bd 1b21 c23e e63d 133f
00000280: d19f 39be e633 b9bd 5d49 573d f556 1abf
00000290: 94c1 02be 84e1 783b 1ac6 f3be f7ea 163e
000002a0: f0d6 ccbe 3a78 5c3e 93bb 0cbd 2747 80bd
000002b0: be48 fc3d 2167 da3d da90 733d 2b7f 443e
000002c0: ed6c e03c 79a8 18bd d791 9dbe 4ff9 8c3e
000002d0: 4f52 ddbe 91f3 c53e e86f 793e c4d7 12bf
000002e0: 0c53 efbd 312d 32be 8086 2abf ea1e acbe
000002f0: 4848 5c3e 4989 5b3b b867 b13d 3c4b 093e
00000300: a656 943d 140f 15be 25d0 0fbe 3663 bd3e
00000310: f987 82bd 169f 59be 3015 06be 2fd4 a43e
00000320: 32a3 913d a8a3 d1bd b371 5a3e 135a 173c
00000330: 4d44 46be d039 47be d449 0ebf 5a25 a1bd
00000340: 3644 3ebd 657b 333e d6d2 023e d587 57be
00000350: f5ae d5ba 8216 213d 8712 02bd a893 fd3d
00000360: 9f67 a63d ae9e 1d3e 291b 8abd 187b edbd
00000370: bb17 24bf bc00 103d e1c0 41be 3811 f4bd
00000380: e90d e23d 4693 abbe 03d5 34bf 4842 aabd
00000390: 8614 06bf 7b1c 01be efe7 93bd cc18 073e
000003a0: fbdf 84be 8714 50bd 3e1b 183d c006 a6be
000003b0: b350 873d 7a5c 65bd b0a8 bbbd d2b5 abbe
000003c0: eb43 0cbe 4e51 653f 6069 8fbe 56f9 3abd
000003d0: 610e bdbe 4bc7 61be b12a 0abf 0f57 e6bd
000003e0: 05f8 a43e 42e2 4abe 7303 c8be 6f60 bd3d
000003f0: 20da b6bd 1e68 2cbe a593 743e 7efd 2bbe
0.0062712925 0.020289155 0.17158878 0.041200798 0.06709848 -0.37552497 0.1924615 0.35455903
-0.04249929 0.38563326 -0.0764453 -0.5699064 0.010652188 -0.2874427 0.19732311 0.4866651
-0.08959868 -0.025905134 0.07772338 -0.06903137 0.82944435 -0.031151628 0.11835334 0.37745103
0.08150622 0.024026582 0.7131202 0.04131411 -0.0327695 0.12579955 -0.29367346 -0.055522874
0.025337834 -0.0094105685 -0.005798951 -0.15673536 0.033386968 -0.13613918 -0.116269246 -0.038438607
0.1432511 0.024418142 0.1399081 -0.7632242 -0.0049918382 0.09665825 -0.37106517 -0.18877682
-0.36684752 0.10029171 0.06634961 0.17583424 0.06880887 -0.20336694 0.012572462 -0.14666262
-0.044867475 0.008282448 -0.07872682 0.06052407 0.10696362 0.0036548106 0.068578154 -0.13169383
0.12610714 -0.13443245 -0.0039253733 -0.22037302 0.063151605 0.11514833 0.16751742 0.11363681
0.15979987 -0.14290102 -0.06899962 0.096213594 -0.14048189 -0.015552925 0.11571636 0.2539949
-0.16600983 -0.012275485 -0.10842965 -0.47296944 0.078288235 -0.0025245587 -0.18445246 -0.050232552
0.085913874 -0.08153137 0.024051487 -0.28436005 -0.1138173 0.11490889 -0.25860274 -0.25857142
0.00936529 0.09568315 -0.16718918 -0.08284335 -0.20285021 0.18097404 -0.38254163 0.2906628
-0.016648991 0.15622826 -0.05198097 0.26398525 -0.18784995 -0.16152665 0.72624546 0.19616736
-0.1138244 0.14405777 -0.104615144 -0.13777691 0.11261109 0.2691389 -0.37863615 -0.10947549
-0.005520958 0.14641002 -0.35390976 -0.25020263 0.66404784 -0.06127403 -0.16823106 0.070924595
0.061070845 -0.012484944 0.91557366 0.16885118 -0.37372732 -0.02079571 0.16587928 0.16875455
0.05047497 -0.072083004 0.2591729 0.024589531 -0.8084215 -0.40596867 0.42029506 -0.2971491
0.24685098 0.21750073 -0.35608697 0.04955485 -0.06794993 -0.13270603 0.17170383 -0.2953228
-0.28335938 0.021834012 0.14354043 0.13597755 0.37014598 -0.05568202 0.37915882 0.57516325
-0.18127371 -0.09043102 0.0525602 -0.60288936 -0.12769157 0.0037976215 -0.47612077 0.1473807
-0.40007734 0.21530238 -0.034358572 -0.06263571 0.12318562 0.106642015 0.059464313 0.19189136
0.02739569 -0.037270043 -0.3077533 0.27533957 -0.4322686 0.3866239 0.24359095 -0.5736048
-0.11685762 -0.17400052 -0.6661148 -0.33617336 0.21511948 0.0033498576 0.08662361 0.13407606
0.072430894 -0.14556533 -0.14044245 0.36989754 -0.06373591 -0.21252093 -0.1309402 0.32193133
0.07111205 -0.10236293 0.21332435 0.009237784 -0.19361992 -0.19455647 -0.555814 -0.07868452
-0.04645177 0.1752754 0.1277574 -0.2104791 -0.0016302752 0.039328106 -0.03175595 0.12381679
0.08125233 0.15392563 -0.06743462 -0.11595744 -0.6409871 0.03515695 -0.18921234 -0.11917347
0.110378094 -0.33510798 -0.7063753 -0.083134234 -0.52375066 -0.1260852 -0.07221972 0.13193053
-0.25952134 -0.050800826 0.037135355 -0.32427025 0.06607189 -0.055996396 -0.09163034 -0.33537155
-0.13697784 0.89577186 -0.28010082 -0.04564794 -0.36925033 -0.2204868 -0.5397139 -0.11247074
0.32220474 -0.19812873 -0.39065132 0.09246909 -0.08928323 -0.16836593 0.23884447 -0.16795918

ConstantFolding/net/strided_slice_1_enter:0 f4 [20, 20]
00000000: edf1 c43d d930 a63e b32c bbbd d7a3 e0bc
00000010: 9e64 603e 2bb3 093e 2891 833e 3502 20bd
00000020: dc92 aebb 1202 f3ba ad00 5dbd abb4 ac3e
00000030: 8ef7 a63e 33dc 9c3c 6af2 003e 847e 0b3e
00000040: dc7e 793e 66db d83d 4bcb 443e 92bb a4bd
00000050: e850 a6be 91ad 103e a202 c0bd d186 70be
00000060: 4d1f a9bd 417f 60bd feab 7d3e 912a 6cbd
00000070: 3756 833e ac17 043d ad2d 2e3e dcd9 29be
00000080: 1782 823d 63a3 243e 9018 0fbe 8a88 e43c
00000090: 4a13 09bf a059 e63b 6975 85bc d562 cf3d
000000a0: 2931 133e 26ec d83e 7021 19be 8794 ad3e
000000b0: f1f1 503e 07b9 03be cef0 383d 84ad e4bd
000000c0: d79a 1f3e 337d b7bd 3ca9 8a3d ad10 93be
000000d0: f3a1 b13e d92b 85bd 8e92 3bbe 8d30 89be
000000e0: 802c a2bb 4930 0abe 823d 00be 0fff 8e3e
000000f0: 54b2 063e 809f 4cbd 57ef 85be 374f f3bd
00000100: ff28 fc3d 9d00 33bd a64b f13c 4592 90bd
00000110: de61 d33e 4c8e 813d ac21 443e d83e 1fbe
00000120: 9295 ee3d bc3e fdbc 3f2f 79be d9a2 c03d
00000130: 7bdf fb3d 0e07 22be f19e 893d ae90 9bbe
00000140: 6140 c13e a5ef c1bd 03be 993d af0b 23bd
00000150: 8edd f1bd aafb 913d 5a03 a6be 8c62 0c3e
00000160: 98e1 71be fa1f c7be 0a70 f13d fed5 f83b
00000170: 8fcf 943b 410a a43d d61f 27bd e409 d33d
00000180: 76ab 4bbd 1ac3 ea3c 85fe aebe de91 8e3e
00000190: 17e1 e1bb 4980 10bd 89be b2bd 9150 c5be
000001a0: cb5a 8fbd 7e52 623d 27ce 193c d1f0 9abd
000001b0: c1a6 7b3d a2b2 8dbe fd45 1b3d ac35 b5bc
000001c0: c5b4 4cbe 781d 82be 811e e9bd 0b75 263e
000001d0: d504 8a3c e36d 71be 394f 163d 0ff9 5abe
000001e0: 520f 2ebd 609f 613e c20c 3f3d 0ce1 553d
000001f0: 5751 b7bd 1d71 803e 8af1 b83d b4be bcbe
00000200: 1851 5dbc b588 3b3e 6081 fa3d 7cfd f4bc
00000210: 3696 d1be 1d57 c53d acb8 7e3e 8b98 b73e
00000220: 9279 bb3e 5b50 97be 6f28 3d3c ecc4 ac3e
00000230: 45a6 673d 6b24 6abd a8e9 373e c83d 843d
00000240: d720 36be 54fd 853d b418 70be 6031 c03e
00000250: d2dd 13bc 7916 8ebd 27cb 9abe af60 093d
00000260: 8d0b 8dbc 579f b83d 3020 b73e 01d3 173e
00000270: 61f9 9fbc 45e0 0e3e 6036 e53d d347 d3bd
00000280: d526 abbc 9785 f5be f821 613d a111 313e
00000290: 4467 733e a9b1 aa3b 2ae1 853d ef41 4fbc
000002a0: 1b58 34bd d37a e53d dfce ee3d 2564 c23e
000002b0: 142a ccbe 74f5 cfbd 6dc8 60bd 255b e0bd
000002c0: 2d86 91bd 8701 12be fe44 2d3e b2dc 32bb
000002d0: 80e8 323d 80fa 04be a0b3 573d 1248 cf3d
000002e0: 4195 60be 63b5 203d b7bc a9be 5085 1c3e
000002f0: 7859 423e e5bd 06be 9120 233d c366 30be
00000300: 85ad a93c 478e 1ebf dad5 ccbe 614b 56be
00000310: 3856 f3bd 4a31 7b3d 70a3 c4bc 9fa8 793e
00000320: 6c7f 47bb ca86 323d 76e5 ef3e df87 2e3e
00000330: 44c6 c2be 81cd b43b 4ffe 443e 0a1c f33a
00000340: c099 6c3e 6dbb 0d3c d0f8 1e3e 0022 3fbe
00000350: b7fd 4dbd 11ea 8e3e 0188 013f ae35 55be
00000360: dd12 943e 777a ec3d 1b65 9dbc a0fd ab3d
00000370: e239 9c3d d671 f2bd 0328 843d 7d3e d83e
00000380: 8107 20bc 8b6b a4bd 395e 423d ec56 77bd
00000390: b3a0 4f3d a991 b03d 91c3 03be 4e49 bc3e
000003a0: fcc2 0cbe a0e3 4bbd 9c54 c43d 42b8 93be
000003b0: 95ee 893e f8ba 07be 78f4 b4bd 3fef 3f3e
000003c0: 1bbb 7dbd 4133 d13d fae5 c23d df1b 06bf
000003d0: b038 12be 5c1e d33d 541b 933d cd7f 85bd
000003e0: b32d e3be b17c a43c 8fff 00bf 2f59 733d
000003f0: ec72 0c3d 7781 abbb ee59 00be 31c2 59bc
0.09616456 0.32459143 -0.09139385 -0.027421875 0.21913382 0.13447253 0.25696683 -0.039064605
-0.0053275656 -0.0018540046 -0.053955723 0.3373159 0.32610744 0.019147968 0.12592474 0.1362248
0.243648 0.10588722 0.19218175 -0.08043589 -0.32483602 0.1412871 -0.09375502 -0.23488928
-0.08257923 -0.05480886 0.24772641 -0.057657782 0.25651714 0.032249138 0.17009611 -0.16587013
0.06372469 0.16077952 -0.13974214 0.027897138 -0.5354506 0.007029727 -0.016291337 0.101262726
0.14374222 0.42367667 -0.14954162 0.3390238 0.20404793 -0.12863551 0.045151524 -0.11165908
0.1558641 -0.08959427 0.0677056 -0.2872366 0.3469387 -0.06502504 -0.18317625 -0.26794854
-0.0049491525 -0.13494982 -0.12523463 0.2792897 0.13153964 -0.0499568 -0.26159164 -0.118803434
0.12312507 -0.043701757 0.029455017 -0.07059149 0.41285604 0.06325969 0.1915347 -0.15551317
0.11649622 -0.030913703 -0.24334429 0.09406061 0.12298485 -0.15823004 0.06719769 -0.3038382
0.3774443 -0.09469537 0.07506945 -0.039806064 -0.11809836 0.07128079 -0.32424432 0.13709468
-0.23621213 -0.38891584 0.11788948 0.007593869 0.0045413445 0.08009768 -0.040801845 0.10304621
-0.049724065 0.028657485 -0.34178558 0.27845663 -0.006893288 -0.035278592 -0.08727748 -0.3853803
-0.06999739 0.055254452 0.009387529 -0.07565463 0.061438326 -0.2767535 0.037908543 -0.02212032
-0.19990833 -0.25413108 -0.11382771 0.16255586 0.016848007 -0.23577075 0.036696646 -0.21384071
-0.04249508 0.22033453 0.046643026 0.052216575 -0.08951061 0.250863 0.09030445 -0.36864245
-0.013508104 0.18313868 0.122317076 -0.029906027 -0.40934914 0.09635756 0.24875134 0.3585857
0.36616188 -0.29553494 0.011545285 0.3374399 0.05655505 -0.057163637 0.17960227 0.06457096
-0.17785965 0.06542459 -0.23446923 0.3753767 -0.009025054 -0.0693788 -0.30233118 0.03353947
-0.017217422 0.09014767 0.35766745 0.14826585 -0.019528093 0.1395274 0.11192012 -0.10316434
-0.02089254 -0.47953483 0.054964036 0.17291881 0.23769861 0.005209167 0.06537087 -0.012649997
-0.044029336 0.112050675 0.11660551 0.3796703 -0.39875853 -0.10154238 -0.05487864 -0.109548844
-0.0710567 -0.14258395 0.1692085 -0.002729219 0.04367876 -0.12986183 0.052661538 0.10121168
-0.21931936 0.039235484 -0.3315179 0.1528523 0.18979442 -0.13158377 0.03982598 -0.172267
0.020712623 -0.6193585 -0.40006906 -0.20927192 -0.11881679 0.061326303 -0.024003714 0.2438073
-0.003044094 0.043585576 0.46854752 0.17044018 -0.3804189 0.005517662 0.19237636 0.0018547785
0.23105526 0.008650643 0.15524602 -0.18665314 -0.05029079 0.27912953 0.5059815 -0.20821258
0.28920642 0.11546796 -0.01921325 0.083979845 0.07628228 -0.11838119 0.06452944 0.42235175
-0.009767414 -0.08028325 0.04745314 -0.06038563 0.050690364 0.086215325 -0.12867571 0.36774677
-0.13746256 -0.049777627 0.095864505 -0.28851515 0.26939836 -0.13254917 -0.08835691 0.18743609
-0.061946016 0.10214854 0.09516521 -0.5238628 -0.14279437 0.10308525 0.07182947 -0.06518517
-0.44370803 0.020078989 -0.5038995 0.059411224 0.034289286 -0.0052339393 -0.12534305 -0.013290928
