wakewords/en/jarvis.onnx (onnx, 15092 bytes, 10 tensors)

dense_1/kernel/read:0 f4 [20, 1]
0	0xbf130cb5	-0.57441264
1	0x3e092c36	0.13395771
2	0xbe7ddbab	-0.24790828
3	0xbe30268a	-0.17202201
4	0x3f0ab880	0.54187775
5	0xbe600c60	-0.2187972
6	0xbef469e4	-0.47737038
7	0xbee23a21	-0.44184974
8	0xbf0c178c	-0.5472343
9	0x3ee6f497	0.45108482
10	0xbd7e6941	-0.062112097
11	0x3eb359fa	0.35029584
12	0x3ed6ef4f	0.41979453
13	0xbe8ae057	-0.27124283
14	0xbef7ffa4	-0.48437226
15	0xbeac415f	-0.33643624
16	0x3e800ee0	0.2501135
17	0xbee90de7	-0.4551842
18	0x3f060406	0.5234989
19	0x3f08e4c0	0.53474045

ConstantFolding/net/strided_slice_enter:0 f4 [13, 20]
0	0xbe7de10f	-0.24792884
1	0x3e9c200a	0.30493194
2	0x3c970859	0.018436598
3	0x3d3abef6	0.04559227
4	0x3d0f339e	0.034961335
5	0xbc978ab6	-0.01849876
6	0x3cf4cfcd	0.029884243
7	0xbe09a062	-0.13440087
8	0x3d9a5052	0.07534851
9	0x3e497919	0.19675101
10	0x3d82590c	0.063646406
11	0xbdbce82b	-0.0922397
12	0xbd9ed488	-0.07755381
13	0xbda4ab6e	-0.0804051
14	0xbc1c7f27	-0.0095518
15	0xbe155df2	-0.14586619
16	0x3e16ec52	0.14738587
17	0xbe47a886	-0.1949788
18	0xbe53e962	-0.20694497
19	0x3e2544ee	0.16139576
20	0x3dccf0aa	0.100068405
21	0xbdd08b91	-0.1018287
22	0x3d4acb72	0.049510427
23	0x3e33969c	0.17537922
24	0x3e4ee9f5	0.20206435
25	0xbdfbc63f	-0.12293672
26	0x3d8529d8	0.06502122
27	0x3d0ff00b	0.035141032
28	0x3db6a3b8	0.089179456
29	0xbe5a2ccb	-0.2130615
30	0xbec5b768	-0.3861649
31	0xbe29f3b3	-0.1659687
32	0x3e5d4460	0.21608114
33	0xbd902b36	-0.07039492
34	0xbdea87cc	-0.114516824
35	0x3e661b4b	0.22471349
36	0x3e5cdc3c	0.21568388
37	0xbdae3d05	-0.08507732
38	0xbdb4f2ca	-0.08835371
39	0xbd619fca	-0.055084027
40	0x3d94e7eb	0.07270797
41	0xbd938089	-0.072022505
42	0x3d980cf4	0.074243456
43	0xbe49e536	-0.19716343
44	0x3cbac77b	0.022800198
45	0xbd42fe50	-0.047605813
46	0x3eb02519	0.34403303
47	0xbdd324ef	-0.10309779
48	0x3ee834ce	0.45352787
49	0x3e13b43b	0.14424221
50	0xbe917fce	-0.2841782
51	0xbd6575ec	-0.056020662
52	0xbba3bd28	-0.0049969144
53	0xbe6902ea	-0.22755018
54	0x3dbfdb3f	0.0936799
55	0xbdf7273e	-0.12068032
56	0x3d7cf6cb	0.061758798
57	0x3e35c436	0.1775063
58	0x3e0cdb6b	0.13755576
59	0x3e1e5e9d	0.1546578
60	0x3e56ea1a	0.2098774
61	0x3d7d743f	0.06187844
62	0x3e854e39	0.26036242
63	0xbed04bd1	-0.40682843
64	0xbdf9bdca	-0.121944025
65	0xbd99a533	-0.075022124
66	0xbe0355a4	-0.12825638
67	0xbe5c83c4	-0.2153464
68	0xbdb4de45	-0.08831457
69	0x3de92277	0.11383527
70	0x3e128a8c	0.14310664
71	0x3d872059	0.06597967
72	0x3e8a7a09	0.2704623
73	0xbe3bb5e6	-0.18331107
74	0x3e83790f	0.25678298
75	0x3e3ff981	0.18747522
76	0xbae2ba2b	-0.0017297914
77	0x3e41212c	0.1886031
78	0x3ec2c778	0.38042808
79	0xbea34380	-0.31887436
80	0xbe538da2	-0.20659497
81	0xbe04cf15	-0.1296962
82	0xbde062ab	-0.109563194
83	0x3dfe09d3	0.124042176
84	0x3e9e440c	0.3091129
85	0x3e81926e	0.2530703
86	0xbeb098de	-0.34491628
87	0x3da72796	0.08161847
88	0xbdf93df9	-0.121700235
89	0x3e9a358f	0.30118987
90	0xbe983bfb	-0.2973326
91	0x3e00a5d0	0.12563252
92	0xbcf11ebd	-0.029433602
93	0x3ef0649e	0.46951765
94	0xbce2b84e	-0.027675774
95	0x3e31978e	0.1734297
96	0x3e85934c	0.2608894
97	0x3d0d81ca	0.034547605
98	0x3d8b7614	0.06809631
99	0x3eaf43fd	0.34231558
100	0x3de2821b	0.11059972
101	0xbdadadc0	-0.08480406
102	0xbc1443a9	-0.009049335
103	0x3dcb4d03	0.09926798
104	0xbe1d6b8e	-0.1537306
105	0xbe9b5395	-0.30337206
106	0xbe108afc	-0.14115518
107	0xbb022a74	-0.001986173
108	0x3e1458d3	0.14487009
109	0xbe28f53b	-0.16499798
110	0x3e95d4d7	0.29263946
111	0x3e9a7508	0.30167413
112	0xbd3f592c	-0.0467159
113	0x3c0f7bc2	0.0087575335
114	0xbe9835a0	-0.29728413
115	0xbe666cab	-0.22502391
116	0x3e68da67	0.22739564
117	0xbdec19e5	-0.115283765
118	0xbca9da5a	-0.020734001
119	0xbe8aaaed	-0.2708353
120	0x3e3395cb	0.1753761
121	0x3d52cf9b	0.05146752
122	0xbe881309	-0.26577023
123	0xbe4016e8	-0.18758738
124	0xbe2ac0de	-0.16675135
125	0x3e9bf106	0.30457324
126	0xbe0f534b	-0.13996617
127	0xbe075a61	-0.1321807
128	0xbe00b2a4	-0.12568146
129	0x3e1c491f	0.15262268
130	0xbbc40b06	-0.0059827594
131	0xbd8cb902	-0.06871225
132	0x3ca5b19a	0.020226289
133	0xbe6efe7c	-0.23339266
134	0xbca595b2	-0.020212982
135	0x3e04064b	0.12893026
136	0x3e829f01	0.25511935
137	0x3cc81ca3	0.024427718
138	0xbd29bda7	-0.041440632
139	0x3e41e8de	0.18936488
140	0xbd6b908d	-0.0575109
141	0xbe826079	-0.25464228
142	0x3d0acbf3	0.033885907
143	0x3ce93bf2	0.028470967
144	0xbda00049	-0.078125544
145	0x3e2d586b	0.1692826
146	0x3da2bf2a	0.07946618
147	0xbdd378fc	-0.1032581
148	0x3e16178b	0.14657418
149	0xbdea28f0	-0.114335895
150	0x3eb60d66	0.35557097
151	0x3e02b185	0.12763031
152	0x3e1ffbe3	0.15623431
153	0x3e25bdac	0.16185635
154	0xbe1a0769	-0.15041889
155	0x3e8bc350	0.2729745
156	0x3e923f85	0.28564087
157	0xbe833eb9	-0.2563379
158	0x3ec5bb25	0.38619342
159	0x3db099e2	0.08623101
160	0x3d8d0bf0	0.068870425
161	0x3e948020	0.29004002
162	0xbe0216ca	-0.12704006
163	0x3d5d15bb	0.053975802
164	0x3cbd38d9	0.023098396
165	0x3dfbb899	0.122910686
166	0xbdfb026c	-0.12256321
167	0x3e4a12db	0.19733755
168	0xbe413a81	-0.18869974
169	0xbdffd20f	-0.12491237
170	0x3e5aa0a6	0.21350345
171	0x3da2639a	0.07929154
172	0xbe8e2732	-0.2776428
173	0x3e3f3a5d	0.18674608
174	0xbc4b65a5	-0.012414371
175	0xbdd5e3fd	-0.10443876
176	0x3e45b6a5	0.19307955
177	0xbe36307f	-0.17791937
178	0x3d8f84e2	0.07007767
179	0xbd73d846	-0.059532426
180	0x3c7bf223	0.015377554
181	0x3e8b67fd	0.27227774
182	0xbe8c84ad	-0.27444974
183	0xbd127d78	-0.035764188
184	0x3e0c3c37	0.13694845
185	0x3e4ae656	0.19814429
186	0xbe2be245	-0.16785534
187	0x3df37461	0.11887432
188	0xbe304f8b	-0.17217843
189	0xbda8f89f	-0.08250546
190	0x3d6ae866	0.05735054
191	0x3e575588	0.21028721
192	0xbe2121ea	-0.15735593
193	0xbd7d4cb4	-0.061840728
194	0xbd7ab64a	-0.061209
195	0x3dbd9717	0.09257334
196	0xbe0609ac	-0.13089627
197	0x3e0af112	0.13568524
198	0x3e8a761d	0.27043238
199	0xbe3cfa43	-0.18454842
200	0x3eb901c8	0.3613417
201	0x3d2154f9	0.039387677
202	0x3bfde8a8	0.007748682
203	0x3e75a939	0.23990335
204	0x3e38f470	0.18061996
205	0xbe034592	-0.12819508
206	0xbd8b4ea6	-0.068021104
207	0xbd840b23	-0.06447437
208	0x3e96250e	0.29325145
209	0xbceb2d77	-0.028708203
210	0xbe0773f6	-0.1322783
211	0x3b41a3e6	0.0029547154
212	0xbcc07b36	-0.023496252
213	0x3e0027e6	0.1251522
214	0xbda78771	-0.0818013
215	0x3ca32437	0.01991473
216	0xbe228969	-0.1587273
217	0xbe6c2889	-0.23062338
218	0x3e431460	0.19050741
219	0xbc50f44d	-0.012753558
220	0xbd994207	-0.07483297
221	0x3e6a3c38	0.22874534
222	0xbe556ef3	-0.20843105
223	0xbbf8c55e	-0.0075918874
224	0xbe0b7067	-0.13617097
225	0x3db7c969	0.08973963
226	0xbd2e6df4	-0.04258533
227	0xbe2c0720	-0.16799593
228	0x3c3751a5	0.011188899
229	0xbcf32627	-0.029681278
230	0x3e6da04d	0.23205681
231	0xbd5aad44	-0.053387895
232	0x3c224bdf	0.009905784
233	0x3c86ea31	0.016469093
234	0xbe760ae3	-0.2402759
235	0xbcd7c0fc	-0.02633714
236	0xbdd3a256	-0.103336975
237	0x3c341d16	0.010993263
238	0x3b9610ac	0.004579624
239	0x3e3c38de	0.18381068
240	0x3e1e6e15	0.1547168
241	0x3d420028	0.04736343
242	0x3e8285fd	0.2549285
243	0xbe3f47b2	-0.18679693
244	0x3e8b5f19	0.2722099
245	0x3dd75b67	0.105154805
246	0xbd5184e8	-0.05115214
247	0xbc012a59	-0.007883632
248	0xbd6d4d3e	-0.057934992
249	0x3e701d43	0.23448662
250	0x3dff2af3	0.12459364
251	0x3eb3126b	0.3497499
252	0xbe52177a	-0.20516768
253	0xbe853358	-0.26015735
254	0x3ca6a306	0.020341408
255	0x3e1df764	0.15426403

ConstantFolding/net/strided_slice_8_enter:0 f4 [20]
0	0x3ddb70c3	0.10714867
1	0xbdbfc2b3	-0.09363308
2	0x3dc71333	0.09720459
3	0xbda0cf25	-0.0785201
4	0xbe047f30	-0.12939143
5	0x3d069f91	0.032867018
6	0x3dc2052f	0.09473645
7	0x3d9cb9c5	0.0765262
8	0x3d9328ea	0.07185538
9	0xbe21cd17	-0.15800892
10	0x3d10c045	0.035339613
11	0xbcf15126	-0.02945764
12	0xbd8d6a67	-0.0690506
13	0x3d867ccd	0.065667726
14	0x3dd42f61	0.10360599
15	0xbd314415	-0.04327782
16	0x3dc2deee	0.09515177
17	0x3d862b01	0.06551171
18	0xbda532b3	-0.08066311
19	0xbe008059	-0.12548961

ConstantFolding/net/strided_slice_7_enter:0 f4 [20]
0	0xbd1f20fe	-0.038849823
1	0x3c53dba5	0.012930785
2	0x3ca0d069	0.019630628
3	0x3b3b2c6a	0.0028560408
4	0xbd38e3d7	-0.04513916
5	0xbd3d3150	-0.046189606
6	0x3dde7831	0.108627684
7	0x3e1034c6	0.14082631
8	0x3ddf920b	0.10916527
9	0x3defed93	0.117152356
10	0x3d81cab2	0.06337489
11	0x3d2e0f5b	0.042495113
12	0x3d4d54cc	0.050129697
13	0x3e2df042	0.16986182
14	0x3dd81f62	0.10552861
15	0x3db7ec84	0.08980659
16	0x3d9d26aa	0.0767339
17	0x3b7362dd	0.0037137785
18	0x3dbfecb4	0.093713194
19	0x3b2cf1dd	0.002638928

ConstantFolding/net/strided_slice_6_enter:0 f4 [20]
0	0xbcf61613	-0.030039823
1	0xbde5cac5	-0.11220316
2	0x3d5ee7fe	0.054420464
3	0xbd222fed	-0.039596487
4	0xbd0c32a8	-0.034227997
5	0xbd0c342d	-0.034229446
6	0x3c70642d	0.014672321
7	0x3d08a73b	0.03336261
8	0x3d23e430	0.04001254
9	0xbcb42ab6	-0.021993022
10	0xbd8f27a5	-0.069899835
11	0x3cc09de6	0.023512792
12	0x3bd7eeac	0.006589731
13	0x3c35d7c2	0.011098804
14	0x3c47897b	0.012178774
15	0xbd158a60	-0.036508918
16	0xbd318080	-0.043335438
17	0x3c90e5f7	0.01768778
18	0xbdc7c29b	-0.09753915
19	0x3ceb02ce	0.02868786

ConstantFolding/net/strided_slice_5_enter:0 f4 [20, 20]
0	0xbda0e2df	-0.07855772
1	0x3cbe93e6	0.023263883
2	0x3e03531b	0.12824671
3	0x3e1389ad	0.14407988
4	0xbe8011a4	-0.2501346
5	0x3e5ed0a9	0.21759285
6	0x3e2f9677	0.17147242
7	0xbe0a6996	-0.1351684
8	0x3d89447d	0.06702516
9	0xbe33b050	-0.17547727
10	0x3e04a9b8	0.12955368
11	0x3e28c62c	0.16481847
12	0xbc2a9351	-0.0104110995
13	0x3e842f0f	0.25817153
14	0x3e919a65	0.28438106
15	0x3df02200	0.11725235
16	0x3db1cf5e	0.0868213
17	0xbd56ccc6	-0.05244138
18	0x3cfb80d3	0.030701077
19	0x3c4ca57f	0.012490629
20	0x3d15f0bf	0.036606546
21	0x3e5a3cae	0.2131221
22	0x3c994ab3	0.018712377
23	0xbe8b87da	-0.27252084
24	0x3deb91fd	0.115024544
25	0xbc95e18b	-0.018296024
26	0xbde2023b	-0.11035582
27	0xbc401e50	-0.011725977
28	0x3df55226	0.11978559
29	0x3e5913c0	0.2119894
30	0xbdfcc535	-0.12342302
31	0x3db9689b	0.09053155
32	0xbe0ac7cf	-0.13552783
33	0xbeb55783	-0.3541833
34	0x3d6b62de	0.057467334
35	0x3e6b5012	0.22979763
36	0x3dd83aee	0.10558115
37	0xbe0a89b8	-0.13529098
38	0x3af38fcd	0.0018582285
39	0x3daf16e1	0.08549286
40	0xbda56b19	-0.08077068
41	0xbe15cca7	-0.1462885
42	0x3e5f3700	0.21798325
43	0x3e3417b6	0.1758717
44	0xbe6d06a0	-0.23147058
45	0x3da3689f	0.07978939
46	0x3dd89a91	0.10576356
47	0x3ebc8803	0.3682252
48	0x3bc4c012	0.006004342
49	0x3ddcf534	0.10788956
50	0xbd6b7220	-0.057481885
51	0x3e1c1144	0.15240961
52	0xbe1c5804	-0.1526795
53	0x3ba0e867	0.004910517
54	0xbd948e1c	-0.07253668
55	0xbd061e3f	-0.03274369
56	0x3e074c27	0.13212644
57	0x3dc8702b	0.09787019
58	0xbe227e4f	-0.15868495
59	0xbd4dd27f	-0.050249573
60	0xbbeb648d	-0.0071836174
61	0xbcca9a34	-0.024731733
62	0xbe82ee87	-0.25572607
63	0x3ec86342	0.39138228
64	0xbc8eaa97	-0.017415328
65	0x3e244137	0.16040502
66	0xbe5dd26b	-0.216623
67	0xbdbf15b5	-0.09330312
68	0xbe3c4c41	-0.18388464
69	0x3dd8cd1a	0.10585995
70	0x3e03a0cc	0.12854308
71	0x3e02529f	0.1272683
72	0xbe51d309	-0.2049066
73	0x3e6b174b	0.22958104
74	0xbe04b86c	-0.12960976
75	0x3e5d105f	0.21588276
76	0x3e89998e	0.26874965
77	0x3d19e3fd	0.037570942
78	0xbd38107c	-0.044937596
79	0x3e34092c	0.17581624
80	0xbe85a1ae	-0.26099914
81	0x3dea9fae	0.11456238
82	0xbdd218a9	-0.1025861
83	0xbcf5ee63	-0.030020898
84	0x3ebf62e7	0.37380144
85	0xbdef4788	-0.116835654
86	0x3d0ff7ef	0.035148557
87	0xbd212694	-0.03934343
88	0x3e8f8c34	0.28036654
89	0x3e4f58f9	0.20248784
90	0x3e0360ce	0.12829897
91	0xbc8bc1ed	-0.017060244
92	0x3e4d2d6a	0.20036855
93	0xbb92b891	-0.0044775684
94	0x3d0da24a	0.0345786
95	0x3dd3270d	0.10310183
96	0x3e33f6c7	0.17574607
97	0xbea87372	-0.32900578
98	0x3ddda465	0.108223714
99	0x3d668788	0.056281596
100	0xbd815657	-0.06315296
101	0xbdb36731	-0.087599166
102	0xbe558106	-0.2085
103	0xbe2edf3c	-0.17077345
104	0x3c074e96	0.008258482
105	0xbd858c46	-0.06520896
106	0x3df7c36d	0.120978214
107	0xbde8fa82	-0.113759056
108	0xbe1c7373	-0.15278415
109	0x3d5cd9a4	0.053918496
110	0xbd48ffb4	-0.049071983
111	0x3cd42993	0.02589873
112	0xbd4136e3	-0.047171485
113	0x3d42dd95	0.0475746
114	0x3d108f00	0.035292625
115	0x3d0f3f7f	0.034972664
116	0x3d62a4b2	0.055332847
117	0x3dbc3688	0.091900885
118	0x3e8c8dae	0.27451843
119	0xbd894a24	-0.06703594
120	0x3e991d8e	0.2990536
121	0xbeba1978	-0.36347556
122	0x3df65901	0.12028695
123	0xbc73a88b	-0.014871727
124	0xbd6deb8c	-0.058085963
125	0x3da263be	0.079291806
126	0x3e841041	0.2579365
127	0x3d783263	0.060594928
128	0x3dd41129	0.103548355
129	0xbe8e95f9	-0.27848795
130	0x3c2ec64c	0.010667395
131	0xbdae3007	-0.08505254
132	0xbe8aec8b	-0.27133593
133	0xbca5a15b	-0.020218542
134	0xbc308527	-0.0107739335
135	0x3ea1b12d	0.31580487
136	0xbbcae9b4	-0.0061924104
137	0x3e84ee5b	0.259631
138	0xbe437f2c	-0.19091481
139	0xbe6dc66f	-0.23220228
140	0x3e696715	0.22793229
141	0x3e187111	0.14886881
142	0xbcc31732	-0.023814771
143	0x3ec9986b	0.39374098
144	0xbe056ed7	-0.13030563
145	0x3cb84b91	0.02249697
146	0x3d96a637	0.07355922
147	0x3dc28bf9	0.09499354
148	0xbc7f0289	-0.015564569
149	0x3e1efed8	0.15526903
150	0xbdaa60a0	-0.08319211
151	0xbeb76573	-0.35819587
152	0xbe7ad16b	-0.24493949
153	0xbdf8abcf	-0.12142145
154	0x3ded8ac8	0.11598736
155	0x3cb58edd	0.02216285
156	0x3b80da61	0.003932283
157	0x3d422c9e	0.04740583
158	0x3d948cd7	0.072534256
159	0x3df3a0ec	0.11895928
160	0x3cac46ea	0.021029908
161	0xbd283216	-0.04106339
162	0x39473530	0.00018997933
163	0x3ed9c27a	0.42531186
164	0x3d8100d3	0.06298985
165	0x3e373259	0.178903
166	0x3e8f3a77	0.27974293
167	0x3e6d6b96	0.23185572
168	0xbe612bb7	-0.21989332
169	0xbe916cb2	-0.2840324
170	0xbe8564be	-0.26053423
171	0x3dc342b3	0.09534206
172	0x3d618c4c	0.05506544
173	0xbd175381	-0.03694487
174	0x3d9f3b51	0.077749856
175	0xbe150828	-0.14553893
176	0xbdcd4ab3	-0.10024013
177	0xbdc3f93c	-0.09569022
178	0xbc82382d	-0.015895927
179	0xbe0fafab	-0.14031856
180	0xbd5fe0ec	-0.05465786
181	0x3e21f621	0.15816547
182	0xbe084246	-0.13306531
183	0xbdd29c2e	-0.10283695
184	0x3e955bb9	0.2917154
185	0x3e6b65a6	0.22987995
186	0x3c45233c	0.012032326
187	0xbd0de343	-0.03464056
188	0x3e9191cf	0.28431556
189	0x3d37005a	0.04467807
190	0x3c1b86d7	0.009492598
191	0xbe5abece	-0.21361849
192	0x3dc04d31	0.09389723
193	0x3bdf389a	0.0068121674
194	0xbd028806	-0.031868003
195	0x3df938f6	0.121690676
196	0xbe383a87	-0.17991076
197	0x3da66279	0.08124251
198	0x3cb3d472	0.021951888
199	0x3d38bed5	0.045103867
200	0x3e90dab5	0.2829186
201	0x3e2c36d8	0.16817796
202	0x3dfa8a89	0.12233455
203	0xbdae27f8	-0.08503717
204	0x3d4144a1	0.04718459
205	0x3d72376f	0.059134897
206	0x3e88c87f	0.26715466
207	0x3e801fa3	0.25024137
208	0x3c09d230	0.008411929
209	0x3dcda818	0.10041827
210	0x3e4af39b	0.1981949
211	0x3d396a28	0.045267254
212	0xbde8770e	-0.11350833
213	0xbe92576c	-0.28582323
214	0x3e258049	0.16162218
215	0xba8dfd35	-0.0010832908
216	0x3d242631	0.040075485
217	0x3e41f31c	0.18940395
218	0xbed15fc3	-0.40893373
219	0x3e46d9d4	0.19419032
220	0xbd1cc963	-0.038277995
221	0xbe6de44b	-0.23231618
222	0x3e290d6e	0.1650903
223	0x3dd7816f	0.105227344
224	0xbd305a5b	-0.04305492
225	0x3e74b570	0.23897338
226	0xbe7f04ac	-0.24904126
227	0x3d252b9d	0.040324796
228	0xbd06acac	-0.032879516
229	0xbe1e1f11	-0.15441538
230	0xbd3d42ba	-0.046206214
231	0xbcedee7f	-0.029044388
232	0xbdcda489	-0.10041148
233	0x3ec3dfbf	0.38256642
234	0xbe5c7603	-0.21529393
235	0x3e07de83	0.13268475
236	0x3e6df6ea	0.23238721
237	0x3e55a169	0.20862354
238	0xbd5dc119	-0.05413923
239	0xbe87f5e2	-0.2655478
240	0x3decc593	0.11561122
241	0xbe051f98	-0.13000333
242	0xbe01868c	-0.12648982
243	0xbe04589b	-0.12924425
244	0x3e56114a	0.20905033
245	0x3dca4c1d	0.09877799
246	0x3d8182d5	0.06323782
247	0xbd01273f	-0.03153157
248	0xbe486772	-0.19570711
249	0x3da907c1	0.08253432
250	0x3e0334fd	0.12813182
251	0x3c3293e4	0.010899518
252	0xbba00247	-0.004883084
253	0x3dabc23a	0.08386655
254	0x3c8eed1f	0.017447053
255	0x3d481433	0.04884739

ConstantFolding/net/strided_slice_4_enter:0 f4 [13, 20]
0	0xbe596a70	-0.21232009
1	0xbdfae0b1	-0.12249888
2	0x3e652de0	0.22380781
3	0x3e5b208c	0.21399134
4	0xbcdb8024	-0.0267945
5	0x3e84a359	0.25905874
6	0xbe67bb51	-0.2263005
7	0x3dc2069d	0.09473918
8	0xbe3e621d	-0.18592115
9	0xbdfc80dd	-0.12329266
10	0xbe8d131d	-0.27553645
11	0xbdf7d12c	-0.12100443
12	0x3dfcc230	0.12341726
13	0x3ebaebe1	0.36508086
14	0xbde053c3	-0.10953476
15	0xbe58a473	-0.21156482
16	0xbe77f947	-0.24216186
17	0xbdb3cf18	-0.087797344
18	0xbc706d8f	-0.014674558
19	0xbe95470d	-0.2915577
20	0xbe076339	-0.13221444
21	0x3e855818	0.26043773
22	0xbde046eb	-0.109510265
23	0xbe96d3d1	-0.29458478
24	0xbe97c86f	-0.29645106
25	0xbd241380	-0.04005766
26	0xbddcf9bb	-0.1078982
27	0xbe0fe194	-0.14050895
28	0xbe842d56	-0.2581584
29	0xbe5a1e36	-0.21300587
30	0x3e79e530	0.24403834
31	0x3d9c7f46	0.07641463
32	0x3e30be87	0.1726018
33	0x3dfd65c8	0.12372929
34	0x3ddd70e1	0.108125456
35	0x3d3b4aae	0.045725517
36	0x3e9720a1	0.2951708
37	0xbd1a36f1	-0.037650052
38	0x3dede9a1	0.11616827
39	0xbe8d0fbc	-0.27551067
40	0x3e699d06	0.22813806
41	0xbeae7ca9	-0.34079483
42	0x3dd1a485	0.10236458
43	0xbe5a7c37	-0.21336447
44	0x3ab45a52	0.0013759828
45	0xbe8f1943	-0.2794896
46	0xbc554306	-0.013016468
47	0x3e3deaec	0.18546647
48	0xbdb14a0c	-0.086567014
49	0xbdde795d	-0.10862992
50	0xbec8a3fb	-0.39187607
51	0xbe297d1e	-0.16551635
52	0x3e93c88e	0.2886395
53	0x3d59a73a	0.053137995
54	0x3e60bf5c	0.21947998
55	0x3e7a6606	0.24452981
56	0x3e42f024	0.19036919
57	0xbe2248a8	-0.15848029
58	0x3ea30bc0	0.31844902
59	0xbd3b40aa	-0.045715965
60	0x3e10d99b	0.1414551
61	0xbd53a28c	-0.05166869
62	0xbd4d0001	-0.05004883
63	0x3c7f403e	0.015579281
64	0xbdf82044	-0.12115529
65	0x3d53d7cd	0.051719476
66	0x3d809003	0.06277468
67	0xbe6b7051	-0.22992064
68	0x3cdd1f22	0.026992384
69	0xbe227610	-0.1586535
70	0xbe07ea52	-0.1327298
71	0x3c29933a	0.010350043
72	0xbc1ca9d1	-0.009561972
73	0x3d48c89a	0.049019434
74	0xbdb6748a	-0.08908947
75	0x3e89e46e	0.2693209
76	0x3eba043d	0.3633136
77	0x3e2c5fca	0.16833416
78	0x3e61c14a	0.2204639
79	0x3e8a36fc	0.26995075
80	0xbe434cf4	-0.19072324
81	0x3e3132b6	0.17304501
82	0x3d046532	0.03232307
83	0xbe3d9cbc	-0.1851682
84	0xbe0f5585	-0.13997467
85	0x3d2c25da	0.042028286
86	0x3e8516f9	0.2599409
87	0x3ee42450	0.44558954
88	0xbec376c7	-0.38176557
89	0x3e9ef050	0.3104272
90	0x3c70d930	0.014700219
91	0xbea1e1a3	-0.3161746
92	0xbe062092	-0.13098362
93	0xbe25440e	-0.16139242
94	0x3e3c6c44	0.18400675
95	0x3df7a67b	0.120923005
96	0xbbb738f7	-0.0055915075
97	0x3dabc157	0.08386486
98	0xbe5c3547	-0.21504699
99	0x3d8a4f36	0.067533895
100	0xbcd34acf	-0.025792507
101	0x3e08a22d	0.13343115
102	0x3cb42ae9	0.021993117
103	0xbeb49b22	-0.35274607
104	0x3eaf9fac	0.34301507
105	0xbd3a1b56	-0.045436226
106	0x3d004b90	0.031322062
107	0x3e327868	0.17428744
108	0xbdacb971	-0.08433808
109	0xbdd3e1a0	-0.10345769
110	0x3e112819	0.14175452
111	0xbdef30e9	-0.11679251
112	0x3e167c6d	0.14695902
113	0x3cb3da0e	0.021954563
114	0x3cc61303	0.024178987
115	0x3e470c40	0.19438267
116	0xbd1ec10f	-0.038758334
117	0x3d9a55c6	0.07535891
118	0x3d0644c8	0.03278044
119	0x3cae4aa7	0.021275831
120	0x3e8465f3	0.2585903
121	0x3e23c94d	0.15994759
122	0xbde5b390	-0.112158895
123	0x3ecbfa83	0.39839563
124	0xbe9254e0	-0.2858038
125	0x3e0d95d2	0.13826683
126	0xbe49569d	-0.19661947
127	0x3db6d655	0.08927599
128	0x3dd59573	0.10428896
129	0x3d6d448c	0.0579267
130	0x3e80f63f	0.2518787
131	0x3d915156	0.07095592
132	0xbcbc0061	-0.0229494
133	0xbe374c38	-0.17900169
134	0x3cb4424e	0.022004273
135	0x3de1bdb9	0.11022515
136	0xbecb6fce	-0.39733738
137	0xbdcba238	-0.0994305
138	0xbc55495f	-0.013017981
139	0xbda4e818	-0.08052081
140	0x3eb5363f	0.3539295
141	0x3e1ad13d	0.1511888
142	0xbd176690	-0.036963046
143	0xbe1a96de	-0.15096614
144	0x3e821188	0.25404
145	0x3dc8ccd3	0.09804692
146	0x3e6828ad	0.22671767
147	0x3e2dad5e	0.16960666
148	0xbc9fb49d	-0.019495303
149	0x3dfe1a24	0.1240733
150	0xbe011b64	-0.12608105
151	0xbdcd3fa7	-0.10021906
152	0x3e9202c2	0.2851773
153	0xbebe255d	-0.3713788
154	0xbcec108a	-0.02881648
155	0xbcdcf8f4	-0.026974179
156	0x3d125770	0.03572792
157	0x3e72ebc7	0.23722754
158	0x3e816852	0.25274903
159	0xbe8016b5	-0.25017324
160	0x3e73b6cd	0.23800202
161	0x3e254b6a	0.1614205
162	0xbc1edfed	-0.009696943
163	0x3dc269ef	0.094928615
164	0x3d266b19	0.04062948
165	0xbdd10aab	-0.10207113
166	0xbe008b09	-0.12553038
167	0xbd97173b	-0.07377478
168	0x3dc6c8ce	0.09706269
169	0x3eb790e3	0.35852727
170	0xbe0e1e20	-0.1387868
171	0xbd851526	-0.06498174
172	0xbde7e5de	-0.113231406
173	0xbe1f8002	-0.15576175
174	0xbd87613c	-0.06610343
175	0x3e9cb200	0.30604553
176	0x3e121752	0.14266708
177	0xbe0ac521	-0.13551761
178	0x3d6149ac	0.0550019
179	0x3e3b8aaf	0.18314622
180	0x3c0e9655	0.008702834
181	0xbe50ded0	-0.20397496
182	0x3ca85b49	0.02055134
183	0xbea4cb8a	-0.32186538
184	0x3ec2f8fe	0.3808059
185	0xbe69fd6c	-0.22850579
186	0x3e8b7e15	0.2724463
187	0xbc90fff4	-0.017700173
188	0x3eb17915	0.3466269
189	0x3e8276ea	0.2548135
190	0x3e274e1d	0.16338392
191	0x3e1467fd	0.14492793
192	0x3d44bacb	0.048029702
193	0xbde42b81	-0.1114111
194	0x3d2e3b32	0.04253692
195	0xbcf63085	-0.030052433
196	0x3e389a33	0.18027572
197	0xbe49ffdd	-0.1972651
198	0x3e8feaa4	0.28108704
199	0xbd011a47	-0.0315192
200	0xbdb391af	-0.08768021
201	0x3e6c5e16	0.23082766
202	0x3e135430	0.14387584
203	0xbd29f66f	-0.041494783
204	0xbc719eb5	-0.014747311
205	0xbe9e3e40	-0.30906868
206	0x3dfe6b38	0.12422794
207	0xbd5a379e	-0.053275697
208	0x3c7147d6	0.0147266
209	0x3d159827	0.036522057
210	0x3a2b428d	0.0006533049
211	0xbe8ff5b3	-0.2811714
212	0xbc9e992c	-0.019360147
213	0xbe96b3d1	-0.29434064
214	0xbe056f04	-0.1303063
215	0xbe6f799f	-0.23386239
216	0xbde0bcf2	-0.109735385
217	0x3d783096	0.06059321
218	0x3ebeffeb	0.37304625
219	0x3e881eea	0.26586086
220	0xbde02c9b	-0.10946008
221	0x3e78a775	0.2428263
222	0x3de665ab	0.112498604
223	0x3d7fd0aa	0.062454857
224	0xbdba901e	-0.091095194
225	0xbdcd7236	-0.1003155
226	0x3dfcd176	0.12344639
227	0xbe229b31	-0.15879513
228	0xbdfc2d49	-0.12313325
229	0x3ebd003b	0.36914238
230	0x3e805b58	0.2506969
231	0xbeb8cf63	-0.36095724
232	0xbc55c235	-0.013046791
233	0xbeb77188	-0.35828805
234	0x3e19e0ef	0.15027212
235	0x3d56486e	0.052315168
236	0xbe64c677	-0.22341333
237	0x3dcfbd89	0.10143573
238	0x3e3dea28	0.18546355
239	0x3d19ddb3	0.037564944
240	0x3db57b36	0.08861391
241	0x3d076438	0.03305456
242	0xbea7c67e	-0.32768625
243	0xbd34d5f4	-0.044149354
244	0x3e74d28a	0.2390844
245	0xbd1b0e36	-0.03785535
246	0xbd8413eb	-0.064491116
247	0x3e208a81	0.15677835
248	0x3e175f2e	0.14782402
249	0xbd317759	-0.04332671
250	0x3e8152d5	0.25258508
251	0xbcc63799	-0.024196433
252	0xbe10f383	-0.14155392
253	0xbd43da48	-0.04781559
254	0xbe8a26b9	-0.26982668
255	0x3e59f475	0.21284659

ConstantFolding/net/strided_slice_3_enter:0 f4 [20, 20]
0	0x3e8eacf8	0.2786634
1	0x3df4ab0e	0.119466886
2	0xbe089e47	-0.13341628
3	0xbc2e874f	-0.010652377
4	0x3e52a127	0.20569287
5	0x3de28d22	0.11062075
6	0xbe1dee06	-0.1542283
7	0x3d950961	0.072771795
8	0xbde9905c	-0.114044875
9	0x3e241cb5	0.16026576
10	0xbe6bc8ee	-0.23025867
11	0x3d5a3d47	0.053281095
12	0xbd488bc7	-0.048961427
13	0x3dc0452d	0.09388194
14	0x3d81db0b	0.06340607
15	0xbebd727a	-0.370014
16	0xbd02a516	-0.03189572
17	0xbcf52e93	-0.029929435
18	0xbe952c1c	-0.29135215
19	0x3d3f0dd2	0.04664404
20	0x3dba5faf	0.091002814
21	0xbe2495db	-0.1607279
22	0xbc6b5796	-0.014364144
23	0x3eab31ad	0.33436337
24	0xbb8069db	-0.003918869
25	0x3c468c4d	0.012118411
26	0x3e5b5fa0	0.21423197
27	0x3b5fa2b8	0.0034124088
28	0xbd146c43	-0.03623606
29	0xbe3f1452	-0.18660095
30	0x3ebd6300	0.36989594
31	0xbe346df0	-0.17620063
32	0x3e1934da	0.14961568
33	0xbdb18356	-0.086676285
34	0xbccabfb0	-0.024749607
35	0xbd9c83b9	-0.076423116
36	0xbd56df6c	-0.052459165
37	0xbe7f6a79	-0.2494296
38	0xbe0bcc1c	-0.1365208
39	0x3c096d9f	0.008387952
40	0xbe0792b4	-0.13239557
41	0x3dde468e	0.10853301
42	0xbdb953c2	-0.09049179
43	0xbd9b9464	-0.07596663
44	0x3e5bf677	0.21480738
45	0x3d0b4232	0.033998676
46	0xbe53a056	-0.20666632
47	0x3e268628	0.16262114
48	0x3e1689f6	0.14701065
49	0xbdb87380	-0.09006405
50	0xb817d6b0	-3.620115e-05
51	0xbd38ac98	-0.045086473
52	0xbc7200f6	-0.014770737
53	0xbe6eb29f	-0.23310326
54	0x3e16e2fc	0.14735025
55	0x3ea8000a	0.3281253
56	0x3dab5d1d	0.08367369
57	0xbc9494b2	-0.01813731
58	0xbdc98abf	-0.09840917
59	0xbbd7ec3a	-0.0065894397
60	0x3e016979	0.12637891
61	0xbcd4825b	-0.025941065
62	0x3e34b8d9	0.17648639
63	0x3b3cc234	0.0028802278
64	0x3d9447ec	0.072402805
65	0x3e158b36	0.14603886
66	0xbe0b41cc	-0.13599318
67	0xbdf244ac	-0.11829504
68	0x3e054083	0.1301289
69	0xbd8c2ae7	-0.068441205
70	0xbe2bbfbd	-0.16772361
71	0x3e936154	0.28785193
72	0x3dbf988a	0.093552664
73	0xbe078382	-0.1323376
74	0xbd8fe696	-0.07026403
75	0x3c297d74	0.010344852
76	0x3d27f722	0.04100717
77	0xbe80c166	-0.2514755
78	0x3dbc1495	0.09183613
79	0xbe5f5a7e	-0.21811864
80	0xbdfb607b	-0.122742616
81	0xbe14fab3	-0.14548759
82	0xbe696438	-0.22792137
83	0xbe1f4c4b	-0.15556447
84	0xbe327810	-0.17428613
85	0xbd7743b0	-0.060367286
86	0x3d224bc2	0.03962303
87	0x3dbd48ba	0.09242387
88	0x3db5a661	0.08869625
89	0xbdce8d24	-0.10085514
90	0xbd5db4a5	-0.054127354
91	0xbc7c6805	-0.01540566
92	0xbd827651	-0.06370223
93	0xbe15d65b	-0.14632551
94	0xbe695f66	-0.22790298
95	0xbdbe600e	-0.09295665
96	0xbd9797c7	-0.07401996
97	0xbd3b3919	-0.04570875
98	0xbd2771c5	-0.040879983
99	0xbe2c3915	-0.1681865
100	0xbde547ff	-0.11195373
101	0x3d1bd33c	0.038043246
102	0xbe02d1f3	-0.12775402
103	0x3d41cc13	0.04731376
104	0x3dcf882a	0.10133393
105	0xbd25d862	-0.04048956
106	0xbe6757fe	-0.2259216
107	0xbcfff704	-0.031245716
108	0xbca2d349	-0.01987614
109	0xbe3c89d5	-0.18411954
110	0xbdd08703	-0.101820014
111	0x3e528add	0.20560785
112	0x3d991b86	0.07475953
113	0xbe6ec9d2	-0.23319176
114	0x3e222ba2	0.15836957
115	0xbcf479d9	-0.029843258
116	0xbe0c5231	-0.13703229
117	0xbe56ef3c	-0.20989698
118	0x3ddd0b0a	0.10793121
119	0x3eadb831	0.3392959
120	0x3d8435e5	0.06455592
121	0x3d5ca30c	0.05386643
122	0x3d774dbb	0.060376864
123	0xbd7de679	-0.061987374
124	0xba81cd26	-0.0009903058
125	0x3dba866a	0.09107669
126	0x3dd637ae	0.10459839
127	0x3e521062	0.20514062
128	0xbe722556	-0.23647055
129	0xbde0eb75	-0.1098241
130	0xbe08046a	-0.13282934
131	0xbe216357	-0.15760551
132	0xbd084def	-0.03327745
133	0x3d9f2c30	0.077721
134	0x3d9e19e4	0.07719782
135	0xbe3d9bee	-0.18516514
136	0x3e887eec	0.26659334
137	0xbd97cb99	-0.0741188
138	0xbc9a28df	-0.018818317
139	0xbd6b9a05	-0.05751993
140	0xbdbe3d5c	-0.09289047
141	0x3dc5d694	0.09660068
142	0xbccde50f	-0.025133638
143	0x3c897a0f	0.016781835
144	0xbcee030e	-0.029054191
145	0x3d0cc70e	0.03436952
146	0x3e2fa534	0.17152864
147	0x3e8bffd7	0.27343628
148	0xbd08e286	-0.033419155
149	0xbdd4feec	-0.10400185
150	0xbe8aab74	-0.27083933
151	0xbe5523b7	-0.20814405
152	0xbe69fbbe	-0.22849938
153	0xbd935342	-0.071936145
154	0x3e2f55cb	0.17122571
155	0xbe120bb4	-0.14262277
156	0xbdf36fe1	-0.118865736
157	0x3d098c26	0.03358092
158	0xbe2c1695	-0.1680549
159	0xbd6a03af	-0.05713242
160	0xbde2cb7d	-0.110739686
161	0x3e0869bc	0.13321584
162	0xbe417be6	-0.1889492
163	0xbe3ac581	-0.18239404
164	0x3e3df533	0.18550567
165	0x3ddd326b	0.10800632
166	0xbdbaa902	-0.09114267
167	0xbe120f04	-0.1426354
168	0xbca1635c	-0.019700699
169	0xbd901667	-0.07035523
170	0x3b4f3aaa	0.003162066
171	0x3e0c56c6	0.13704976
172	0x3d367d6b	0.0445532
173	0xbda16462	-0.078804746
174	0x3d43fd16	0.047848783
175	0xbe8feb97	-0.28109428
176	0x39f078a5	0.00045866254
177	0xbe1bb9af	-0.15207551
178	0x3cf7cc0e	0.030248668
179	0x3d8ec4d3	0.06971135
180	0x3d439640	0.04775071
181	0xbc84d759	-0.016215967
182	0xbd248b20	-0.040171742
183	0x3e25fd41	0.1620989
184	0x3e18eeee	0.14934894
185	0x3e814ede	0.25255483
186	0xbe12293d	-0.14273544
187	0x3d77c204	0.060487762
188	0x3cc84adf	0.024449764
189	0xbe14bd3a	-0.14525309
190	0xbe1199b5	-0.14218791
191	0xbdbd3f29	-0.092405625
192	0x3e045c19	0.12925757
193	0xbd4db10c	-0.050217673
194	0x3d832a3e	0.064045414
195	0xba2aa6fb	-0.00065098674
196	0xbe36a7f9	-0.17837514
197	0x3e10d198	0.14142454
198	0xbe02f9d7	-0.12790619
199	0xbd7d7cff	-0.061886784
200	0xbe036576	-0.12831673
201	0x3c7a00d5	0.015258987
202	0xbd845f04	-0.06463435
203	0xbcd5bb7d	-0.026090378
204	0xbd674ee7	-0.05647173
205	0xbe733b8b	-0.23753183
206	0xbc4483e8	-0.0119943395
207	0xbdf80296	-0.12109868
208	0xbda3f8d0	-0.080064416
209	0xbdf2eac7	-0.118611865
210	0xbda3de8d	-0.080014326
211	0x3e768239	0.24073114
212	0xbd52a8a4	-0.05143036
213	0x3e24403e	0.16040131
214	0xbba32cb6	-0.004979695
215	0xbda586b1	-0.08082331
216	0xbc9ed45d	-0.019388372
217	0x3c2fd07b	0.010730858
218	0xbe9a053b	-0.30082116
219	0x3d83ffd9	0.064452834
220	0xbe4fa650	-0.20278287
221	0x3e0c7e04	0.13719946
222	0xbe3cf9bb	-0.1845464
223	0xbd953a86	-0.07286553
224	0x3c99878a	0.018741388
225	0xbe5ccc10	-0.21562219
226	0xbdbe1f47	-0.092833094
227	0x3da85467	0.082192235
228	0xbdbbdeb9	-0.0917334
229	0x3d8dad65	0.06917838
230	0x3d92b84d	0.07164059
231	0xbb95ec35	-0.004575277
232	0xbc09d08b	-0.008411537
233	0x3dfb3fb4	0.1226801
234	0xbe2165b8	-0.15761459
235	0xbd5b2dfd	-0.053510655
236	0x3c3c37cc	0.011487912
237	0xbd6900ca	-0.056885518
238	0x3b553f13	0.0032538816
239	0x3e49c76a	0.19704977
240	0xbddd34a9	-0.1080106
241	0xbe3aa056	-0.18225226
242	0xbde51b2b	-0.111868225
243	0x3dd6f2ed	0.10495553
244	0x3c6cbcac	0.01444928
245	0xbe0e0af6	-0.13871369
246	0x3baaefab	0.005216559
247	0x3d8550de	0.06509565
248	0xbd095a5a	-0.03353343
249	0xbe2877d8	-0.16451967
250	0xbe171273	-0.14753132
251	0xbe4509a6	-0.19241962
252	0xbcdad2a0	-0.026711762
253	0x3deeb111	0.116548665
254	0x3e2df260	0.1698699
255	0x3cdeadd5	0.027182499

ConstantFolding/net/strided_slice_2_enter:0 f4 [13, 20]
0	0xbe28739f	-0.16450356
1	0xbe2ef9b6	-0.17087445
2	0xbe5da7eb	-0.21646087
3	0xbe1c3969	-0.15256275
4	0xbda020ec	-0.07818779
5	0xbc124361	-0.008927197
6	0xbcd579d6	-0.026059072
7	0xbcc2af81	-0.023765327
8	0xbe12edb4	-0.14348489
9	0xbe91922d	-0.28431836
10	0x3b017f34	0.0019759657
11	0xbe236719	-0.15957297
12	0xbe4062db	-0.1878771
13	0xbae3b0b0	-0.0017371383
14	0xbe3bc8e7	-0.18338357
15	0xbe024871	-0.12722947
16	0xbd7db822	-0.06194318
17	0x3d865f93	0.06561198
18	0x3df18282	0.117924705
19	0x3e5066db	0.20351736
20	0x3e17fa6b	0.1484162
21	0x3d75ec9a	0.060040094
22	0xbcbca4e0	-0.023027837
23	0x3e5792e1	0.21052124
24	0x3e08d7aa	0.1336352
25	0xbe73461c	-0.23757213
26	0xbc6c9940	-0.0144408345
27	0x3d92c10f	0.07165729
28	0x3e4f9bb4	0.2027424
29	0x3d2a14ba	0.041523673
30	0x3e7ad852	0.24496582
31	0xbd04d8f2	-0.032433458
32	0xbe1c9870	-0.15292525
33	0x3d8acce6	0.067773625
34	0x3e493ccf	0.19652103
35	0x3c411a53	0.011786061
36	0x3e42e92f	0.19034265
37	0xbb634710	-0.0034679808
38	0x3e818acd	0.2530121
39	0xbe4b3d85	-0.19847687
40	0x3e42e227	0.19031583
41	0xbd8cd395	-0.068762936
42	0xbd7d109f	-0.06178343
43	0xbe2e4461	-0.17018272
44	0x3c76b9ad	0.015058917
45	0xbe1787fe	-0.1479797
46	0x3e8a654d	0.2703041
47	0xbcd52ef1	-0.02602336
48	0xbe46dc65	-0.19420011
49	0x3e06769b	0.13131182
50	0x3d16f207	0.03685191
51	0xbd275c00	-0.040859222
52	0xbe066df1	-0.13127877
53	0xbc445e06	-0.011985308
54	0x3d509bb1	0.05092973
55	0x3e6faddd	0.23406167
56	0x3e92affa	0.28649884
57	0x3c4e17e0	0.012578934
58	0x3e1c6a7a	0.15274993
59	0xbe9859dd	-0.2975606
60	0xbd8907c2	-0.06690933
61	0x3e931f9e	0.2873506
62	0x3cdf0a62	0.02722663
63	0x3db696b2	0.089154616
64	0xbd173d9c	-0.03692399
65	0xbdb7befe	-0.08971976
66	0xbe99a7a8	-0.30010724
67	0xbe762ea9	-0.24041237
68	0x3e677158	0.22601831
69	0xbe62f2bf	-0.22162913
70	0x3d2507df	0.04029071
71	0x3cc45582	0.023966555
72	0xbd9c5b83	-0.07634642
73	0x3e556be3	0.20841937
74	0xbe18277b	-0.1485881
75	0x3e94d4b0	0.29068518
76	0x3d1ec69f	0.03876364
77	0xbe08c80a	-0.13357559
78	0xbe92778f	-0.2860684
79	0xbe39f71e	-0.18160674
80	0xbe326cb5	-0.17424281
81	0x3e8157f1	0.25262406
82	0x3e094d13	0.13408308
83	0x3d29cd1b	0.04145537
84	0x3d3fc0ec	0.046814844
85	0x3e541505	0.20711143
86	0x3e661d4a	0.2247211
87	0x3df98adb	0.12184688
88	0xbe778813	-0.24173002
89	0x3e64ffdf	0.22363232
90	0x3d6ea82c	0.05826585
91	0xbea5cf3e	-0.32384676
92	0x3e86d32f	0.26332995
93	0xbe186897	-0.14883648
94	0x3e3dd499	0.18538131
95	0xbe6a7933	-0.22897796
96	0xbe6953c5	-0.22785862
97	0x3d142b4a	0.036174096
98	0x3ea23b80	0.3168602
99	0xbdabbc67	-0.08385544
100	0xbea5bd64	-0.32371056
101	0xbe83018c	-0.25587118
102	0xbea077fb	-0.31341538
103	0x3ec60fef	0.3868403
104	0xbe682ee4	-0.22674137
105	0xbccd95e3	-0.025095886
106	0x3e91a908	0.28449273
107	0xbe7d07bf	-0.24709986
108	0x3ec8f3fd	0.39248648
109	0x3e8947fd	0.26812735
110	0x3e466b0f	0.19376777
111	0xbc8ee345	-0.017442355
112	0x3e26ac3c	0.1627664
113	0x3d87ff54	0.06640497
114	0xbe8a184d	-0.26971665
115	0x3dfc3387	0.123145156
116	0x3e863dc9	0.26219013
117	0x3e9c0ebd	0.30479994
118	0x3e72d5f4	0.23714429
119	0x3e054d94	0.13017875
120	0x3d775cec	0.06039135
121	0x3e72c0ef	0.23706411
122	0xbd98926b	-0.07449802
123	0xbe953d29	-0.29148224
124	0x3d892399	0.06696243
125	0x3c85bec4	0.016326316
126	0x3dbf2839	0.09333844
127	0xbebfe791	-0.3748136
128	0xbeb82524	-0.35965836
129	0x3e1c8e1e	0.15288588
130	0xbe563af4	-0.20920926
131	0xbae9e202	-0.0017843845
132	0xbe2cc770	-0.16872954
133	0xbe93b241	-0.28846934
134	0xbda4afa1	-0.08041311
135	0x3c9254da	0.017862726
136	0xbebb42fc	-0.36574543
137	0xbd6351bb	-0.055497866
138	0xbdbea48d	-0.09308729
139	0xbea3a528	-0.31961942
140	0xbde04c8a	-0.10952099
141	0xbd5b414e	-0.053529076
142	0x3e8ac49e	0.27103132
143	0x3e78ff8e	0.24316236
144	0xbe10ceab	-0.14141338
145	0xbe8c9d75	-0.2746388
146	0x3d30ef97	0.04319724
147	0x3d769ef7	0.060210194
148	0x3e98bac9	0.29830006
149	0xbe0f71b9	-0.14008226
150	0xbe79410a	-0.24341217
151	0xbe71fe83	-0.23632245
152	0xbde7de40	-0.11321688
153	0xbda38c6a	-0.07985766
154	0xbe2e0b93	-0.16996603
155	0x3ddfe294	0.10931888
156	0x3dc00cdd	0.093774535
157	0xbe92605b	-0.28589138
158	0xbe94b8c1	-0.29047206
159	0xbe9d24e3	-0.30692205
160	0x3e974c96	0.29550618
161	0xbea8b28e	-0.32948726
162	0xbcb6ae92	-0.022300038
163	0xbe4fd598	-0.20296323
164	0xbeae5244	-0.3404714
165	0x3dc7de6f	0.09759223
166	0x3e31c2ee	0.17359516
167	0xbd201328	-0.03908077
168	0xbe9b2ca5	-0.303075
169	0xbed1ae63	-0.4095336
170	0xbdf791af	-0.12088334
171	0xbed583da	-0.41702157
172	0xbe24c07a	-0.16089049
173	0xbe849052	-0.25891358
174	0xbc1b0e99	-0.00946393
175	0xbe4a50d6	-0.19757399
176	0xbb541110	-0.0032358803
177	0xbe127e9d	-0.14306112
178	0x3ddca96f	0.107745044
179	0x3dfd89ef	0.12379824
180	0x3e4dc584	0.20094877
181	0x3da500d1	0.08056796
182	0x3e33cc34	0.17558366
183	0xbde491e4	-0.11160639
184	0xbdf4b2b3	-0.11948147
185	0x3e174181	0.14771082
186	0xbdc8e303	-0.09808924
187	0x3da6830b	0.08130463
188	0x3e35b985	0.17746551
189	0x3c3cdfcf	0.0115279695
190	0xbba9b5f2	-0.0051791603
191	0xbea12fd7	-0.3148181
192	0xbd8fc5b9	-0.070201345
193	0xbe84cb58	-0.2593639
194	0xbe709e2d	-0.2349784
195	0x3d9e0a37	0.07716792
196	0xbe77b232	-0.2418907
197	0x3e03cad5	0.12870343
198	0x3d2c03ef	0.04199594
199	0xbd9fe690	-0.07807648
200	0x3c089e1c	0.008338477
201	0xbe22b3b7	-0.15888868
202	0x3e744a07	0.23856364
203	0xbce6a7a9	-0.028156118
204	0xbea88473	-0.3291355
205	0x3e982c65	0.2972137
206	0x3c56d703	0.013112786
207	0x3d85024b	0.06494578
208	0xbe1deb74	-0.1542185
209	0xbe459bac	-0.19297665
210	0x3d875f96	0.066100284
211	0x3d81d6bc	0.063397855
212	0x3d9a039c	0.0752022
213	0x3d9f6ffe	0.07785033
214	0xbd0c6e4f	-0.034284886
215	0xbded3494	-0.11582294
216	0xbe3ff432	-0.18745497
217	0x3c73f35a	0.0148895625
218	0xbcc7f2ef	-0.024407832
219	0xbe668c59	-0.22514476
220	0x3cd6f8bc	0.026241653
221	0x3dcaf93c	0.09910819
222	0xbd4255d4	-0.047445133
223	0xbd2af5b4	-0.041738227
224	0xbeaace0a	-0.3336032
225	0xbc8e22c3	-0.01735056
226	0xbe025aa1	-0.12729885
227	0xbe69bfdf	-0.228271
228	0x3e2c1fd9	0.16809024
229	0x3d2c6078	0.042084187
230	0x3dea0d65	0.11428336
231	0xbd77f815	-0.060539324
232	0xbe5dfd35	-0.21678622
233	0xbe8f8462	-0.28030688
234	0x3e575e62	0.21032098
235	0x3e426ac7	0.18986045
236	0x3e077f63	0.13232188
237	0xbea2b47c	-0.31778324
238	0xbd9b3cac	-0.075799316
239	0xbebadee7	-0.36498186
240	0xbd1e6371	-0.038669053
241	0xbe933a6d	-0.28755513
242	0xbe6a42d5	-0.22877057
243	0xbd0fa185	-0.035066146
244	0xbe68e897	-0.22744976
245	0xbe17e807	-0.14834605
246	0x3c29238b	0.0103234155
247	0xbe6b9255	-0.2300504
248	0x3e1b9f7c	0.15197557
249	0xbd9b9e1b	-0.075985156
250	0x3e54a513	0.20766096
251	0xbdb3a4a1	-0.08771635
252	0x3e916cc4	0.28403294
253	0xbe5c227f	-0.21497534
254	0xbeb8060c	-0.35942113
255	0xbe5f4644	-0.21804148

ConstantFolding/net/strided_slice_1_enter:0 f4 [20, 20]
0	0xbc14e141	-0.009086908
1	0x3d35af94	0.044356897
2	0xbd866e47	-0.065640025
3	0x3e8a5ed2	0.27025467
4	0xbe442fab	-0.19158809
5	0xbc9ce6ab	-0.01915296
6	0xbe420624	-0.18947655
7	0xbe8a4a40	-0.27009773
8	0xba95a7c6	-0.0011417798
9	0xbdcd5367	-0.10025673
10	0x3df72366	0.120672986
11	0xbde25d23	-0.11052921
12	0x3d56c04e	0.05242949
13	0xbe9fc505	-0.31205
14	0xbe139176	-0.14410958
15	0xbda146ac	-0.07874808
16	0xbd384715	-0.044989664
17	0x3e1462fb	0.14490883
18	0x3d098109	0.033570323
19	0x3c96da98	0.01841478
20	0xbe1ab6f8	-0.1510886
21	0xbd6c41e0	-0.05768001
22	0xbd8f936e	-0.07010542
23	0xbce858db	-0.028362682
24	0x3e90ef67	0.2830765
25	0xbe9700bd	-0.2949275
26	0x3e38cba7	0.18046437
27	0xbc9dc42f	-0.019258587
28	0xbe4c20f8	-0.19934452
29	0xbcfe3087	-0.031028999
30	0xbdd56c2b	-0.10421022
31	0x3d3b09af	0.045663532
32	0x3d73e640	0.059545755
33	0xbe551350	-0.20808148
34	0xbe1c054e	-0.15236399
35	0x3e1d6d69	0.15373768
36	0x3e07ff92	0.13281086
37	0xbdc0b50c	-0.09409532
38	0x3e0b4466	0.1360031
39	0xbde1edb8	-0.110316694
40	0xbda54eae	-0.080716476
41	0x3d175b0d	0.036952067
42	0x3d9a356d	0.075297214
43	0x3e1bf188	0.15228856
44	0xbe1533c0	-0.14570522
45	0x3dbee741	0.09321452
46	0x3de19fe1	0.110168226
47	0x3cfddcbe	0.030989047
48	0x3d96d93d	0.07365654
49	0x3dfe6c56	0.12423007
50	0x3e9d1431	0.30679467
51	0x3d12eca8	0.035870224
52	0x3d246286	0.04013302
53	0xbe61c640	-0.22048283
54	0xbd9f5c48	-0.07781273
55	0xbe0e0951	-0.13870741
56	0xbc7d1d7d	-0.015448925
57	0xbe1f7b83	-0.1557446
58	0x3d14fb1a	0.03637228
59	0x3e270a77	0.16312586
60	0xbc51e944	-0.0128119625
61	0x3e925a28	0.2858441
62	0xbd0b0e0b	-0.03394894
63	0xbb556426	-0.0032560914
64	0x3e26b156	0.16278586
65	0x3de39de0	0.11114097
66	0xbe47f2b4	-0.19526178
67	0xbd9d235b	-0.07672759
68	0xbe01f612	-0.12691525
69	0x3e1280a0	0.14306879
70	0x3e0bd085	0.13653763
71	0xbb395f8f	-0.0028285717
72	0xbcf7ef34	-0.030265428
73	0x3d86fc58	0.065910995
74	0xbd1d2269	-0.038362894
75	0x3dde33d6	0.10849731
76	0x3d969e63	0.073544286
77	0xbd36c32e	-0.04461973
78	0xbd9e0020	-0.077148676
79	0x3e082dcb	0.13298719
80	0xbcacb68b	-0.021083137
81	0x3d8ed382	0.06973936
82	0xbe50efe9	-0.20404018
83	0x3cce1ef5	0.025161246
84	0xbe023201	-0.12714387
85	0xbdfe3e59	-0.124142356
86	0x3da858cb	0.08220061
87	0x3e5a1cc0	0.2130003
88	0xbdb25997	-0.08708494
89	0x3cd9aa3f	0.026570437
90	0x3cc9d0f6	0.024635773
91	0x3dee4655	0.116345085
92	0xbe764286	-0.24048814
93	0xbe55c3c6	-0.20875463
94	0x3e1008b8	0.14065826
95	0xbde4e444	-0.11176351
96	0xbe866006	-0.26245135
97	0x3dc52bdf	0.09627508
98	0xbca4601e	-0.020065363
99	0x3d4f6563	0.0506338
100	0xbe629612	-0.2212756
101	0xbd1a86f7	-0.03772637
102	0xbe54aa11	-0.20768
103	0x3e9506c1	0.29106715
104	0x3db1193d	0.08647392
105	0x3dbf61b8	0.0934481
106	0xbd78916e	-0.060685568
107	0xbd881a43	-0.06645634
108	0xbe135fab	-0.14391963
109	0xbe1ac948	-0.15115845
110	0x3de2cc86	0.11074166
111	0xbdcc1f4b	-0.09966906
112	0x3d4986fe	0.049201004
113	0x3e20d04b	0.15704457
114	0x3e74d240	0.23908329
115	0xbe301f76	-0.17199501
116	0x3e103682	0.14083293
117	0x3dc5eb8e	0.09664069
118	0x3e46d67a	0.19417754
119	0xbe6644e8	-0.22487223
120	0x3d4cb9df	0.049981948
121	0xbcddfca2	-0.027098004
122	0xbe8938e3	-0.26801214
123	0x3e20f852	0.15719727
124	0xbd244dd1	-0.040113274
125	0x3e66ba24	0.22531945
126	0xbd793489	-0.060841117
127	0x3d96b9a2	0.073596254
128	0xbe8d09c0	-0.275465
129	0xbbbb0b37	-0.005708124
130	0xbceb910f	-0.028755693
131	0x3e0d6b4b	0.1381046
132	0xbd8602af	-0.065434806
133	0xbd6e07d5	-0.058112938
134	0xbd308a9d	-0.043100942
135	0xbc8efd23	-0.01745469
136	0x3de89419	0.113563724
137	0x3e1563c6	0.14588842
138	0x3dbd7ea0	0.092526674
139	0xbbfa10e2	-0.007631407
140	0xbe3e0a1e	-0.18558547
141	0xbe54bf6a	-0.20776144
142	0xbc4a23bc	-0.012337621
143	0xbe30d75e	-0.17269656
144	0x3e85aae4	0.26106942
145	0x3e5d6a43	0.21622567
146	0xbdc03b4b	-0.09386309
147	0xbd3954c4	-0.045246854
148	0xbced811a	-0.028992224
149	0x3d094c2f	0.03351992
150	0x3d0287ca	0.03186778
151	0x3c49064a	0.012269566
152	0x3e4b0f82	0.19830135
153	0xbc7028f9	-0.014658206
154	0xbdeb8d44	-0.11501554
155	0xbe4d735f	-0.20063542
156	0x3dd225bd	0.10261104
157	0x3d30f038	0.04319784
158	0xbd47d5fa	-0.04878805
159	0x3e0618d7	0.13095413
160	0xbd673102	-0.056443222
161	0x3da7a268	0.081852734
162	0xbe6102c2	-0.21973708
163	0x3c844ea4	0.01615078
164	0xbcc8d8e3	-0.024517482
165	0x3da7eecb	0.08199843
166	0x3e8fdb6f	0.28097102
167	0xbdc2b9a2	-0.09508063
168	0xbdfd5404	-0.1236954
169	0x3de2ff46	0.11083846
170	0xbe0bb68d	-0.13643856
171	0x3df7bcc8	0.12096554
172	0x3be84c75	0.0070891925
173	0x3db81782	0.08988859
174	0xbda51860	-0.0806129
175	0x3e09d92c	0.13461751
176	0x3e15f3d4	0.14643794
177	0x3d11ff22	0.035643704
178	0x3df27d6f	0.11840331
179	0x3d0a9eb9	0.033842776
180	0xbe72d9cd	-0.23715897
181	0x3e4cce0a	0.20000473
182	0x3e524446	0.20533857
183	0x3e7e228a	0.24817863
184	0x3e019b9a	0.12657014
185	0x3e415231	0.1887901
186	0x3a074085	0.00051594555
187	0xbdf842b2	-0.12122096
188	0xbd95f0cb	-0.07321318
189	0x3e0b6cc7	0.13615714
190	0x3c392d8a	0.011302361
191	0xbacd7d49	-0.0015677597
192	0xbe0f1427	-0.13972531
193	0x3df71130	0.12063825
194	0xbd23c4f3	-0.039982747
195	0x3daa2006	0.08306889
196	0x3df65bd6	0.12029235
197	0xbdfbf773	-0.123030566
198	0x3e22bf9f	0.1589341
199	0x3d923296	0.07138555
200	0xbe9c6672	-0.3054691
201	0x3e40a87b	0.1881427
202	0xbda6b567	-0.081400685
203	0x3d40f0db	0.047104698
204	0xbbe55f2a	-0.00699987
205	0x3da9831d	0.08276961
206	0xbdf3c3ff	-0.11902618
207	0xbdbbe9d8	-0.091754615
208	0xbe10ae9b	-0.14129107
209	0xbe813028	-0.25232053
210	0x3d447a68	0.0479683
211	0x3d7b8ffa	0.061416604
212	0xbd823127	-0.06357031
213	0xbce77e29	-0.0282584
214	0x3da96c43	0.082726024
215	0x3cb871c4	0.022515185
216	0x3cc7bf6c	0.02438327
217	0x3e0cbc31	0.13743664
218	0x3decbf38	0.115599096
219	0xbcfd50be	-0.03092229
220	0xbece86c8	-0.40337205
221	0xbe800df2	-0.2501064
222	0x3df1c569	0.11805231
223	0x3d1e6977	0.038674798
224	0xbd2307f3	-0.039802503
225	0xbe483283	-0.19550519
226	0x3c033740	0.008008778
227	0xbd78a2c0	-0.060702085
228	0xbdbf133c	-0.093298405
229	0xbec85831	-0.39129785
230	0xbe065d24	-0.13121468
231	0xbdce9c9b	-0.10088464
232	0x3d3406d0	0.04395181
233	0x3d70d1c9	0.058793817
234	0x3da0a916	0.078447506
235	0x3e75effe	0.24017331
236	0xbe216db6	-0.15764508
237	0x3d467435	0.048450667
238	0x3d09cc47	0.03364208
239	0xbe97b7f6	-0.2963254
240	0x3e36954c	0.1783039
241	0x3d704220	0.05865681
242	0xbd03d91a	-0.032189466
243	0xbe060515	-0.13087876
244	0xbe18f328	-0.14936507
245	0xbcdb0bbe	-0.026738998
246	0x3e275f48	0.1634494
247	0xbea89623	-0.32927045
248	0x3ede0d67	0.433696
249	0x3dc38450	0.09546721
250	0x3e21b0c7	0.15790091
251	0xbd81b4ba	-0.06333299
252	0xbcf86c20	-0.030324996
253	0xbe1deda7	-0.15422688
254	0x3ba90bc1	0.005158872
255	0x3e2b6e68	0.16741335
