wakewords/en/marvin.onnx (onnx, 19283 bytes, 1 tensors)

const_fold_opt__112 f4 [20, 1]
-0.039985083 -0.35744965 0.029329084 0.42387298 0.3956253 -0.20190802 -0.54212767 0.496687
-0.31405815 -0.10240637 -0.14840432 0.12832217 -0.18824378 -0.3573114 0.47416154 0.27003375
0.04847704 -0.204525 -0.34884024 -0.5425808
00000000: 66c7 23bd a403 b7be 8c43 f03c e105 d93e
00000010: 668f ca3e fac0 4ebe e1c8 0abf c24d fe3e
00000020: 3bcc a0be 6eba d1bd 4df7 17be e366 033e
00000030: fac2 40be 85f1 b6be 4dc5 f23e dd41 8a3e
00000040: dc8f 463d 006f 51be 309b b2be 93e6 0abf
