wakewords/en/o_sauro.onnx (onnx, 19249 bytes, 1 tensors)

const_fold_opt__112 f4 [20, 1]
0	0xbf261b69	-0.64885575
1	0xbf29c0b4	-0.66309667
2	0x3ed9db08	0.4254992
3	0x3ec8c5c4	0.39213383
4	0xbe82b9d0	-0.2553239
5	0xbf129834	-0.57263494
6	0x3f06176e	0.523795
7	0xbf21dac7	-0.6322445
8	0xbf23144d	-0.6370285
9	0x3ec4688f	0.38361022
10	0x3e763bf1	0.24046303
11	0xbf042f4e	-0.5163468
12	0xbdf1b7db	-0.11802646
13	0x3d597a29	0.053095017
14	0xbefbd0b1	-0.49182656
15	0xbe33fd3c	-0.1757707
16	0xbad47d55	-0.0016211668
17	0x3e982e78	0.29722953
18	0xbd936090	-0.07196152
19	0x3c9c9f04	0.019118793
