wakewords/en/o_sauro.tflite (tflite, 21888 bytes, 10 tensors)

sequential/dense_1/MatMul f4 [1, 20]
00000000: 691b 26bf b4c0 29bf 08db d93e c4c5 c83e
00000010: d0b9 82be 3498 12bf 6e17 063f c7da 21bf
00000020: 4d14 23bf 8f68 c43e f13b 763e 4e2f 04bf
00000030: dbb7 f1bd 297a 593d b1d0 fbbe 3cfd 33be
00000040: 557d d4ba 782e 983e 9060 93bd 049f 9c3c
-0.64885575 -0.66309667 0.4254992 0.39213383 -0.2553239 -0.57263494 0.523795 -0.6322445
-0.6370285 0.38361022 0.24046303 -0.5163468 -0.11802646 0.053095017 -0.49182656 -0.1757707
-0.0016211668 0.29722953 -0.07196152 0.019118793

sequential/net/while/gru_cell/strided_slice_3 f4 [20]
00000000: 9e02 56be c5f4 61be 632c 95bd eeb8 913d
00000010: a8f2 253e 20b9 83bd 8f1b 4f3d f3f7 98be
00000020: 491e 903c 52ee 8bbe 2b3e 4f3d 5591 c63d
00000030: c67f 84be 9ba8 b4bd 5b3a e93c 071d c33c
00000040: 2b83 6f3e 0791 6cbd ebe6 203e b68a a53d
-0.20899436 -0.22066028 -0.07283857 0.07115351 0.16205847 -0.06431794 0.05056339 -0.2987667
0.017592566 -0.2733026 0.050596397 0.09695689 -0.25878733 -0.088212214 0.028470209 0.023817552
0.2338988 -0.057755496 0.15713088 0.08083098

sequential/net/while/gru_cell/strided_slice_4 f4 [20]
00000000: 30e7 51bc 14d1 123e 69f0 69bb 0160 d83d
00000010: ebc0 b83e 55d9 b1bd 8d89 483d 16db 7b3c
00000020: d7f7 8d3e e9c7 ac3e e844 5d3e 3587 de3d
00000030: 73c9 d43e 6a1c 7c3e 0020 4cbd 04e2 ac3e
00000040: 8f59 1d3e 043a 863e d797 273e d6c5 123e
-0.012811467 0.1433757 -0.0035696274 0.10565186 0.36084685 -0.08684031 0.048959304 0.015372058
0.2772815 0.3374627 0.21608317 0.108656324 0.41559944 0.24620214 -0.049835205 0.33766186
0.15366195 0.26216137 0.16366516 0.14333281

sequential/net/while/gru_cell/strided_slice_5 f4 [20]
00000000: 841b 5a3f 9168 a23d 805e f8be d94f a9be
00000010: 04f5 45be 05a6 073f e52c b6be 02d7 383f
00000020: 419e 54be c73c a7be 2457 05bf 36e0 eb3e
00000030: d9eb c63e f014 72bf ffd3 4b3e 7836 7b3e
00000040: 23f8 c63d 4f54 0cbf 7e35 ce3d ca11 e23e
0.85198236 0.07930101 -0.48509598 -0.3306873 -0.19331747 0.529877 -0.35581127 0.72203076
-0.20763494 -0.32663557 -0.5208609 0.46069497 0.38851812 -0.945632 0.19905089 0.24532497
0.09715297 -0.54816145 0.100687966 0.44154197

sequential/net/while/gru_cell/MatMul_3 f4 [20, 20]
00000000: 6e0e 2cbd 570d 47bd 7dc9 633d 2688 503d
00000010: 02ac 743e 184e 68be 712f 283e e017 21be
00000020: c209 aebd fe2f 1ebe 5649 c3bc 7e82 44be
00000030: 617e ae3d ea6d 203e e13d 613e a2eb 9a3e
00000040: 89c7 72be c715 8e3c a2ec 87be 1125 3abe
00000050: 624c d8be 498a d93e 0854 f8bd 0d8f d23e
00000060: 9c55 4c3e edc4 fcbd 326f 37bd a7e1 50be
00000070: 9231 aabe 9e7e f23e 9cdf b63e c44e 7e3e
00000080: 2e21 c9bc 9730 3d3e dc5e 103e a107 d3bd
00000090: 0c8d 2d3e 4de2 cabe 17b2 8f3d 1e83 1b3e
000000a0: ba0c d1bc c36f dc3d fb57 b9bd 882b cb3c
000000b0: 9fe0 1e3e c10d af3c 374f acbe d548 5dbc
000000c0: dee5 aabe 0a1f eb3d 1e80 073e c2f3 373d
000000d0: f001 af3d 103d 793d 14ca 6e3e 0909 a63d
000000e0: a2d8 01bd e022 80bd 01d2 d53d 0591 5ebe
000000f0: 0056 ff3d eb9c 4bbd faeb 033d 881f 5cbe
00000100: 3aea 853e 86bf 093e 6569 acbe ea70 013d
00000110: 50a3 853e 12ec 02be 5286 17be 7935 93be
00000120: 21c3 2c3e 4ff3 6abe 08eb 933e 2162 243e
00000130: ca9b 4b3d 1b74 55bc 1be9 853c 6297 233c
00000140: 5c2a 1e3e 5184 aa3d 1515 543e 3ab4 08be
00000150: e7a1 52bd a279 5d3e d759 bebc b8ed b63e
00000160: 3f7b 27be 067a 9f3b 5089 313e f9cc 8cbd
00000170: 936c e83c d6bb a83e 5c77 c63d 5e7c 92bc
00000180: f289 a23d 1354 393e 8d56 1cbe 4f6f 96bd
00000190: 784e 62bc dd16 463e adf7 363e 7375 d73d
000001a0: c437 c23d a682 863e 129e 51be c252 a1be
000001b0: ed17 0c3e 31de dc3e 555c 06be 6778 31bd
000001c0: 773b fa3c 1d5e bd3e fcfa 203e df90 08be
000001d0: d831 803e 686f d7bd bbe8 db3d a0ff 40bc
000001e0: 4fc4 253d 98bc 0bbe 2136 84be a087 f33d
000001f0: df42 803d b032 01be be71 17bd 25f9 0f3e
00000200: 973c f5ba 9587 06bd c9d3 003e 0ee7 603d
00000210: 4c09 c83d 6a8b 1f3e a1f9 b8ba dae8 46be
00000220: 4c3e 853e 9dc3 1fbe 6aff 43be ce8c d93d
00000230: 10ca 37bd 5ccc 0e3e fe25 e0bd 506c 063e
00000240: 6923 3f3c 8130 143e 09fd 403d 4ad0 803d
00000250: bed6 84bd a31b 6a3b e7c9 a13d 2ffd f13c
00000260: a681 1e3e 2e17 32be fda1 07be f0cb 14be
00000270: 3274 9f3d d9e2 77be e70d ae3d 8dfb 3e3c
00000280: 8e86 bcbd 7cb3 fb3d 2a49 a23d 17a2 14be
00000290: f1b2 2c3d d8f0 b7bd a153 dcbd 921e 963d
000002a0: 0dcb 133e 2e56 a2be 86bc 83bd 6543 eabc
000002b0: 7909 ccbe b61a a4bd d340 09be 4fe1 0abe
000002c0: 55c2 b33d cb74 293e 8b12 af3c c931 623e
000002d0: 4f8a 49be b72b 94bd 75fe 893d 4078 403e
000002e0: ca79 983d 2dfc 0d3e 2dda b8bc 11c6 c3be
000002f0: 262b 573e 563d f4bd d6da a73d c7ff 293e
00000300: 6b51 8ebe 97e8 7c3e d0f2 00bd cc58 8abe
00000310: da7b 2bbe 0a6e 183e 3a3b 153e d960 e23d
00000320: 85ad f53b 5abe 79be 8955 6dbe 9f5a 323d
00000330: c76a 96bd 5774 4cbe 6209 393e 25d5 8f3e
00000340: 185f d8bd 7971 66be 80ed 38be 0b8f a53d
00000350: dfef b9bd acb4 99bd fb13 633e 360f 073e
00000360: e6bd 66bc 9b53 753e 6185 803d 3002 623d
00000370: d7b6 e53d 4741 003e bb2e 033e 7880 5cbc
00000380: b69f d93c 0eaf e5bd 52dd 6c3c b638 6c3d
00000390: eaa3 153d 6822 8a3d 2e97 463e 47b6 803e
000003a0: 97e9 483e 045b acbd ed48 063e ab31 cb3d
000003b0: 72db 0bbe 93a5 323d decc 6d3d 1842 8e3e
000003c0: dc6c 513c bba2 7dbe 1a55 693e 67f8 b13e
000003d0: 7986 8fbe fafb b2be ef6c 143e 6611 83bc
000003e0: 4468 9ebe 64ff 143e 5dc6 253e 1a10 a5bc
000003f0: cebb c03c 1c77 a1bd d6eb cf3d f080 91bd
-0.04200595 -0.048596706 0.055612076 0.05091109 0.23893741 -0.2268604 0.16424347 -0.15731764
-0.08497955 -0.15447995 -0.02383868 -0.19190404 0.085201986 0.15666929 0.21996261 0.302579
-0.23708929 0.017344369 -0.26547724 -0.18178202 -0.42245775 0.42488316 -0.12125403 0.41124764
0.19954532 -0.12342248 -0.04478378 -0.2039858 -0.33240944 0.47362226 0.35717475 0.24834734
-0.024551954 0.18475567 0.14098686 -0.103041895 0.16948336 -0.3962578 0.0701639 0.15186736
-0.025518764 0.10763504 -0.09049984 0.02480103 0.15515374 0.021368863 -0.33654186 -0.013506134
-0.333785 0.114805296 0.13232467 0.0449102 0.085452914 0.06084925 0.23319274 0.08107192
-0.031700738 -0.06256652 0.10440446 -0.21735008 0.12467575 -0.049710196 0.032207467 -0.21496403
0.26155263 0.13451967 -0.3367416 0.031601824 0.2610116 -0.12785366 -0.14797333 -0.28751734
0.16871311 -0.22944377 0.28890252 0.16053058 0.04970912 -0.01302817 0.016346505 0.009984823
0.15445846 0.083260186 0.20711167 -0.13350001 -0.051423933 0.2162843 -0.023236198 0.3572824
-0.16355608 0.0048668412 0.17337537 -0.06875033 0.028372085 0.32955807 0.09690735 -0.017881569
0.07936467 0.18098478 -0.15267392 -0.07345449 -0.013812654 0.19344659 0.17867918 0.105204485
0.09483293 0.26271552 -0.20470455 -0.31508452 0.13681002 0.4313827 -0.1312116 -0.043327715
0.030545933 0.36985865 0.15720743 -0.13336514 0.25038028 -0.10519296 0.10737749 -0.011779696
0.040470418 -0.13646162 -0.25822547 0.11891103 0.06262755 -0.12616992 -0.036973707 0.14059885
-0.0018710074 -0.032844145 0.1258079 0.05490785 0.09767398 0.15580526 -0.0014112481 -0.19424763
0.2602409 -0.15601964 -0.19140401 0.106225595 -0.044870436 0.13945144 -0.109447464 0.13127255
0.011666157 0.14471628 0.047116313 0.06289728 -0.06486271 0.003572204 0.07899838 0.029539673
0.15479144 -0.17391655 -0.13245387 -0.14530921 0.07785834 -0.2420763 0.084987454 0.011656654
-0.09205352 0.12290093 0.07924111 -0.14514957 0.04216284 -0.08981484 -0.107581384 0.073300496
0.14432926 -0.31706375 -0.06432442 -0.02859659 -0.39850977 -0.08012907 -0.13403635 -0.13562511
0.087773 0.16548459 0.021371147 0.22089304 -0.19681667 -0.072349004 0.06737987 0.18795872
0.074451044 0.13865729 -0.022564972 -0.3823705 0.21012554 -0.119257614 0.081960365 0.16601478
-0.27796492 0.24698101 -0.031481564 -0.27020872 -0.16746464 0.14885727 0.14573374 0.110536285
0.007497492 -0.2438902 -0.2317716 0.043543454 -0.07344585 -0.19966255 0.18069986 0.28092304
-0.10565013 -0.22504224 -0.18059349 0.08083924 -0.09078955 -0.075051636 0.2217559 0.13189396
-0.014083361 0.23957674 0.0627544 0.055177867 0.112165146 0.12524901 0.12810795 -0.013458364
0.026565414 -0.1121503 0.014457064 0.05767127 0.036533274 0.06744844 0.19393608 0.25139067
0.19620357 -0.08415797 0.13113756 0.09921583 -0.1365793 0.043614935 0.058056705 0.277848
0.012782302 -0.24769108 0.2278637 0.34759828 -0.28032282 -0.34957868 0.1449468 -0.015999507
-0.30938923 0.14550549 0.16188951 -0.02014928 0.023527052 -0.078840464 0.10152404 -0.07104671

sequential/net/while/gru_cell/MatMul_4 f4 [20, 20]
00000000: 2a91 9a3d 1460 af3e 74d6 92bd 1a7a 233e
00000010: deec 81bd e90a 7e3e d3ea aebd 68d7 56be
00000020: dd51 7cbe 0248 fc3d 7d57 b6be d93c a3bd
00000030: 6f5b bb3d 7ab3 663d ae45 863e 8eb0 e53d
00000040: 849c d93d 7151 9ebd 6955 7a3b ba52 493e
00000050: 11fe 59bd 7839 93bd 0133 e23d 258a ec3b
00000060: 7ad2 16be 6a78 f8bd 1141 753b 6192 b8bd
00000070: 2b31 0fbc 1d1f c7bd 39b2 27be bf70 683e
00000080: 913a c33d c7b2 87be 4db8 89be a1a5 983d
00000090: b923 c8bd b585 b0be 7b64 be3d 9e74 a03d
000000a0: 0dda 993d 1057 f8bd 552e 1a3e c380 853d
000000b0: 7319 aebe 815e 89be ea01 3abc e78e 9ebe
000000c0: 7907 14be 2077 1fbe 69b2 74bd 13cc 51be
000000d0: f08a 81be 8dc4 4bbd d156 dabd 69fe 9b3d
000000e0: cf89 35be ea4b 1e3e b434 483e d6b9 923d
000000f0: 018a 343e bc17 073e 39d5 b5bc 5c35 03bb
00000100: 4b00 47be 74b4 a83e 6624 a4be 02a4 aa3c
00000110: e3a0 8bbc becc 33be ee46 0e3d edc1 1b3e
00000120: 54f5 613b 2739 803d 431f 153d 4d7e a63d
00000130: c6f6 913e f1f5 b3be 7610 aabd 7868 f9bd
00000140: 7e92 10be 6655 8bbe 020e 8f3b cac9 ea3d
00000150: 0984 3e3e 41db adbd de68 e43d bce0 bf3c
00000160: 6394 d5bd 1365 aabe f43d d63c 6f2e 19bb
00000170: c9e9 5a3e d501 8dbe be5c 8fbd 1e14 c5bd
00000180: 06be 54bd d00f 07bc 4d67 27bd 9882 a73d
00000190: 996c 13be 326a 823e 4386 613d c562 84be
000001a0: 3d72 4abe 2d67 a63e 238b a6be 8100 c4bd
000001b0: f792 52be f251 ba3d e6c9 26ba 25d6 01bc
000001c0: 9920 40be 9570 2a3e f676 04bd 6df7 4a3e
000001d0: 8435 cd3c c378 863d 94be 43bd 8b49 87bd
000001e0: 4fb7 f5bd 973d a9be 2622 c3bd 86a5 de3d
000001f0: d874 8bbe c92f 773c b186 243e 56b7 3c3e
00000200: b7bb 7f3e 4bca 76be 50bf 773e 9864 b7be
00000210: 4cc0 603d 7226 443e ae23 7cbe 9e31 51bd
00000220: cdac 4abe 8f93 383d 72e1 66be 1aff 143d
00000230: 44ef a4bd f5be 0ebe 11e3 0e3e 998b 12be
00000240: f3fd fd3d 1da7 503d bf31 7f3e abff 0bbe
00000250: 451c 74bd c251 60be 0fdd f83d 8019 ac3d
00000260: 9d3c b43d c92f dfbd 7ef5 d9bd 63ed 7dbc
00000270: 1645 963e 312d 0ebe 2565 233e da14 da3d
00000280: 6228 843e fa22 dabe 68c1 623e 1f62 093d
00000290: 0ca6 a53c b8d7 fe3d b076 6dbe 4be5 2a3e
000002a0: 5649 bd3c 3374 5a3e cdd0 a03e 549a d53d
000002b0: b15d babc c530 4d3c 0e63 193e 8cc9 29bd
000002c0: 8ca4 a7be 64ff ecbe 596d d8bc f44e ee3b
000002d0: fbf6 8e3c b07b a1be 28bc 4bbe 7832 84be
000002e0: 7945 6bbe 1a68 88bc e50e 753e 7992 6b3e
000002f0: 639b b4bd 752d 4d3a 9cbe d9bd 75a3 c53d
00000300: 5956 433e f71d 25be d1ad b3bd dfca 3bbe
00000310: a6f6 a2bd bb89 cbbd 5970 0bbe 7c13 df3e
00000320: 0cb6 1e3d 78b6 b0be 68aa 5dbe 6a19 933d
00000330: 941f 0abf 24c1 b5bd 7bc2 7f3d f042 08be
00000340: 1681 0abe 6509 b3bc 20f3 80be e6e4 52be
00000350: 4ac2 48bc 0a4d e3bd f772 bdbe 1caf 773d
00000360: 11f6 193e 65a1 8e3e 2929 3dbc 6b89 703d
00000370: d7be bbbd f258 0b3d a62c 5ebe 5090 b3bd
00000380: 6eb2 7d3d 377a 923e 63db 2abd 513f 473d
00000390: 7dbc 36bd 737f 443e 81d4 8b3d edfd 38bd
000003a0: f425 363d 4182 c13d 7977 98bc 6e7a 063e
000003b0: 34de a23c 7301 13be 79ef 993e 2002 87be
000003c0: 9b80 d33e 58ae 9cbe 9f94 49be d370 fa3c
000003d0: 870b c7be a842 573e c5c0 673e 814a 203e
000003e0: bf97 7a3e cf74 0bbe 7c38 6ebe 87b2 6c3e
000003f0: de25 893e 86a6 03be 0d44 3cbe 476a cc3b
0.07547219 0.3425299 -0.0716981 0.15964547 -0.06344007 0.2480885 -0.08540883 -0.20980608
-0.24640603 0.12318422 -0.35613623 -0.0797059 0.09148299 0.056323506 0.26225036 0.11215316
0.10625556 -0.077303775 0.003819788 0.19660464 -0.053220812 -0.07188696 0.110448845 0.0072186165
-0.14728728 -0.12132342 0.0037422816 -0.090122946 -0.00873975 -0.09722731 -0.1637658 0.22699259
0.09532655 -0.26503584 -0.26898423 0.07453466 -0.097724386 -0.3447701 0.09296509 0.07834743
0.07512293 -0.12125981 0.15056737 0.065187 -0.3400379 -0.26829913 -0.011352995 -0.309684
-0.14455976 -0.15572786 -0.059740458 -0.20488004 -0.25301313 -0.049747992 -0.1066109 0.07616884
-0.17728351 0.15458646 0.19551355 0.07164352 0.1763077 0.13192648 -0.022196399 -0.0020020818
-0.19433706 0.32950175 -0.3205902 0.020830158 -0.01704449 -0.17558572 0.034735613 0.15210696
0.0034478502 0.06260901 0.036406767 0.08129559 0.28508586 -0.35148576 -0.08303921 -0.12178129
-0.14118382 -0.2721359 0.0043656835 0.114642695 0.18605055 -0.08489085 0.11152814 0.023422591
-0.10428693 -0.33280239 0.026152588 -0.0023373624 0.21378244 -0.2754046 -0.07000111 -0.09622978
-0.051939033 -0.008243516 -0.04087 0.08179206 -0.14396895 0.25471646 0.055059683 -0.25856605
-0.19770141 0.32500592 -0.32528028 -0.095704086 -0.20563875 0.09097661 -0.00063624827 -0.007924591
-0.18762435 0.16644509 -0.032340012 0.19820948 0.025049932 0.06566002 -0.04778917 -0.06605824
-0.11997854 -0.33054802 -0.09527998 0.10871415 -0.27237582 0.015087076 0.16067006 0.18429312
0.24973951 -0.24100606 0.24194074 -0.35818934 0.05487089 0.1915529 -0.24622986 -0.05107271
-0.19792481 0.045062598 -0.22546938 0.036376096 -0.08053449 -0.13940032 0.13953806 -0.14311065
0.124019526 0.05094062 0.2492132 -0.13671748 -0.059597272 -0.21906188 0.121515386 0.08403301
0.088006236 -0.10897786 -0.10642527 -0.015498492 0.29349583 -0.13884427 0.15956552 0.10648508
0.2581206 -0.4260481 0.22144091 0.03354084 0.020220779 0.12443489 -0.23189807 0.16689031
0.023106258 0.21333389 0.31409302 0.104298264 -0.022749754 0.012523835 0.14979193 -0.041451976
-0.32742727 -0.46288598 -0.026419329 0.0072725955 0.017451754 -0.3153968 -0.19895995 -0.25819755
-0.2297572 -0.016651202 0.23931463 0.23005094 -0.088187 0.0007826903 -0.10632059 0.096503176
0.19075908 -0.16124712 -0.08773387 -0.18339108 -0.07957201 -0.099383794 -0.13617076 0.43569553
0.038747832 -0.34514213 -0.21647036 0.07182582 -0.53954434 -0.08874729 0.06244133 -0.13306785
-0.13525805 -0.021855066 -0.2518549 -0.2059513 -0.012253353 -0.110986784 -0.37001774 0.06046973
0.15035273 0.2785751 -0.011545458 0.058724802 -0.09167259 0.03402037 -0.2169672 -0.0876776
0.061937742 0.28608868 -0.04171313 0.048644368 -0.04461335 0.19189243 0.06827641 -0.045164037
0.04446979 0.09448672 -0.018611657 0.1313264 0.019881345 -0.14356022 0.30065516 -0.2636881
0.41309056 -0.30601764 -0.196856 0.030571377 -0.38875982 0.21021521 0.2263213 0.15653421
0.24471949 -0.13618778 -0.23263735 0.23114978 0.26786703 -0.12856492 -0.18385334 0.006238255

sequential/net/while/gru_cell/MatMul_5 f4 [20, 20]
00000000: 1527 313e a7fd a5be ba36 a7bd 9046 bb3d
00000010: 7e08 c8bd 02dd 813d 4b31 8a3e 0203 cf3d
00000020: 0897 80be da14 20be c465 5cbe 252c f13d
00000030: 62de df3e 5991 8bbe e797 8abd 1ee3 943c
00000040: 6dfc ffbd 9d17 47be 361f 0a3e df74 0c3f
00000050: a20d 603d fbe9 b7be b11f 47bd c73b 833e
00000060: 45e9 ed3d 3655 3e3e 58e7 42be 6d51 653e
00000070: 802c 2f3e 0da5 a43d 9a0c adbd 985d 10be
00000080: 4613 e43d a9dd b4bd 6d4b 2e3d 057a 2abe
00000090: eab8 a53e 55e3 813c efe6 6b3e 17b0 b63d
000000a0: ad9f 153c 2372 88bc 0e48 493e 5f0d 4dbe
000000b0: 1296 7fbe eb5c 4d3e 92a7 9bbd a560 c8bd
000000c0: 5a08 063f df73 123e 2adc ba3b 2e08 77be
000000d0: 7853 d6be d08e d53e 8a00 e53d 3b74 563e
000000e0: 5060 96bd d23f 8abe 3197 11be 73ce 13be
000000f0: 2ca9 94be fb37 c73e d86f 643e 7673 b53c
00000100: 6d81 33be eabe 22be 4c5d eb3d 86a8 0ebe
00000110: b540 abbd d86c bd3b bbb5 f13d 8909 9ebe
00000120: 008e eb3d 7f8b 623e 1752 513d bd1d 573d
00000130: 6ac6 c13d 5466 15bc 0160 4c3e fc65 85bb
00000140: 37a8 ffbe 3140 e63d cce7 b63d edd0 493e
00000150: 6f0f 9e3e d896 63be 4621 123d 2d59 3abe
00000160: 28ce 0f3f 62dc 4cbd 48d5 923e 0ff5 10be
00000170: 8f0d 03be 11f4 ee3e cc04 8dbd aa42 28be
00000180: 8d7a 143e 0758 a23e be00 a73e be38 9dbd
00000190: 8d9d 80be 2a76 47be 209d 44be 9e74 49be
000001a0: dc45 a7ba 279a de3d d196 2c3e d8ae 843e
000001b0: 5e97 cf3d 4916 1bbd e769 53be d3cf 083e
000001c0: e7c9 0e3e b22f 9bbe c455 d9bd 4d0d 5d3e
000001d0: 9466 323e 1679 a93c 7127 6bbe f20c 2b3e
000001e0: 8233 eebd 6210 ccbe cabe 7fbb f1e3 54bd
000001f0: b050 88be 7f78 ebbe aa84 13bc 177e ccbd
00000200: e6f1 33be 6730 653d 4de0 753e 8e49 97be
00000210: 304a 44bc 5a2d bdbd 1073 903e ae2c 693e
00000220: ff60 8abe 2205 b83e a330 24be 2cbb b7be
00000230: 329a fb3d e7d0 eebc 6bb0 7fbd b4c7 75be
00000240: 60eb 82bd 3d43 013f f186 35be 9b52 9e3e
00000250: 68b1 54be b401 75bd 65c6 0cbe e698 313e
00000260: 95f5 073e 44cd 453c fc5b 46be a364 3d3e
00000270: 53ca 36bc 1ed3 c0bd 1e60 933e 59e2 ef3d
00000280: 61fd febd 1502 59be abf0 97bd fd0e 1fbc
00000290: 0afb 443e 64d6 ae3d b92a 21bd 5d88 87be
000002a0: f0c4 273e f58e fa3e f895 cebd f12a 8f3c
000002b0: 40f2 4f3e 7e28 8f3e 32b2 bebe e8fe 3d3e
000002c0: ffe2 9ebd 5f0c 17bd 5dba a53d 0aad e93d
000002d0: cf7b 8b3e 6e67 133e 7c10 fcbd a141 2ebe
000002e0: 8040 b63d 7add d9bd 8f22 9f3e 6093 86be
000002f0: f6a8 eebd 47dd 333e 598d 18be d7bb 9e3c
00000300: a0be 643d 9a7c 113e e553 a8bc 97a9 fc3d
00000310: fb85 ac3e 86a4 5d3d 7ac0 6ebd 4575 27be
00000320: 45d2 6abe 3f4a 023e 3133 4d3e ae6a f43c
00000330: 8920 323b fb9e ffbc c77e 453e 7fc9 bdbd
00000340: d34f 65be 5344 46be fedd f93d 6bb2 4dbe
00000350: 3d8a 89be 3bef 693e d796 1f3e 7561 3b3e
00000360: 061e 40be 5fd3 9dbd 192d e4bd 0c54 5cbe
00000370: 8f6e d73d e862 32be a6b0 5bbe f514 b23c
00000380: b772 da3d 298a bb3e 3c50 5d3e 6393 c13e
00000390: 80ca 87bd 886a c8bc 3588 e5bd a1e9 8d3e
000003a0: 88e7 0b3e 50d2 913d 0087 4b3d 50a6 0a3e
000003b0: 37b7 18be d65d 17be 937e e93e a20f d03d
000003c0: 4b54 cc3d 6693 143e 9881 a3bd 044f 973d
000003d0: ca4f 4d3d 226c 7a3c 77ff 0f3e 1826 833e
000003e0: 36eb 23be 01f6 50be 4744 93be 0b51 c03c
000003f0: ee02 8bbe 82f1 563d f693 74bd 98de c13d
0.17300065 -0.32420084 -0.08164735 0.09144318 -0.09767245 0.06340982 0.26990733 0.101079956
-0.25115228 -0.15632954 -0.21523196 0.11775998 0.43724352 -0.2725933 -0.06767254 0.018174704
-0.12499318 -0.19442602 0.13488469 0.5486583 0.0547005 -0.359207 -0.048614208 0.25631544
0.11616758 0.18587193 -0.19033563 0.22394343 0.17106819 0.080392934 -0.08449669 -0.14098203
0.111364886 -0.08831341 0.0425524 -0.1664811 0.3236764 0.01585547 0.23037313 0.08920305
0.009132308 -0.016655987 0.19656393 -0.20024632 -0.24959591 0.20054977 -0.07600321 -0.097840585
0.52356493 0.14302014 0.005702515 -0.24124214 -0.41860557 0.4171052 0.111817434 0.20942776
-0.07342589 -0.27001816 -0.14217831 -0.14434223 -0.29035318 0.38909897 0.2230829 0.022149783
-0.17529841 -0.1589314 0.11492404 -0.13931474 -0.08361951 0.0057807975 0.118022405 -0.3086665
0.11501694 0.22123526 0.051103678 0.052518595 0.094616726 -0.009118635 0.19958498 -0.0040709954
-0.49933025 0.11242712 0.089309305 0.19708605 0.3087115 -0.22225511 0.035676263 -0.1819808
0.56173944 -0.05001486 0.28678346 -0.14155982 -0.12798141 0.46670583 -0.068856806 -0.1643168
0.14499874 0.31707785 0.32617754 -0.07676838 -0.25120202 -0.1947867 -0.19200563 -0.19673392
-0.0012761909 0.10869246 0.16854407 0.25914645 0.10136293 -0.03786305 -0.20645867 0.13360529
0.13944207 -0.30309826 -0.106120616 0.21587105 0.17421943 0.020687621 -0.22964264 0.16704157
-0.11630918 -0.3985625 -0.0039023631 -0.051975194 -0.2662406 -0.4599037 -0.009003798 -0.09984987
-0.17572746 0.055954363 0.24011345 -0.29548305 -0.011980578 -0.09237166 0.28212786 0.2277095
-0.27027127 0.35941416 -0.16034178 -0.35884988 0.1228527 -0.029152347 -0.062424105 -0.24001962
-0.063925505 0.5049322 -0.17727257 0.30922398 -0.207708 -0.059816077 -0.13747557 0.17343482
0.13277276 0.012072865 -0.19371027 0.18495421 -0.011156636 -0.094152674 0.2878427 0.11713094
-0.12450672 -0.211922 -0.07418951 -0.009708163 0.19236389 0.085369855 -0.039347384 -0.26471224
0.1638372 0.48937193 -0.10087198 0.01747653 0.20307255 0.2796058 -0.37245327 0.1855427
-0.0775814 -0.036877032 0.080921866 0.11409958 0.27242896 0.14394924 -0.12307832 -0.17017223
0.08899021 -0.106379464 0.31081054 -0.26284313 -0.116533205 0.1756488 -0.1489767 0.019376678
0.055845857 0.14207688 -0.020547817 0.12337034 0.3369597 0.05411198 -0.05828903 -0.16353329
-0.22931774 0.12723635 0.20039059 0.029836025 0.0027180037 -0.031203737 0.19286643 -0.09266948
-0.22393732 -0.19362001 0.12200545 -0.20087592 -0.2686328 0.22845165 0.15584885 0.18298896
-0.18761453 -0.077063315 -0.11141414 -0.21516436 0.10519134 -0.17420542 -0.21454105 0.021738509
0.10666411 0.36628845 0.21612638 0.3780776 -0.06630421 -0.02446486 -0.1120762 0.27717307
0.13662541 0.07120192 0.049689293 0.13540006 -0.14913641 -0.1478189 0.4560438 0.10159232
0.09977015 0.14509353 -0.079837024 0.07388118 0.05012492 0.01528457 0.14062296 0.25615
-0.16007695 -0.20406343 -0.2876303 0.023476144 -0.27150673 0.052476414 -0.05971142 0.094662845

sequential/net/while/gru_cell/MatMul f4 [20, 13]
00000000: 7c1c 31bd a8f5 33be 2a6d 9cbd 9a13 343d
00000010: 58bb 08be f9f9 ea3e fd22 963d 5936 c3be
00000020: be02 07be 5bd5 303e b46f a43c 1ca9 0d3f
00000030: 2af1 223e 6766 d63e 3d8f e53d f89f 673e
00000040: 8ae7 773e 10c8 723e 5b6d f2bd 0693 22be
00000050: fd66 493d 26bb 7e3d cb4a 333e 54ce 8dbd
00000060: 25ab 0c3f 749b fb3e ba1e b2bc 7575 b53c
00000070: df64 bcbc 6e9e 4f3d 3871 78be 2f08 a7be
00000080: 3e78 e43e 606a 833e c2ed 52bc faa1 733e
00000090: 1176 453e cc12 fcbd 7dba 4cbf 541e 86bc
000000a0: 8488 17be 54c6 563d 0e0d 133e 1ff2 dc3e
000000b0: d7f4 e8b9 c626 1cbe 0c9b 93bd 3b00 6cbe
000000c0: c9d8 8abe 37fc 4f3e a8ce 803e c712 94be
000000d0: 431b 69bd b510 fb3d 56c5 80be cee4 d4bd
000000e0: 20cc 17be da30 05be c35c 0dbe 7f4b 11be
000000f0: 72b9 68be ce3f 4cbe c9c8 90be 30bd 14bf
00000100: c866 c63e 0a26 b8bd 3585 b6bd e417 d93d
00000110: 993a 22b9 b368 463d 00b3 683d c274 c1be
00000120: 0eaf 7b3b c6f7 5abe f37e f63d e4fd af3d
00000130: 7c3e bb3d 0edd 28be 6e9a 8b3c dbbb 713c
00000140: 3d48 aa3e dcbe b7bd 4eb7 003d 45ff 083e
00000150: c603 d83e 712a b33d 73f4 ff3d 0921 583e
00000160: b386 183d b0af bd3d e966 8ebe 4ff6 b63d
00000170: 1ddd a53d 26f1 6d3e 9904 a3bd 3d99 25be
00000180: 2ae9 a2bb 8426 fd3d 5c8c 3abc e46a 64bd
00000190: 274b d33e b8a2 a63c 3596 1ebe 123b 46be
000001a0: d723 883e 0542 523c ef57 9fbe 981c bf3c
000001b0: 181f 03be f8ac 463d 2df8 a5be 550e a3be
000001c0: 21c3 7e3e 0c75 79be d5dd 4ebe 6e8a 3abc
000001d0: 5d8f 163f 6e92 583e 1fe1 0cbe 00fe 5f3d
000001e0: 802b 2abe db1e 28be 02e5 e6bd 9c12 4abe
000001f0: 1994 94bd 7b85 bdbe 85a8 d2bd d036 a9bd
00000200: 5798 78bd 4984 b43e 233f 6d3d 2d1d ffbc
00000210: fcee 4f3e b741 e4bd 2b2b d23e 2db1 4b3e
00000220: 6707 693e 42be 37bd 8328 8c3e d0d2 8dbe
00000230: 9303 403e c507 493d 229e c0be 925a 753d
00000240: 68ef a1bd 94b4 c5bd c7e7 70be 597c 88bd
00000250: 16e3 453e 77e8 46bd 5074 9d3d 5ea3 ebbd
00000260: 5790 903d f194 953d 5aed 3a3d fad8 5dbf
00000270: eff0 8b3d 0d07 783d ec1a 2fbe 1f30 ba3d
00000280: 457d 20be e77f 203e ed44 f03e bcfa 303e
00000290: 03bd ff3d f689 1f3f 9e30 ea3b c517 d4be
000002a0: 957a 85be 28d2 1e3c eba3 693c 3b55 3bbc
000002b0: 4c93 0b3f eca9 d33d 302e ac3e 44a5 89bd
000002c0: 8969 963e 489d 273e 31da 483e 898a 70bc
000002d0: b22e 3d3e 6694 3cbd e398 ec3d a0cc 47bc
000002e0: f6be e7bd a467 b8be e401 8dbe c971 a53e
000002f0: 8c1a 083e 5db0 36be 05cd 78be c461 4ebd
00000300: d2fb f5bb 6166 603e 2323 a2bc 0165 333c
00000310: 3c68 733d 42c7 dc3d a4ab 92bd 5fbd 283e
00000320: 649c f1bd 3b30 d93d 5a8c d33d 46d9 ec3e
00000330: bd3e 633e 13f5 773e 9d93 13be 6570 343e
00000340: f48a 4ebe 700c 75bd b629 42bd a80f 2dbc
00000350: 2d5a 9fbd 04dd 81bc 5480 94bd 3291 603e
00000360: 9262 203e 7ba5 41bd 4be3 55bc 99c6 923e
00000370: 5e31 b5bc eade ee3d 6b38 163d ef3f 263e
00000380: 25eb 913d 4093 6abe 7181 80be 332e 653c
00000390: a650 3cbe 0771 853e 4afc 16bd b483 993d
000003a0: 50ef 9b3d 8a2d 12bd 2d4d d0bd 785c d8bd
000003b0: 2dad 0f3e 2aa8 083e dd58 073e 1d34 bc3b
000003c0: f60f ebbe f1e2 ffbd 2329 a13e 3208 b0be
000003d0: 3760 0bbf 1f43 273e f0f0 763e 10cb 54be
000003e0: 6762 3c3d ee65 253e 8868 cb3a af29 2b3b
000003f0: ba18 babd a65d 17be a150 30be d8d9 2a3d
-0.043240055 -0.17574179 -0.07638009 0.043964006 -0.13352716 0.4589384 0.07330892 -0.381274
-0.1318464 0.17268889 0.020072795 0.55336165 0.1591231 0.41875002 0.11208961 0.22619617
0.24209419 0.2370913 -0.11837264 -0.15876397 0.049170483 0.062190197 0.17509 -0.069241196
0.54948646 0.4914204 -0.021743167 0.022150734 -0.022997318 0.0506882 -0.2426194 -0.3262343
0.44622988 0.25667095 -0.012874069 0.23792258 0.1928332 -0.12308273 -0.7997206 -0.016371883
-0.1479817 0.052435234 0.14360449 0.43153474 -0.00044432908 -0.15249166 -0.07207307 -0.23046963
-0.2711852 0.20311056 0.25157666 -0.28920576 -0.056910764 0.12259046 -0.25150555 -0.103952035
-0.14823961 -0.13006917 -0.13804917 -0.14188956 -0.22726992 -0.19946215 -0.28278187 -0.5810118
0.3875029 -0.089916304 -0.08912126 0.1060026 -0.00015471353 0.048439693 0.056811333 -0.37784392
0.0038403901 -0.2138358 0.120359324 0.08593348 0.09142777 -0.16490576 0.017041411 0.014754261
0.33258238 -0.089719504 0.031424813 0.13378628 0.4219038 0.087483294 0.12497797 0.21106352
0.037237834 0.09262025 -0.2781289 0.089336984 0.08098815 0.23236522 -0.07959861 -0.16171737
-0.004971643 0.12360862 -0.011386003 -0.055766 0.41268274 0.020341262 -0.15486987 -0.19358471
0.26589844 0.012833123 -0.31121776 0.023329064 -0.1280483 0.0485048 -0.32415906 -0.31846872
0.24879123 -0.24361056 -0.2020181 -0.011385543 0.58812505 0.21149608 -0.13757752 0.054685593
-0.16618156 -0.1641802 -0.112741485 -0.19733661 -0.0725481 -0.370159 -0.10286049 -0.08262408
-0.060692158 0.35257176 0.05792154 -0.031141842 0.20306009 -0.111453466 0.4104856 0.19891806
0.2275673 -0.04485918 0.27374658 -0.276999 0.18751363 0.049079675 -0.37620646 0.059900828
-0.07906991 -0.09653583 -0.23525916 -0.066643424 0.19324908 -0.04856154 0.076882005 -0.11505769
0.07058781 0.07303799 0.045636512 -0.86659205 0.06833064 0.0605536 -0.17100114 0.090912096
-0.15672787 0.15673791 0.46927586 0.17283148 0.12487223 0.62319887 0.007146909 -0.41424385
-0.26070085 0.00969366 0.0142602725 -0.011433895 0.5452163 0.103351444 0.33628988 -0.06720975
0.29377392 0.16368592 0.19614483 -0.014681467 0.18474844 -0.04603996 0.11552598 -0.0121947825
-0.1131572 -0.36016572 -0.27540505 0.32313374 0.13291377 -0.17840715 -0.24296959 -0.050386205
-0.007506826 0.21914054 -0.019792145 0.010949374 0.059425578 0.10780193 -0.07161644 0.1647849
-0.11797407 0.10604902 0.10329504 0.46259516 0.22191902 0.24214582 -0.14411779 0.17621
-0.20170194 -0.059826314 -0.04740306 -0.010562815 -0.077808715 -0.015852459 -0.07251039 0.21930388
0.15662602 -0.047276955 -0.013054679 0.28667143 -0.022118267 0.11663611 0.036674898 0.16235326
0.071249284 -0.22907734 -0.25098756 0.0139880655 -0.1839014 0.26062796 -0.036861695 0.074958235
0.076140046 -0.03568796 -0.1017097 -0.10564512 0.14030905 0.133454 0.13217492 0.005743517
-0.45910615 -0.124944575 0.31476697 -0.34381253 -0.5444369 0.16334198 0.24115348 -0.20780587
0.04599228 0.16152164 0.0015518824 0.0026117375 -0.090867475 -0.14781818 -0.17218257 0.04171166

sequential/net/while/gru_cell/MatMul_1 f4 [20, 13]
00000000: 062c 203e 56e0 c8bc 011f 8bbd e553 843d
00000010: 65ab e5be 5db0 523c 88ff ecbd 614b d43e
00000020: 1023 c7be 99d4 dfbb 491f 803b 9496 61be
00000030: 7b27 3fbd 157c 17bd ce2c 7abe dde1 82be
00000040: a9e3 1fbe d8e0 e9bc 6f5d a5bd 90be fabd
00000050: 1fe2 35bd 55fc a83e 2905 653e 4dbf 593e
00000060: ba89 d4be bbb8 1bbe 2251 733e 262c 0d3d
00000070: 0ac2 07be 9a82 ebbe b29b 13bf b364 863d
00000080: f95c f93d d348 a7be 463c 50be ed87 37be
00000090: 790d ebbd 4fc1 9cbe 74da 3c3e 5471 433e
000000a0: da16 153e 9db8 3bbe 5611 8f3d 4e78 fc3e
000000b0: 5c3a 75bc 5f55 e73c 51de 2f3e 75d8 fdbc
000000c0: 139f 3bbe 4dc3 89bd ff24 f1be 109a aa3d
000000d0: e51c ddbe 6c57 0d3e ede0 363d f7a9 013f
000000e0: 4dad cf3e 4796 333c c08f 4cbd c0ce cabd
000000f0: 722f a53d c756 e3be b3ad 0fbf 3db1 bc3e
00000100: 84b1 2bbe a6b0 0cbd d83f f03d d6a0 94be
00000110: 6bba 7f3d 7d9f 45be 6393 023e 9439 7f3d
00000120: 683b 1bbe 21ad d23c 51f6 093e 2075 78be
00000130: 4f3c 87bf 0070 593e fb5c f23d d03b 903d
00000140: 2d01 7fbe efae 433d 0e20 2d3e b055 e53e
00000150: 4533 3f3e dc87 5dbe ad43 86bd 593e 5cbd
00000160: b5ef 74bd b837 04be 2526 723f da64 9abd
00000170: 3fff 84bd 7064 5dbe 9942 383e b544 26bd
00000180: 3b08 043e 0de5 9c3e 9d8a df3d b84f 183e
00000190: 1660 063e 994b 813e 50c8 d8be 61d8 593e
000001a0: 8a67 fabc db28 17bd f573 963d 592e 0cbd
000001b0: 64c9 413e b44e 403e f5fe 03bf d700 e53c
000001c0: 9221 bebd 6d9c 36bd 5837 29bf c835 d83d
000001d0: a84c a23d f33f 65be 2607 acbd a706 aabc
000001e0: 0568 353d 968d 023f 4cfe b03e d397 a8bb
000001f0: c5fd 133e 0557 4e3e 09d3 b73d 8183 e8be
00000200: 8c89 c43c 968d 19be b5a7 5cbe 585d efbc
00000210: d720 08bc bee2 f0bd 8f8d 43bd 91c7 613e
00000220: 0f0a 813e 7544 7abd b33f a5be ca20 e03e
00000230: 87c1 d4be 2d90 40be 5f73 863b 12dd f13d
00000240: b24d 873e 83b2 8dbe 6a99 10bd 91b0 febd
00000250: 171f 13be 974a 33be 7bc5 69be 9a65 7a3d
00000260: b701 09bf 3ad0 fe3c c5cb 86bf 3c30 f23e
00000270: 374c b4bb a06c 293d 798e 3f3e 801e bb3d
00000280: c0b5 09be c9c6 e03d 9d9f 81be 21dc bdbe
00000290: 7c68 febd 407c d73e 51c2 e0bd 0a9c ebbe
000002a0: 22a7 b9be e9cf fe3c 9959 dc3d 0848 39be
000002b0: c819 303e 1a99 4cbe 2b27 113f 30dd 6c3e
000002c0: 311b a5be 8e94 273e 32c5 db3e 62f1 823e
000002d0: 8690 c8bd 6ab7 013e 1bce a23d 04aa 66bd
000002e0: a5d2 f5bd c2fe c73d 5e38 e73d b6c3 6a3e
000002f0: 5436 593e edb2 6dbe b313 b33d 4f4e 953e
00000300: 8cdd c0be c4b8 20be 7833 133f 68af 813c
00000310: 0b0b 833d 2962 c6bd 265b 54be 273e 21be
00000320: be78 2abe c676 7c3d 3df9 4b3c 4bb1 2fbe
00000330: f1ee 423e 55d7 01be 3bf3 9fbe 9a23 e4be
00000340: e80a 91be 1c77 b0bb f2cb 76bc 34ae b63d
00000350: 6932 083d db28 933d d7bb e63e 9c9a df3e
00000360: 34c6 383e d6b2 8cbd a644 26bf 77b4 1fbf
00000370: 619e 7abf d52c b1bd f0b1 c03e 0bc9 57be
00000380: 4bd6 c53d a5df 913e ea55 103f d64a 20be
00000390: 61ae 0fbd 1894 e9bd 6b77 25be 52d6 40be
000003a0: e593 2cbd 90b2 bd3e f39a 08be 4255 0d3e
000003b0: 6343 b33e 7185 053f 0098 4d3e 0df3 35be
000003c0: 8ce7 183e 01fb c73e 9c62 dc3d f59f e0bc
000003d0: a430 203e a3e3 083f a969 87be c08d e73c
000003e0: d83f 213d 9f86 8c3d 1fef bfbe de5f 383e
000003f0: de62 60be 6f0e f2bd 4622 0ebd 1083 0e3f
0.15641794 -0.024521034 -0.06793023 0.06461314 -0.44857326 0.012859431 -0.11572176 0.4146376
-0.38893938 -0.0068307635 0.0039099795 -0.22030097 -0.04666851 -0.03698357 -0.24431154 -0.25562945
-0.15614189 -0.028549597 -0.08074462 -0.12243378 -0.0444051 0.33005014 0.2236525 0.21264382
-0.41511327 -0.15207188 0.23761418 0.03446593 -0.13257614 -0.4599808 -0.5765945 0.065621756
0.12175936 -0.32672748 -0.20335492 -0.17922945 -0.11477179 -0.30616233 0.18442708 0.190862
0.14559498 -0.18332143 0.069857284 0.49310535 -0.014967527 0.02823895 0.1717465 -0.030987004
-0.18322401 -0.06726704 -0.47098538 0.08330166 -0.43186107 0.1380288 0.0446481 0.5064997
0.40561906 0.010961122 -0.04994178 -0.09902716 0.0806569 -0.44402143 -0.5612442 0.36853972
-0.16766936 -0.034348153 0.11730927 -0.29028958 0.06243364 -0.19299121 0.12751536 0.06231077
-0.1515938 0.02571732 0.13472869 -0.2426343 -1.056528 0.21234131 0.11834141 0.07042658
-0.24902792 0.04777425 0.16906759 0.44791937 0.18671902 -0.21633857 -0.06555877 -0.053770397
-0.059798915 -0.1291188 0.94589454 -0.07538767 -0.06493997 -0.21620345 0.17994155 -0.040592868
0.12893765 0.30643502 0.1091511 0.1487416 0.13122591 0.2525299 -0.42340326 0.21273948
-0.03056695 -0.036904197 0.07346336 -0.034223888 0.1892448 0.18780023 -0.5156091 0.027954502
-0.09283747 -0.044582773 -0.6610007 0.10557133 0.07924777 -0.22387676 -0.08399801 -0.020755125
0.044288654 0.50997293 0.34569013 -0.005145052 0.14452274 0.20150383 0.08975799 -0.4541283
0.023991369 -0.14995417 -0.2154835 -0.029219314 -0.008308611 -0.11761998 -0.047742423 0.22048785
0.25202987 -0.061100442 -0.3227516 0.43775016 -0.415539 -0.18804999 0.004103109 0.11809744
0.26426464 -0.27675256 -0.035302557 -0.12436021 -0.14367329 -0.17508923 -0.22829239 0.06113205
-0.5351824 0.03110515 -1.0530936 0.47302425 -0.0055022496 0.04136336 0.18706693 0.09136677
-0.13448238 0.10975415 -0.25317088 -0.37082008 -0.124222726 0.42086983 -0.10974563 -0.46017486
-0.36260325 0.031104999 0.10759277 -0.18093884 0.17197335 -0.19980279 0.5670039 0.23131251
-0.32247308 0.16365263 0.42923886 0.25574785 -0.09793191 0.12667623 0.07949468 -0.056314483
-0.12003068 0.09765388 0.11290048 0.2292622 0.21212131 -0.23212786 0.08743992 0.29161307
-0.37669027 -0.15695482 0.5750041 0.01583071 0.06398591 -0.09686691 -0.20737895 -0.15746365
-0.16647622 0.06163671 0.01244956 -0.17157476 0.19036461 -0.12679799 -0.31240258 -0.44558412
-0.28328633 -0.0053852927 -0.015063273 0.08919945 0.0332512 0.07185527 0.45065185 0.43672645
0.18044358 -0.06870048 -0.649485 -0.6238474 -0.9789792 -0.08651129 0.37635756 -0.21072786
0.09660014 0.2849094 0.56381094 -0.15653548 -0.03507841 -0.114052 -0.16158836 -0.18831757
-0.04213323 0.37050295 -0.13340358 0.13802055 0.3501235 0.5215674 0.20077515 -0.17768498
0.14932078 0.39058688 0.10760996 -0.027420023 0.15643555 0.53472346 -0.264478 0.028265834
0.039367527 0.068616144 -0.37487122 0.1800532 -0.21912715 -0.11819159 -0.034700654 0.55668736

sequential/net/while/gru_cell/MatMul_2 f4 [20, 13]
00000000: 8785 56bd 282f e93d b7ab abbe 4f0f a0bd
00000010: a2a5 bfbe 6af5 b9be 57bf d2be 5c25 1e3e
00000020: ee5a 83be 88db 7abe d676 0dbe 5e01 d3be
00000030: 81a3 50be cbd8 f2bd db66 25be 0a4e d5be
00000040: e013 cfbd 335b f7be 3b7b 92be 8a5d f8be
00000050: 7289 d1be e4a3 573e 90c4 5abe 5063 c43e
00000060: 0c47 773e 42f6 aa3e 3ecd ab3b 22df 01bd
00000070: 10ad 8fbd 997a c53e c7cd f33c b117 96bd
00000080: e364 3dbe 6509 cd3e 644c 0cbe c052 263e
00000090: 0ff4 3cbe 2d0d 7cbe a595 ac3e fbab 643d
000000a0: 19e6 bbbc 29fc 983e 6d22 9d3e 8501 053b
000000b0: 613f cfbe 8038 8bbd 4870 923e b1ca 51bd
000000c0: 4fd7 11be 71d1 9d3d d09d f33e 0894 143e
000000d0: 2350 043e 2fcc b3bd 52ea 41bd e1bc 96bd
000000e0: 4e04 57be 54a5 bdbd dc9c 72be 5bfe 51be
000000f0: 5cbf babe c8b2 e0be 0693 163d 9682 b33d
00000100: 2698 a0be 1b4f 373d a33d 443e ffbb b9be
00000110: ae70 323d 4518 91be f941 5bbe 87cc e4bd
00000120: a550 c9bd 7af6 48be 9904 d9be 31c2 2cbd
00000130: d632 e1be 3ce6 2e3f d5b5 d0be ba5f 44be
00000140: 12cd 3d3d a770 1f3d 98d5 34b9 bf9b 763d
00000150: 1b8b b83e 77d6 eb3e b608 003d 1dcb a63c
00000160: 1034 a73d 638a 783e ddb2 fbbd 3dc4 a8be
00000170: 930f cd3d c459 403e beb2 cd3d 3843 453e
00000180: 0511 5d3e 3f86 673e 7eca 6e3e 8f99 da3e
00000190: a64e a5bc 030b 85bd b554 b63d 758b 35be
000001a0: a613 89be 0848 90be d555 ae3e 6962 12be
000001b0: 702b d43e 716a 983b 2458 45be 2970 eb3c
000001c0: cfe1 adbd 47a2 3b3e 882d 843d f318 ed3d
000001d0: b852 55be 2863 2b3e 1f86 953e ec16 193e
000001e0: a6f5 b3be 0b0f aebe 9c43 8abd 8a7c d3be
000001f0: a782 18bd 0dbd 11bf 6fce 653e aa47 9ebd
00000200: dfc9 debe 42e4 5bbe bad6 b33d 03df fe3d
00000210: d5e3 543d c160 08be 6d63 3c3e 6e07 6ebe
00000220: 722a 003d 8f75 33be ce8f fb3e e3f0 c4bd
00000230: 3f22 163e 159a 46be 5246 b5be 87f8 1a3c
00000240: afe5 003d d092 833e 3be3 573e 5ef1 ac3d
00000250: 667e 43bc 7ea2 2d3e ce7c 873e 0d0a 2d3e
00000260: 3ac7 1c3d 14a3 3abe 3820 4dbd f69d c93e
00000270: e441 42be ce5a c9bd 8708 983e 7514 003e
00000280: 94b6 9a3c 0294 a63d ebd1 923b 568c 31be
00000290: 240b 543d e7bc ba3c b19e 08be c90c dabe
000002a0: 8b15 48bf 69dc 1f3e d449 70bd e9cf 22be
000002b0: 3020 223e 059c 89be b847 ec3d 6f87 c9be
000002c0: 3792 a93d e812 9fbe 91de b0be 8721 08bf
000002d0: 1abf 07bd f465 0b3f 4f89 1ebe a2a5 38be
000002e0: 2958 8bbe 3e7f b3bd 9c1c bfbd 9359 c5be
000002f0: 06fc 4fbf 0790 1fbc 8306 69be 85d2 f6be
00000300: bfb6 953c 4e94 dfbe cf9a a0bd 0549 823e
00000310: 208c a5bd a359 8fbe 2e5c 9cbe 4968 7ebe
00000320: 2799 773e 062a 09be 85a7 95be 725d 0dbe
00000330: c92c c03e a624 9b3d 380e 07be 27f7 63be
00000340: 8a94 1dbb 5e0b d6bd 0f5d 8bbe 6e00 febd
00000350: 0b8a 193e c712 cf3c 2f88 a0be b8d4 86be
00000360: 896c 8cbe 1ae8 953e fea8 643e e8e3 7f3e
00000370: f727 1b3f f237 b3be 5c18 303c c924 40bd
00000380: e348 61bd b399 81be a213 93bd f991 813e
00000390: a812 cd3d 9a2d 24be 4472 543e e345 013e
000003a0: 3c3d ce3e 90e6 17bf 8630 0d3e 6104 a83e
000003b0: 7170 e8bb cbbb 413d 72b2 33be 1409 b6bc
000003c0: 2b06 d73d 2caf 13bb ba8b ddbe d53a ab3e
000003d0: 6d3a 93be 8c3b 86be 0edc 30be 1cec b33d
000003e0: b474 f8bd c4c2 a4bd 510a 273e 0be5 e03e
000003f0: ae36 06be 46cf f23d 67aa 0b3f 0be9 6a3e
-0.052373435 0.113859475 -0.33529446 -0.0781542 -0.37431055 -0.3632005 -0.41161606 0.15443939
-0.2565531 -0.24497807 -0.13814864 -0.4121198 -0.20374872 -0.11857756 -0.16152517 -0.41661102
-0.10111213 -0.48311767 -0.28609642 -0.48508865 -0.40925175 0.21058613 -0.21364045 0.3835702
0.24148196 0.33391005 0.0052429726 -0.031706937 -0.07015431 0.38570097 0.029761208 -0.073287375
-0.18495516 0.4004623 -0.13701016 0.16242504 -0.18452476 -0.24614401 0.3370792 0.055828076
-0.022936868 0.29879883 0.30690327 0.0020295095 -0.40478042 -0.06797886 0.2860129 -0.051218692
-0.1424229 0.077059634 0.4758134 0.14509594 0.12921195 -0.08779179 -0.047342606 -0.073602445
-0.20997736 -0.092600495 -0.2369265 -0.20507185 -0.3647412 -0.438864 0.036761306 0.08765142
-0.3136608 0.044753175 0.19164138 -0.36276242 0.04356449 -0.2833883 -0.21411885 -0.11171823
-0.09829835 -0.19625273 -0.4238632 -0.042177383 -0.43984097 0.6832006 -0.40763727 -0.19177142
0.04633815 0.038925793 -0.00017245708 0.060207125 0.3604363 0.4606206 0.031258307 0.020360524
0.08164227 0.2427154 -0.12289975 -0.32962218 0.10012736 0.18784243 0.10043858 0.19263923
0.21588524 0.22609805 0.23319432 0.4269528 -0.020179104 -0.06496241 0.08902875 -0.1772898
-0.26772803 -0.28179955 0.3404986 -0.14295353 0.4143939 0.0046513607 -0.19271904 0.028740006
-0.08490335 0.18323623 0.06453997 0.11577024 -0.20832336 0.16737044 0.2920389 0.1495015
-0.35148352 -0.33995852 -0.06751177 -0.41305953 -0.037233975 -0.56929094 0.2244203 -0.077285126
-0.4351339 -0.21473792 0.0878119 0.1244488 0.05197509 -0.13318159 0.18397303 -0.23245022
0.03129048 -0.17525314 0.49133152 -0.09616258 0.14661501 -0.19394715 -0.35405213 0.009458668
0.031469043 0.25697947 0.21082775 0.08444475 -0.011931991 0.16956517 0.26462406 0.16898365
0.038275935 -0.18226272 -0.050079554 0.39378327 -0.18970448 -0.09831773 0.29694006 0.12507804
0.018885888 0.08133699 0.0044805906 -0.1733869 0.051768437 0.022795154 -0.13341786 -0.4258788
-0.7815787 0.15611424 -0.058664158 -0.15899624 0.15832591 -0.26876846 0.11537117 -0.3936114
0.082798414 -0.31069112 -0.34544805 -0.5317616 -0.033141233 0.54452443 -0.15482067 -0.18031934
-0.27215698 -0.08764504 -0.09331629 -0.38544902 -0.8124393 -0.009738929 -0.2275639 -0.4820749
0.018275617 -0.43667835 -0.078420274 0.25446334 -0.08083367 -0.27998075 -0.30539078 -0.24844469
0.24179517 -0.13394937 -0.2922937 -0.13805178 0.37534168 0.075753495 -0.13189018 -0.2226225
-0.0024044835 -0.10451387 -0.27219436 -0.12402426 0.14994065 0.025277508 -0.313539 -0.26334167
-0.27426556 0.29278642 0.2233009 0.24989283 0.60607857 -0.3500362 0.010747995 -0.04691008
-0.05500115 -0.25312576 -0.07181479 0.2530668 0.10013324 -0.1603302 0.20746714 0.12624316
0.40281093 -0.59336185 0.13788041 0.3281584 -0.007093482 0.047298234 -0.1754854 -0.022221126
0.10499223 -0.002253483 -0.43270665 0.33443323 -0.28755513 -0.26217306 -0.17271444 0.08785269
-0.12131634 -0.08044961 0.16312529 0.43924746 -0.13106796 0.118559405 0.5455689 0.22940461
