wakewords/en/sheila.onnx (onnx, 19283 bytes, 1 tensors)

const_fold_opt__113 f4 [20, 1]
0.056231353 0.2951352 0.14391011 -0.5752886 -0.38061726 0.30145866 -0.109786555 -0.26639286
-0.13439155 0.43744707 0.3472065 0.31983483 0.5707266 -0.40852267 0.5995266 -0.12249695
0.09777079 0.33471107 0.47166505 0.48722836
00000000: d952 663d f61b 973e 2c5d 133e 1d46 13bf
00000010: 44e0 c2be ca58 9a3e c6d7 e0bd a564 88be
00000020: f09d 09be 10f9 df3e 0dc5 b13e 64c1 a33e
00000030: 231b 123f e229 d1be 937a 193f aedf fabd
00000040: 0d3c c83d 405f ab3e 157e f13e ff75 f93e
