wakewords/es/eyordenador-es-0.3.0-20190815-eltocino.onnx (onnx, 15542 bytes, 10 tensors)

dense_1/kernel/read:0 f4 [20, 1]
000000 0a 40 8c bd 87 40 91 be b0 25 93 be 7c fa 35 3e
       -0.06848152 -0.28369543 -0.2873969 0.17771333
000010 7e 90 4f 3e 49 8a 9d be 2f d0 0c 3f 34 1e c8 3e
       0.20269963 -0.30769566 0.5500516 0.39085543
000020 c3 59 aa 3e 1f 5a 61 be da e1 1b bd 5c 8e 98 3d
       0.33271608 -0.22007035 -0.038057186 0.07449028
000030 66 c2 f4 3e a1 1c 4b 3e d6 5a b8 3e 7b 7c 99 be
       0.47804564 0.1983514 0.36006802 -0.29977784
000040 f7 10 ac 3d 3a 1f 08 3f 33 30 87 be c8 5c f4 3e
       0.08401673 0.5317265 -0.2640396 0.47727036

ConstantFolding/net/strided_slice_enter:0 f4 [13, 20]
000000 e5 3a 92 3d 11 a7 a6 bd 64 36 54 bd 1e 39 ce 3d
       0.071401395 -0.08137334 -0.051809683 0.10069488
000010 77 df 07 3d 2d 5a 04 3d 00 3d 10 3e 94 44 08 be
       0.033172097 0.03231256 0.1408577 -0.1330741
000020 f4 64 25 bd 76 a1 0a 3e 40 0a 51 be 94 4c 5d bd
       -0.04037948 0.13538155 -0.20414066 -0.05402811
000030 fd 05 42 3e 73 d9 4e 3d ef 28 de bd 8b c7 80 be
       0.18947597 0.050500344 -0.10847651 -0.2515224
000040 de 4d 30 3d 59 fd 0c bd 86 a6 0d bc 14 c4 33 3d
       0.04304301 -0.0344213 -0.008645659 0.043888167
000050 83 20 81 3e 2a 3c 79 3d c8 5d 04 bd 0e c9 5f 3e
       0.25220117 0.060848393 -0.032316 0.2185404
000060 b5 a9 8c 3e 58 dd 09 be 95 0f c9 3d 7b f4 ad bd
       0.27473226 -0.13463342 0.09817425 -0.084938966
000070 7b 65 1b 3e 84 fe 4b 3e 28 a8 df bd a1 d7 26 3d
       0.1517543 0.19921309 -0.10920745 0.040732983
000080 51 57 70 be 9f 56 24 be f7 b1 5c 3e a0 1f 88 be
       -0.23470809 -0.16048668 0.21552263 -0.26586628
000090 3f 71 56 3e e1 e5 8b 3e de f8 57 bd 87 00 22 3e
       0.20941637 0.2732382 -0.052727573 0.15820514
0000a0 9f bf f9 3d 0f 6e 48 3e 80 98 87 bd 47 17 73 bd
       0.12194752 0.19573234 -0.06620884 -0.05934837
0000b0 32 e9 a0 be 7e 05 b8 bc 9c db 29 3e f5 58 9b 3e
       -0.31427914 -0.022463556 0.1658768 0.30341306
0000c0 be 63 f0 3b 4f ae c7 3d 30 5e f3 3c 69 60 a5 3c
       0.007336109 0.097500436 0.029707998 0.020187574
0000d0 95 32 52 3e f7 8e b1 bd de 15 83 be 87 91 49 be
       0.20527108 -0.086698465 -0.2560262 -0.1968442
0000e0 f1 2a 25 3e 9f ed 34 be 8e 01 bb 3d 21 e3 24 be
       0.16129662 -0.1766877 0.09131156 -0.16102268
0000f0 f2 c5 0a 3e e8 a2 ac 3e 15 10 91 be b7 9c c0 bd
       0.13552073 0.33718038 -0.28332582 -0.09404891
000100 e9 79 10 3e 80 cc ca bd 89 1a 0f be 06 48 9e 3e
       0.14109005 -0.099022865 -0.13974966 0.30914325
000110 43 ae 83 3d b7 c1 7a 3e e3 6d 13 3e 1d 89 29 3e
       0.06429722 0.24487959 0.14397387 0.16556211
000120 fa 4a 8b bd e7 84 27 3e cc 27 6b be 36 ce 30 3e
       -0.0680141 0.16359292 -0.229644 0.17266163
000130 26 11 6a be 4e ad 66 be 70 f8 5a 3d 85 c7 00 3e
       -0.22858104 -0.22527048 0.053459585 0.1257611
000140 19 3a c0 3d 93 53 91 3c d6 e6 a6 ba 0d af 0d 3e
       0.09386081 0.017740047 -0.0012733589 0.13836308
000150 43 29 60 3d c6 8f 18 be 83 21 23 3e 68 90 80 be
       0.05472685 -0.14898595 0.15930752 -0.25110173
000160 91 e7 94 3e ba 36 8e 3d 77 07 22 3e 4a 34 16 3e
       0.2908292 0.06944032 0.1582316 0.14668384
000170 8e 84 3a be 42 8b 8f bd 8b dd 07 be 73 c9 56 bd
       -0.18214628 -0.07008983 -0.13268106 -0.05243821
000180 f2 35 e8 bd 43 8d 5b bd 49 64 87 3e bf 61 47 3e
       -0.11338414 -0.053601515 0.264437 0.19470881
000190 62 53 1d 3e 0e 2b 45 3b 91 c9 83 3e f9 f0 96 3e
       0.1536384 0.0030085477 0.2573972 0.29480723
0001a0 ae 73 bb bd aa a4 b3 3d 09 20 b4 3e 74 28 2d be
       -0.091529235 0.087716416 0.3518069 -0.16909963
0001b0 b1 b4 41 3e 20 e8 6f bd ee b1 a6 3e 2d a7 89 3e
       0.18916585 -0.05857098 0.32557625 0.26885357
0001c0 4e 46 13 bd 97 da d8 bd fc 5d 27 3d 4d fa 0f 3b
       -0.03595572 -0.10588568 0.040861115 0.002196926
0001d0 11 42 ba 3d e4 2d a1 be 18 5e 0e be 90 56 13 be
       0.090946324 -0.31480324 -0.13903081 -0.1438849
0001e0 d3 12 56 be 8b 7b 4c 3e 8c 81 8c 3d 68 4b c5 bd
       -0.20905618 0.19969003 0.068606466 -0.09633523
0001f0 e0 66 ca 3c d3 78 2e 3e 9d 3a 21 bd 46 1c 7f be
       0.024707258 0.17038278 -0.03936254 -0.24913129
000200 39 07 12 3e f1 af a7 3e 06 6f ae 3e ee bc 94 3e
       0.14260568 0.3275142 0.3406908 0.29050392
000210 c4 54 23 be 1c a8 12 3b 51 22 eb bd 63 05 f3 3c
       -0.15950304 0.0022378033 -0.11481155 0.029665655
000220 03 af 47 bd b8 aa 2c 3e ce e9 28 3e 8f 28 36 3e
       -0.04875089 0.16861999 0.1649544 0.1778891
000230 c8 58 8a 3c d3 d5 ce 3e 45 04 23 3e 0e 61 1c 3e
       0.016888037 0.4039751 0.15919597 0.15271398
000240 c0 6d 4b 3c 72 40 62 3d b7 29 3a 3e 8e 19 38 bd
       0.012416303 0.05523724 0.18179975 -0.044946246
000250 4d 49 2d bd 2d ca b1 3d 28 e5 94 3e 11 a7 27 bd
       -0.042306233 0.0868114 0.29081082 -0.04093081
000260 93 2d f1 3d fc 4d 1e 3d 6c a4 82 3d eb 5a 22 bd
       0.11776271 0.03864859 0.06379017 -0.039637487
000270 ad 3a 21 3e e4 5b a5 b9 03 6f 0e 3d ba 23 b8 3e
       0.1574504 -0.00031539716 0.034773838 0.35964757
000280 40 73 45 3e 5a e3 ab 3d fe 1e e8 bd 45 29 82 3e
       0.19282246 0.08392973 -0.11334036 0.2542211
000290 d5 86 97 be ce d7 cd 3c ac 6b 3f be 1c 75 08 bd
       -0.29595056 0.025127318 -0.18693417 -0.03331481
0002a0 bc d4 14 3e 9c 2a bf 3d 89 f1 87 be 6d 2c 57 3d
       0.14534277 0.09334299 -0.26551464 0.052532602
0002b0 f5 b8 58 be a4 c2 55 3d bf c8 81 3e 67 25 3f 3d
       -0.21164306 0.052187577 0.2534847 0.04666653
0002c0 11 b3 4a be 95 20 90 3d 7d 1d a1 bd 2a 61 6b 3e
       -0.19794871 0.070374645 -0.078669526 0.22986284
0002d0 18 c3 b9 3b 6d 7d b2 3d f3 09 9e bd 29 9e 28 be
       0.005669009 0.08715329 -0.077167414 -0.16466583
0002e0 74 38 d3 bd 3b 11 83 3d e2 1b 42 3e 69 83 f7 bd
       -0.10313502 0.06399771 0.18955949 -0.120856114
0002f0 57 72 2e bd 3a 88 02 3c 5b fb 00 3e 72 21 2d 3e
       -0.04258951 0.007967049 0.12595885 0.1690729
000300 76 52 95 3e 22 c9 89 3e e2 5f 8d bd f4 39 29 bb
       0.29164475 0.26911265 -0.06903054 -0.0025821896
000310 41 ac 79 3d 96 27 9d 3e c9 fa 34 be 7e 4c e6 bd
       0.06095529 0.30694264 -0.17673792 -0.112450585
000320 f7 3d de 3d 31 ff ae 3d e7 36 2e 3e 38 f3 6c bd
       0.108516626 0.08544768 0.17013131 -0.05784914
000330 69 12 24 3c 2c 0b bc bc 78 46 99 bd 08 14 99 bb
       0.010014155 -0.022954546 -0.07484144 -0.0046715774
000340 b1 e9 c0 3d f7 07 81 bd 38 1e 8b 3e e5 02 60 3e
       0.09419573 -0.06300347 0.27171493 0.21876104
000350 71 1a ff bd c9 ca 6b be 2e b0 56 3e 61 af 21 3e
       -0.12456215 -0.23026575 0.20965645 0.15789558
000360 7e e4 5f 3e 38 4c 66 3e 2d 54 65 be 47 56 ad bd
       0.21864507 0.22490013 -0.22395392 -0.08463722
000370 c9 e5 89 3d 1c 2c ca 3d 99 d8 be 3e b9 b3 64 3e
       0.06733281 0.098716944 0.37274626 0.22334184
000380 bd b8 11 be d7 b6 e8 bd 19 f3 26 3e 31 ce ec 3d
       -0.14230628 -0.11362999 0.16303672 0.115627654
000390 ce 57 72 3e 08 47 f6 3d 0f c4 16 be 4b 83 82 3e
       0.23666307 0.12025267 -0.14723228 0.25490794
0003a0 39 4e 13 bc 4b b2 20 3e 23 e4 af bd 55 cd 88 3e
       -0.008990818 0.15693013 -0.085884355 0.26719156
0003b0 13 2c c5 3d e7 81 75 be 20 13 28 bd 20 3f 2d be
       0.09627547 -0.23975335 -0.041033864 -0.16918612
0003c0 1b d0 53 3d f0 50 7a 3e d9 5d 34 bd be 6f df bd
       0.051712137 0.24444938 -0.044034813 -0.10909985
0003d0 85 3c 3a bd 26 4d 71 3e 16 6d cb 3e 8e a0 3e 3e
       -0.045467872 0.23564586 0.39731663 0.18615934
0003e0 e0 d9 9f bc 60 67 d1 3d 1c fb 99 be bf df 52 be
       -0.01951307 0.10224795 -0.30074394 -0.20593165
0003f0 2a cc 13 3e 01 e4 9a 3e a1 00 3a be 52 06 d2 bd
       0.14433351 0.30252078 -0.18164302 -0.10255112

ConstantFolding/net/strided_slice_8_enter:0 f4 [20]
000000 42 05 ff bd d0 df 0f 3e 91 07 08 3e ad 42 d2 3d
       -0.12452175 0.14050221 0.13284136 0.10266624
000010 13 bd 17 be 69 cc 13 3e 35 bd ef bd a4 94 fd bd
       -0.1481822 0.14433445 -0.1170601 -0.123818666
000020 b4 4e 04 be 5d 48 0d 3e 7d 82 1d 3e 43 af 07 be
       -0.12920648 0.13797136 0.15381809 -0.13250451
000030 d4 c4 01 be dd 64 b3 3d e7 78 05 be b4 31 f8 3d
       -0.1267274 0.087594725 -0.13034402 0.12118855
000040 01 53 fa 3d 67 96 fb bd 25 c1 44 3c 1b a7 09 be
       0.12222863 -0.12284546 0.01200894 -0.13442652

ConstantFolding/net/strided_slice_7_enter:0 f4 [20]
000000 fe 63 bf 3d 36 8a ac 3d 81 12 07 3e 6e e2 83 3d
       0.09345244 0.08424799 0.13190652 0.064396724
000010 ba d5 0f 3e 57 88 e7 3d bc c1 1b 3e 22 90 80 3d
       0.14046374 0.11305302 0.15210623 0.06277491
000020 35 a6 8f 3d 97 65 f3 3d ca 96 72 3d ca 87 91 b9
       0.07014123 0.11884611 0.059225835 -0.00027757726
000030 b7 98 14 3e a8 44 4e 3d 12 6d e7 3d 11 da cf bc
       0.14511381 0.050358444 0.113001004 -0.025372537
000040 04 a9 9c 3d 96 9e f7 3d dc 30 9b 3d 8d 50 13 3e
       0.07649425 0.12090795 0.075776786 0.14386196

ConstantFolding/net/strided_slice_6_enter:0 f4 [20]
000000 ae 5b 7a 3c f9 d8 9e 3d 2b 56 18 bd b6 15 34 bd
       0.015280647 0.07756228 -0.03719155 -0.043966018
000010 97 c2 b0 3d 36 32 97 3c 68 8a 18 bc 13 97 4e 3d
       0.08630865 0.01845656 -0.009310342 0.050437044
000020 54 6e 9a 3d 32 9e 6b bd 00 f4 fc 3c 24 00 81 bd
       0.07540575 -0.057523914 0.030878067 -0.06298855
000030 73 5c 97 ba 27 b2 79 bd a3 f8 0e bd 2e 5d 0a 3d
       -0.0011547938 -0.060960915 -0.034905087 0.03378027
000040 95 1a cd bc 50 36 82 3c f0 15 8d bd 5e 57 1b bd
       -0.02503709 0.015895039 -0.0688895 -0.037925117

ConstantFolding/net/strided_slice_5_enter:0 f4 [20, 20]
000000 09 cc b8 3d 25 ad 92 bd 43 41 8a 3d 60 2d d8 3d
       0.090232916 -0.07161931 0.06750729 0.105555296
000010 ad 93 94 3e 9c f9 9c be 09 5b 53 3e 13 8f a6 3e
       0.29018918 -0.30659187 0.20640196 0.32531032
000020 05 80 31 3d dc 22 af 3c df 06 1b be e5 ae 09 be
       0.04333498 0.021378927 -0.1513934 -0.13445623
000030 c8 38 7b 3d 89 50 fd 3c 4d a4 40 3e f8 7f 53 3d
       0.061333448 0.030922191 0.18812676 0.051635712
000040 18 95 db bc 65 88 34 3d 14 82 43 3d 50 d9 d4 3e
       -0.026804492 0.04407539 0.047731474 0.41572046
000050 60 01 1c bd 23 3c a8 3d 32 0a 11 3e c7 9e f8 3d
       -0.03808725 0.08214595 0.14164045 0.121396594
000060 d1 e6 c9 bd e5 2c c7 3c 0a 6f 74 3c c4 c2 26 be
       -0.09858478 0.0243134 0.014919052 -0.16285235
000070 f6 64 b1 bd db 1b 05 3e bc 5e 33 3e 7c e1 a8 bd
       -0.08661835 0.12998907 0.17516607 -0.08246133
000080 b8 31 c3 bc 18 22 e8 3d 2d 17 f5 3d 77 08 9e 3c
       -0.023827419 0.11334628 0.11967311 0.019291146
000090 5a d2 41 bd 25 37 2c be ab 51 29 3e 3c 70 20 be
       -0.047319748 -0.16817911 0.1653506 -0.15667814
0000a0 f3 46 1e be 7b 58 91 bb be 3f 41 3e 34 72 44 3e
       -0.15456752 -0.0044355965 0.18871972 0.1918419
0000b0 78 8b 25 be 43 ae a0 3e cc 86 43 be 9d 61 a7 be
       -0.16166484 0.3138295 -0.1909439 -0.3269166
0000c0 ed 9c e3 be 91 16 01 3e f6 9e 75 3e f2 46 07 3e
       -0.44455662 0.12606265 0.2398642 0.13210657
0000d0 af ea e1 bc ae 26 7c 3d 03 62 96 be 2e 3c 32 3e
       -0.027577726 0.061560325 -0.29371652 0.17405769
0000e0 2b a0 c1 3d b4 d4 c5 bd 59 5e c5 bd c7 d8 ce bd
       0.09454378 -0.096597105 -0.09637136 -0.10099941
0000f0 e8 c9 25 be c2 44 0e 3e ec 17 0a 3e c5 6f 03 3e
       -0.16190302 0.13893417 0.13485688 0.12835605
000100 2e 0b 05 be ae a6 ac 3e 38 3c 55 be f9 ca ea bd
       -0.12992546 0.33720917 -0.20823753 -0.11464495
000110 a2 22 23 3d e9 35 48 3e 30 ba 7e 3d 18 3f cd 3b
       0.03982795 0.19551815 0.06218928 0.006263625
000120 14 d0 b7 3d 88 8e a1 3d 69 c6 d6 3d 9c 82 ce bd
       0.08975235 0.07888514 0.104870625 -0.100835055
000130 a7 5a 3a be 96 bb 43 3d 52 ac d0 3d 3b a7 a3 bd
       -0.18198644 0.047786318 0.101891175 -0.07990881
000140 82 40 6d 3e 79 fb 66 be 24 f0 ce bd e6 6d 2b 3d
       0.23169139 -0.22556867 -0.10104397 0.041852854
000150 2f 9a 12 bc 7c 10 af bd e1 e1 57 bb f6 8d 1d 3e
       -0.008947893 -0.08548066 -0.003294103 0.15386185
000160 03 7b b5 3d 58 33 07 be 93 f2 23 be a2 08 8d 3d
       0.08861353 -0.1320318 -0.16010503 0.06886412
000170 86 52 5f 3e f3 ce 30 be 2f c7 53 3e aa f4 83 be
       0.21808824 -0.17266445 0.20681451 -0.257726
000180 7c d2 1d 3e ef 31 f0 3d 92 bc 9b bc fd e6 c9 bc
       0.15412325 0.11728274 -0.019010816 -0.024646277
000190 7a 11 33 be b9 3d fc 3d 4e 82 da 3d 96 00 49 bd
       -0.17487136 0.1231646 0.10669385 -0.049072824
0001a0 7f 69 33 be a1 18 62 3e b7 46 5c bc 52 64 c5 3d
       -0.17520712 0.22079708 -0.013444594 0.09638275
0001b0 0b e1 d8 3c 33 e9 d3 3e 11 08 05 3e 2c 4c cf bd
       0.026474496 0.41388854 0.12991358 -0.101219505
0001c0 5b b9 00 3e f5 5c 40 3d e9 bf 9e be ae e3 8b 3d
       0.12570707 0.04696365 -0.3100579 0.06830536
0001d0 28 a3 e7 3e 02 54 96 bd d2 a6 68 3e 73 e1 03 be
       0.45241666 -0.07340242 0.22719887 -0.12878971
0001e0 00 c6 be 3d b8 af 78 3d ab 57 37 be 61 49 20 3d
       0.09315109 0.060714453 -0.17904536 0.03913248
0001f0 28 6d 82 3e e1 86 17 be 99 ee 3f be 07 2b b9 3d
       0.25473905 -0.14797546 -0.18743362 0.0904141
000200 b0 2c 23 3e f3 1a 1d 3e b3 dd 35 be 8a 32 b4 3d
       0.15935016 0.15342312 -0.17760353 0.08798702
000210 7a 70 06 3d 42 3a 5e be 0b 3f 30 3e bd d8 8d 3d
       0.03282211 -0.21701911 0.17211549 0.06926105
000220 be 52 7a be 63 6f 81 bc 97 98 e2 bd 78 e1 6e bd
       -0.24445626 -0.015800184 -0.110642605 -0.058320493
000230 7d b1 1a 3e 7a fa bb bc fb 06 24 be 3d b8 2e bd
       0.15106769 -0.022946585 -0.16018288 -0.042656172
000240 ad 88 49 3e 49 db c8 3c 9b f0 f9 bc d9 63 68 bd
       0.19681044 0.024518626 -0.030510237 -0.056735847
000250 b7 8f 57 3e ee b8 ab 3d 0e 47 c6 bd 93 75 f3 3c
       0.21050917 0.08384882 -0.09681521 0.02971915
000260 90 a9 97 bb 1a 75 80 be 44 59 9f bd aa 0e 1a 3d
       -0.0046283677 -0.2508934 -0.07780698 0.03761164
000270 d7 42 ef 3c 00 b1 24 3e 20 a2 28 bd db 6f 08 3e
       0.029206676 0.16083145 -0.04117024 0.1332392
000280 a4 57 b7 3d bb 38 b5 3c fa 1b 24 be ec 93 91 bc
       0.08952263 0.022121778 -0.16026297 -0.01777073
000290 26 dd a6 bc 76 53 c6 be 0c 80 83 3d 12 d6 38 3e
       -0.020369124 -0.3873555 0.064209074 0.18050411
0002a0 d9 4c d5 bd 9c 75 b6 3c cd ef 8e bd 14 a7 58 3d
       -0.10415048 0.022272877 -0.06979332 0.052893713
0002b0 7c 02 60 3e 19 20 d4 bd e9 8b 37 3d c3 87 68 bd
       0.21875948 -0.10357685 0.044811163 -0.056770097
0002c0 b6 b4 8f be 4c c2 10 3e 71 e0 e8 3d 3b b3 1e 3e
       -0.2806756 0.14136618 0.11370934 0.15498058
0002d0 4a e2 76 be 9e e4 f3 3e 24 28 c5 bd c3 e4 3f 3e
       -0.2410976 0.4763536 -0.09626797 0.1873961
0002e0 cd 66 41 be 4b f4 99 bd 27 d5 9f be 11 d1 32 be
       -0.18886872 -0.07517298 -0.3121731 -0.17462565
0002f0 94 b7 47 bd c9 01 94 bd d7 e8 d4 3c ec 20 eb bd
       -0.048759058 -0.07226903 0.025989933 -0.11480889
000300 e8 52 89 3c c8 5a 82 bd 68 b0 ef bd e8 88 e4 bc
       0.016763166 -0.063649714 -0.11703569 -0.027897313
000310 07 5b 6b 3d 3b 0e 65 be 9a 92 f0 3d ec 0f 20 be
       0.057459857 -0.2236871 0.11746712 -0.15631074
000320 63 8b 5a 3e d6 84 19 3e f5 e4 0d 3e fa 20 8e 3e
       0.21342234 0.14992079 0.13856871 0.27759534
000330 87 47 22 bc 81 5e 3b 3e ea ba b5 bd 1c 11 12 3e
       -0.009904749 0.18297769 -0.08873542 0.14264339
000340 bd d2 6f bd 38 b7 d9 3d bd 25 de 3d 06 a9 ad bd
       -0.058550585 0.10630649 0.10847042 -0.08479504
000350 af 75 22 bd da a4 f6 3d 65 a7 99 bd 64 6c 7d 3e
       -0.039663013 0.12043162 -0.07502631 0.24748379
000360 4b db 04 3d 90 ad 78 3d ee 3b 79 bc f1 b0 80 bd
       0.032435697 0.060712397 -0.015212042 -0.06283749
000370 12 44 55 3a 7b ad 89 bd 8d 0c 26 be c3 7d 00 be
       0.00081354484 -0.06722542 -0.16215725 -0.12547974
000380 ba 39 94 ba ee 48 1d be 58 b9 94 bd 29 3c 3a 3e
       -0.0011308708 -0.15359852 -0.07261914 0.18187012
000390 33 9d 73 3e be 97 72 bd 0f 90 1f bd a0 63 c0 bd
       0.23790435 -0.059226744 -0.038955744 -0.09394002
0003a0 bd fc 89 be 1e 3b 1d bd 81 5a 8b 3d 2f 88 f3 bd
       -0.26950637 -0.038386457 0.068043716 -0.11891209
0003b0 da 1b 12 be 52 d3 97 3d ea bd 38 bc 36 33 6a 3e
       -0.14268437 0.07413353 -0.011275748 0.22871098
0003c0 88 24 b1 3e 8b 61 0a 3c af 54 1e be 9a 7e 8e be
       0.34598184 0.008446108 -0.15461992 -0.27830964
0003d0 97 32 4e be 60 97 a3 be 58 33 ae bd a6 7b c0 3d
       -0.20136486 -0.31951427 -0.08505887 0.09398584
0003e0 d8 20 36 bd e1 41 17 3d 16 2c 0f be f5 ea 6b 3e
       -0.044464916 0.03692806 -0.13981661 0.23038848
0003f0 3b 5d ea 3c c2 ea 44 be 29 a4 7f bd 10 8b ab bd
       0.028608909 -0.19230178 -0.062412415 -0.083761334

ConstantFolding/net/strided_slice_4_enter:0 f4 [13, 20]
000000 4e 16 d5 3d 39 43 01 3e 21 16 46 be 9d c9 cd bd
       0.10404645 0.126233 -0.19344379 -0.1004822
000010 0e 65 1f 3e ba 20 ee bd 55 64 34 bc 4d 30 16 3e
       0.15565893 -0.11627336 -0.011010249 0.14666863
000020 d4 a5 ac 3d f4 2a ac bd 4e b8 24 be 74 cf 80 be
       0.08430067 -0.0840663 -0.16085932 -0.25158274
000030 e1 58 91 be bc b3 b0 bc c1 13 b4 bd 09 ef 14 3e
       -0.28388122 -0.021570079 -0.0879283 0.1454431
000040 df aa c0 bc af b9 2f 3e 67 be a1 be 86 9a 50 be
       -0.023518978 0.17160676 -0.31590578 -0.20371446
000050 4c b3 78 3e b7 71 31 3c 66 34 2c be d2 f7 ce 3d
       0.24287146 0.010830334 -0.16816863 0.10105862
000060 81 99 67 3e 2a be b7 3d c4 24 82 bd ae c5 89 3e
       0.22617151 0.08971818 -0.06354669 0.2690863
000070 00 21 83 3e 1b 5a 15 bd ac 10 a5 3e a5 42 89 be
       0.25611115 -0.036462884 0.32239282 -0.26808658
000080 55 c8 86 be e8 41 59 3d 96 9f 1a be c2 90 87 3e
       -0.26324716 0.05304137 -0.1509994 0.2647763
000090 bc 72 5b 3e 0e 41 98 3e 8a 31 de bd 23 77 8d be
       0.21430486 0.29737133 -0.108492926 -0.27629957
0000a0 44 54 54 3e 9f 10 19 3c ca 81 74 bd 75 c7 14 3e
       0.2073527 0.009342342 -0.05969409 0.14529212
0000b0 11 5a 88 be 5e fe 38 bb 27 db 72 be 74 33 79 3d
       -0.26631215 -0.0028227787 -0.23716412 0.060840085
0000c0 2d d9 98 bc 14 79 de 3d bd d4 81 be ea bc 7d be
       -0.018658245 0.108629376 -0.2535762 -0.24779096
0000d0 7f 61 60 bc d5 25 8f 3e 03 f1 47 be 68 52 74 bb
       -0.01369512 0.2795855 -0.19525532 -0.0037280563
0000e0 60 c5 2d 3e a0 87 a7 3c 81 96 41 3e b4 30 5c 3e
       0.16969824 0.020450413 0.18905069 0.21502954
0000f0 b8 1b d3 3d 7e 6e 2f bd b1 92 2c 3e 4c 1b b3 3d
       0.10308021 -0.042829983 0.16852833 0.08745441
000100 6b 1d 62 3e 28 00 16 be e4 76 38 be f6 71 9c 3e
       0.22081535 -0.14648497 -0.18014103 0.30555695
000110 45 8d b7 bd 6d fa 8f bd 5f 4d 76 be 00 e1 81 bd
       -0.08962492 -0.07030187 -0.24052952 -0.063417435
000120 63 ee bd bd a0 2e 1f bc 4d 4e 36 be dd ee 1c be
       -0.09273984 -0.009715706 -0.17803307 -0.15325494
000130 8f e1 2e 3e 5d 68 e6 bd b0 a4 58 3e 58 d9 53 bd
       0.17078231 -0.112503745 0.21156573 -0.051720947
000140 6e 62 5d 3e 36 c8 9f bd 91 fd 24 3e 37 fe 51 be
       0.21619579 -0.07801859 0.16112353 -0.20507132
000150 3d 9d 41 3d c1 ae e4 3d 82 c0 93 3d 74 c9 bd bd
       0.047269095 0.11166144 0.07214452 -0.0926694
000160 d9 04 4e 3e 02 ff 5b bd aa 78 91 bd 1d 37 d9 bb
       0.20119037 -0.05370999 -0.07103093 -0.0066288845
000170 a6 22 e3 3c dc 8c 69 be e8 79 2c be 59 1c 1f be
       0.027726483 -0.2280764 -0.16843379 -0.15538158
000180 4d 86 13 3e be b1 35 3e 50 74 7b be c8 d5 00 be
       0.144067 0.17743585 -0.24556088 -0.12581551
000190 54 2f 3c be 40 c7 5c 3e 03 f2 4a be 8e 15 38 3e
       -0.18377429 0.21560383 -0.19818883 0.17976972
0001a0 53 07 2e be d6 12 04 be 4c 89 78 3d 14 65 d1 bd
       -0.16994981 -0.1289781 0.06067781 -0.10224357
0001b0 2b ca cc 3b 95 3f 00 bd 42 9c cf bd 2e 9e 8b bd
       0.0062496862 -0.031310637 -0.10137226 -0.0681728
0001c0 9e 70 47 bc 86 ae 53 be 91 f0 50 3d 3c 00 70 3e
       -0.012172846 -0.20672044 0.051010672 0.2343759
0001d0 02 09 d8 bd 8a d0 8c be 8c dc 41 3e 58 29 0b 3c
       -0.10548593 -0.27502853 0.18931788 0.008493744
0001e0 b8 03 1a 3e 7a b6 76 be e3 07 53 be 7f 20 b3 bd
       0.15040481 -0.24093047 -0.20608477 -0.087464325
0001f0 db 97 23 3d 3d 2c 63 3d da 8b 31 bd f3 e2 1d 3e
       0.039939743 0.05546211 -0.043346263 0.15418606
000200 3f 93 bd 3d a0 78 23 be 68 a5 5a be ba 05 22 3e
       0.092566006 -0.15963984 -0.2135216 0.15822497
000210 3f 3c 5b be 18 52 87 3d 2d 3b 99 3d 11 18 83 be
       -0.21409701 0.06607455 0.0748199 -0.256043
000220 1c 58 04 be d5 33 ec bc 91 20 9d 3d 78 ce c4 bd
       -0.12924236 -0.02883331 0.07672227 -0.09609693
000230 52 de 8d be af c5 d0 be 91 94 1a be 4b a9 da bd
       -0.2770868 -0.4077582 -0.15095736 -0.10676821
000240 ba 83 8b bd 43 b3 2c be 1b 63 bb 3d ac 82 fb bd
       -0.06812234 -0.16865258 0.09149762 -0.12280783
000250 94 6e 2f be 64 84 dd 3c c2 c5 96 ba 81 10 fd bd
       -0.17132026 0.027040668 -0.0011503028 -0.123566635
000260 81 d1 ce bd 70 70 05 3e 2f e1 fe 3d ed c3 b0 3d
       -0.100985534 0.13031173 0.12445294 0.0863112
000270 82 90 9e 3e 00 37 8b bd 50 36 96 ba d6 3b 0d be
       0.30969626 -0.067976 -0.0011460278 -0.13792357
000280 99 f6 15 be fa f0 a0 be 3e cd 2c 3d 9e e0 9d 3b
       -0.14644851 -0.3143385 0.04218792 0.004818036
000290 6e 39 5c be 0a d2 01 be 77 a7 c6 bd 91 4f af 3e
       -0.21506283 -0.1267778 -0.0969991 0.34240392
0002a0 79 ed 44 3e 99 ac 9d be 78 c4 0d 3e e3 c7 af bd
       0.19231214 -0.30795744 0.13844478 -0.08583047
0002b0 4e f8 ad bd a9 74 a3 3d 18 cd 4b 3e 4b f8 89 be
       -0.08494626 0.079812355 0.19902456 -0.26947245
0002c0 26 1e 66 3e 15 16 ba 3d 59 d3 cc 3d cc 5f 6e bb
       0.22472438 0.09086243 0.10001249 -0.0036373017
0002d0 19 ff 4f be fc 69 42 bc 34 16 4f be b9 78 39 be
       -0.20312156 -0.011866089 -0.20223314 -0.18112458
0002e0 cb 7e 4b 3e 6f 6a 84 3e 80 50 43 3c 54 be 81 be
       0.19872586 0.25862452 0.011921048 -0.2534052
0002f0 d4 22 b7 3d bd b5 83 3e ec 2f 67 be 52 94 3b 3e
       0.0894219 0.25724593 -0.22576874 0.18318298
000300 d9 38 68 3e 77 4b 4a 3d c5 50 d4 bd f6 49 0c be
       0.22677936 0.049388375 -0.10366968 -0.13700089
000310 d2 8c f1 bd 14 7d 90 3e 8c 01 2e be 8b e3 c0 bd
       -0.117944375 0.28220427 -0.16992778 -0.094184004
000320 c6 e8 6b 3e aa bd bb bd 06 e6 1d be 9d e7 09 3e
       0.23038015 -0.09167035 -0.15419778 0.1346726
000330 b6 d2 c2 bd 29 a5 1b be 64 cc 87 3e e9 ab 63 3e
       -0.09512846 -0.15199722 0.26523125 0.22233547
000340 c4 12 9d 3e f4 ac ca bd bf 81 d8 3d 74 26 f1 bd
       0.3067838 -0.098962694 0.10571622 -0.117749125
000350 4c 67 af bd d6 ac 09 be 57 90 77 3e 20 25 70 be
       -0.08564624 -0.13444838 0.24176155 -0.23451662
000360 16 2b 91 bb 8d 4b 15 bd 87 6d f5 bd 74 b0 09 3e
       -0.004430185 -0.036449004 -0.11983781 0.13446218
000370 28 c2 0e be cf 59 3c be ba 1f a3 bd 14 64 f9 3d
       -0.13941252 -0.18393634 -0.07965036 0.121772915
000380 7f 42 cc bd 0c 41 96 bd aa fe 41 be 64 2c 5a 3e
       -0.099736206 -0.073366255 -0.18944803 0.21305996
000390 4f 2b 87 bd cc ee ce 3c 8c 17 1d 3e 7a a3 83 bd
       -0.06600057 0.025260352 0.15341014 -0.06427665
0003a0 ce 0f b7 3c 8b e8 60 be 52 1f a0 3d 8b e6 3e be
       0.022346403 -0.21963708 0.07818474 -0.18642633
0003b0 4e d4 45 bd 68 95 83 3d c7 0c 66 3d a6 c4 6f 3e
       -0.048298173 0.06424981 0.05616453 0.23414859
0003c0 bb 97 24 bd 5a da 7c be a5 4b b8 be 3b b1 3e 3e
       -0.040183764 -0.2469267 -0.35995212 0.18622296
0003d0 1a 55 6e bd f6 1f a9 bc 07 c2 43 3e de 11 c7 3e
       -0.058186628 -0.020645123 0.19116984 0.3888082
0003e0 8d 73 8a 3e f4 d8 07 be 1c 81 2e 3e 0f ba 5b 3e
       0.27041283 -0.13266355 0.17041439 0.21457694
0003f0 da f6 fd 3d cb 06 a9 3c 32 3d 17 be dc 25 06 3e
       0.12400599 0.020633122 -0.14769438 0.1310038

ConstantFolding/net/strided_slice_3_enter:0 f4 [20, 20]
000000 da 47 29 bd 0a f0 65 bd b2 7f d5 bc 0c 12 00 3d
       -0.04132829 -0.056137122 -0.026061866 0.03126721
000010 28 b0 96 be 7f 16 6f be f6 39 5f bd ee 7c 14 bd
       -0.29431272 -0.23348425 -0.054498635 -0.036251955
000020 3e b8 8b bb bf bb b4 bc c7 76 c6 bd c7 84 10 bc
       -0.0042639067 -0.02206218 -0.09690624 -0.008820719
000030 16 c3 b2 3d 7d fa 8f bc 83 21 5a 3e e8 41 c3 bd
       0.08728616 -0.017575497 0.21301846 -0.09534055
000040 53 09 8f 3d 85 28 a2 3d fa 6b ed 3b 81 57 63 3d
       0.069842 0.07917885 0.007245538 0.055503372
000050 f9 32 fc 3d d4 76 0f 3e ea 61 d2 3d 71 84 3a 3d
       0.1231441 0.14010173 0.10272582 0.045536462
000060 f7 8b 35 3e 08 72 59 3e 05 43 34 3e 0e 3d 74 bd
       0.17729174 0.21234906 0.17603691 -0.05962854
000070 1e 44 d9 bb 30 3b c8 3e d9 c0 0b be d5 6b af bc
       -0.0066304347 0.39107656 -0.13647784 -0.021413723
000080 a3 90 ff 3d 41 13 28 3e 47 66 90 3e 18 f2 34 3b
       0.12478759 0.16413595 0.2820303 0.002761012
000090 94 ed 3e bc 8b d9 ba bd 04 aa 17 3e cf f9 74 3e
       -0.011653323 -0.09123524 0.1481095 0.2392342
0000a0 1b a6 b5 bd e1 b6 29 3d de 7e 22 3e cd a0 6c 3e
       -0.08869573 0.041434173 0.15868708 0.23108216
0000b0 9a d3 fc bb 40 b9 78 3d 34 53 d5 3c 5b 03 19 be
       -0.0077156546 0.060723543 0.02604065 -0.14942686
0000c0 71 d5 d7 3e e7 d7 de 3c 7d fd 82 3d 05 ed 01 3d
       0.4215503 0.02720256 0.06396005 0.03172018
0000d0 bd 42 8f bd 52 fa 52 3e 50 d6 c1 3e a4 4a 28 3e
       -0.06995151 0.20603302 0.3785882 0.16434723
0000e0 de 06 a0 bd 72 6a 19 be ae 54 b4 bd 9a d3 f3 bc
       -0.0781381 -0.14982012 -0.08805214 -0.029763985
0000f0 59 a0 87 be 90 f8 a0 3d 9f 24 3b 3e 22 35 e5 3c
       -0.26489523 0.078599095 0.18275689 0.027979437
000100 dd 74 1b be 75 7d ae 3e 92 03 1c 3e 42 be 8a 3d
       -0.15181299 0.3408009 0.15235737 0.0677457
000110 0c 85 05 be be 3f 8e bd 74 e8 1e bd 31 29 96 3e
       -0.13039035 -0.069457516 -0.038795903 0.29328302
000120 0e 39 28 3e 50 59 11 be 84 9a 0d 3e 65 d3 6e 3d
       0.16428015 -0.14194226 0.13828474 0.05830707
000130 04 78 36 3e ff 68 3d be c6 70 09 bd fe 0a a9 3c
       0.1781922 -0.18497084 -0.033554815 0.020635124
000140 82 7a 85 be db 6c 17 be e5 14 1a be ec 5d 41 be
       -0.2607003 -0.14787619 -0.15047033 -0.18883485
000150 df c4 4c bc 80 4c ae be 34 96 f3 bd bf 23 40 bd
       -0.01249811 -0.3404274 -0.11893883 -0.04690909
000160 4e 07 08 be 99 19 93 3d e2 46 e5 bd ab 15 f5 3d
       -0.13284037 0.07182617 -0.111951604 0.119670235
000170 1c 94 cd be 68 04 3f be 9c 1f 88 bd 8f de 99 3d
       -0.4015206 -0.18654025 -0.06646654 0.07513153
000180 4b db a7 3d 83 aa 16 be a6 50 86 be 49 cf 02 3e
       0.08196124 -0.14713483 -0.26233405 0.12774386
000190 32 27 4d 3c 79 30 06 bd e5 8d 58 3e 98 8c 99 3e
       0.012521552 -0.03276107 0.21147878 0.29990077
0001a0 c3 d8 83 bd 77 d2 5d 3d f3 93 65 3e 8c 27 4a 3d
       -0.064378284 0.054155793 0.2241972 0.04935412
0001b0 b9 79 6a be d0 62 08 3e 05 70 fb 3d e3 31 3d bd
       -0.22897996 0.13318944 0.122772254 -0.046190154
0001c0 63 d1 b8 bc c5 9b 8d 3e c5 da 35 bc c6 37 cc bd
       -0.02256078 0.27657905 -0.011099522 -0.099715754
0001d0 e2 2d 1c 3d a6 3e e6 bc 26 18 bc 3d 29 2c b4 3d
       0.038129695 -0.028106045 0.091842934 0.087974854
0001e0 16 e0 31 3d e1 44 85 3e d2 b3 07 3d 6b 8c 8d be
       0.043426596 0.26029113 0.033130474 -0.27646193
0001f0 7f ba a7 3b 47 3c 8b be 2e 78 01 be fa 20 ad 3d
       0.0051186676 -0.27194425 -0.12643501 0.084535554
000200 63 5f 8b bd ba 68 56 bd 1d e6 49 3e 5f ae 75 3e
       -0.06805303 -0.05234597 0.19716688 0.23992299
000210 f4 2b bb bc 4a aa 1f bd bb 6e 9a be 09 5e 4c 3d
       -0.022848107 -0.03898076 -0.30162606 0.049894366
000220 b1 54 88 bd ea 5c 9f bd bd 9a a7 3e f9 72 22 be
       -0.066567786 -0.07781394 0.32735243 -0.15864171
000230 73 89 c7 be 5c c0 ca be be 28 bf 3c 51 d1 1b 3b
       -0.38972053 -0.39599884 0.023334857 0.0023775885
000240 1b ad 9f be c3 1f 0d be b0 b7 f6 bd 11 0b f7 3d
       -0.31186756 -0.13781647 -0.12046754 0.120626576
000250 3f 89 19 3c 50 0d c3 3b 0a 4e eb bd 1a 68 24 3d
       0.009371101 0.0059525147 -0.11489494 0.04013834
000260 67 41 dc bb 3e 2d 1b 3d 4f ce 38 3b e3 ad 5f 3d
       -0.0067216638 0.037884943 0.0028199141 0.05460919
000270 0f 2d d7 3c b5 07 2e 3b 89 c9 36 3c c6 3d d8 bd
       0.026266603 0.0026554887 0.011156448 -0.10558657
000280 c4 b6 45 be 6b fc 2d be 85 31 b3 be 45 c5 e6 bc
       -0.19308001 -0.16990821 -0.34998718 -0.028170237
000290 8b 0c 66 3d ef 87 4a 3d 4f b9 93 be ce e2 6e 3e
       0.056164306 0.049446043 -0.28852317 0.23328707
0002a0 80 0c c4 3b 83 58 cd be f3 4b f1 3d 74 0c a5 b9
       0.0059829354 -0.40106592 0.11782064 -0.0003148053
0002b0 29 b3 37 be 5d 61 e0 3d f3 47 6c 3e 6f 14 91 bd
       -0.17939438 0.109560706 0.23074321 -0.070839755
0002c0 ca 0c 6f 3e d7 b8 08 3e c9 ce 0f 3e c0 65 7e bc
       0.23344722 0.13351761 0.14043726 -0.015527189
0002d0 47 4f 10 3d 33 0e a0 bc 89 c9 32 3e 7d 0d d4 3e
       0.035231855 -0.01953802 0.17459692 0.4141654
0002e0 dc 67 68 3c e2 c8 56 3e 25 f4 26 be ad 82 86 bb
       0.014184918 0.20975068 -0.16304071 -0.0041049332
0002f0 1a 86 38 3d e6 02 65 3e 21 63 21 3a 6c 0e 6b bd
       0.045049764 0.22364387 0.0006156434 -0.0573868
000300 8f a3 c6 3e 08 a6 5d 3b b7 9f 48 bd df c8 67 3c
       0.3879666 0.0033820886 -0.04898044 0.0141470125
000310 dd 4f af bc 6a e7 37 bd 93 99 5f be cc 01 a2 3d
       -0.021400386 -0.044898428 -0.21835928 0.07910499
000320 95 98 0e be 7f fa c8 3d b8 d4 66 3e 10 6c b3 3d
       -0.13925393 0.09813403 0.22542083 0.08760846
000330 40 e7 03 3e 69 ba 1d 3c 58 bb 12 3e b7 62 2c 3e
       0.12881184 0.009626963 0.14329278 0.16834532
000340 e9 6c 0b bd 68 f6 ce 3c 8c 3e 6c 3e 89 75 fa be
       -0.03403941 0.02526398 0.23070735 -0.48917797
000350 46 82 80 3d ab 19 97 be 00 ee e5 bc 7a 3d 91 3c
       0.06274848 -0.2951177 -0.028067589 0.01772951
000360 e2 14 72 bc ed 84 e5 bd a9 83 a2 3d 24 92 8e 3d
       -0.014775487 -0.11206994 0.079352684 0.06961468
000370 b2 50 3d bd 20 44 f5 3c 6c bd 85 3e 94 47 95 be
       -0.046219535 0.029939711 0.2612108 -0.29156172
000380 9e 12 c4 3d 01 00 5f bd 63 79 95 bd 01 c9 95 be
       0.095738634 -0.054443363 -0.07298543 -0.29254916
000390 12 e6 06 3e 68 0d ce bb 0d 2c d7 3d 6c 35 6c bd
       0.13173702 -0.0062882192 0.10506449 -0.057668135
0003a0 ad fc 23 3d 23 74 99 3d 0e 4a 98 3d 45 70 f4 bd
       0.040035892 0.074928544 0.07436 -0.11935476
0003b0 c8 7c 7f be 12 f2 8c bd de c8 0a be 40 ec 8c 3d
       -0.24949944 -0.06882109 -0.13553187 0.068809986
0003c0 57 51 5c bd 17 0d 6b bb 53 d3 94 bd 90 6f 00 bd
       -0.05378851 -0.0035865956 -0.072668694 -0.031356394
0003d0 9f 85 5b bd b9 9f 97 3d d1 f1 71 bd 01 0c b0 bd
       -0.053594228 0.074035116 -0.059068505 -0.085960396
0003e0 b9 96 19 be 23 c3 67 3e 87 79 22 bd a3 60 36 bc
       -0.14998902 0.22633033 -0.03966668 -0.011131438
0003f0 fa 04 35 be df 9c 8d be 9d 1a 2b be 89 90 53 3e
       -0.1767768 -0.27658746 -0.16709371 0.20660605

ConstantFolding/net/strided_slice_2_enter:0 f4 [13, 20]
000000 8f 9c 62 be f2 f8 40 3d 82 94 2d bd 57 73 cb 3d
       -0.22130035 0.047112413 -0.042377956 0.09934109
000010 02 04 b2 3d c1 6f ff bd fc af 6a 3e ea 43 c9 bd
       0.08692171 -0.12472487 0.22918695 -0.09827407
000020 f6 69 80 bd 5d ab f3 bd 4f 70 0d be 33 33 b0 3e
       -0.062702104 -0.11897919 -0.13812374 0.34414062
000030 2d 60 1d be 21 6e 0a 3e ac e3 8e bb df d6 a8 bd
       -0.1536872 0.13518573 -0.0043606367 -0.082441084
000040 ed ee f6 3c 1a 26 4b 3e ec 1f 85 3d b5 03 e3 3d
       0.030143226 0.19838753 0.06500229 0.110846914
000050 f7 1a 9a be 2a 3a 6e 3e 41 01 40 3e 32 0b a8 3e
       -0.30098698 0.23264375 0.18750478 0.3282104
000060 d3 bf 3e 3e 87 ad 85 be 0e 63 bf bd 2b d2 64 3d
       0.18627863 -0.26108953 -0.09345065 0.055864494
000070 46 4f c1 bd 2f 54 3f 3e 92 4b 19 be e3 70 b4 bd
       -0.09438948 0.18684457 -0.14970234 -0.08810594
000080 11 1a 19 bd e9 da dc 3d a4 a7 1a 3e 1d 9d 5e 3e
       -0.037378374 0.10783941 0.15103012 0.21739621
000090 b8 75 6d 3d 89 7a 28 be 29 06 2f 3e 00 ee 93 3d
       0.057973593 -0.16452993 0.17092194 0.07223129
0000a0 5a 11 a7 3d 14 16 74 3d 50 82 a1 bd 90 5b 6e 3e
       0.081576064 0.059591368 -0.07886183 0.23277116
0000b0 16 38 73 be b6 46 04 be c8 02 2d be 02 bb a5 bd
       -0.23751864 -0.12917599 -0.16895592 -0.080923095
0000c0 d4 c0 10 bd 8c ed 8a 3e 11 36 66 be bb e3 5f 3e
       -0.035340145 0.2713436 -0.22481562 0.21864216
0000d0 de ae 5e 3e d3 76 d6 3d 4e c3 f5 bd 8f d6 59 be
       0.21746394 0.10471883 -0.12000142 -0.21273254
0000e0 f6 18 2a 3e 6a 67 df bd 25 d3 3b 3d 13 f2 cf bd
       0.16611084 -0.109083965 0.04585566 -0.10153594
0000f0 83 10 98 3d 23 ae ff 3c f2 c8 28 3e d9 9f 37 3d
       0.07425024 0.031210965 0.16482905 0.044830177
000100 ee 3e 09 3e b8 f4 84 3c 29 c5 63 be 4e f7 ae 3d
       0.13402912 0.016229972 -0.2224318 0.085432634
000110 66 a1 3f be 1e 27 b6 bc 82 7d 9e bd 74 3c 3d bd
       -0.18713912 -0.02223545 -0.077387825 -0.04620023
000120 0b 6c a0 3a 34 1f 0e be 25 db c9 3d 5e 2a 86 3e
       0.001223923 -0.1387909 0.098562516 0.262042
000130 80 7c 17 bd 32 47 a2 3c 03 eb f2 bd 15 08 26 3e
       -0.036983967 0.01980934 -0.11861231 0.1621402
000140 2d 9e 68 3e 7c 57 49 3e 6f 7f 30 3d 50 55 66 be
       0.2271659 0.19662279 0.04309028 -0.22493482
000150 b9 d5 8b bd 32 d2 57 bd 0b 0e 84 bc 55 72 a3 3c
       -0.06827874 -0.052690692 -0.016119977 0.019951979
000160 6f f3 7b be 9e b9 1b 3e 78 d5 21 be 4b e3 86 bd
       -0.24604581 0.15207526 -0.15804088 -0.065863214
000170 59 2a 3f 3e 56 25 25 be 1b 57 3c 3e 9d bd f2 3d
       0.18668498 -0.16127524 0.18392603 0.11852572
000180 14 46 d5 3d 12 64 e9 bc 5d 5a 5e bd 6b 57 2d be
       0.10413757 -0.0284901 -0.054285396 -0.16927879
000190 62 b2 32 3e 5e d8 5a 3d 41 d2 8a be ab 78 32 3e
       0.1745086 0.053429 -0.27113536 0.17428844
0001a0 0d 8d 0c be 2d 24 71 3d 30 78 3a 3c 82 51 36 3e
       -0.13725682 0.05887239 0.011381194 0.1780453
0001b0 35 89 83 bd d1 ac 8d be 02 47 54 be 16 f1 2b be
       -0.064226545 -0.2767091 -0.20730212 -0.16791186
0001c0 95 67 a6 be 2f 42 45 3d cf ed 82 3d 53 27 66 3e
       -0.32500902 0.04815882 0.06393015 0.22475938
0001d0 56 cf 2c 3d 36 6e 9f 3e 6c 04 23 be 85 99 1f 3e
       0.04218992 0.31138772 -0.15919656 0.15585907
0001e0 5a 2a f6 3c 77 7f 73 be d1 63 a0 be d5 c3 6b bd
       0.030049492 -0.23779093 -0.31326154 -0.057559807
0001f0 78 70 79 be c5 4d cc bd ab 8c af bd c1 ee 3d 3e
       -0.2435931 -0.09975771 -0.08571752 0.18548109
000200 d6 d0 70 bc 7a 4f b8 bc fc b3 06 bd 65 7e 1f 3e
       -0.014698228 -0.022498835 -0.03288649 0.1557556
000210 d0 20 74 bc ea 58 8e 3e 6d 58 07 be 9b d2 1e be
       -0.014900401 0.2780221 -0.13217326 -0.15510027
000220 67 51 5c 3e 47 b3 50 3e 5c 1c 3b 3e e9 5f 30 3e
       0.21515428 0.20380889 0.18272537 0.17224087
000230 18 4b 05 bd 8a 7e 1f bd 77 18 6b 3e a3 92 7b bc
       -0.032542318 -0.038939036 0.22958551 -0.015354785
000240 bd 34 91 be 19 80 a7 3d 70 40 9e 3d c8 6a 1f be
       -0.2836055 0.081787296 0.07727134 -0.15568078
000250 94 77 3b be 88 85 82 be 8b f5 70 3d e8 92 c1 3d
       -0.18307334 -0.254925 0.058827918 0.09451848
000260 67 45 63 be 7e 5b f9 bd 44 0e 4b be b3 25 fd bd
       -0.22194444 -0.12175654 -0.1982966 -0.12360706
000270 50 56 92 3e 42 4c 6f be 33 b6 a3 3d d1 d6 bc bd
       0.28581476 -0.23368934 0.07993736 -0.092206605
000280 1e 50 46 be 5c 81 3f 3e 96 c7 aa 3c 39 ce 53 be
       -0.193665 0.1870169 0.020847123 -0.20684136
000290 78 a4 81 3d d9 ac 47 be bd 29 ee bd 55 dd 1f 3e
       0.06330198 -0.1949953 -0.11629055 0.15611775
0002a0 ce 73 71 bc 52 7c a6 bd 2f 62 94 3b 50 bf 85 bb
       -0.014737083 -0.08129181 0.004528306 -0.004081644
0002b0 ef 47 c0 bd 35 a2 75 3e e9 9d 00 bc ab 56 6d 3e
       -0.0938872 0.23987658 -0.007850149 0.23177592
0002c0 ba 82 50 3e 09 b7 e4 bc 78 61 32 3e f0 46 02 be
       0.20362368 -0.02791931 0.17419994 -0.12722373
0002d0 1c a5 97 3d da 50 cf bd bf 75 88 be 87 ff 18 bd
       0.07404539 -0.10122843 -0.26652333 -0.037353065
0002e0 55 0e e3 bb 06 99 08 bd 99 9d c1 3c 0e 50 23 3b
       -0.0069291987 -0.03334906 0.023634719 0.0024919542
0002f0 7d 4e 4f be b9 a8 81 3e a1 13 15 bd 3b 66 e1 bd
       -0.20244785 0.25324038 -0.036395673 -0.11005827
000300 fb 6d 21 bd ae 3b f9 bd 19 4e 9e 3d 85 3d 50 3e
       -0.039411526 -0.12169586 0.0772974 0.20335968
000310 aa 06 88 3d a9 9d e1 bc b3 cc 6c 3e 5f 40 d9 bd
       0.06641896 -0.027540999 0.23124962 -0.10607981
000320 dd 64 a4 be b2 01 f0 3d 04 5c 22 be 67 f3 0e 3e
       -0.32108203 0.11719073 -0.15855414 0.13960038
000330 b9 80 a1 be 8b ab e8 bd 58 d1 9e be f3 1f 6e 3e
       -0.3154352 -0.11360844 -0.31019092 0.23254375
000340 66 cd f6 bd 95 68 6b 3e 0d 3e 06 3e dd fc a8 3c
       -0.120508954 0.22989114 0.13109608 0.020628387
000350 29 69 14 3d 5f 08 69 be 0b 0e 2f be 66 16 05 3e
       0.0362331 -0.227571 -0.170952 0.12996826
000360 3e 0b 74 3e 7e 4a 6d be 21 3f 97 3d 73 45 8e be
       0.23832414 -0.23172948 0.07385088 -0.2778736
000370 a9 4c f4 bd 0c c8 88 3e 50 25 db bd c1 81 28 be
       -0.11928684 0.26715124 -0.10700476 -0.16455747
000380 2d c7 3b be aa 9c 2e 3e 3a 3d c6 bc 30 63 53 3e
       -0.18337698 0.1705195 -0.024199117 0.20643306
000390 97 2c 8e be 76 d7 5b 3e b0 7e 1b 3e 4d 21 50 be
       -0.27768394 0.2146891 0.15185046 -0.20325203
0003a0 f2 eb 8f bc 23 10 ae 3d 5b f3 6c 3e f5 07 ed 3d
       -0.017568562 0.084991716 0.23139708 0.11573783
0003b0 ee 55 7b 3e ee 6d 44 3d 42 d5 2e 3e 40 d6 fe bd
       0.24544498 0.0479564 0.17073539 -0.12443209
0003c0 fa 8e 8d 3c 9d cc 52 bd b4 0d 30 be 94 7d 6d bd
       0.01728009 -0.051464666 -0.17192727 -0.05798109
0003d0 a9 d8 7e 3d 8b 5d 19 be c9 e6 ff bd 27 62 59 3e
       0.062218342 -0.1497709 -0.12495191 0.21228848
0003e0 a4 03 02 3e 2f 51 af 3a 0e 8a c0 be 6a fa ff 3c
       0.12696701 0.0013375635 -0.37605327 0.031247336
0003f0 65 d3 45 3d c7 a2 33 be 97 3f 95 be e6 77 d7 3d
       0.048297305 -0.17542563 -0.29150078 0.10520916

ConstantFolding/net/strided_slice_1_enter:0 f4 [20, 20]
000000 0f d0 6f be db b8 e2 bd ab 9e 62 bd fb 01 27 3c
       -0.23419212 -0.11070415 -0.0553271 0.010193343
000010 01 eb b0 be 91 de 8d 3e 98 78 25 be d5 83 cb bb
       -0.34554294 0.27708867 -0.16159284 -0.006210784
000020 a2 e5 1d 3d 54 b7 a0 3d 24 e1 ba 3e 62 64 e3 bd
       0.038549073 0.07847467 0.36499894 -0.11103131
000030 a1 0a 10 3d 86 ed 7e bd e9 64 0d be 7e b5 bc bd
       0.035166387 -0.06223824 -0.13808025 -0.092143044
000040 9d 0d 0c be 8e bd 2b be af 65 91 3d f1 56 45 3d
       -0.13677068 -0.16771528 0.07099473 0.048178617
000050 ad 7b 72 be 7c 2d 9d 3e 33 54 dd bd a3 ea 09 be
       -0.23679991 0.30698764 -0.10807075 -0.13468413
000060 a0 c2 e8 3d 8d a1 16 3d 70 bd 56 3e 0d 92 b6 bd
       0.11365247 0.03677516 0.20970702 -0.08914576
000070 ff 8e e2 3c 47 8e 3c be 42 19 cc bc 11 6e 62 3d
       0.027656076 -0.1841365 -0.024914388 0.05528075
000080 b1 6a 6e bd 81 02 e3 3d be 18 72 be 2c 7b 29 bd
       -0.058207218 0.11084462 -0.23642251 -0.04137723
000090 c8 d3 71 3e f5 0f 9e be 9d 8d e9 bd 64 b2 ff bd
       0.23615944 -0.3087155 -0.11403964 -0.12485197
0000a0 14 21 96 bd f7 67 1c 3e da b5 f0 3d ea 99 00 be
       -0.07330528 0.15274034 0.117534354 -0.12558714
0000b0 33 75 47 be be 00 c2 bd 9f ad ab 3c f4 ef aa bc
       -0.19478302 -0.09472798 0.020956812 -0.020866372
0000c0 08 67 d1 bd ae a3 28 be a5 05 e0 bc d5 d3 a3 bd
       -0.1022473 -0.16468689 -0.027346442 -0.07999388
0000d0 88 e0 a0 bd f2 70 2e be b7 e1 76 bd 58 f0 b1 3d
       -0.07855326 -0.17035273 -0.060273852 0.0868842
0000e0 6a 4a 3f be 69 a2 af bd cc 8e 0e be 67 03 8a 3d
       -0.1868073 -0.08575899 -0.1392166 0.0673893
0000f0 8b 5e 18 bc 85 e3 ac 3d a3 41 8f 3c a8 d2 35 3c
       -0.009299885 0.084418334 0.017487353 0.011097588
000100 d8 aa f5 bd 12 aa 94 3e 35 82 27 3e e8 a2 7f 3e
       -0.119954765 0.29036003 0.16358264 0.24964488
000110 34 b6 6a bd 6e f2 0a be ed 23 67 3e 60 d8 93 3e
       -0.05730267 -0.13569042 0.22572298 0.2887602
000120 81 70 30 3e ba a5 dc bc 2d 46 9f bd 75 0b 76 3e
       0.17230417 -0.026934493 -0.07777057 0.24027808
000130 2d 85 c6 bc 47 cf 66 3d e2 37 1b 3e b3 30 09 3e
       -0.024233425 0.05635002 0.15158036 0.13397484
000140 aa 34 13 3c ef a6 2d bd 8e ee f4 3c 18 0b 16 3e
       0.008984724 -0.04239553 0.029898908 0.1465267
000150 f2 95 61 bd 05 3c ba bd 50 a8 d3 3d 0a 78 25 3e
       -0.05507464 -0.09093479 0.103348374 0.16159073
000160 c0 b3 8b 3e 5f 8d eb 3d b8 a8 8b 3e ba 60 ca bc
       0.27285576 0.11501574 0.2727716 -0.024704326
000170 ea ff 9e bd ad 4f 50 3c ed 65 5a be 19 75 ee bd
       -0.077636555 0.012714309 -0.21327944 -0.11643428
000180 f7 ca e3 bd a9 c5 3e bc 7a 83 99 bd 40 f4 3b 3d
       -0.11122697 -0.011643806 -0.0749578 0.04588723
000190 45 c9 09 be 6a 3e b6 3c 90 b1 09 3e 1b 73 49 be
       -0.13455684 0.022246558 0.13446641 -0.19672816
0001a0 d4 9a 3e 3e b4 e8 05 3e c4 61 c4 3d 87 f4 80 3e
       0.1861375 0.1307705 0.0958896 0.2518656
0001b0 c1 9f 8b 3d 4f 8a 95 bc 28 b9 ab 3c 70 ba 6a 3d
       0.0681758 -0.018254427 0.020962313 0.057306707
0001c0 92 05 46 bd 5c 0a 6d be e5 14 63 bc c1 99 ce 3c
       -0.048345156 -0.23148483 -0.013859962 0.0252198
0001d0 23 6e ac 3d 18 8a 6c bd cc 78 e6 bd 32 1b 2a 3e
       0.084194444 -0.057748884 -0.11253509 0.16611937
0001e0 c8 88 70 be 9d 5e 2b 3d a4 bb e7 3d cd 73 35 3d
       -0.23489678 0.041838277 0.113150865 0.04429989
0001f0 15 de ad bc cb c6 eb bd b7 d6 03 bd 0d 95 94 be
       -0.021224061 -0.11512526 -0.03218719 -0.29019967
000200 64 a0 99 3d 59 61 67 3c ae f9 d1 ba 8d df d5 bd
       0.07501295 0.014122331 -0.0016019845 -0.104430296
000210 c1 6b 40 be e2 3f a8 bd 9d 6d ca 3d f8 5d 43 3e
       -0.18791105 -0.0821531 0.09884188 0.19078815
000220 2d 35 98 bd 6c 89 fb bd 2e 55 e9 ba f6 26 31 bc
       -0.074320175 -0.122820705 -0.0017801875 -0.010812512
000230 ea 89 81 be 90 43 80 bd 67 f7 9a be 44 47 c1 bc
       -0.25300533 -0.062628865 -0.30266878 -0.023593552
000240 54 87 be 3d 26 cf b8 bd 03 f3 a1 3d e7 97 88 bd
       0.093031555 -0.090238854 0.07907679 -0.06669598
000250 8c 6b 71 be b0 b6 1d 3d bf 33 1e bd f6 37 38 3d
       -0.23576182 0.038504303 -0.038623568 0.044975244
000260 6d ad 73 3e 58 24 e6 3e df 5b ce bd 59 bc da bc
       0.23796625 0.44949603 -0.10076117 -0.02670114
000270 68 dd c3 bc ff 3d 62 3d b1 f6 f3 3d 0e 74 f0 3c
       -0.023909286 0.055234905 0.11912287 0.029352214
000280 8d 65 99 bd 05 ff a9 bd 4c 17 95 bc 63 99 c8 bc
       -0.074900724 -0.08300594 -0.018199585 -0.024487203
000290 2b 5d bf bc 4b fe 18 3c d7 5a a2 3d 19 57 a8 3d
       -0.023359856 0.009337972 0.079274826 0.082197376
0002a0 26 23 78 3d 58 fc 10 bd da c8 0c 3d 99 f0 42 3e
       0.060580395 -0.035396904 0.034371234 0.19037093
0002b0 0b 7c 00 3d f1 21 1f 3e 3e 92 94 3c f7 5b 7e 3c
       0.031368297 0.15540291 0.01813614 0.015524856
0002c0 cc 44 46 bd 9e 71 04 bd cb 8c 83 be 04 95 1b 3e
       -0.048405454 -0.032334916 -0.25693354 0.15193564
0002d0 b4 09 cb bd 7e 0d 4e 3d 2b b3 b3 bd 6d b9 b1 3c
       -0.0991396 0.050305836 -0.08774408 0.021694863
0002e0 94 bb 67 bd e0 d8 b2 bd ff 7c 13 3e 1d 5f 39 3e
       -0.056575373 -0.08732772 0.14403151 0.18102689
0002f0 13 92 e4 3c a7 c3 20 be a7 0d 0e 3e 3e 62 3e 3d
       0.027901685 -0.15699635 0.13872395 0.04648041
000300 11 96 af bd 91 70 91 3c 62 55 93 bc 94 60 08 be
       -0.08573545 0.017753871 -0.01798505 -0.13318092
000310 15 ee cf bd af 8c 75 3d cd 15 0c be 3d eb 47 3e
       -0.101528324 0.05994862 -0.13680191 0.1952333
000320 c0 b2 d8 3d c0 c2 0b 3e 6f 16 85 be 15 bd 07 3d
       0.10580969 0.1364851 -0.25993678 0.033139307
000330 ad c1 2c 3e f0 49 18 3e b8 2a 19 3e b0 e1 6e 3d
       0.16870756 0.14871955 0.14957702 0.0583207
000340 e5 37 07 3e e6 ff 37 be 4e 43 2d be 47 0c 57 3d
       0.13204916 -0.17968711 -0.16920206 0.052501943
000350 01 40 6d 3e b7 5b 06 be e0 74 6d bd 96 39 9d 3c
       0.23168947 -0.13120924 -0.05797279 0.019192498
000360 4e ce 03 bc d1 62 7c bd 78 ea 80 be 0c 40 01 3d
       -0.008044792 -0.061617676 -0.25178885 0.03155522
000370 6e 62 29 3e 55 d2 98 bd 34 a0 bf 3e 01 fc 45 be
       0.16541454 -0.07461993 0.37426913 -0.19334413
000380 2d d5 0d 3d ff 78 82 3d c1 46 85 bb 72 28 8b 3c
       0.03462713 0.063707344 -0.0040672724 0.01698706
000390 9b 70 50 bd d5 0b a9 bc 0c c6 c1 bd 75 6b ab 3c
       -0.05088864 -0.020635525 -0.094616026 0.020925263
0003a0 11 dd c1 bd 9f 2e 6d 3e ce 92 2f 3e 81 62 40 bd
       -0.09465993 0.23162316 0.17145845 -0.04696894
0003b0 59 05 6f be df 01 e1 bc 99 22 94 bd 8c 37 4b be
       -0.23341884 -0.027466713 -0.072331615 -0.19845408
0003c0 89 f6 05 3e a0 c2 48 ba 48 c0 b6 bd 28 76 9e bd
       0.13082327 -0.0007658396 -0.089233935 -0.0773738
0003d0 b4 3e 52 be 6f 14 ed 3d 1a af 21 bd b5 a5 2c be
       -0.20531732 0.11576163 -0.03947363 -0.16860087
0003e0 7b 58 83 be b8 06 09 be b2 12 6b bd 80 81 b1 bd
       -0.25653443 -0.13381469 -0.057390876 -0.08667278
0003f0 87 01 ec bc cf 40 e4 bb 91 e7 1e 3e 4f 31 a8 3c
       -0.028809322 -0.0069657336 0.15518023 0.020531325
