wakewords/es/eyordenador-es-0.2.0-20190815-eltocino.onnx (onnx, 15362 bytes, 10 tensors)

dense_1/kernel/read:0 f4 [20, 1]
00000000: f6c7 88be 0f48 423e 6eb3 a63e 5f26 11bf
00000010: f290 913b 6301 debb 2f21 3bbd 341a a0be
00000020: aa76 0bbe 97c4 67be 7b1f 573e feca c13e
00000030: 0243 e6be ecad 143e 26c0 843e a717 f6bd
00000040: 948e bc3e de8f 7b3e 5b70 de3e b8ae 9d3e
-0.26715058 0.189728 0.3255877 -0.56699175 0.0044423277 -0.0067750677 -0.045685943 -0.3126999
-0.13619485 -0.22633587 0.21008103 0.37850183 -0.44972998 0.14519471 0.25927848 -0.1201623
0.36827528 0.245666 0.43445095 0.30797362

ConstantFolding/net/strided_slice_enter:0 f4 [13, 20]
00000000: 4e3e 803c 9431 803e 974e 1ebd 359e a03d
00000010: e232 763d c0ae 873e daa5 5b3e f2e1 eb3c
00000020: 07c9 ebbb a611 c43d 315f 16be 3eae 1abd
00000030: d0b4 da3c 1327 44be 7e66 e6bc 765a 8ebe
00000040: d1dd 193d e954 03be e45d 3bbe 243e 9d3e
00000050: 291f 4b3d fd13 133c 591b d2be f092 b2bd
00000060: 42e5 abba 4a92 d8bd c35a e73d 29b5 57bc
00000070: c1a2 c8be c2f0 843b 9bcc 78bd 2f80 e33d
00000080: 7c10 963d ae38 87bd 3d1a d6bd 856d 803d
00000090: 4109 50be 163f 3b3d daa5 6e3d 6e97 863d
000000a0: 0933 9c3e 5048 9fbe a2b0 9cbd 71c9 873d
000000b0: 30a7 893e 3df2 06be 2440 403c 5400 c4be
000000c0: 4310 26be b7a4 b53d ac00 a0be 92f3 52be
000000d0: c9b5 2cbd d517 683d 5f58 603e 5397 663e
000000e0: 749c f93c fde7 e73d 5962 623e f92e fe3c
000000f0: 6ae3 0b3e 80ac 2d3d fe78 563d 68ca 383e
00000100: 5a6a 25be 6f67 cdbe cbf0 073e db19 acbd
00000110: 01dd d9be 083a 80be cd09 133e d920 0abe
00000120: 1bf1 b0bd 22c6 c4bd 1180 253d 006c e2bd
00000130: 5002 ba3e 1584 e33d ca86 a2bd 7d9e 10be
00000140: d8d8 903d 9faf a53c 0b68 b93d 264e 79bc
00000150: 48d1 453e c47b 6ebd 40fa 24be 615a 5ebe
00000160: 53d8 bebd 64a3 703e e8a9 a7be 2e9c c2be
00000170: 5ac9 04bd 77a5 6b3e 1cf6 5a3d cfc8 de3d
00000180: c17e f0bd fe21 28be f9df c93d 403e ec3d
00000190: ed6d 6c3e ae70 20be 2ea8 793b 217a e13d
000001a0: 552c ecbd 2bca 95bd 2e49 08be 7aaa bbbe
000001b0: 1569 8dbe 5f0b 27be bc60 633c 97c3 39be
000001c0: fafc 8b3e bb98 aa3e 9028 ebbd ab35 54be
000001d0: e154 813e 2705 d9be 981c de3c 6046 813d
000001e0: 8b7a d63d 6b00 dfbc 17c4 4e3e b5d3 b5bd
000001f0: ff7a 4c3e dc14 183e 44fe fdbc 0829 1cbd
00000200: 8fd5 893c 3b51 ec3d 835d bebe 600f 023e
00000210: 64e6 c23d 14ab bfbd d72a 113d 595f 713c
00000220: a13e aabe e335 a0be 842c fabd ffca ce3d
00000230: 778d 8abe 4a6a 2cbe 5e93 22be 02ec ba3d
00000240: 3cd1 093c d5c3 053e 82b9 12bd 5fff f13d
00000250: 43b5 eebd ed2b 7ebd e385 c6bb 2d77 04be
00000260: 9dc7 803e 1cc7 e0bd 85a6 c53e 0dc8 b5bb
00000270: ab27 573e 9e44 bebd 5c37 603d 2b62 c2bd
00000280: a92a 1e3c 4900 03bf 24d6 673e ca5a fcbd
00000290: 76d1 12be d438 423e b917 f53c 7ea2 c5bb
000002a0: 1b14 dbbd 3133 563d b212 25be a61b e6bd
000002b0: 4b1f 4b3e 6abf 84bd ce95 8c3e edc9 3a3d
000002c0: 3406 4cbe c546 c53d 3a4d 0e3e 0244 5b3e
000002d0: d543 b53d ffe1 653e a7b0 90be c7dd 84be
000002e0: 2d1a f93e edc6 ee3c 81ed 4cbe 99b0 a0be
000002f0: f2b3 e43d 5543 8d3d 8433 18be f520 d1bd
00000300: ecdb 6ebe 7d58 cebd 3c5d 0abe 93f1 c63a
00000310: d4fe b43c e9d3 74bd f5c2 213e 76ed 6a3c
00000320: de9d 4b3e 6aa4 6f3d 59de e73d a8d8 d3be
00000330: cc36 d0bd 0437 b3be 42e3 c73e 8367 a43d
00000340: be39 8cbe 5de5 b73d 57d9 913e 3460 353e
00000350: 9ef3 e039 3214 c2bd a3ff e93c 6eaa a4bd
00000360: 825b 923e 0c03 b73d 3b47 333e 8aae 26be
00000370: 0a81 113e 2551 b33e 7158 933c 5d47 bbbd
00000380: 5c5f acbe 6e59 8fbd 231c ae3d bfcc 563d
00000390: 1881 29be fbb7 fe3e 4a8d c4bc 4265 52be
000003a0: b991 a4bd 88ac 3e3d e095 a53e df1c 63bd
000003b0: a3cc 48be e9be 88bd 804b c93e 4567 cd3e
000003c0: 567c 2abe 7df8 50bd bba5 553e 8554 6f3e
000003d0: c1fa 1e3e eea5 203d aa69 c23d 2a24 66be
000003e0: 3498 623e cc84 a63e 599f 233d 6e9b a5be
000003f0: 5b51 913e 188d 6bbc 929e 8dbb d44c 9abd
0.01565471 0.25037825 -0.038649168 0.078426756 0.06010712 0.2650051 0.21449986 0.028794263
-0.007195595 0.09573679 -0.1468475 -0.037763827 0.026697546 -0.1915553 -0.028125044 -0.2780339
0.037565056 -0.1282536 -0.18297535 0.30711472 0.049590264 0.008976934 -0.4103649 -0.08719432
-0.0013114589 -0.105747774 0.11296608 -0.013165751 -0.3918667 0.004057021 -0.060742002 0.111084335
0.07327363 -0.06602608 -0.10454223 0.06270889 -0.2031603 0.04571446 0.058263637 0.06571852
0.30507687 -0.31109858 -0.076508775 0.06630219 0.26885366 -0.13178344 0.011734042 -0.382815
-0.16217141 0.088693075 -0.31250513 -0.20600727 -0.04216555 0.056663353 0.21908711 0.22518663
0.03047011 0.11323545 0.22107829 0.031028258 0.1366097 0.042400837 0.05236148 0.18045962
-0.16153851 -0.40117976 0.13275449 -0.08403369 -0.42551425 -0.25044274 0.14359207 -0.13489093
-0.08639737 -0.09608103 0.040405337 -0.110557556 0.3632989 0.11109177 -0.07935865 -0.14122958
0.0707261 0.020225344 0.09053048 -0.015216386 0.19318116 -0.0582235 -0.16111088 -0.21714164
-0.09318604 0.23499829 -0.32746816 -0.3800978 -0.032418586 0.23012339 0.053457364 0.10878145
-0.117429264 -0.16419217 0.098571725 0.11535311 0.23088808 -0.15667984 0.0038094628 0.11009622
-0.11531893 -0.07313951 -0.13309166 -0.366535 -0.27619234 -0.16312931 0.013878044 -0.18141018
0.27341443 0.3331965 -0.11482346 -0.20723598 0.2526007 -0.42386743 0.027113244 0.06312251
0.10472592 -0.027221879 0.2019199 -0.088782705 0.19968794 0.14851707 -0.031005032 -0.038125068
0.016825465 0.11538931 -0.3718072 0.12701178 0.095166 -0.093588024 0.035441246 0.014732205
-0.33250907 -0.31291112 -0.12215522 0.10097312 -0.27061054 -0.16837421 -0.15876529 0.09127046
0.008411702 0.13062985 -0.035821445 0.11816286 -0.11655667 -0.06205361 -0.006058441 -0.12936087
0.25152293 -0.10975477 0.38603607 -0.0055475296 0.21011226 -0.092904314 0.054740295 -0.0949138
0.009653726 -0.5117231 0.22640282 -0.12322004 -0.14337716 0.1896699 0.029918538 -0.0060313335
-0.10697194 0.052294914 -0.16120413 -0.11235742 0.19836156 -0.06481822 0.27458042 0.045602728
-0.19924241 0.09632639 0.13896647 0.21412662 0.088508286 0.22449492 -0.28259775 -0.25950453
0.48652783 0.02914759 -0.20012476 -0.31384733 0.11167134 0.06897608 -0.14863402 -0.10211364
-0.23326081 -0.100754716 -0.13512129 0.0015178196 0.022094168 -0.059772406 0.15797026 0.014338842
0.1988444 0.058506407 0.11321706 -0.41376233 -0.10166702 -0.3500291 0.3904057 0.08027556
-0.27387804 0.089792944 0.2848613 0.1771248 0.00042906118 -0.09476508 0.02856428 -0.080403194
0.2858544 0.08936128 0.17507641 -0.16277519 0.14209381 0.35022846 0.017986508 -0.09144471
-0.33666503 -0.06999479 0.085014604 0.052441355 -0.16553152 0.4974974 -0.023993153 -0.2054644
-0.08035607 0.046551257 0.32340908 -0.055447455 -0.19609313 -0.06677038 0.39315414 0.4011785
-0.16648993 -0.051018227 0.20864002 0.23372085 0.15525343 0.039220743 0.0949281 -0.22474733
0.22128373 0.3252319 0.039946888 -0.32345146 0.28382382 -0.014376901 -0.0043218816 -0.07534185

ConstantFolding/net/strided_slice_8_enter:0 f4 [20]
00000000: e896 633e 12d8 c7bd 7ccb 03be 8d46 debd
00000010: afc4 66bc 2060 233e 97d8 54be bd34 183e
00000020: 51fe a93e c37c 203e 8b66 7cbe 062a e4bd
00000030: a12f 7b3e efc6 1bbe 86dd 2abe 9cf9 70be
00000040: e9e9 17bc b9d7 47be ca9b 55be 2297 a9bd
0.22225535 -0.09758009 -0.12870592 -0.108533 -0.014084979 0.15954638 -0.20785747 0.14863868
0.3320184 0.15672593 -0.24648492 -0.11140828 0.24529888 -0.15212606 -0.16686067 -0.23532718
-0.009272077 -0.19515885 -0.2086021 -0.082807794

ConstantFolding/net/strided_slice_7_enter:0 f4 [20]
00000000: 94b6 223e c420 c03d 6330 9f3d d27b fe3d
00000010: 8d2a 073e 914f 393e 2431 d83d 349b 113e
00000020: b989 223e d15a 0a3e bf38 adbc 686b 5a3d
00000030: bcca 333e 919b 773e b556 8b3c 49cb 313c
00000040: 1a34 0e3e 40a0 0e3e b784 1f3e 6945 933d
0.1588996 0.093812495 0.07772901 0.124259606 0.13199826 0.18096758 0.10556248 0.14219362
0.1587285 0.13511206 -0.021145223 0.053325087 0.17557806 0.24180438 0.017009119 0.01085169
0.13887063 0.13928318 0.1557797 0.07190973

ConstantFolding/net/strided_slice_6_enter:0 f4 [20]
00000000: e276 653d c051 83bd 5e62 87bd 08fc 293d
00000010: 40eb 643d d499 13be e186 27bd 2b9a bc3d
00000020: c669 12be d8e6 a9bd 4dd0 bd3d 19a2 363d
00000030: c106 953c ff95 febc 99b8 793d c17f 80bc
00000040: be42 633d 8155 6bbd 180d 44bc f632 0abe
0.05602158 -0.06412077 -0.06610559 0.04150012 0.055888414 -0.1441415 -0.040900115 0.09209093
-0.14298162 -0.08295983 0.09268246 0.044588182 0.018191697 -0.031077383 0.06096706 -0.015685918
0.055483572 -0.05745459 -0.011966012 -0.13496003

ConstantFolding/net/strided_slice_5_enter:0 f4 [20, 20]
00000000: 5155 dc3d c535 483e ee31 b6bd 9948 1bbe
00000010: b0c0 a93d cefa f9bd 3258 323d 874e 4a3d
00000020: 5787 173e 7852 0f3e 2a0d d9bd d0e3 153d
00000030: 0572 4b3e 3133 17be 7b33 7b3e c940 a4be
00000040: 2123 263d 2f50 3dbe 0741 e73d 82b0 c73b
00000050: 1103 7fbc 351d fa3d 9cc5 4f3e 6405 3d3e
00000060: f697 d0bb 96ed fa3c 8eb7 c73d fbd5 1abe
00000070: 1e97 5e3e 989e 38be c343 453d 0b55 303d
00000080: ae13 09be 0f80 15be 7ab0 aa3b 93be 8e3c
00000090: 6f4f 8bbd 56e7 9bbc a6fe 443e e9a0 57bd
000000a0: 5e01 27be 273a fd3d 3509 343e 2a7c 1cbe
000000b0: 3656 0abd f0cf 6ebd 3386 1f3e 2357 cabe
000000c0: 7d5d 18be af90 d13c 3af9 203e 3ae5 8e3d
000000d0: 4070 1cbd 40aa be3d 5202 8e3e 3430 3dbe
000000e0: 1194 613d 89c8 2b3e f27b b43d c534 cabd
000000f0: 4e44 783e f2de d2bd 8246 60bd 9292 6c3d
00000100: 4c82 353e 2aad 92be 56b1 d43d d6e4 3fbe
00000110: 56cc ab3c c646 d0bd 388d bbbd 33c3 b83d
00000120: 35fb 92be c72d 7dbd 3db4 383d 2b5d 9dbe
00000130: c740 7a3e cd5d 29bc 80af b93e acde 23be
00000140: 0acd 00ba 5949 bfbc 67f6 d93e 7594 17bb
00000150: 9b23 14bd 693e 2cbe 1a20 e7bd 4917 a8bd
00000160: 3619 fc3c 8783 aebe b15c 773e 0f1b 663e
00000170: 511b 6fbe 2383 493d f3aa 093e 1032 eabd
00000180: 3fbd de3d 4185 143e 499b 723e 868b b43d
00000190: 55ee 43bd fc37 9b3e 6b65 2cbe 5d92 d83d
000001a0: 5d96 463c af9f 013e bf57 0bbe cbde 2c3e
000001b0: e68c 8b3e 2be1 a53e 18d3 51be 6fc0 0cbe
000001c0: faa2 a63d 5c69 debc 10c4 83be af1a 88be
000001d0: 3283 67be 4ab0 a33d ce01 f9bd 428b a6be
000001e0: cf9d a9bd 7872 213d 9fd2 6e3e d4c5 e1bc
000001f0: 1005 e03c 12d2 c53d 763b 5dbb 627a e0bb
00000200: 3225 80be 5fc2 5fbe a59c 603e f171 003e
00000210: a26d f6be c9af 263e 3d26 813e b381 1b3e
00000220: 2bfe 9d3e 3e38 d03e 21d3 363e 573e 153e
00000230: afba d73e ccb2 fbbc 9cfc debd d135 843d
00000240: e87f 45be 5062 353e 34f9 9fbd a1ed a3be
00000250: 06e2 a5bd 56e0 ae3e 299c 95be 811a f0bd
00000260: bb06 5a3d 6eb9 a23d 9060 ffbc 9853 b03d
00000270: 2aa4 513d e5f6 1fbe 017a 16be 38be 343e
00000280: 596d 8f3d e814 9e3b 5a98 21bd cbfd d0be
00000290: 60de 44be 980d 673e e1e6 53be 7748 ee3d
000002a0: a9fb 3a3e 3903 5e3e 1ce5 59bc 0f5e a9be
000002b0: 187d 923e 9a70 0bbe 8415 383d 146a 5bbe
000002c0: 029f c23d 8934 e73d c412 c4be b110 3bbe
000002d0: 5c16 503e 5d45 10bd bf23 dabd e386 c13d
000002e0: d019 1bbe feaf 18be a5bd 05bd fd35 2c3e
000002f0: 094d 883e 3ca4 bc3d 7078 babd bda1 02be
00000300: 6cd3 3e3e fdaa b4bd c125 34be 07b3 b0be
00000310: 888c c23c cce2 14bc 33de cebd 661b 423d
00000320: 9466 f7bd 171b f5bc b465 063e 8b9f 8cbe
00000330: 5a06 0fbd 7332 14be 3924 8ebd 7327 b23d
00000340: d773 94bd 75a5 e43d d335 afbd b640 acbc
00000350: 35b9 f9bd 9efd 38bc 30ed 0c3e ef47 f63d
00000360: e42d 0bbd 78c1 eb3d cd32 99bc 6b8d 1ebe
00000370: 0dc6 8ebd 4b9f 743e 2c8c 473e 1211 84bd
00000380: 2092 803e d9f6 4abd 2c8a 233b 872a 38be
00000390: 7bb5 15be 2852 3bbe 8d68 d3bc ec31 003d
000003a0: 17a7 00be da4a 913d 4da5 6b3e 69ea be3d
000003b0: 0159 973e ae96 7e3e cbc9 e9ba c4f1 c03d
000003c0: 6e7d 9dbc f667 89be 1e9c cabb 2132 733d
000003d0: 6405 1a3d e3b9 aa3e 1bc6 1c3d fa65 4c3e
000003e0: 42e0 b93e 25b5 e43e 3bdf 9fbe 70b9 5cbe
000003f0: bae8 ac3d 37ee 92be 4df7 a9be 43d2 38bc
0.1075846 0.19551761 -0.08896242 -0.15164413 0.08288705 -0.1220604 0.04354114 0.049391296
0.14797722 0.13996303 -0.10598214 0.036594212 0.19867714 -0.14765622 0.24531357 -0.32080677
0.040560845 -0.18487619 0.112917 0.0060940394 -0.015564696 0.12212602 0.20290226 0.18459088
-0.0063657714 0.030630868 0.09751807 -0.1512069 0.21737334 -0.18029249 0.048160326 0.043049853
-0.13386413 -0.14599632 0.005209026 0.017424857 -0.0680226 -0.019031208 0.19237766 -0.05264369
-0.16309115 0.12364607 0.17581637 -0.1528174 -0.033773623 -0.058303773 0.15578537 -0.39519605
-0.14879413 0.025581686 0.15720072 0.06977315 -0.038192987 0.09309816 0.27736145 -0.1847542
0.055072848 0.16775717 0.08812703 -0.09873346 0.24244806 -0.1029643 -0.05475474 0.057756968
0.17725486 -0.2864774 0.10385387 -0.18739638 0.020971458 -0.10169749 -0.09157795 0.09021606
-0.2870728 -0.061811235 0.045093764 -0.30735144 0.24438773 -0.010337305 0.36266708 -0.16002911
-0.00049133657 -0.023350405 0.42570803 -0.0023129259 -0.03616677 -0.16820683 -0.1128542 -0.08207566
0.03077374 -0.34084722 0.24156453 0.2247126 -0.23350264 0.049197327 0.13444118 -0.1143533
0.108759396 0.14503957 0.23692049 0.088156745 -0.047834713 0.3031615 -0.16835563 0.105747916
0.01212081 0.1265857 -0.13607691 0.16881864 0.27255934 0.32398352 -0.20490682 -0.13745283
0.08136554 -0.027149849 -0.2573552 -0.26582858 -0.22608641 0.07992609 -0.12158547 -0.3252812
-0.08282053 0.039415807 0.23322533 -0.027560152 0.027346164 0.09659208 -0.0033757365 -0.0068505267
-0.25028378 -0.2185149 0.21934755 0.12543465 -0.48130518 0.16277994 0.25224486 0.15186195
0.30857977 0.4066791 0.17853977 0.14574562 0.42134616 -0.030724905 -0.10888025 0.06455577
-0.19287074 0.17713284 -0.078112036 -0.32017234 -0.08099751 0.3415553 -0.29220703 -0.11723805
0.053229075 0.07945524 -0.031173974 0.08609694 0.05118195 -0.15621527 -0.14694978 0.17650688
0.07003278 0.0048242696 -0.039451934 -0.4081863 -0.19225454 0.2256378 -0.20693542 0.11634915
0.18260063 0.21680917 -0.013299253 -0.33079574 0.28611064 -0.13617173 0.044942394 -0.21427184
0.095029846 0.11289317 -0.38295567 -0.18268086 0.2032103 -0.0352224 -0.10651349 0.09449556
-0.15146565 -0.14910886 -0.032651562 0.1681747 0.26621273 0.09211013 -0.09105003 -0.12757011
0.18635339 -0.08821676 -0.17592527 -0.34511587 0.023748651 -0.009087276 -0.10100975 0.04738941
-0.12080112 -0.029920144 0.13124734 -0.27465472 -0.034918167 -0.1447237 -0.06940503 0.086989306
-0.07248657 0.11164371 -0.08555188 -0.02102695 -0.121935286 -0.011290936 0.13762355 0.12025439
-0.03397931 0.115115106 -0.018700982 -0.15483634 -0.06971369 0.2388889 0.19487065 -0.064485684
0.25111485 -0.04955182 0.0024954183 -0.17984973 -0.1462001 -0.18293059 -0.02580669 0.03129761
-0.1256374 0.07094355 0.23012276 0.09322054 0.29560092 0.24862167 -0.0017836628 0.09421113
-0.019224849 -0.26837128 -0.0061831614 0.05937398 0.037602797 0.33344945 0.038274866 0.19960776
0.36303908 0.44669452 -0.31225 -0.21555114 0.084428266 -0.28697369 -0.33196488 -0.011280599

ConstantFolding/net/strided_slice_4_enter:0 f4 [13, 20]
00000000: 62e3 b23d 9a35 fa3d a92f 253c 3467 d9bd
00000010: 9db8 6dbd 281d d93d 87c1 933e 9894 03bd
00000020: 40c7 913d 83d9 b13c cead 283e 454d 223c
00000030: 5288 073d 904e 30be ba41 09be a53a 4dbe
00000040: fe0d 19be 9100 d2bd b153 653e 4518 3dbb
00000050: 374e 863d 98db 6f3e 8e7c 7bbe 2eee fbbd
00000060: a5fb 733d 8393 85bc 29a8 a43d e439 9cbd
00000070: 0846 583d cc01 0b3e 737e 67be 6448 e33d
00000080: 6b3c 9f3d bdcb 913d 0ef2 75be f9a4 62be
00000090: 96b7 ecbd c799 4ebc 0a43 0b3e 3ca4 223e
000000a0: 55b1 85bd d12c 04bd f336 593c bf56 99bd
000000b0: 3844 92be ae6c 5d3d 761a a03d df3f 453e
000000c0: 96b3 643c 888b 833e 66d0 73be 752d ae3d
000000d0: a475 5a3e a8a5 863e 3cdf 653e 5f0e fe3d
000000e0: fa55 4dbe 4a4d 8a3d 26bf 9b3e 8607 943e
000000f0: 314b 5dbe d047 e2bd c26d 523e b146 9abe
00000100: c308 44bd 9c0b b33e d334 1abd 285b 003d
00000110: 9bb6 243e 6f7a d6bc ce49 9e3d cdc0 243e
00000120: 7de9 0b3c b780 ccbd 9d7e a13d ddf9 553c
00000130: 4430 c03d 9bf0 193e d246 023e 801c 47be
00000140: 92d9 42be 6acf b3be 924e 4bbe f0e5 04be
00000150: 5716 ac3d b347 0ebe 82a3 b5be 3f26 6bbd
00000160: 10ff 763d 233b d5bd 0b91 19be f2cb 94bd
00000170: c8dc a4bc c44a 7a3b 997d 7b3e eda9 4d3e
00000180: ee8c d3be 3076 95bd 830d b33d adc6 7d3d
00000190: 2da6 623c 9b32 2bbe e868 1c3d 4a18 703e
000001a0: e291 223e a53d a0be f28d 74be e5ed 8c3e
000001b0: 68c0 043e cf1e a83e d253 893d 54be 673d
000001c0: 8e72 f4bd 972d c43e 1df0 ddbd 00dd e8bd
000001d0: cc5f 33be 2fbe 83be 432e 823e ec00 333e
000001e0: 0e47 34be d455 9e3e 4204 55be 224d 3bbe
000001f0: 24cd c2bd 9d29 0a3e 45fb 1d3d aa39 403e
00000200: e740 c03d 6b0b ea3d 94a7 cebd f552 a03e
00000210: e78b cdbe 6c2d 483e ed0f 253e 5ce3 1f3e
00000220: 3123 303c dbb6 88be 6f79 bdbc 61e3 8d3e
00000230: 5a7e b83e 99c9 a5bd db86 333e 0fd6 623d
00000240: 15c9 a63d e6fc 2f3d 8224 dfbd 4da5 2a3e
00000250: def2 b53d a106 00bd a2a3 b2be 136d 193b
00000260: 5929 203d 1b0a 6cbd e9c4 1a3e 945b 85be
00000270: 0457 843e bd15 8c3c 0a6f 3e3e 2607 483e
00000280: 10c5 263e 18d6 1bbe 2516 a8be 4a65 b33e
00000290: 7470 963e 1df0 5fbe c912 1c3e b2e3 ed3d
000002a0: 9033 833e 5023 923e e0f6 89be 8f9c b23d
000002b0: 7b2f b5bd 9e35 723e 7317 c43d 3265 44bd
000002c0: 6f58 603e 5543 62be 12ac 7a3e af41 7e3d
000002d0: 5e2b e83d 5ce4 42be 36e8 8ebc a2a8 d43d
000002e0: 96f3 78be 0216 203d 3904 42be 5986 ab3e
000002f0: 6a92 0fbe e21f 9dbe 0ad6 183e ed3c d53d
00000300: 3290 283e 85ad 713e da37 b83d c591 de3d
00000310: dd07 71be 3fd1 853d 7245 ac3c 6555 27be
00000320: 50d9 3ebd 8e16 353e 1907 90bd 18a0 26bd
00000330: d862 c2be 93f4 863e d8fe 6dbe f5c8 debd
00000340: 0b2d 633e 4bb3 583e 4f53 9b3e fac6 943e
00000350: 1a81 c03d 21d4 6a3e 980f 9f3e 8afc b5bd
00000360: e18e e5bd cc52 603e 0eb5 013f 9ae6 72bc
00000370: cd31 4abe 3084 773e 51cc 98be 155e 213e
00000380: 23f2 813c ed81 b93e 025d a93d 5560 543e
00000390: 7400 6c3e cc7c 67be 3578 1b3e 66dc c4bd
000003a0: f65a df3c b163 9ebd ae3b 593e d440 8bbe
000003b0: 8c4b d33d 7b92 e2bd 12b3 063e 8bc0 cf3c
000003c0: cd56 b53e a5b5 853e bd7a 153e db36 c43e
000003d0: ce60 bdbd 6c85 5b3d ba99 693e 5279 033e
000003e0: df6c 88bd 240b 0cbc e221 903e 8f8e 913c
000003f0: c7e1 3cbe 4f5a f53e be23 ab3e 4c8f 71be
0.08734776 0.12217255 0.010082164 -0.106153876 -0.05803739 0.10601264 0.28858587 -0.032124132
0.07118082 0.021710163 0.16472551 0.009906118 0.03308899 -0.17217469 -0.13403979 -0.20041902
-0.14946744 -0.10254014 0.22395207 -0.0028853577 0.06557887 0.23423612 -0.24559233 -0.123012885
0.05956616 -0.01630569 0.080398865 -0.07628229 0.052801162 0.13574904 -0.2260683 0.11097792
0.07775196 0.07118938 -0.24018118 -0.22133245 -0.11558454 -0.012609906 0.13599792 0.15882963
-0.06527964 -0.032269303 0.01325773 -0.07487249 -0.28567672 0.054058723 0.07817547 0.19262646
0.013958832 0.2569239 -0.23809966 0.08504764 0.21333939 0.2629826 0.22448438 0.12405085
-0.20052329 0.06753023 0.30419272 0.2891199 -0.21610714 -0.110488534 0.20549682 -0.30132058
-0.04785992 0.34969795 -0.037648033 0.031336933 0.16085283 -0.026181428 0.07728921 0.16089173
0.008539555 -0.09985488 0.07885478 0.01306006 0.09384206 0.1503319 0.12722328 -0.19444466
-0.19028309 -0.35119182 -0.19854191 -0.12978339 0.084026985 -0.13894539 -0.3547631 -0.05740952
0.06030184 -0.1041167 -0.14996736 -0.07265462 -0.020124808 0.0038191536 0.2455963 0.20084353
-0.41318458 -0.07297933 0.087428115 0.06195705 0.013833565 -0.16718523 0.038185984 0.23446766
0.15875962 -0.3129703 -0.23882273 0.2752525 0.12964022 0.32836005 0.067054406 0.056577995
-0.11935912 0.38316032 -0.108368136 -0.113702774 -0.17517012 -0.25731036 0.2542592 0.1748082
-0.1760523 0.30924857 -0.20802405 -0.18291143 -0.09511784 0.13492437 0.038569707 0.18771997
0.09387379 0.11427959 -0.10090557 0.3131329 -0.401458 0.19548577 0.16119356 0.15614074
0.010750578 -0.26702008 -0.023129193 0.2771254 0.360339 -0.08095092 0.17531912 0.055379923
0.08143822 0.042965792 -0.10895635 0.1666462 0.08884214 -0.03125632 -0.34890467 0.002341096
0.039101932 -0.057626825 0.15114178 -0.2604643 0.25847638 0.01710021 0.18597046 0.19533977
0.16286111 -0.15218389 -0.32829395 0.35038215 0.2938267 -0.2186894 0.15241541 0.11615695
0.25625277 0.28542566 -0.26946163 0.087212674 -0.08846947 0.23653266 0.09574785 -0.04794807
0.21908735 -0.22095998 0.24479702 0.06207436 0.11336397 -0.19032425 -0.017444711 0.10383727
-0.2431167 0.03908349 -0.18946923 0.33500937 -0.14020696 -0.30688387 0.149254 0.10412011
0.16461256 0.23601349 0.08995028 0.10867647 -0.23538156 0.06534051 0.021029208 -0.16341169
-0.046593964 0.17684385 -0.07032604 -0.04068002 -0.37966037 0.2635847 -0.23241746 -0.10878173
0.22185151 0.21162145 0.30336997 0.29058057 0.09399624 0.22932483 0.31066585 -0.08886059
-0.112088926 0.21906585 0.5066689 -0.0148254875 -0.1974556 0.2417152 -0.2984338 0.15758546
0.01586253 0.36231938 0.08269693 0.20739873 0.23047048 -0.226062 0.15182574 -0.0961235
0.027265053 -0.077338584 0.21214172 -0.27197897 0.10317144 -0.11063095 0.13154247 0.025360366
0.35417786 0.26115146 0.14597602 0.383231 -0.0924698 0.053594038 0.22812548 0.12839249
-0.066613905 -0.008547578 0.2815085 0.017768173 -0.18445502 0.47920462 0.33425707 -0.2358982

ConstantFolding/net/strided_slice_3_enter:0 f4 [20, 20]
00000000: 7f68 69be f59c 3fbe 9dba 25be 8740 c73d
00000010: 2b8e 7cbe e0ee b1bd a6b0 093e 2603 23be
00000020: ecb6 75be e64a 8a3d 2f4b af3e 7496 88bc
00000030: b611 49bc 439f 813e 82e7 5dbd cb97 24be
00000040: bc49 4b3d d3af b8bd b47a 43be 1a6e dc3c
00000050: a688 7fbe 854e a83d 46f0 4c3c f192 d63c
00000060: 5da9 4e3d 138b 513e c124 c23c 7ead afbe
00000070: 114f cb3c 4ed3 a0bd 603d bebd e95f dcbd
00000080: c378 ba3d df9e 3cbd 1519 0dbb 8fd9 75bd
00000090: e376 aabd c672 093e e3d2 c73d 5833 b23d
000000a0: 530e 56be dac9 6fbe 54a9 a0bc 9976 3b3c
000000b0: 5268 7dbd da47 c1bd b91b 7cbe cc07 413d
000000c0: 8925 f63d 984e dfbc ecd7 81bd 5eb5 99bd
000000d0: b2c6 673d 0a26 18be 0870 aabe 97b6 c73c
000000e0: 6f8c 283e 3a50 83bd 5fae aebc e2bf bf3d
000000f0: 1f7e f33d 804a 1e3d 740d 6ebc 7bb8 0d3e
00000100: 81ad 89be 6ad5 2abe da48 a03c 8f21 f1bc
00000110: 380b 69be a7a4 0bbe 2234 94bd 19ba 84bd
00000120: 68c0 86be 5904 ffbd 7c9b b1be e15b b83e
00000130: 5eb4 dd3c 6a13 453d 2ffc 10bd 2a1c eabd
00000140: e829 313d 739d 00bd fb42 a0be 6f9c b3bd
00000150: 7c3a f8bd fa0b 93be 1787 d9bd b1d1 e3bb
00000160: b67e 4cbe 3e0a 74bd 47f5 2abe e945 db3d
00000170: 5e9a f4bd 03fe b13e 22aa c33c df74 b93d
00000180: bca9 863e 8de1 273d 4e2a 71bd 41c2 dabc
00000190: 1c6b b63e 9f47 7b3d 9b5b 0fbe e4a8 013d
000001a0: 65d6 723e 6540 643e 7fa6 9abe 8514 18bb
000001b0: b7c7 013e a27f 263e a89d fabd 0401 fe3d
000001c0: 075d 32be fc0a a53e e5a6 4b3e e390 2ebe
000001d0: b9c1 1a3e 575a 05be efdd 0e3e 36d8 d63d
000001e0: c945 55be b7ed d5bd aaff 8cbe d79c 3abe
000001f0: 8ffb b43d 3a86 873d f4a2 9abe b6e2 4cbe
00000200: 78ee b7bd 57d4 39be 0e71 f83d 738e 83be
00000210: 7afc 603e 158f 163e a946 263b 231a a0bd
00000220: bc44 b73d cd63 e4bd fa4e eebd fac6 7d3e
00000230: 27ac 873e 950d 0e3d 352d 80be 49ab 063e
00000240: 287d 78bc 0d36 ac3d 85ed 21bd b8be 343e
00000250: e522 0b3d c81a 633d a5cd 19be 484d de3c
00000260: 8097 bbbd e8c5 01bd 4e97 7a3c de78 0cbe
00000270: cff9 833d 46a0 c33b 92b9 9dbd 22e3 603d
00000280: 433d 5a3e d137 923d b284 a03d 5e85 d9bd
00000290: 7c1e 373d ff3b 7a3e 38f5 cd3d 441a 5f3d
000002a0: 9d69 adbd 2a50 65bc 08b0 8cbe 72bc 4c3e
000002b0: 72aa df3d 3d4b 1abc c487 d43d 0928 d93b
000002c0: 150a 573c bf04 3bbd abd3 3f3d 9102 1fbc
000002d0: 072b 983d 9b35 ccbd 1dea 823e 59c4 033e
000002e0: e11c 903e 2d25 c4bd 3b32 973c 3591 a23c
000002f0: a1e0 733d a592 a23e 70e5 bdbd 886d 4ebe
00000300: 0a5f 873d ca6e 523e 00c0 313d 129a 05bc
00000310: fa4d 9dbd a352 553e 78b8 3abe ad06 a13e
00000320: 33df bdbd de71 3a3d 32b4 9b3d 5550 0cbe
00000330: 87e6 4ebe a8eb a7bd d7c2 263e 54f5 a03c
00000340: 0b43 953d 0212 243d 0454 a2bc 7a13 a0bd
00000350: 69e3 85bd b738 503d 9880 3ebe 4424 a7bd
00000360: 995c 14be e07b 03bd 3eae 8ebd fa8b 60bd
00000370: 195f 373c c2e6 32be b389 0f3e 699d 343e
00000380: 1c8f 893d 8a48 a83d 1040 31be fa51 043d
00000390: 4beb 1fbd c17f 02be a777 913c 712d d3be
000003a0: b5cb 6cbe 291a 43be a341 dabc dbce a3bd
000003b0: 221a 3c3d c859 82bb 5888 50bd d262 62bd
000003c0: 735a 83bd dee8 793e 268b a23e 8e58 4b3e
000003d0: 9db5 b53c 226b e13e 36d3 24be 7d55 b63e
000003e0: cfd1 463e a998 363e 2078 733e f543 dd3d
000003f0: 40d4 f33c 223d 763e cbca 22bd 949f 3d3e
-0.22793768 -0.18712218 -0.16184469 0.097291045 -0.24663608 -0.0868814 0.13446292 -0.1591917
-0.2399556 0.06752567 0.34237048 -0.016673304 -0.012272289 0.2531682 -0.05417586 -0.1607353
0.049630865 -0.09017911 -0.19089776 0.02690797 -0.24954471 0.082181014 0.0125084575 0.026193114
0.050454486 0.20463209 0.023699166 -0.34312052 0.024817975 -0.07852803 -0.0928905 -0.10760481
0.09105065 -0.04604995 -0.0021529843 -0.060021933 -0.08323457 0.13422689 0.0975702 0.08701199
-0.20903902 -0.23416844 -0.019611992 0.01144185 -0.061867066 -0.09437533 -0.2461995 0.047126576
0.12018878 -0.027259156 -0.06340012 -0.07505296 0.056585975 -0.14858261 -0.33288598 0.024379058
0.16459821 -0.064117864 -0.021323381 0.093627706 0.1188929 0.038645267 -0.014529575 0.13839905
-0.26890185 -0.16682974 0.019565988 -0.029434947 -0.22758186 -0.13637029 -0.07236506 -0.06480808
-0.2631867 -0.12452001 -0.34688938 0.36007598 0.027063545 0.048114218 -0.03539675 -0.11431153
0.043252856 -0.031400155 -0.31301102 -0.08770072 -0.1212053 -0.28720075 -0.106214695 -0.0069524874
-0.19970211 -0.05958008 -0.16695128 0.10706694 -0.11943506 0.34764108 0.023884837 0.090554945
0.26301372 0.040986586 -0.058878236 -0.026703956 0.35628593 0.0613476 -0.13999788 0.031655207
0.23714598 0.2229019 -0.3020515 -0.002320559 0.12673841 0.16259626 -0.12237102 0.124025375
-0.174183 0.32234943 0.19887884 -0.17047457 0.15112962 -0.13022743 0.13951848 0.10490458
-0.20827402 -0.10445731 -0.27538806 -0.18223892 0.088370435 0.066173986 -0.30202448 -0.20008358
-0.08981031 -0.18147407 0.121309385 -0.25694618 0.21971312 0.14703019 0.0025371707 -0.07817485
0.08948657 -0.11151848 -0.11636157 0.24782935 0.2649853 0.03468092 -0.2503449 0.13151278
-0.015166558 0.08408747 -0.039533157 0.17650878 0.033968825 0.055445462 -0.15019853 0.02713646
-0.09159756 -0.03168288 0.015294863 -0.13717982 0.064441316 0.005970034 -0.0770141 0.05490411
0.21312432 0.071395524 0.078378096 -0.10621141 0.044706807 0.24436949 0.100565374 0.05446841
-0.0846741 -0.013996163 -0.2747805 0.19993761 0.10921182 -0.009417352 0.10377458 0.006627087
0.013124962 -0.045658823 0.04683272 -0.009705202 0.07430082 -0.09971162 0.2556924 0.1286787
0.28147033 -0.09577403 0.018456569 0.01984463 0.059540395 0.31752506 -0.09272277 -0.2015897
0.06609924 0.20550075 0.043395996 -0.008154409 -0.076808885 0.20832305 -0.18234432 0.31450406
-0.092710875 0.04551875 0.07602729 -0.13702519 -0.20205127 -0.08199245 0.16285263 0.019648232
0.07288178 0.040056236 -0.019815452 -0.07816215 -0.06537516 0.050835337 -0.18603742 -0.08161214
-0.14488448 -0.03210056 -0.06966828 -0.054820992 0.011192107 -0.1747084 0.14017372 0.17638172
0.06716749 0.08216961 -0.17309594 0.03230474 -0.039042752 -0.12744047 0.01775725 -0.41245607
-0.23124583 -0.19052948 -0.026642626 -0.07998439 0.04592336 -0.003977988 -0.050911278 -0.055270024
-0.06413736 0.24405238 0.31746787 0.19858 0.022181327 0.44027048 -0.16096196 0.35612097
0.19415973 0.17831673 0.23776293 0.108039774 0.029764295 0.24046758 -0.03974418 0.18517905

ConstantFolding/net/strided_slice_2_enter:0 f4 [13, 20]
00000000: 700a 1dbe b0b2 60be 8ec6 7a3c a346 90bc
00000010: b4ec 1e3e d82d 883d 8262 ecbd 6d8b ef3d
00000020: 3f9b 31bd 0966 d0bd 6e6b 6abe 8a34 003e
00000030: 118a 3cbc 21c5 50bd 6ed9 003e fafe d53e
00000040: 995d 4dbe 103d 6fbc f10c 93bd bb34 f63d
00000050: fae7 7b3e f1de 77bd 8717 1fbe 611a 8f3e
00000060: 9c2a 3a3d 92af d0bc bc68 0c3e 3c9c 8a3e
00000070: 510c b1bd b1fe 54be 3af7 833e 073e 013d
00000080: 875b b1bc d538 4dbd 7969 433e c0e0 503d
00000090: c5e9 31be 74b8 253d af52 21be bba0 16bc
000000a0: 4d6f 78be 476d 293c f2f1 f93d db38 953d
000000b0: 4301 5b3e 66c5 1e3e efe4 17bd f2c2 343e
000000c0: 25c7 ba3c 956a 243e 4bbc 103e 2a3c 0c3e
000000d0: a800 45be 7ab5 64be 4a49 9cbe 0ee2 c4bd
000000e0: 4f4b 3ebe fccb 60be fa74 7fbe 866f 9c3d
000000f0: 0a09 183e 4e02 3fbe af8b 97bd 965c 633e
00000100: e153 4a3e e1fc 893d 2c3f f1bd 5171 74bd
00000110: d84f be3d d612 0bbe 30cc 063e a9bd 533e
00000120: 2feb f53d 552f ab3d 65d7 043e f2cf 98bd
00000130: 77a2 fc3d 4ffa 7ebd 9429 37bd 7ece 9b3c
00000140: a6b9 1ebd ee17 3b3e b627 563e 91bf 8cbc
00000150: 5629 8ebe 579d cd3d 3434 8ebc e9b5 03be
00000160: 8093 12be b8c4 de3c 7377 a73d e861 68be
00000170: fc00 a33d 0d48 b3bc d14d 433e bb20 91bd
00000180: d860 05be 09a2 283d 9059 ccbc 94b0 2f3e
00000190: ff36 83be f4b5 6ebd b16e 353d 31b0 88be
000001a0: 7cce 913d 1be1 4ebe c40e 52bd 483c dd3c
000001b0: d50c f3bd f42e a9bd 584f 55be 8817 1d3e
000001c0: 2a1e 27be f349 9ebe 01e5 72be 43f9 2b3e
000001d0: 351b 25bd aa59 493e 26e3 66be 9d4c 933d
000001e0: ffe9 21bd 70b0 f8bb 26f3 923e df5d c33d
000001f0: ff5c 933c 2f85 8a3d 13c9 3dbe 0239 853c
00000200: 65e2 583d 655e a1be 7165 1bbe 809b f137
00000210: 2dcf 60be 595a d0bb 587f 993d 5595 16be
00000220: fcc4 463c 0887 b539 3a50 45be 9d1b 26be
00000230: cd5d b63d 9545 88bd 3936 0dbd 7386 b03e
00000240: aefe 593e 4d8e 653e 032b 373e 49ac c83d
00000250: 4abc 9abe b061 f23d addf 223e d225 f33d
00000260: 4e72 953b bdad 353d da96 7bbe 4495 0f3e
00000270: eb8b 09bc 11b4 9abd 6423 babe ec68 5e3e
00000280: 9f0d f03b be92 fcbd cb61 d43e 34c8 00be
00000290: d5ed b4be af5f bbbd 57c1 f3bd 5df8 543e
000002a0: 9f42 a6be b6af 07be e727 c2bb dae7 1fbe
000002b0: b049 623d 35dc f5bd 326e a43e 3cb7 a93e
000002c0: b91d d93e 4c3e 303e e26a 41bc 70a4 503e
000002d0: cfd6 0fbd 091e 5abd d651 363e 0dbc 8c3e
000002e0: fd0b 4fbe b3c9 d63d 9c83 5d3e bbf4 1a3e
000002f0: fd75 7dbd fcf2 9cbe 1716 cfbd 456e 7ebe
00000300: 5997 a63c 7462 cebd cba9 46be 0845 243e
00000310: a4f7 26be 7bda 78be e9c0 bbbe b308 d5bd
00000320: bf95 073e 6b2b f83d 348b 7c3d f502 413e
00000330: d2bc 8a3d 8e5a c8be 7cf1 4abe be2a 99be
00000340: 2465 8ebe f8fe 61be ab67 69bd 5c65 20be
00000350: 825e 8fbe 0f59 e1be ab93 833e 3b5b 6b3e
00000360: adc5 143c 9d7e 99be 1451 0dbe 1c24 f3bc
00000370: bf5c 6d3e e07e f1bd b5f1 033f f0a0 0ebe
00000380: b76a 1dbe 2508 453e 0a3d 8f3c c2fb 7abe
00000390: 1c36 e63d 4e16 643d c02d 023e 861e b8bd
000003a0: 119a ffbd 672f 9ebe c6ac 2f3e eee5 c33e
000003b0: 769d 893d d2e0 d9bd 0a37 323e b7e5 8a3e
000003c0: ac57 c7be dfa9 d7bc 8bf3 dcbe c7e2 46bc
000003d0: 3389 8ebd b19e 83bd 2bbe 81bd 6d86 183e
000003e0: a13d b4be 6221 84ba 56ad 0e3e 02fd 33be
000003f0: 0a92 22be 30e4 72be 91d5 dabd 1683 30be
-0.15336013 -0.21943164 0.015306128 -0.017611807 0.15519983 0.06649369 -0.115422264 0.11696515
-0.043360945 -0.10175712 -0.22892544 0.12520042 -0.011507527 -0.050969247 0.12582943 0.41796094
-0.20055236 -0.014601961 -0.07180203 0.12021776 0.24600211 -0.060515348 -0.15536319 0.27949813
0.04545079 -0.025474343 0.13711828 0.27072322 -0.08644927 -0.20800282 0.25774556 0.031553295
-0.021650089 -0.050103027 0.19083203 0.05099559 -0.17374332 0.04045911 -0.15754198 -0.009193595
-0.24261208 0.010340995 0.122043505 0.07286235 0.213872 0.15504989 -0.037083562 0.1765249
0.022800038 0.16056283 0.14134328 0.13694826 -0.19238532 -0.22334853 -0.30524665 -0.09613429
-0.18583415 -0.21952814 -0.24946967 0.07638459 0.14847198 -0.18653223 -0.073996894 0.22203287
0.1975856 0.06737686 -0.11779627 -0.05967838 0.09292573 -0.13581404 0.13163829 0.20677818
0.12007748 0.08358637 0.12972791 -0.074615374 0.12335675 -0.06225043 -0.044717386 0.019019362
-0.038751267 0.18270847 0.20913586 -0.01718119 -0.27765912 0.10039776 -0.017358877 -0.12862362
-0.1431408 0.027193412 0.0817708 -0.22693598 0.07959172 -0.021884942 0.19072653 -0.07086321
-0.13025224 0.041170154 -0.02494505 0.17157203 -0.25627896 -0.058278993 0.044295017 -0.26696923
0.07119462 -0.20203058 -0.051283613 0.027006283 -0.11867682 -0.08260909 -0.20831048 0.15341008
-0.163201 -0.30915794 -0.2372017 0.16794305 -0.04030915 0.1966311 -0.22547588 0.07192347
-0.039529797 -0.0075893924 0.28701133 0.09539389 0.01798868 0.06763684 -0.18533735 0.016262535
0.05295028 -0.3151733 -0.15175416 2.880185e-05 -0.21954031 -0.0063584265 0.07494992 -0.14705403
0.012131926 0.00034623616 -0.19268885 -0.16221471 0.0890461 -0.06653897 -0.03447554 0.34477577
0.21288559 0.22417565 0.17887501 0.09798486 -0.30221778 0.11835039 0.15905638 0.11872448
0.0045607453 0.044355143 -0.24569264 0.14021784 -0.008395175 -0.07553876 -0.36355126 0.21719712
0.0073258425 -0.12332676 0.4148086 -0.12576371 -0.353377 -0.091491096 -0.11902111 0.20797868
-0.32472703 -0.13250622 -0.005925167 -0.15615788 0.055246055 -0.12004892 0.32115322 0.3314761
0.4240549 0.17211264 -0.011805268 0.20375228 -0.035116967 -0.0532513 0.17804655 0.2748722
-0.20219417 0.1048769 0.21632236 0.1513242 -0.0618801 -0.30654132 -0.10111635 -0.24846752
0.02033584 -0.10077372 -0.19400708 0.16041958 -0.16305405 -0.24302094 -0.36670616 -0.1040205
0.13240717 0.12117656 0.061656192 0.18848784 0.06774296 -0.39131588 -0.19818681 -0.29915422
-0.2781154 -0.22069919 -0.05698363 -0.15663666 -0.2800179 -0.4401326 0.256986 0.2298402
0.009080333 -0.2997941 -0.1380046 -0.029680304 0.23179911 -0.117917776 0.5154069 -0.1392858
-0.1537274 0.19241388 0.01748516 -0.245101 0.11240789 0.055685334 0.12712765 -0.08990197
-0.12480558 -0.3089554 0.17155752 0.3826136 0.067194864 -0.10638584 0.17403808 0.27128384
-0.38934076 -0.026326118 -0.4315456 -0.012139029 -0.069597624 -0.06426752 -0.063351 0.1489503
-0.3520327 -0.001008075 0.1393331 -0.17576984 -0.15876022 -0.23719859 -0.10685266 -0.17237505

ConstantFolding/net/strided_slice_1_enter:0 f4 [20, 20]
00000000: a38d 063e 3c65 bb3c 7175 68be e746 8e3e
00000010: 0753 db3d 5c35 7bbe 2079 2fbd bbd5 143d
00000020: 83a6 80be f6ff 21be dfab 0b3e 298c 3f3e
00000030: 90a7 163e 5a1f 4b3d 12d3 7dbc a843 253e
00000040: 5311 b63d 14bb 4b3c 6f02 013e ba84 233d
00000050: 0f0f b03d f35d d03d e4d4 4c3c a16d 413e
00000060: fd1b 67be d172 7abd 841c 913e cd7a 563e
00000070: 03e2 06be 1719 cfbc 41b0 64bd f0ee 8cb8
00000080: 1ab8 8dbd 210b a6be d6eb 143e 725a 903e
00000090: 80aa 35bd b01e c8bb 5f6c 7f3e 9a93 823b
000000a0: 24cd 92be ca9e 173e 4f47 963e 1d82 023e
000000b0: 1858 9fbe 9ace 183e 1115 4dbd b668 5abe
000000c0: dd3c 753e 372c a7bd b906 00be 8f00 f93c
000000d0: eca2 5a3e 498a e73d fd16 cebc 6ff9 d6bc
000000e0: e2e3 f139 537e 3bbd c787 18be 9509 773d
000000f0: 01e3 c5bd abc1 80bd f284 fdbd 44c8 c8bc
00000100: 32c0 e93d 2d21 7dbd 297e 88bd d52c f53e
00000110: fe27 a23d 04b0 893e 2675 5d3b 933f 84bd
00000120: da9a a23c 1303 1fbe 0459 cfbd d320 b3bc
00000130: 5602 033d f7f9 a73d 0408 8f3d 4acc d2bd
00000140: e051 18be b15f a33b 322c 7ebd edef b33d
00000150: e05e 043d c42b 173e cb07 3a3e 82b8 0abd
00000160: 0c9e 22be db8b 0fbe 7862 0e3e b821 30be
00000170: 8078 8c3e 8ec4 bab9 1e2c 023d b2f2 64bd
00000180: 813b 16be 9b9b fa3d 66a5 07be e497 5ebd
00000190: ac4d fc3d 90cb 1c3e 8da3 6d3e 78c8 2cbe
000001a0: c85a 41bd e232 6cbd eb94 e43d 291c 363d
000001b0: 3602 92be e497 a1bd 2aa6 8e3d cb35 d13c
000001c0: 4afd 773d 454a 67bd 49ba 31be 0668 c13c
000001d0: 34b2 67be 50fc 933e 388f 95bd a220 783d
000001e0: 5ec2 f3bd 9b41 3a3d c846 83bd 7d82 c33d
000001f0: ec69 c1bd ad7c 2cbe 8831 d2bd 939c 6f3e
00000200: 8656 713d 8c95 0d3e fe6c 1e3d 84ad 59bd
00000210: 8ffe 353d 75b6 0d3d ec20 d63d 5f9c a2bc
00000220: 20b2 c0bd 662d d33d 8f7a 08be 6b3e 79bc
00000230: f33b 03be 7479 63be bbf2 bb3d 38f2 243d
00000240: 1e9c 413e 67bc 2d3b 0553 a53e de36 593e
00000250: e5a0 04bb 781c babd 6d8f 61bd 03d9 373e
00000260: 8d4c edbb 191b e33d f0c1 cbbd be79 103e
00000270: da5b df3d a88e ecbe 1ea8 9c3d 711e 88be
00000280: a0ba 513e 953d 2abd fbd4 f0bd 9a9c 643e
00000290: 3560 d1bc e91f 7cbe 05a7 72bd 8360 e83d
000002a0: 990d 93bd 447f 353e da65 643c 612d 983d
000002b0: 22ba 653e 4944 193e 3978 2c3e d707 3bbe
000002c0: c8bd 643e 4e5e 003c 9bbd 7c3e 5e8d 88be
000002d0: 4529 efbd 39b2 4cbd d3dc 05be 26db a0bd
000002e0: f6a9 6c3e 143f 0fbd ab37 253e e8e0 143d
000002f0: c3b0 3bbe a4ce b63d da66 8cbe 97e4 5c3e
00000300: 19b4 2a3d 7563 a43d 1e55 163e 877c edbd
00000310: 6839 353e 91cd 4bbe b2a6 ce3d d33a 28be
00000320: eef6 8bbd b9c2 b83d b1a7 56bd 3f2e 8a3d
00000330: 940f 84be 64be d03e 2783 283e c8ac 863d
00000340: 3dab a5bd e22a 2e3e 24f5 82be 73da d3bd
00000350: 69b7 adbe 1f0e 85bd 44a4 ae3d 0a0f acbc
00000360: 1304 f2bc 5a16 d23d d951 bcbe 2cdd 673e
00000370: a00a 0dbe 87cc 413e 360e 0fbe 52d8 1bbc
00000380: ced3 c33e 1768 843e 652a 48be 5eed 0c3d
00000390: 2b5a 10be 0ad3 cdbc 5017 42be 69f4 e2bd
000003a0: 2dbe 913c ceff e73d bfdb 26bd 8b7d b13e
000003b0: a902 6dbd 7186 ed3c 5e35 3bbc c18c 633d
000003c0: 5fa3 c73d 89f7 df3b f5a4 c6bd 5020 38bc
000003d0: 6b60 83bc fad2 90be 3497 f7bd 794f eabd
000003e0: 635f 5cbe c986 febd 1997 573d d0d7 86bd
000003f0: bf0f 513d e174 ab3e b480 98be 07c4 253e
0.13139968 0.02287542 -0.2270105 0.2778847 0.107091956 -0.24532074 -0.042840123 0.03633664
-0.25127038 -0.15820298 0.13639782 0.1870581 0.14712358 0.049590446 -0.015492218 0.1613909
0.08890023 0.01243474 0.12598585 0.0399215 0.08596622 0.101741694 0.012501929 0.18889476
-0.2256927 -0.061144654 0.28342068 0.20945282 -0.13172154 -0.025280518 -0.05583215 -6.720226e-05
-0.0691988 -0.32430366 0.1454309 0.28194004 -0.044352055 -0.006107174 0.24943684 0.0039848806
-0.28672135 0.14806667 0.2935128 0.12744947 -0.31121898 0.14922562 -0.05006892 -0.21329007
0.23948999 -0.0816273 -0.12502564 0.030395774 0.21351212 0.11305673 -0.025157446 -0.026241986
0.00046136888 -0.04577477 -0.14895545 0.060311873 -0.09662438 -0.06286939 -0.12378873 -0.024509557
0.114136115 -0.061799217 -0.06664688 0.47885767 0.07917784 0.26892102 0.003379175 -0.06457438
0.01984923 -0.15528516 -0.101244 -0.021866238 0.03198465 0.08201974 0.06983951 -0.10292871
-0.14874983 0.0049857725 -0.062053867 0.087859966 0.032317042 0.14762789 0.18167035 -0.033867367
-0.15880603 -0.14018194 0.1390475 -0.17200363 0.27435684 -0.0003562313 0.031780355 -0.055895515
-0.14671136 0.12236711 -0.13246688 -0.054344073 0.12319502 0.15312028 0.23206921 -0.16873348
-0.047205716 -0.057665713 0.11161216 0.04446045 -0.28517312 -0.07890299 0.06965287 0.025538346
0.06054429 -0.056467313 -0.17356218 0.023609173 -0.22626573 0.28903437 -0.073027074 0.060577996
-0.11902307 0.045472723 -0.06409985 0.09546373 -0.09444031 -0.16844435 -0.102633536 0.23399572
0.058920406 0.13826579 0.03867816 -0.053143993 0.04443222 0.034597833 0.10455498 -0.019849954
-0.09408975 0.103113934 -0.13328002 -0.0152126355 -0.12815838 -0.222143 0.091771565 0.04027006
0.1890721 0.0026510002 0.322899 0.21212336 -0.0020237502 -0.09087461 -0.055068422 0.17953877
-0.0072417916 0.11089153 -0.099491 0.14108941 0.10906191 -0.46202588 0.07649253 -0.26585725
0.20481348 -0.041562635 -0.11759373 0.22325364 -0.02555857 -0.24621548 -0.059241313 0.11346533
-0.07180328 0.17724329 0.013940299 0.0743053 0.22434285 0.14967455 0.16842736 -0.1826471
0.22338021 0.007834984 0.24681704 -0.26670355 -0.116777934 -0.049974654 -0.13072519 -0.07854299
0.2311171 -0.034972265 0.16134517 0.0363473 -0.18329148 0.08926132 -0.2742222 0.21571575
0.04167566 0.080267824 0.14680907 -0.11596017 0.1769768 -0.19902636 0.10090388 -0.1642869
-0.068342075 0.090215154 -0.052406017 0.06747102 -0.25793135 0.40770257 0.1645628 0.06575924
-0.08089302 0.17008546 -0.25577652 -0.103444 -0.33928993 -0.06496834 0.08527425 -0.021003265
-0.029542958 0.102581695 -0.36781195 0.22642964 -0.13773584 0.18925677 -0.13970265 -0.009512024
0.38247532 0.25860664 -0.19547422 0.03440606 -0.14096896 -0.025125045 -0.18954206 -0.11081774
0.017790878 0.11328088 -0.04073691 0.34666094 -0.057863865 0.02899477 -0.011426298 0.055554155
0.097479574 0.0068349284 -0.09699432 -0.011238173 -0.016037187 -0.28285962 -0.120893866 -0.114409395
-0.21520762 -0.12428052 0.052634332 -0.06584132 0.051040407 0.3348761 -0.29785693 0.1618806
